best models/saved_models/architecture_7/best_model.pt (torch, 523362 bytes, 25 tensors)

network.0.weight f4 [251, 15]
00000000: c03f 48bf 0f3c d03f 41fa 1fc0 d535 a5c0
00000010: f7f9 743d d1bd 6540 b1c5 3ac0 314d efc0
00000020: b37d dc3f e802 f8bf 0226 8dc0 bfeb 5440
00000030: e040 3a40 0228 f53f 8448 e53f 33c6 f63d
00000040: bca4 5040 cb55 e53f 2ebb 4fbf 1ca2 8d3f
00000050: ff2f 9d3f 547b 1c3f 9418 683f 5f8e a8be
00000060: 622b 06c0 9a88 d3bf 30b0 8fc0 e3ab c7bd
00000070: 8bb9 2a41 387c e740 c227 6440 43c0 ae3f
00000080: 146f 2fbf 36ed 9c40 eede 05c1 709f 3ac0
00000090: 4af5 1d3f 485b 393f 4e08 d0bf d9fd e53e
000000a0: 542f 0fbf 168b 75c0 7546 bb40 39d1 753f
000000b0: 292c e1bf 42e3 0abf b03f 04bb 4c8e 4d40
000000c0: 1bc4 6e40 7fd2 8040 b97e b43e 567f 68c1
000000d0: 9ff5 43bd 5ce3 153f e810 98be fb7e c8bf
000000e0: a674 b6bf 0734 00c0 5f73 1dbe 6620 a540
000000f0: a86f 99be a8bb fcbe 42a6 2dbd 332a c1be
00000100: 0e5c e73f a9a7 0cc0 f108 c3c0 dbab af3e
00000110: 3798 a8c0 05fb 8140 52a9 51c0 5d7a c63e
00000120: 363c 8f40 a05b c940 4091 43bf 3812 8dc0
00000130: 9950 363e c821 a3bf 2c8e 99bf 6acd 0cc0
00000140: 85c6 83be 4c9c 9ebf d2d7 48bf 2592 933b
00000150: 216a 3ebf ee02 a93d 2fc2 aec0 5343 47c1
00000160: e8b6 ffbe 61ae 5ac0 c099 c83f 0646 1240
00000170: 2a43 7bc0 3a89 d13f 752f d7bf 0e31 9bbf
00000180: c6df 5c40 b7de cebf 113e 963f 269a d33f
00000190: cdf3 1ac0 de8a 92c0 7bd2 6640 ea3c 8240
000001a0: 1019 10c1 0744 833e 113d 3dc0 4fc2 d03f
000001b0: bcdf ffbe a612 363e 4f26 80c0 25f5 b33f
000001c0: 6bda 3b40 df1a b7be 11d8 f140 1106 28c0
000001d0: 01a4 07c0 9378 1f3f fe7d 05c1 b6eb 4240
000001e0: f4bf 37bf f64f b43f 02fd ed3c 5504 bbbe
000001f0: a58f 5f3f 0c00 4740 e191 cd40 5b71 3abe
00000200: 1d9b d4c0 179c e3bf d99b de3f c48e cf3f
00000210: 7283 1940 389b c7c0 57ee 3640 5404 b9bd
00000220: a901 8bc0 1d2e 08bf f143 2bc0 92dc 4ac0
00000230: f8a2 9cc0 1028 a93f 784d 3040 5257 d43e
00000240: 0ab0 a440 3886 7540 f6a3 1d40 4048 50c0
00000250: f9ff b840 b4fd a7bf cb06 9940 eabe 0c3f
00000260: 9de8 7440 b7a8 853f a17d adbf e0c6 fabe
00000270: b0e9 c0be b6c8 9fc0 a92d 0241 fa0d 15be
00000280: 7657 c840 010f f8bd df4b a73c 3192 703e
00000290: 3064 843f e74e 20c0 bb95 01c0 a2ce b040
000002a0: a76b 1d3f 2ce1 0b3f 3024 903f baf3 b9be
000002b0: 8001 91c0 374d b9bf 905e c7bf 78c7 9b40
000002c0: a382 9740 f1bf 2040 4579 f63f 2795 cec0
000002d0: 9f7f 4dbe 38cb 1040 e123 14c0 3d84 2240
000002e0: b1f7 ce3d 3e6b 11c1 9e83 d740 7308 863f
000002f0: 963b ddbd 1b45 5dc0 4838 af3f 3e2d 21bf
00000300: b401 613f e063 5e40 7118 4ec0 594a dd3e
00000310: ecb1 8ac0 4a55 1bbf 96b8 9c3f 5c05 8d40
00000320: 0ece 4240 20c7 e33f fd03 6e40 adb6 71bf
00000330: 5d51 0c41 48b0 a83f 6976 853e 608e 58bf
00000340: 6e81 b6bf 2bac a740 8510 e63e a482 c1bf
00000350: af0f 323f f67c 92c1 e06a 593f 49f1 583d
00000360: 9b68 b43f 78cf 9abe d4f0 86bd d507 843e
00000370: 275e 4abe 2f17 d040 e807 62bf 2622 bebe
00000380: a4b1 4ebe ddeb 11c0 8516 1bc0 6b05 b13f
00000390: 6162 f73f 5a86 6640 5901 4840 d76f e2bf
000003a0: 4cda 43c0 77f1 c0c0 21f5 efc0 c1b6 9040
000003b0: 302d b1be 03c6 84bf 300f 02c0 4a3c 973e
000003c0: eab5 ccbf 484d 24c0 1f8e 9dc0 89b6 7ec0
000003d0: 7e22 38c0 c68f 22c0 f626 b0c0 914b 3440
000003e0: 6e35 f33f 0eaf 4340 b431 1640 0cc4 2ac0
000003f0: ea69 0e3f 21a2 24c0 6d0b 9ac0 7aaf 4740
-0.78222275 1.6268328 -2.4996493 -5.1628213 0.059808698 3.5897105 -2.9183161 -7.478173
1.722586 -1.9375887 -4.4108896 3.3268888 2.9102097 1.9152834 1.7912755 0.12049522
3.2600546 1.7916807 -0.8114499 1.1065097 1.2280272 0.61125684 0.90662503 -0.3292112
-2.0963979 -1.6526062 -4.4902573 -0.09749582 10.670299 7.2339134 3.5649266 1.3652424
-0.68528867 4.9039564 -8.366926 -2.9159813 0.61702406 0.7240491 -1.6252534 0.44920233
-0.5593159 -3.8366141 5.8523507 0.96022373 -1.7591602 -0.5425302 -0.0020179562 3.21181
3.7307193 4.0256953 0.35252932 -14.531088 -0.047841664 0.5855005 -0.29700398 -1.5663751
-1.4254348 -2.0031755 -0.15376042 5.160205 -0.29968 -0.4936192 -0.042394884 -0.37727508
1.8074968 -2.1977332 -6.0948415 0.34310803 -5.268581 4.061892 -3.2759595 0.3876523
4.4761 6.2924347 -0.7639351 -4.408474 0.17804183 -1.2744684 -1.1996512 -2.2000375
-0.25737396 -1.2391448 -0.78454316 0.004503506 -0.7438069 0.08252512 -5.461204 -12.453937
-0.49944234 -3.4168932 1.5671921 2.285524 -3.9259744 1.6370003 -1.6811358 -1.2124345
3.451158 -1.6161717 1.1737691 1.6531417 -2.4211304 -4.5794516 3.6065967 4.069936
-9.006119 0.25637838 -2.9568522 1.6309298 -0.49975383 0.17780551 -4.0046763 1.4059187
2.9352062 -0.3576269 7.5576253 -2.6253703 -2.119385 0.62293357 -8.34326 3.0456367
-0.7177727 1.4086902 0.029051308 -0.36526743 0.8732856 3.1093779 6.4240575 -0.18207304
-6.6439347 -1.778201 1.7391311 1.6215444 2.3986478 -6.2376976 2.858297 -0.09034029
-4.3439527 -0.53195363 -2.6760218 -3.1697125 -4.8948936 1.3215351 2.7547283 0.4147287
5.146489 3.836317 2.4631324 -3.2544098 5.7812467 -1.3124299 4.782079 0.5497881
3.8266976 1.0442113 -1.3553964 -0.48979855 -0.3767829 -4.993251 8.1361475 -0.14556113
6.2606764 -0.12112237 0.02042192 0.23493268 1.0343075 -2.5048158 -2.0247638 5.5252237
0.6149239 0.5464046 1.1261044 -0.3631876 -4.531433 -1.4476689 -1.5575733 4.868099
4.734697 2.5117152 1.9255759 -6.455707 -0.20068215 2.2624035 -2.3146899 2.5393212
0.10105837 -9.088682 6.7348166 1.0471328 -0.10802381 -3.4573429 1.3689051 -0.6295966
0.87893224 3.474846 -3.2202418 0.43220785 -4.334219 -0.60677016 1.2243831 4.406904
3.0438266 1.7795143 3.7189934 -0.94419366 8.769864 1.3178797 0.26066902 -0.84592247
-1.4258249 5.2397666 0.44934478 -1.5117993 0.6955518 -18.311016 0.84928703 0.052964482
1.4094423 -0.3023641 -0.06588903 0.25787225 -0.19762479 6.50283 -0.88293314 -0.37135428
-0.20184952 -2.280021 -2.4232495 1.3829778 1.9326898 3.6019502 3.1250823 -1.7690381
-3.0601988 -6.0294757 -7.498673 4.522309 -0.34604788 -1.0372928 -2.032177 0.29538184
-1.5993016 -2.5672169 -4.923599 -3.979891 -2.8771052 -2.5400252 -5.504756 2.8171122
1.900068 3.0575595 2.3467836 -2.6682158 0.5563036 -2.5723956 -4.8138947 3.1200852

network.0.bias f4 [251]
00000000: 453f 143e ea57 913f f866 ba3f abc1 b53f
00000010: 7a23 1740 919d a63f 959f a03f fb7e 8a3f
00000020: 43cd 3140 9697 883f 0176 ae3f d148 ab3f
00000030: 3ac8 9e3f 170d c93f caef 4e3d 5da6 813f
00000040: 2a7c 9f3f f4df 843f e691 1d40 3738 b03f
00000050: dd38 9b3f ce26 9a3f d421 733f 00c1 af3f
00000060: e9ce 963f 659f 2b40 d000 a43e ce7b a53e
00000070: 748f 9e3f ce6b 273e 23d5 1240 81ca a03f
00000080: 9bb6 c83f 8791 8d3f 1d42 073f 5dfd 8d3f
00000090: ed7e b43f b53b 933f 35e9 ac40 9ed4 bf3f
000000a0: b7a8 ab3f 8308 e03f 4636 9e3f bb1b 1b40
000000b0: c467 963f 2312 2740 f5cb 2c40 b7b9 703f
000000c0: 40ac 9e40 0d6d febd 1af8 ba3f e5a6 8d3d
000000d0: fa56 2b40 b02f 283f 7245 953f 9dbb 9d3f
000000e0: 61ea 1f40 5d83 653f 9c54 1940 4c32 5c3f
000000f0: 4ad6 b53f 4136 e03f 47c2 ab3f f5ca 7d3f
00000100: c7db be3f 3e13 ff3e cfb7 a13f 1985 9d3f
00000110: bf97 2040 4da0 7e3f 0d03 b13f dd6f 213f
00000120: ea0b b33f 6803 9d3f 5dcf 2a3e 438e 2040
00000130: 9956 833f e159 013f 6f94 9f40 fee4 ce3f
00000140: 618e 2640 8927 8c3f 360c 833f 41a2 ca3f
00000150: eaa8 be3f ab5a 923f e497 c43f dff1 af3f
00000160: 0940 69bf 8c56 e63f 5930 a63f 91db 883f
00000170: 13b1 ab3f 6148 593f 4884 793f 76eb e53e
00000180: 7109 653f 3ce1 833f 3aff 933f 4e14 913f
00000190: f572 9c3f ffec b83f e577 aa3f 78b0 623f
000001a0: 61d2 2d3f 47e3 b33f 393a bf3f 4a28 ae3f
000001b0: 622e bd3f 21ac 1640 8803 ce3f b807 94bf
000001c0: 12ba 9e3f d634 2c40 8ffd 0240 2488 0f40
000001d0: 1bb0 853f 6065 8c3f 691b 8b3f b2ac 1240
000001e0: 3ac0 723f d841 773e bfbd 993f 86f3 323f
000001f0: da75 a93f baa2 a93f ba7b bf3f 111b 0840
00000200: c7b9 4a40 2588 9c3f 8536 f93f d42e 1540
00000210: 9f95 1c40 d4f9 48be 765b 9f3f 4673 2140
00000220: f5a7 883f a812 a53f 9d49 893f 1307 953f
00000230: 4a27 8b3f e18b bb3f 7492 8f3f dc49 763f
00000240: 7b9a 903f 04af dd3f ee2c f63f e5f3 9e3f
00000250: 6ba9 aa3f b53b 1540 8072 b53f 503b b93f
00000260: eaa6 8d3f 036b 1240 2df1 2540 e933 843f
00000270: ed06 993f aca2 3240 c74e 2fbe e954 733f
00000280: 618d 53be 6336 a03f 6e8b 1b40 0149 a140
00000290: 74e6 af3f a662 f63e 40c6 8d3f a555 ec3f
000002a0: a9f3 b33f 67a0 a43e 528f 9b3f ed0e 903f
000002b0: 6c28 a83f af70 1e40 a4b4 c63f 2ee6 2a40
000002c0: bc6f a33f 1a0c 3abe ded5 ae3f 0d1a 9f3f
000002d0: 7e28 b73e 59cb b73e 1188 883f 48a7 b43f
000002e0: f19b 1440 7510 853f 663c 8b3f 61d9 d43f
000002f0: dd64 0b40 66d2 ab3f cac8 9a3f a3ed 883f
00000300: 15c1 bd3f 4b4a 3840 f287 a13f 8b44 833f
00000310: 1aad a93f e6d2 a63f fc87 be3f 6a86 963f
00000320: 0530 2e41 e138 963f d637 a83f af89 da3f
00000330: 10e4 a23f c032 01bd 9461 a23f 526d 9c3f
00000340: 4c88 8c3f 6879 543f d8cc 843f 40cf ad3f
00000350: edef 1a40 c43b a33f 7652 1940 9eae 9a3f
00000360: c38c 873d 7eb0 a73f 6aac b73f d055 893f
00000370: 986e a03f af4e 9e3f accc 2740 1ebb a53f
00000380: 12fb bdbe 19f7 3640 d80b 933f 8ff7 2f40
00000390: 3df4 0b40 83a5 1940 59be 953f 8cfa 1640
000003a0: c3a9 f53f 59c0 9d3f 8dac b73f 20d0 ea3d
000003b0: 8db6 2140 73a7 d93f 113d b13f 9839 a23f
000003c0: 54ec ba3f 7d7d 9e3f 0a72 db3f 0aa1 a53f
000003d0: 0e5d 9b3f d83c 383e 083d 813f 600e 1e40
000003e0: 3498 1540 a875 903f 8ca5 b13f
0.1447726 1.1354954 1.4562674 1.4199728 2.3615403 1.3016835 1.25487 1.0820001
2.7781532 1.067126 1.3629762 1.3381597 1.2404854 1.570712 0.05052165 1.0128895
1.2459767 1.0380845 2.46203 1.3767155 1.2126728 1.2043092 0.9497349 1.3730774
1.1781894 2.6816037 0.3203187 0.32321018 1.2387528 0.16349718 2.2942588 1.2561799
1.5680727 1.1060036 0.52835256 1.1092945 1.4101235 1.1502596 5.4034677 1.4986761
1.3410863 1.7502598 1.2360313 2.4235675 1.1750417 2.610482 2.6999485 0.9403338
4.9585266 -0.124231435 1.4606965 0.06916598 2.6771836 0.65697765 1.1661818 1.232288
2.4986804 0.8965357 2.3957891 0.86014247 1.4206021 1.7516557 1.3418664 0.9913781
1.4910821 0.49819368 1.2634219 1.2306243 2.5092618 0.9946335 1.3829056 0.63061315
1.3988011 1.2266665 0.16680665 2.508683 1.0260803 0.5052777 4.9868693 1.6163633
2.60244 1.0949565 1.0238101 1.5830766 1.4895298 1.143392 1.5358853 1.3745688
-0.91113335 1.7995162 1.2983505 1.0692006 1.3413414 0.84876066 0.9746747 0.44906205
0.8946753 1.0303111 1.1562264 1.1334321 1.2222582 1.4447325 1.3317839 0.8855052
0.6789914 1.4053735 1.4939643 1.3606045 1.477978 2.354256 1.6094828 -1.1564856
1.2400534 2.6907248 2.046726 2.2426844 1.0444368 1.0968437 1.086774 2.2917905
0.94824564 0.24146211 1.2011031 0.6990284 1.323909 1.3252785 1.4959633 2.126652
3.167589 1.2229048 1.9469763 2.3309832 2.4466321 -0.19626552 1.2449787 2.5226607
1.0676256 1.2896318 1.072559 1.1642784 1.0871365 1.4652063 1.1216569 0.9620645
1.1297144 1.7319036 1.9232461 1.2418181 1.3332952 2.3317692 1.4175568 1.4471226
1.1066563 2.2877815 2.5928452 1.0328342 1.1955239 2.7911787 -0.17119895 0.9505144
-0.206594 1.2516598 2.430385 5.0401616 1.3742204 0.48122138 1.1076126 1.8463637
1.4058734 0.32153627 1.2153113 1.1254555 1.3137336 2.4756277 1.5523877 2.670299
1.2768474 -0.18168679 1.3659017 1.2429825 0.3577308 0.3589733 1.0666524 1.411355
2.322018 1.0395647 1.0877807 1.6628839 2.1780312 1.3423584 1.2092526 1.0697521
1.4824549 2.8795345 1.2619612 1.0255293 1.3255951 1.3033111 1.4885249 1.175977
10.8867235 1.1736108 1.314204 1.7073268 1.2725849 -0.03154254 1.2686028 1.2220862
1.0979095 0.8299775 1.0375013 1.3578873 2.420894 1.2752614 2.395658 1.2084539
0.06618645 1.3100736 1.4349492 1.0729313 1.253375 1.2367762 2.6218672 1.2947729
-0.37105614 2.8588316 1.148799 2.7494848 2.1867821 2.400727 1.1698714 2.3590422
1.9192432 1.2324325 1.4349533 0.11465478 2.526767 1.7004226 1.3846761 1.2673826
1.4603372 1.2382046 1.7144177 1.293977 1.2137773 0.1799196 1.009675 2.4696274
2.3374147 1.1285906 1.3878646

network.1.weight f4 [251]
00000000: c295 5040 e23b 8b40 7c6c 9440 11c3 8540
00000010: b165 7940 234c 8640 ca92 9340 bb43 8640
00000020: 6006 8640 b45b 9340 4542 8e40 f56b 9d40
00000030: 6146 8140 3289 8540 0da1 8b40 7769 7c40
00000040: 97e5 9640 36a3 9440 15c1 8440 9377 a440
00000050: 25cf 8940 d1ba a740 83aa 9c40 f240 7540
00000060: 620d 8f40 1168 9940 e37e 9540 b65d 9040
00000070: 5ab6 9740 8a6c 4840 1abf a440 131e 8a40
00000080: 15f0 9f40 4bb8 8840 b962 8440 8681 7440
00000090: deb1 9240 0562 a040 139a 8640 316b 8c40
000000a0: f03f 9040 4247 6340 3fc2 8240 ee42 8840
000000b0: 1179 8940 a49e 7d40 bd34 9140 8d17 9340
000000c0: ccc7 9840 370b 9140 0e07 9d40 3f22 8740
000000d0: 5969 8740 6b6d 9040 1da8 9440 2ad4 9c40
000000e0: 9799 8d40 c97d a940 c870 8c40 0dae 8e40
000000f0: e4c3 7c40 2f27 7d40 d3c9 9740 005a a740
00000100: e8dd 9540 0b27 a440 44ea 7a40 3436 8940
00000110: 3c7f 8d40 1fec 9c40 f8b4 8940 cfdb 9840
00000120: 77cb 9f40 d414 8640 0a25 a040 fdf0 7e40
00000130: 5144 8e40 82ab 8f40 a496 8740 6fce 8340
00000140: 7ebf 7e40 3cf9 9840 bd04 a140 5e61 8a40
00000150: 7d77 9440 4c9e 9c40 bf4f 9a40 026c 8540
00000160: f83d 5f40 68ea 9340 6578 8e40 15b5 7640
00000170: 5f65 8d40 43ec 9f40 d46c 8040 2eb6 8a40
00000180: 89f8 a540 d18f 8f40 1704 8040 8e0d 8740
00000190: b1c4 8540 c7c2 8540 42c8 8240 38ee 8840
000001a0: a769 a240 0c54 8e40 1e43 9b40 b255 9c40
000001b0: a7bd 7940 8ab8 9240 d7f2 8e40 28da 4140
000001c0: a960 9340 3a18 8240 6c6a a540 6f7e 9240
000001d0: db44 7a40 758e 8440 b622 9140 a59f 8340
000001e0: 6abe 9340 d0ca 8e40 cfc3 9540 e681 9240
000001f0: 44ad 8640 9ff5 9140 c1a0 7e40 d44e 8e40
00000200: ec29 9040 f3ae 9f40 b061 8640 2c39 9c40
00000210: 5a00 7a40 fbfc 8640 966e 8040 0cc5 8740
00000220: 73ef 7340 1589 9840 5485 a540 f3f3 8b40
00000230: d4eb 9140 1ba6 8b40 bc39 8e40 508a 8a40
00000240: 328e 8c40 4177 8e40 0421 7040 27af 8f40
00000250: b0e7 9040 57e6 6740 7368 8b40 ea1c 8f40
00000260: 2b4d 8140 d6e8 8540 a0ab 8440 0f74 8740
00000270: b438 9840 b738 7f40 b8bc 7b40 2dd9 a140
00000280: b5fd 8540 8ffd 9b40 56c9 9340 8cf0 8a40
00000290: ae83 8640 7bc0 8b40 ee4d 8340 5049 7c40
000002a0: cba3 8440 368f 8540 8ae9 8b40 82eb 8a40
000002b0: 1896 9640 bf3c 9040 39d6 8440 7fc9 ab40
000002c0: 25c9 7940 5a7b 7140 3508 7640 080e 9840
000002d0: ed5a 8340 38fa 9b40 92ac 9140 7b4c 8c40
000002e0: 7b51 8a40 7341 7440 1eac 9440 ad46 8840
000002f0: 20b0 9a40 9e51 8840 2b0e 9840 eb67 8b40
00000300: 5b52 8d40 8f88 7a40 5b41 7840 22d2 9a40
00000310: 4402 9440 dc07 8640 a62e 8640 47b6 6740
00000320: 4996 9840 afad a240 a335 9040 9d8c 7b40
00000330: 8fa8 8d40 c9f9 9840 193a 8840 29c4 9540
00000340: bac1 9340 e046 8040 206e a040 15b8 a240
00000350: 49ad 9140 5d17 9040 d6d8 8940 5151 9e40
00000360: 48f6 3e40 75f0 9040 c71f 9240 2a30 8940
00000370: fc7f 8340 cc21 9140 5988 8740 7737 6040
00000380: 2a71 7d40 0c7b 7b40 06d8 8540 d573 7f40
00000390: d2ec 9040 ffee a040 8cd9 9e40 b768 9d40
000003a0: 9aa3 8e40 74df 8e40 cbed 8b40 eeda 9240
000003b0: e3d1 8940 9368 6d40 72ed 9240 dfe0 8840
000003c0: af38 9640 58bd 9640 0827 9840 650c 9040
000003d0: ffc6 9240 fa85 9640 787d a340 d3e7 8a40
000003e0: e4cf 8940 75c5 8940 821c 8840
3.2591405 4.35106 4.6382427 4.180062 3.8968318 4.196794 4.6116686 4.195768
4.188278 4.604944 4.4455895 4.9194283 4.039841 4.1729975 4.3634095 3.943937
4.715526 4.644923 4.1485696 5.1395965 4.306536 5.2415547 4.8958144 3.832089
4.4703836 4.7939534 4.671739 4.5114393 4.7410097 3.1316247 5.148328 4.316171
4.998057 4.2724967 4.137051 3.8204055 4.5842123 5.0119653 4.206308 4.388085
4.507805 3.5512242 4.0862117 4.25817 4.2960286 3.9628077 4.537688 4.596625
4.7743893 4.532619 4.907111 4.2229304 4.23161 4.5133567 4.6455216 4.900899
4.4249988 5.2966046 4.3887672 4.4587464 3.9494562 3.9555166 4.7433867 5.2297363
4.683338 5.129766 3.9205484 4.2878666 4.4217815 4.9038234 4.303341 4.776832
4.993587 4.1900425 5.0045214 3.9834588 4.4458394 4.489686 4.2371387 4.1189494
3.9804378 4.780424 5.0318284 4.3243856 4.639586 4.8943233 4.8222346 4.1694345
3.4881573 4.622364 4.4521966 3.8548024 4.4186244 4.9975905 4.0132847 4.3347387
5.186589 4.4863057 4.0004992 4.2204046 4.18026 4.1800265 4.0869455 4.2790794
5.075397 4.4477596 4.851943 4.885461 3.9022005 4.5850267 4.4671435 3.0289402
4.6055493 4.0654573 5.169241 4.577934 3.9104526 4.14239 4.535487 4.113238
4.616994 4.4622574 4.6801524 4.5783567 4.2086506 4.561233 3.9785616 4.4471226
4.5051174 4.990106 4.1994247 4.881979 3.9062715 4.2183814 4.0134993 4.2428036
3.8114898 4.7667336 5.1725254 4.373529 4.5600376 4.3640265 4.4445477 4.329384
4.392358 4.4520574 3.752015 4.490131 4.528282 3.6234338 4.3565 4.4722795
4.04067 4.1846724 4.1459503 4.2329173 4.756922 3.9878366 3.9333935 5.0577607
4.18722 4.874702 4.618327 4.3418636 4.203574 4.367246 4.103263 3.9419746
4.1449943 4.173732 4.372258 4.3412485 4.705822 4.5074153 4.15115 5.3683467
3.902902 3.7731538 3.844251 4.751713 4.1048493 4.8742943 4.5523157 4.384336
4.3224463 3.8164947 4.6460104 4.2586274 4.8339996 4.259963 4.7517295 4.3564353
4.416303 3.9145849 3.878989 4.838151 4.6252766 4.1884594 4.1931944 3.6205003
4.7683454 5.0837016 4.5065475 3.9304574 4.426826 4.7804914 4.257092 4.6801953
4.6173983 4.0086517 5.013443 5.084971 4.552403 4.502852 4.307719 4.9474263
2.9837818 4.5293527 4.566379 4.2871294 4.109373 4.5353756 4.235394 3.5033853
3.960032 3.9293852 4.18262 3.9914448 4.5289087 5.0291743 4.964056 4.9190326
4.457471 4.464777 4.3727775 4.589225 4.306871 3.7095077 4.591485 4.27745
4.6944194 4.7106133 4.7547646 4.501513 4.5867915 4.7038546 5.109066 4.340799
4.3066273 4.3053536 4.25348

network.1.bias f4 [251]
00000000: 9b73 e9bf 15ad a4bf c666 b6bf 6278 52bf
00000010: 3d7a 2640 e7c4 b8bf b3f5 ddbf 5fcf 90bf
00000020: 50ee 5f3f 7f51 9abf a436 26c0 1670 1fc0
00000030: 5743 a1bf 1c4e 41bf 4ad9 1ac0 818c aebf
00000040: e0ad 35c0 4a0d 15c0 4002 4bbf 62c8 e5bf
00000050: e504 fcbf 4313 59c0 7901 41c0 639e b8bf
00000060: 7ac2 12c0 6133 ccbf 6dfc 07c0 f13c 15c0
00000070: 1e6e 1bc0 58f7 18bf 590c 12c0 5e79 d4bf
00000080: fb3a 35c0 865d 1cc0 0330 08c0 e0f5 9dbf
00000090: 7e32 96bf 06ee 02c0 2dc6 483f e2a3 76bf
000000a0: 315d 173f 9076 35bf 235d 7cbf edb4 9abe
000000b0: 6ea4 66bf b27c 0240 f9b0 80bf 3cdb 1ac0
000000c0: 01fa 3f40 d808 55c0 e418 36c0 085f d8bf
000000d0: 9d8b bd3f 0b55 5fc0 1547 09c0 3211 17c0
000000e0: d9ef ca3f 9489 54c0 d399 26c0 4ccb 06c0
000000f0: 4b0e 99bf 0264 b3bf d9a0 3fc0 bf6e 3fc0
00000100: 0546 ffbf e39e 3bc0 cbf2 83bf 41a9 e1bf
00000110: f7c5 b6bf af3c 48c0 9208 d3bf 4128 6dc0
00000120: 611a 4dc0 4965 a5bf 0e19 4ac0 5cd2 f83f
00000130: 7c9b e5bf 5689 2ac0 da20 0f40 830d 1640
00000140: f6a8 bfbe f6db 13c0 86cd 36c0 d941 a4bf
00000150: 2400 37c0 54cc 23c0 79a6 dbbf 0358 a2bf
00000160: c7fd 9cbf 3271 c0bf 7ed0 d1bf 0590 5abf
00000170: 5fad d9bf d2bb 52c0 9e22 b9bf 82a7 12c0
00000180: 1563 5cc0 83c2 02c0 68c9 8dbf e4b1 3b3f
00000190: cb74 66bf d15c edbf 787a 4abf da71 07c0
000001a0: 57af 33c0 979e 30bf 8ea0 0cc0 f74f 22c0
000001b0: b90b b4be 2f27 adbf bdad debe d870 9bbf
000001c0: 7654 eabf b60c 1e40 48eb f1bf 3f85 fbbf
000001d0: bb9d 9fbf 5057 79bf d4d6 52c0 beb4 933f
000001e0: b0a6 fdbf cd54 16c0 350e 36c0 a76e 21c0
000001f0: 66fe d7bf 2594 17c0 4c95 d0be 1a4c a6bf
00000200: 20b0 3040 5268 ecbf 7728 5dbf 0ae0 cdbf
00000210: 8ffe 2cbf 99d1 23c0 ba4b bdbe ac8a b63f
00000220: b1f2 ccbe 2ae6 febf 5850 40c0 dde6 fabf
00000230: a704 02c0 e944 17c0 9d58 13c0 36e4 acbf
00000240: 753d f5bf 8b95 38bf 61db 87bf cd01 20c0
00000250: fdd4 47bf dcc6 16bf 8e95 aebf bd74 cabf
00000260: b8c0 85bf c464 1ac0 ad88 cabf 4bdd 02c0
00000270: 6bf5 c5bf 5168 0abf 6a72 cdbf eca5 1ac0
00000280: ffae 00c0 76a5 30c0 3613 5d40 97ee 2d40
00000290: 6567 f6bf 95f8 e3bf f8c7 313f 8400 aebf
000002a0: cbd2 82bf d9cf dbbf 7fb7 3bbf e46c f2bf
000002b0: c7b6 febf b9fe 4d40 a14c fabf 88d6 4e40
000002c0: 27a7 d4bf c2a4 bfbf e065 d3be 6326 30c0
000002d0: 6f8b 19c0 022e 09c0 fd90 2dc0 2c2d 96bf
000002e0: b22b b8bf c6a8 8cbf 5a0a 20c0 8c3d c0bf
000002f0: 3ded f1bf 1271 52bf f9c4 54c0 b98c 03c0
00000300: 394c c0bf 2af7 3240 53e9 2bbf ea41 f2bf
00000310: 7a9f 20c0 6b2e b2bf b7be 15bf 8c1b 44bf
00000320: 081e d03f 90b5 4ac0 3389 cbbf dd0e 1cbf
00000330: bd9c 2dc0 185b 16c0 395d 27c0 868f ebbf
00000340: 59b2 50c0 7806 11c0 fefe 32c0 048b 33c0
00000350: fbd5 d2bf 0606 fcbf d974 943f e718 f9bf
00000360: b808 89bf c4d0 bbbf 1d62 4bc0 9f9d 29bf
00000370: 4786 46bf ce9e 9ebf 5c08 b9bf 7b29 85bf
00000380: 0c51 22c0 2e62 d83f 691b 0abf 45be c03f
00000390: 266c 4640 53ba 57c0 6828 9dbf 7ba0 0fc0
000003a0: 6333 acbf 2626 00c0 535c 0ac0 ea9d 18c0
000003b0: 5355 91bf 827d 94bf 123d e6bf c9ed 88bf
000003c0: 8235 f1bf d2d8 30c0 d574 43c0 dc3c 5abf
000003d0: 8dd2 edbf 48d0 33c0 e1d3 51c0 deec 30bf
000003e0: 285a 5c3e 8c5a 20c0 85a3 abbf
-1.8238405 -1.286532 -1.4250114 -0.8221494 2.6012108 -1.443509 -1.7340606 -1.1313285
0.8747301 -1.2056121 -2.597085 -2.4912162 -1.2598675 -0.7550981 -2.4195123 -1.3636628
-2.8387375 -2.328936 -0.7930031 -1.7951777 -1.9688994 -3.3918006 -3.015715 -1.4423336
-2.29312 -1.595318 -2.1247818 -2.3318446 -2.428596 -0.59752417 -2.2820036 -1.6599538
-2.831725 -2.4432082 -2.1279304 -1.234066 -1.1734159 -2.0457778 0.7842739 -0.96343815
0.59126574 -0.70884037 -0.98579615 -0.3021616 -0.9009465 2.0388608 -1.0054008 -2.419631
2.999634 -3.3286648 -2.8452692 -1.6904001 1.4808232 -3.4895656 -2.1449635 -2.3604245
1.5854446 -3.320897 -2.6031387 -2.1061583 -1.1957487 -1.4014895 -2.9941924 -2.9911344
-1.9943243 -2.9315727 -1.030847 -1.7629777 -1.4279164 -3.1287038 -1.648699 -3.705582
-3.204735 -1.2921535 -3.1577792 1.9439197 -1.7938075 -2.6646323 2.23638 2.3445747
-0.37433594 -2.3103004 -2.8562942 -1.2832595 -2.8593836 -2.5593462 -1.7160178 -1.2683109
-1.2264947 -1.5034544 -1.6391752 -0.85376006 -1.7006034 -3.2927136 -1.4463689 -2.2914739
-3.4435475 -2.043122 -1.1077089 0.73318315 -0.9002196 -1.854395 -0.7909312 -2.116324
-2.807577 -0.6899199 -2.1972995 -2.5361307 -0.35165194 -1.3527583 -0.43491927 -1.2143812
-1.8307025 2.4695258 -1.8899927 -1.9650038 -1.247001 -0.97398853 -3.294362 1.1539533
-1.9816494 -2.3489258 -2.8446171 -2.5223787 -1.6874511 -2.368417 -0.40738904 -1.2991974
2.7607498 -1.8469336 -0.8638987 -1.6083996 -0.67575926 -2.5596678 -0.36971837 1.4261069
-0.4002891 -1.991399 -3.0049038 -1.9601704 -2.031534 -2.363581 -2.3022835 -1.3507144
-1.915938 -0.72103184 -1.0613824 -2.50011 -0.7805937 -0.58897185 -1.363939 -1.5816876
-1.0449438 -2.4124002 -1.582296 -2.0447567 -1.5465521 -0.54065424 -1.6050541 -2.416377
-2.010681 -2.760099 3.4542975 2.7176874 -1.9250304 -1.7810236 0.69445753 -1.3593907
-1.0220579 -1.7172805 -0.7332687 -1.8939481 -1.9899529 3.218672 -1.9554635 3.231844
-1.6613511 -1.4972155 -0.41288662 -2.752343 -2.3991354 -2.143433 -2.7119744 -1.1732535
-1.4388335 -1.0989006 -2.5006318 -1.5018783 -1.8900524 -0.8220378 -3.3245223 -2.055464
-1.5023261 2.7963357 -0.671529 -1.8926365 -2.5097337 -1.3920416 -0.5849413 -0.76604533
1.6259165 -3.1673317 -1.5901245 -0.6096018 -2.7126915 -2.34931 -2.6150649 -1.8403175
-3.2608855 -2.2660198 -2.7968135 -2.8053598 -1.6471552 -1.9689338 1.1598159 -1.9460725
-1.0705786 -1.4673085 -3.1778634 -0.66256136 -0.7754864 -1.2392213 -1.4455676 -1.0403284
-2.5361967 1.6904962 -0.53948075 1.5058066 3.1003509 -3.3707473 -1.2277956 -2.24417
-1.3453182 -2.0023284 -2.161885 -2.3846383 -1.1354164 -1.1600802 -1.7987387 -1.0697566
-1.8844454 -2.7632337 -3.0540059 -0.85249114 -1.857988 -2.8095875 -3.278557 -0.6911143
0.21518767 -2.5055265 -1.3409277

network.1.running_mean f4 [251]
00000000: c000 183e e0d5 903f a28a be3f 4520 b33f
00000010: 4f6f 1540 c18d aa3f 5725 a53f 9b2b 8c3f
00000020: fe21 3140 bbd7 853f 0bd5 af3f 55b6 a73f
00000030: 02d9 a23f 7ded c33f 3881 ce3c c02d 803f
00000040: 33d6 a23f ec54 873f 285e 1e40 5726 af3f
00000050: 42aa 993f f18b 983f 55dd 753f 5ea1 ab3f
00000060: 7ea3 9d3f 2b03 2a40 1f54 963e 0508 a53e
00000070: 737a 993f e508 213e 77ac 1240 f31a 9e3f
00000080: 9048 c83f 1454 873f f98c 083f 7af2 8f3f
00000090: 78b1 b73f fe8a 973f b00d ae40 f504 c23f
000000a0: 8bcb ad3f 92c6 da3f ce68 9b3f 5d2b 1a40
000000b0: 7ed3 943f ce64 2740 836e 2c40 f0f8 743f
000000c0: 2b70 9f40 cad1 1fbe 7571 bc3f d9e5 bc3d
000000d0: 8f4e 2b40 ed05 2d3f 70db 963f f54e 993f
000000e0: 6498 1e40 e97e 6c3f 06fe 1840 8774 673f
000000f0: 1188 ae3f 1756 e03f 8463 a53f ad0b 7d3f
00000100: 0937 bd3f 615b 043f d626 a13f 54ab a13f
00000110: 9194 2240 cc30 783f 2cda b03f d131 1e3f
00000120: d699 b33f 11ae 9e3f 03c6 183e 4d4b 1f40
00000130: cd71 7e3f 1357 fa3e 2e56 9f40 7b18 d33f
00000140: c70a 2340 f7d9 8d3f 082e 863f e565 c83f
00000150: 534a be3f 444c 923f d9ff c33f b885 ae3f
00000160: 293b 6dbf 93f8 e43f 0871 a73f acbd 8c3f
00000170: 8c0f ad3f fc0f 633f 78c2 7f3f 4f67 c83e
00000180: 5b9b 673f ed8b 873f a09c 983f 9677 913f
00000190: 55ea 9d3f ae63 ba3f b91f a83f fa47 613f
000001a0: 45d9 223f 6992 b43f a13c bd3f 9de0 af3f
000001b0: b072 bf3f 6b02 1740 3f50 ce3f 5dec 92bf
000001c0: cf49 a43f 6647 2c40 d01d 0340 b0de 0f40
000001d0: ff13 8a3f 8fdb 8d3f 2609 8e3f 79e9 1240
000001e0: 69f4 703f 12c5 733e 73df 953f 1cce 3a3f
000001f0: 7295 a93f 26c3 ab3f 8652 c23f c9ae 0640
00000200: 4a2d 4a40 8293 9e3f 9864 f83f 6b7e 1540
00000210: e334 1b40 8f6f 9fbe 213c a13f 8d7c 2140
00000220: 979b 873f c9ea a03f f7fa 8a3f 7cad 923f
00000230: 31fa 873f ca31 be3f a5aa 8b3f 1096 6a3f
00000240: 9338 953f cddd e03f 7562 f23f 45e5 9c3f
00000250: cfd2 ac3f 4f45 1540 392c b73f ee2d b73f
00000260: b094 8b3f a6b5 1040 d076 2640 dea6 873f
00000270: 8a56 9a3f 33ef 3240 2f93 56be 007d 723f
00000280: 056b 22be d669 a03f 750c 1d40 455d a140
00000290: a34e b43f e949 133f a770 8f3f ef7b ee3f
000002a0: 73b7 b33f 51dc 8e3e 1080 983f e580 8f3f
000002b0: 6ed7 a33f 1f2b 1c40 8f5b c53f ee53 2b40
000002c0: a5ee a13f 7482 09be 8149 b13f e5c8 a03f
000002d0: a113 a13e 2e43 b73e e078 8c3f 1c47 b43f
000002e0: 239d 1240 4e69 803f a246 863f 3e24 d33f
000002f0: 7cee 0940 c48c a93f fa73 9c3f df6e 883f
00000300: 6eff bd3f 5b23 3940 2af9 9f3f 2048 833f
00000310: a206 a83f 59f2 a93f 03ed bf3f fcbf 963f
00000320: 55f6 2d41 d7fb 8f3f cb00 a83f 8086 db3f
00000330: 47e9 a13f 3903 cb3c a9d8 a33f e3fb 983f
00000340: 6018 8f3f 77c0 573f d767 8a3f f173 ab3f
00000350: c286 1a40 2274 a73f 9e5e 1b40 2959 993f
00000360: bcce 563d 4b02 a53f 4801 b63f 36b7 893f
00000370: 8cd7 9f3f 9f33 a33f 1ba3 2740 f08b a83f
00000380: 1055 bbbe 4c96 3740 59e8 903f cd0f 3140
00000390: 27a4 0c40 5317 1c40 e031 983f 3121 1740
000003a0: 5964 f53f 4dfa 9e3f 3995 b93f cca5 dd3d
000003b0: 5da5 1f40 651c db3f 9a69 b23f dc18 a13f
000003c0: 2abe b53f 334f 993f ecf4 e03f 8b03 a73f
000003d0: 19de 943f 1c42 353e 6941 7f3f 8f6d 1e40
000003e0: 2062 1540 d324 923f 2e1d b53f
0.14844036 1.131527 1.4886057 1.3994223 2.3349187 1.332451 1.290202 1.0950807
2.7676997 1.0456461 1.373689 1.3102518 1.2722476 1.5306851 0.0252081 1.0013962
1.2721618 1.0572791 2.4744968 1.3683575 1.2005084 1.1917707 0.9604085 1.340862
1.2315519 2.6564434 0.29361054 0.3223268 1.1990494 0.15726049 2.2917764 1.2351974
1.5647144 1.0572534 0.5334011 1.1245873 1.4351034 1.1839292 5.439171 1.5157763
1.3577741 1.7091849 1.2141359 2.4088967 1.1627042 2.6155276 2.694245 0.9569235
4.9824424 -0.15607372 1.4722124 0.092235275 2.6766698 0.6758717 1.1785717 1.1977221
2.4780512 0.9238115 2.3905044 0.9041218 1.3635274 1.7526273 1.2920995 0.9884594
1.478242 0.51701933 1.2589977 1.263041 2.5403178 0.9694946 1.3816581 0.61794764
1.4031322 1.2396871 0.14919285 2.488971 0.99392396 0.48894557 4.97927 1.6491846
2.5475328 1.1082143 1.0482798 1.5656096 1.4866432 1.1429524 1.5312454 1.3634558
-0.92668396 1.7888359 1.3081369 1.0995383 1.352037 0.88696265 0.9990611 0.39141318
0.9047143 1.0589577 1.1922798 1.136462 1.2337137 1.456167 1.3134681 0.8800045
0.63612777 1.4107181 1.4784127 1.3740422 1.4956875 2.3595226 1.6118239 -1.1478382
1.2835025 2.6918578 2.0486946 2.2479668 1.0787352 1.1082629 1.1096542 2.2955
0.9412294 0.23805645 1.1708816 0.7297075 1.3248732 1.341893 1.5181434 2.104418
3.1590142 1.2388766 1.9405699 2.335841 2.425103 -0.311398 1.2596475 2.523227
1.0594357 1.2571651 1.0857838 1.1459193 1.0623227 1.4858944 1.0911452 0.9163523
1.165789 1.7567688 1.8936297 1.2257468 1.3501834 2.3323553 1.4310371 1.4310892
1.0904751 2.261087 2.6010017 1.0597799 1.205766 2.7958496 -0.20954584 0.94721985
-0.15861137 1.2532299 2.4538853 5.0426354 1.4086498 0.5753465 1.1206254 1.8631572
1.4040359 0.27902463 1.1914082 1.121121 1.2800119 2.440132 1.5418566 2.6769977
1.2650954 -0.1342867 1.3850557 1.2561308 0.31460288 0.35793442 1.0974388 1.4084201
2.2908409 1.0032136 1.0490305 1.6495435 2.155181 1.3246083 1.2222893 1.0658835
1.4843576 2.892783 1.2497914 1.0256386 1.3127024 1.3277084 1.4994205 1.1777339
10.87264 1.124873 1.3125242 1.7150421 1.2649316 0.02478181 1.2800494 1.195187
1.1179314 0.84278053 1.081294 1.3394758 2.414475 1.3082316 2.42765 1.1980335
0.05244325 1.2891325 1.4219141 1.0759037 1.2487655 1.2750129 2.6193302 1.3167706
-0.36588335 2.8685484 1.1320907 2.7665894 2.197519 2.4389236 1.1890221 2.3614008
1.9171249 1.2420136 1.4498664 0.10822639 2.494468 1.711804 1.3938477 1.2585711
1.4198658 1.1977295 1.7574744 1.3047956 1.1630279 0.17701 0.9970918 2.475437
2.334114 1.1417488 1.414953

network.1.running_var f4 [251]
00000000: b508 753f 7937 913f 380b 823f e453 ce3f
00000010: 1cae 6f3f 32c7 9d3f 38a2 6b3f 968e 843f
00000020: 6305 6e3f d331 7a3f af36 7a3f ef12 5d3f
00000030: 34f4 8b3f 2d4b 7e3f e2d1 0140 2a27 7c3f
00000040: 0336 553f 43bf 6b3f b8c4 693f 2d2b 8d3f
00000050: 78f9 753f 959e 6a3f 3c4e 5d3f 3263 773f
00000060: 7e02 813f 0d72 753f 98aa 7b3f 28f7 473f
00000070: f8ad 813f 3023 883f 631e 873f 62ff 673f
00000080: 8a59 763f 5ed8 783f 4f20 c73f ce86 7d3f
00000090: c9f6 8b3f 0926 683f 50e4 753f b058 6d3f
000000a0: 45d9 6e3f b543 ed3f cc1b 773f 545a 733f
000000b0: 8980 873f c415 613f cffd 653f 9eff 5a3f
000000c0: b416 793f d63c 543f c781 7b3f 67fa 4f3f
000000d0: 7778 743f 53fe 553f 0d92 8f3f 4392 7d3f
000000e0: 28bd 763f 87e3 473f b379 683f 1ca5 7b3f
000000f0: 925f 753f bf75 603f 1f37 5a3f 7480 533f
00000100: 23b6 6d3f be59 6c3f 690e 5f3f 3b0b 833f
00000110: 176c 583f 1942 6d3f 43ba 8a3f 9a41 5b3f
00000120: 78da 623f 768d a83f 5b17 5a3f 01f9 703f
00000130: 7536 963f 01b8 553f b2d1 6c3f 9e32 7a3f
00000140: 6cab 6b3f 4d55 513f 8270 4c3f c3f3 843f
00000150: cf95 5d3f 525d 713f 2d54 803f 7c52 803f
00000160: 4e98 693f 67db 7d3f 9964 8c3f 9dda 8f3f
00000170: 41b4 5d3f 39e9 403f a68c 813f 3329 883f
00000180: 753d 593f 13c4 6a3f 3c90 8c3f 222c 753f
00000190: 4ffc 813f 4aa6 823f 23e6 873f d1cf 893f
000001a0: 4a14 653f c762 c63f f834 a53f 750c 4e3f
000001b0: e90c 693f cbf1 833f 860d a33f 5037 843f
000001c0: ba90 963f 0057 753f 3f5a 623f 2e16 783f
000001d0: 4b25 693f d752 6e3f b722 423f f142 743f
000001e0: 5b5f 723f 4b75 4e3f 29aa 5b3f 7d36 513f
000001f0: 6f3f 8e3f ca27 8e3f 5771 d43f df5b 783f
00000200: 784a 6b3f 5f8d 6d3f 26fc 653f 8a8b 853f
00000210: 5031 6a3f ec44 6740 d468 823f 7322 6e3f
00000220: 4b63 983f 7a55 633f 1d98 5a3f 751f 843f
00000230: b885 823f 6c0e 593f 71af 6a3f b5a2 843f
00000240: b8aa 6e3f ac54 6d3f ffa6 803f 0961 7d3f
00000250: 8bb2 c33f c4cb 6e3f 002f 833f 299a 773f
00000260: b0e6 7b3f 8549 803f e81c 5c3f 70d7 cc3f
00000270: e991 843f 2956 7f3f 495e 6c3f 192a 633f
00000280: e9e0 583f 94f4 853f 694f 693f 35a2 723f
00000290: e6c7 773f 0a3f 2940 7b65 763f 2c3b 943f
000002a0: 6801 8b3f 06dd 7f3f 6ed1 7f3f 94f6 753f
000002b0: cc28 5d3f 4b53 753f 6582 793f 6c2b 703f
000002c0: d218 783f ebdc 533f ea0f 823f b37f 603f
000002d0: fc46 5e3f 7e59 5b3f 3fb1 613f 95f9 7f3f
000002e0: 02d1 813f 0c8e 683f be1d 643f 994f 7d3f
000002f0: ed51 723f 5723 773f 76d4 503f ec22 603f
00000300: 1281 933f cd08 613f d6bc 673f b155 733f
00000310: c0dc 703f 920b 7d3f 9c47 c73f eca8 8b3f
00000320: 59e7 6f3f 209f 653f 2661 733f 2e03 b73f
00000330: f62e 523f 43c1 8e3f 482c 773f f803 7d3f
00000340: 6fcc 5a3f d577 843f 3779 653f 793e 5e3f
00000350: 9852 6d3f 4e4e 5f3f 3cd3 673f f57f 673f
00000360: 5845 9e3f c0c3 853f 6b50 573f b561 693f
00000370: c6b0 743f f698 7a3f 5b50 683f f300 723f
00000380: b622 6a3f 22ac 7e3f 7c09 843f f4a6 6d3f
00000390: 5f66 783f 675f 683f a142 7f3f 99ed 5e3f
000003a0: 1db7 7f3f f61f 6c3f 9c44 693f 5271 733f
000003b0: 024f 6b3f b610 603f 71f4 6e3f a0b1 863f
000003c0: 2acf 883f 9d19 733f 27c8 4f3f 30d0 823f
000003d0: 720d 7b3f 7e4d 563f 62fc 4d3f 1653 603f
000003e0: 5115 6c3f d82c 803f 9533 783f
0.9571641 1.1345054 1.0159674 1.6119351 0.93625045 1.2326415 0.920444 1.0356014
0.9297697 0.97732276 0.9773969 0.86357015 1.09339 0.9933346 2.0284352 0.9849726
0.8328554 0.9208872 0.91315794 1.1028801 0.96083784 0.91648227 0.864475 0.96635735
1.0078886 0.9587715 0.9830718 0.78111506 1.0131216 1.0635738 1.0556148 0.9062406
0.96230376 0.9720515 1.5556735 0.9903382 1.0934688 0.9068304 0.960515 0.9271345
0.93300277 1.8536288 0.9652679 0.95059705 1.0586101 0.87923837 0.89840406 0.8554629
0.9730027 0.8290533 0.982449 0.8124146 0.95496315 0.8359119 1.1216446 0.990513
0.9638238 0.78081554 0.908107 0.9829881 0.95848954 0.87679666 0.8524036 0.8261788
0.92856044 0.92324436 0.87131363 1.0237802 0.8453993 0.9267898 1.0838093 0.85646975
0.88614607 1.316817 0.8519189 0.9412995 1.1735369 0.8348389 0.9250747 0.97733486
0.92058444 0.81770784 0.79859173 1.038689 0.86556715 0.9428302 1.0025688 1.0025172
0.91248024 0.99162906 1.09682 1.123859 0.8660317 0.7535587 1.0121047 1.0637573
0.848594 0.91705436 1.0981517 0.95770466 1.0155123 1.0206997 1.0617107 1.0766546
0.89484084 1.5498894 1.290679 0.8048776 0.91035324 1.0308164 1.2738502 1.032938
1.1762917 0.95835876 0.88418955 0.96908844 0.9107253 0.93095154 0.7583422 0.95414644
0.9467675 0.80647725 0.8580652 0.8172377 1.1113108 1.1105893 1.6597089 0.97015184
0.91910505 0.9279384 0.89837873 1.0433209 0.91481495 3.6135817 1.0188241 0.93021315
1.1905302 0.888023 0.85388356 1.03221 1.0197058 0.8478763 0.9167395 1.0362154
0.93229246 0.92707324 1.0050963 0.9897619 1.5288862 0.9327967 1.0248718 0.96719605
0.98398876 1.0022436 0.8598161 1.6003246 1.0357028 0.99740845 0.9233137 0.8873611
0.84718186 1.0465264 0.91136795 0.9477876 0.96789396 2.6444726 0.96248597 1.1580558
1.0859804 0.9994663 0.9992894 0.96079373 0.86390376 0.9583022 0.9746459 0.93816257
0.9691287 0.8275897 1.0161107 0.87694854 0.86827064 0.8568343 0.8816108 0.99990207
1.0141909 0.90841746 0.8910788 0.9894958 0.9465626 0.965383 0.8157419 0.87553287
1.1523764 0.87904054 0.90522516 0.9505263 0.9408684 0.9884578 1.5568728 1.0910926
0.93712384 0.8969593 0.9507011 1.4297845 0.82102907 1.1152729 0.9655194 0.9883418
0.8546819 1.034907 0.89638084 0.86814076 0.92704153 0.8722886 0.90556693 0.9042962
1.2364912 1.0450363 0.84107083 0.91164714 0.95582235 0.9788965 0.9074761 0.945327
0.91459215 0.99481404 1.0315394 0.92832875 0.97031206 0.9077057 0.9971104 0.87081295
0.99888784 0.9223627 0.91120315 0.9509479 0.9191743 0.875255 0.9334174 1.0522957
1.0688221 0.9496096 0.81164783 1.0219784 0.9806739 0.83711994 0.8046323 0.8762678
0.92220026 1.0013685 0.9695371

network.4.weight f4 [241, 251]
00000000: 8672 af3e ce74 5f3e ffbc 933e 264d 70c0
00000010: cb04 be40 8aad a3c0 ba3f 78bf 7bac 8cbf
00000020: 48ac 4240 8ad7 d840 dff6 8340 125d 4b40
00000030: fbe6 8a3f 5cd9 bb40 39a9 84c0 94de c9bf
00000040: 2b85 7f40 afd7 0cbe 26bd 7440 b870 ae3f
00000050: 779e dcbd 0383 12c0 b9f8 aec0 7b62 3540
00000060: 4216 7e3e c8d1 5c3f 05f5 0740 0e82 ac40
00000070: 66c1 d73f 190c 2cc0 f282 83c0 052a 2abf
00000080: a1b8 2440 194d 0640 6743 67c0 38d1 15c0
00000090: 7925 1cc0 da6d 6f40 3220 cc40 a6e3 a340
000000a0: 2b6f 2cc0 9311 d43f 7de0 c3bf 1d7f 3d3d
000000b0: c5f7 953f d732 2640 d5ca d9bf 8782 4c40
000000c0: 015d 9040 856a 88c1 c374 c03f 188e 20bf
000000d0: 47b7 5440 42c4 15c0 e47c e43f 4c4e b240
000000e0: 61a1 4340 9b1b 3cc0 544d 5e40 c0cf 8240
000000f0: 80c1 1c40 db05 40c0 96b7 7a40 bd9d 4b3f
00000100: b37b f43f 7433 93c0 97a0 0b40 6593 0f40
00000110: 6a31 173f ab23 f43f 51ed bdbf 21df 3e40
00000120: c52f 09c0 c193 5c40 a258 5dc0 aea7 0540
00000130: 8ae3 9b40 5826 0a40 729a 3340 8571 0c41
00000140: d990 0c3f 2c86 5240 b26b efc0 fd73 4b40
00000150: 5fcc fbbf d9e2 853f 5fa4 a53e a7e8 693f
00000160: d3ef ddc0 bfd4 bfc0 9425 0ac0 147b 513e
00000170: 310b 1fc0 a31b 5ec0 3726 3c40 9ee3 81c0
00000180: 945f aebf 94d1 42c0 7daf 83c0 f1f8 e640
00000190: eb41 76c0 4574 03c0 dfbd 883f 0c78 7bc0
000001a0: a68a 9140 e30f 0140 290f 27bf 9234 5fc0
000001b0: 4ca3 0d40 8669 8b3f c975 b33f 667d 84c0
000001c0: e623 47c0 f3bc 9240 8df5 5140 acbd ddbf
000001d0: 0bfc 0840 72ce 1840 7b76 a0c0 468f 0c3e
000001e0: 063c 2140 fb9f 46c0 9b42 c340 55de 44bf
000001f0: 4352 0a40 28fc 02bf 7ae5 4c40 d1b8 203e
00000200: 14ab 4a40 b79a e03f 475d 0040 ac58 8e40
00000210: 411a 9340 0a0f b2c0 75cf f6bf 48e5 bd3f
00000220: f7b0 d0be 8ba7 cabf 861e fc3f 2caf c43e
00000230: 64a2 24c0 1a45 7dbf c347 d2bf 2a4f 6ac0
00000240: 00af e1bf 6d11 b63e 0d6a 1b40 fb49 1840
00000250: 2703 8840 9b02 ddbf a566 27c0 82fe d5bf
00000260: a497 b23f 7958 d140 5da5 ec3f cdf7 b9bf
00000270: 3009 a33f d8a7 e940 4d3e b1bf 4c4e 9340
00000280: 3a9d 9fbf 74f1 c6c0 b9c1 6740 da8c 8d40
00000290: 9151 9740 e7a9 8440 fa29 663f cfb9 64bf
000002a0: c8be 1ec0 9724 81c0 c7c0 71bd ef87 2840
000002b0: ab54 923f 0bf6 963f 487c 0140 8b59 0c41
000002c0: d844 bebf 746e 76c0 3773 4b40 9e35 bc3f
000002d0: e06b 3440 6705 9ebf f466 47bf 1871 6740
000002e0: edc5 3740 d658 e5bf 33d3 cf3f dabe fdbf
000002f0: 0b57 eebd 0568 8140 2835 efbf bf2e 6440
00000300: 93b1 db3f 799a d440 db7a 0340 2b98 a6be
00000310: b345 14be 25f8 763f a24e 0240 1f7c d0bf
00000320: 4ded d040 e900 f640 5a9c 903d dc82 0b40
00000330: 361b 453f 5852 c1bf bc0b 543f f7ab 4740
00000340: 6224 cd3e 0b33 02c0 7bf6 2440 8e97 873f
00000350: 05ef 4440 070d 163f 8380 4340 13eb ddc0
00000360: 1907 1fc0 45f2 393e 5ba3 a540 0887 1a41
00000370: 4b69 02c0 73ff 0740 233c 3bc0 3a61 833f
00000380: 5730 bd3f b8ac 7c40 d5b6 a63f 919d 2540
00000390: e36b 043f 00d9 4140 3f3d 1240 a155 463d
000003a0: 3f5b 94be 0b3c 2940 c4a2 8d40 9688 87be
000003b0: affa 8940 c7b6 043e fb64 c03f f9f6 b140
000003c0: 478f a040 b7e0 1ebe 2505 93c0 3f08 2bbf
000003d0: e433 3740 860c 0bbf 0007 b940 0646 773f
000003e0: a443 2d40 d27d 823f 04ff 6bc0 2f56 1940
000003f0: 8eaf 9240 9c3a 26bf 5aab ea3e 5564 82c0
0.34267062 0.21821901 0.2885513 -3.7547088 5.938085 -5.114934 -0.9697224 -1.0990137
3.0417652 6.776311 4.1238856 3.1775556 1.085174 5.870283 -4.145657 -1.577105
3.992503 -0.13754152 3.8240447 1.3628149 -0.10772412 -2.2892463 -5.4678617 2.8341358
0.24813178 0.862576 2.1243298 5.390876 1.6855896 -2.6882384 -4.1097345 -0.66470367
2.5737689 2.0984557 -3.613489 -2.3408947 -2.4397871 3.7410798 6.37893 5.121539
-2.6942852 1.6567863 -1.5302883 0.046263803 1.1716238 2.596853 -1.7015024 3.1954668
4.511353 -17.052011 1.5035633 -0.6271682 3.3236864 -2.3401036 1.7850614 5.5720577
3.0567248 -2.939185 3.4734697 4.08786 2.4493103 -3.0003574 3.9174552 0.79537565
1.910025 -4.600031 2.1816766 2.2433712 0.59059775 1.9073385 -1.4838048 2.9823687
-2.1435406 3.4465182 -3.4585347 2.0883594 4.871526 2.1585903 2.8063016 8.777715
0.5490852 3.2894392 -7.4818964 3.1789544 -1.9671744 1.0459853 0.32351968 0.91370624
-6.9355254 -5.99472 -2.1585436 0.20457107 -2.485058 -3.4704368 2.9398324 -4.0590353
-1.3622918 -3.0440416 -4.115172 7.2178884 -3.8477733 -2.0539715 1.0682944 -3.929202
4.548175 2.0165946 -0.6525751 -3.4875836 2.2130919 1.0891578 1.402032 -4.1403074
-3.111566 4.585565 3.2806122 -1.7323508 2.1403835 2.3876004 -5.014463 0.1372653
2.5192885 -3.1035144 6.1018806 -0.7690175 2.1612709 -0.5116601 3.2015061 0.15695502
3.1666918 1.7547215 2.0056932 4.448324 4.596955 -5.564336 -1.9282061 1.4835596
-0.40760013 -1.583238 1.9696815 0.38414896 -2.5724115 -0.98933566 -1.642815 -3.6610818
-1.7631531 0.3556017 2.4283478 2.3795154 4.250385 -1.726642 -2.61564 -1.6718295
1.3952527 6.54205 1.8487965 -1.4528748 1.2737179 7.3017387 -1.3847138 4.6033077
-1.2469857 -6.2169743 3.621199 4.423444 4.728707 4.14574 0.899078 -0.8934602
-2.4803944 -4.0357165 -0.059021737 2.6332967 1.1432089 1.1793836 2.0232105 8.771861
-1.486476 -3.8504915 3.1789072 1.4703863 2.8190842 -1.2345399 -0.7789147 3.6162777
2.8714554 -1.7917736 1.6236328 -1.9823868 -0.11637696 4.0439477 -1.8688097 3.5653532
1.7163566 6.6438565 2.0543735 -0.3253797 -0.14479713 0.9647239 2.0360494 -1.6287879
6.5289674 7.687611 0.07061072 2.179862 0.76994646 -1.5103254 0.82830405 3.119871
0.4006682 -2.0343654 2.577544 1.0593126 3.0770886 0.5861363 3.0547187 -6.9349456
-2.4848082 0.18158825 5.176191 9.657967 -2.0376766 2.1249664 -2.9255455 1.0264046
1.4780377 3.948042 1.3024546 2.587742 0.5172712 3.0288696 2.2849882 0.048421506
-0.28975865 2.6442897 4.426119 -0.26471394 4.311851 0.12960349 1.5030817 5.561398
5.01749 -0.1551541 -4.594378 -0.6680946 2.8625422 -0.54315984 5.7821045 0.9659122
2.7072535 1.0194647 -3.68744 2.3958852 4.58393 -0.6493318 0.45833856 -4.0747476

network.4.bias f4 [241]
00000000: e7af cd3c bf51 98bc 1e9d d6bc abc1 32bd
00000010: ca7e 5bbd fe66 1fbd f77c 2e3c 27a9 6ebd
00000020: 462e 783d ee20 10bd b504 c63c 94b2 07bd
00000030: e948 f6bc 5ebf 1abd 7d12 703c 3c31 843d
00000040: 6596 123d 5612 373c 82bd 1cbd 127d 54bd
00000050: f98d 8bbd ba03 28bd ce09 53bd 7582 b03a
00000060: aa77 ebbc f59e 51bd 27d7 75bc fe69 493d
00000070: 330c b9bc a4d9 19bc 84cf e13c b892 3f3d
00000080: ed6a fc3c f877 24bd f7cc 1cbd caca b0bc
00000090: 0fb3 033c c34d 27bc b7cc 133c 3378 833d
000000a0: 9e87 853c 5481 3b3c ee94 753b 01c3 95bc
000000b0: 0fce 0cbd 3031 933c 356a 783c 6957 1f3d
000000c0: b25b 673d 2820 2e3c f6f7 3abd 7265 713c
000000d0: 0ad3 3d3d 53f5 0cbc 317e 66bd 5315 7b3d
000000e0: 5ab8 773d 89e6 003d 9206 4cbd 7f5e a43c
000000f0: b46e 1c3d 5a14 aebc 8ca5 3f3d a070 903c
00000100: 9a09 ff3c 85be 813c cf97 863d bf2e 40bd
00000110: 598d 633d 2adf f1bb a110 eb3b db4d fd3c
00000120: ea9b 65bd 798a c93c 411d 2a3d 0b51 cc3c
00000130: 862b 08bd d758 debb 3522 c83c 797b 2d3d
00000140: 7755 023d 2ca9 a93c 076a 403d 9fef 3f3d
00000150: d737 35bd 0349 3cba a40c 90bd 9430 483d
00000160: b61a 48bd 0fac 3abd f2ee 4e3d ff52 bebc
00000170: d707 70bc 9ba1 153d 1de7 37bc e983 31bd
00000180: ee9e f7bc 4c4e fe3c e027 2e3d 9b0b 103d
00000190: 1e95 1fbd 1893 4fbd c156 f53c 0c5b be3c
000001a0: 8eeb 793d 2820 ed3c 8207 4e3c 00f3 a63b
000001b0: 8226 163d 4074 573d 5092 4bbd f617 b23a
000001c0: 1bd5 bebc 0be5 b1bc 8e86 aabb b773 f23c
000001d0: 06ae 96bd adeb 24bd c214 2dbd 9a11 3a3c
000001e0: a466 b2bc deb6 e1bc cd6d 9ebc e4fe e93c
000001f0: 72e7 04bd f04a 97bd 2e75 68bc 01d7 cd3c
00000200: 6ef5 68bd 6db8 4fbd 50fd 75bb 4482 143d
00000210: 4e77 dd3c ec6e 0abd 6490 b33c ffd7 6fbd
00000220: 7ea5 68bd 13cf 81bd 5b19 693d 6d52 443d
00000230: 491d 4cbd edf4 af3c 8f5c 26bd d2f9 1dbd
00000240: 8d96 0bbd 6057 1ab9 1ddf 17bd fb96 bfbb
00000250: cd81 8c3d 148e 863b 696d c6bc b36e adbc
00000260: 97b2 203d ca11 8e3c 7338 b83b c9f0 62bc
00000270: f248 4d3d 052b 4d3d 46a4 273d d6ed af3c
00000280: 66d5 dd3b 1621 07bc 0f2d cc3a de8c 1c3c
00000290: bbb2 65bd 6750 2fbc e691 163d cfd2 3b3d
000002a0: 5562 2b3c a530 543d 5820 3d3d 1b3e d53c
000002b0: b30f 043d a498 96bb 8881 423d d6c0 a9bd
000002c0: a9d7 a23d 38c9 0c3d 546e 4c3d 8bf7 a63c
000002d0: b9dc 563d 5cf5 6e3d d854 6dbd 9dfa ad3c
000002e0: a8bd 58bc d4d2 213d 924a 60bd b12f 0bbb
000002f0: a177 30bd a659 c2bb a90c 02bd b83f 273d
00000300: aa55 42bd dfeb 033d 5054 52bd 4c5c fc3b
00000310: de7c 21bd 04f3 d1bc 27c6 9a3c 2e0c 57bb
00000320: f5f8 d3bc 4b1d b73c 39d1 a2bd a63f 90bc
00000330: b9a1 9d3b ff79 1b3d cd8c 04bd 866d eb39
00000340: 0120 02bd 3888 393d f399 f63b 03ad f13b
00000350: 3a0c 68bd cc44 6bbd ca9a 9ebc 2d42 b4bc
00000360: 6406 ba3c 92e7 293d d17c 03bd 7b6d e23c
00000370: 54d7 72bd 98f6 77bd 833e 593d 085c b5bd
00000380: 7f67 e43c 2140 22bc 770b 20bd 5621 823d
00000390: f0b9 abbc 5ccc 543d 2219 b1bc 9a51 e13c
000003a0: 8b35 8f3c f0a9 a7bc 645c ecbb f976 65bd
000003b0: d6e3 493c 8f73 e83c 91f9 1bbd 5983 3c3d
000003c0: fdba dabc
0.02510829 -0.018593667 -0.026197966 -0.043641727 -0.053587712 -0.03891658 0.010649911 -0.058266785
0.060591005 -0.035187654 0.024172166 -0.03312929 -0.030064063 -0.03778016 0.014652845 0.06454703
0.03578796 0.011173805 -0.038266666 -0.05187709 -0.068141885 -0.04101918 -0.051523022 0.0013466614
-0.028743584 -0.051176984 -0.01500491 0.049173348 -0.022588825 -0.0093902685 0.027564771 0.04677078
0.030812705 -0.040153474 -0.038281407 -0.021581072 0.008038296 -0.010211411 0.009020976 0.064194106
0.016300019 0.011444408 0.0037472802 -0.018281462 -0.0343762 0.01796779 0.0151620405 0.03890172
0.05648393 0.010627784 -0.04564663 0.014733659 0.04634384 -0.008603412 -0.05627269 0.061299633
0.060478546 0.031469855 -0.049810953 0.02006459 0.038191512 -0.021249939 0.046788737 0.017631829
0.031132508 0.015837917 0.06571924 -0.04691958 0.05555472 -0.0073813396 0.007173613 0.030920913
-0.056056894 0.024602162 0.041531805 0.024940988 -0.033244632 -0.006785493 0.024430374 0.04235408
0.031819787 0.02071055 0.046976116 0.04685938 -0.044242706 -0.00071825105 -0.07033661 0.048874453
-0.0488536 -0.045574244 0.050520845 -0.023232935 -0.014650307 0.036531072 -0.011224535 -0.04333869
-0.03022715 0.031043194 0.042518497 0.035167318 -0.03896057 -0.05067739 0.029948594 0.023236774
0.061015658 0.028945997 0.012575032 0.005094886 0.036657818 0.0526011 -0.04970008 0.0013587463
-0.023294976 -0.021715662 -0.0052040284 0.029596193 -0.07357411 -0.04026382 -0.042256124 0.011356736
-0.021777458 -0.027553018 -0.019339466 0.028563924 -0.032447286 -0.0738734 -0.014188094 0.025126936
-0.056874685 -0.05071299 -0.003753502 0.036257043 0.027034428 -0.03379719 0.021919437 -0.0585556
-0.05679845 -0.063383244 0.056908946 0.04793017 -0.049832616 0.021479094 -0.040615615 -0.038568325
-0.034079123 -0.00014719134 -0.03707801 -0.0058468557 0.06860695 0.0041062925 -0.024222093 -0.02117095
0.039232817 0.017342467 0.0056219636 -0.013851353 0.050118394 0.050089855 0.040928148 0.021475714
0.006769824 -0.008247634 0.0015577393 0.00955507 -0.056078654 -0.010700322 0.036760233 0.04585534
0.010460456 0.051804204 0.046173424 0.02603059 0.032241534 -0.004595833 0.047486812 -0.08288734
0.0795129 0.034371585 0.049909905 0.02038171 0.05245659 0.05833946 -0.05794224 0.021237666
-0.013228811 0.039507702 -0.054758616 -0.0021238143 -0.043082837 -0.005931097 -0.031750355 0.04083225
-0.047444977 0.032207366 -0.051349938 0.0077014323 -0.039425723 -0.025628574 0.018893315 -0.0032813656
-0.025875548 0.022352835 -0.07950062 -0.017608475 0.0048105386 0.03795814 -0.03236084 0.00044904294
-0.031768803 0.045295924 0.0075256764 0.007375361 -0.056652285 -0.057438657 -0.019360919 -0.022004211
0.022708125 0.04148061 -0.032101456 0.027640095 -0.059287384 -0.060537905 0.05303813 -0.08855444
0.027881382 -0.009902985 -0.039073434 0.063540146 -0.020962685 0.051952705 -0.02161843 0.027504731
0.017481586 -0.020466775 -0.0072131623 -0.056021664 0.012322387 0.028375415 -0.038079802 0.0460237
-0.026700491
