best models/saved_models/architecture_1/best_model.pt (torch, 485794 bytes, 25 tensors)

network.0.weight f4 [234, 15]
0	0x4093f4a9	4.6236157
1	0x40b1214e	5.5353155
2	0xc12993fc	-10.598629
3	0x3fec04ca	1.8438962
4	0xc01aaac8	-2.4166737
5	0xbfe26f52	-1.7690222
6	0x400d448c	2.2073088
7	0xc026c023	-2.605477
8	0x3ff98715	1.9494349
9	0x407f610f	3.990299
10	0xc0b4bd43	-5.648103
11	0xc123736d	-10.21568
12	0x40e1c157	7.054851
13	0x40d2120e	6.564704
14	0xc1871582	-16.885502
15	0xbec9921a	-0.3936928
16	0x40087aa2	2.132485
17	0xbeb5926a	-0.35463268
18	0xbec9b75a	-0.393977
19	0x403bb30d	2.9328034
20	0x41427c01	12.155274
21	0xc103fc88	-8.249153
22	0x3d9ad61b	0.075603686
23	0x412a49c1	10.643006
24	0xc0d2f206	-6.592044
25	0xc0b7a0e9	-5.7383924
26	0xbef8ffb0	-0.48632574
27	0xc103d099	-8.238427
28	0xc07095a9	-3.7591345
29	0xc14775da	-12.466272
30	0xc0fc3e4f	-7.882606
31	0xc06c11c8	-3.6885853
32	0xc0b3570f	-5.6043773
33	0xbfa19272	-1.2622817
34	0xc079055c	-3.890952
35	0xc0260a57	-2.594381
36	0xc0862c97	-4.192943
37	0x40b3bfed	5.6171784
38	0x41610e64	14.066013
39	0x41047ec3	8.280948
40	0x4105ba59	8.357995
41	0x40256244	2.5841227
42	0x410e93aa	8.911051
43	0x40810b82	4.032655
44	0x40e49c00	7.144043
45	0x409b7016	4.8574324
46	0xc115ee47	-9.370673
47	0x403b7fe2	2.9296803
48	0x40c4e8d6	6.1534224
49	0xc04e96dc	-3.2279577
50	0x409924d2	4.7857447
51	0xc04160e0	-3.0215378
52	0xc0f5986d	-7.6748567
53	0x3f98753b	1.1910776
54	0xc1123921	-9.1389475
55	0x40241ec4	2.5643778
56	0x413d92ea	11.848368
57	0xc0a34e82	-5.1033335
58	0x411ac62c	9.673382
59	0xc01068b0	-2.2563896
60	0xc0d48ff9	-6.642575
61	0xbf8d56d3	-1.1042122
62	0xc0973d0d	-4.7262025
63	0x40c5c93f	6.180816
64	0x412f77b9	10.966729
65	0x408c2d38	4.38052
66	0x41110f92	9.066301
67	0x4077a9a9	3.8697302
68	0x411a4929	9.642861
69	0x3fe903e0	1.8204308
70	0x40b0c0f0	5.523552
71	0x40acb31e	5.396865
72	0x41181114	9.504169
73	0x408aea2f	4.341087
74	0x40cbea31	6.372338
75	0xc082f37e	-4.092223
76	0xc0959567	-4.6744876
77	0xbef95bb9	-0.4870279
78	0xbfb6393a	-1.4236214
79	0xc0369981	-2.8531191
80	0xc10de83d	-8.869199
81	0xc0832c14	-4.0991306
82	0xbf59941e	-0.84991634
83	0xc017b0b4	-2.37016
84	0x4013827d	2.3048394
85	0xc033cc6d	-2.8093522
86	0x40eef82a	7.4677935
87	0x4174b124	15.293247
88	0x41880ab6	17.00523
89	0x3fd0607e	1.6279447
90	0x41238b63	10.22153
91	0xc01cbb1d	-2.4489205
92	0xc00e02dc	-2.2189245
93	0xc09fb80a	-4.9912157
94	0x4128a455	10.54012
95	0xc08a763c	-4.326933
96	0xc09ab839	-4.834988
97	0x404ba953	3.1822097
98	0xc0c7027a	-6.2190523
99	0x3e611da0	0.21983957
100	0x404582c0	3.0861053
101	0x40e2ff28	7.093647
102	0xc187b62e	-16.963955
103	0x403ac481	2.9182436
104	0x402f8c20	2.7429276
105	0x40c0013b	6.00015
106	0xc0ac1919	-5.3780637
107	0xc038b042	-2.885758
108	0x40bc905c	5.892622
109	0xc138c7ef	-11.548812
110	0x414d7fa1	12.843659
111	0x410467ba	8.275324
112	0x408603d6	4.1879683
113	0xc1154abb	-9.330745
114	0x40faaff5	7.833979
115	0xbe06bd78	-0.13158214
116	0x3e1c3838	0.15255821
117	0xc08c6384	-4.387148
118	0xbff89449	-1.9420253
119	0x40014d51	2.020344
120	0x3f67e8fe	0.9058989
121	0x40fbbc3a	7.866727
122	0xbd26b0e1	-0.04069603
123	0xbfe4dde9	-1.7880222
124	0x3de4ae2f	0.111660354
125	0x409ac3a1	4.8363805
126	0xbe4c03e8	-0.19923365
127	0x40926e37	4.575954
128	0xbf1a02e2	-0.6016065
129	0xc0fd9de6	-7.9255247
130	0xbe9a2d47	-0.3011267
131	0xc141b24e	-12.106031
132	0x404e891e	3.227119
133	0x41ba7a36	23.309673
134	0xbf8d148e	-1.1021898
135	0x40d0fb45	6.5306726
136	0x407a4de9	3.9110053
137	0xc034a57a	-2.8226
138	0xc0522e71	-3.2840846
139	0x40be7839	5.9521756
140	0x3f8341d4	1.0254464
141	0xc0455802	-3.0834966
142	0xc0dc0cef	-6.876579
143	0x4136e8f6	11.431875
144	0x40f2621c	7.5744762
145	0xc0b7e781	-5.7470098
146	0xc0f7dda6	-7.7458067
147	0x414bbbb8	12.73333
148	0x40c7195b	6.221845
149	0xc06026ee	-3.502376
150	0xc11b3ddf	-9.702605
151	0x3fa70114	1.3047204
152	0xc1066844	-8.400455
153	0x3fb3cbb3	1.4046539
154	0x3f583d14	0.844682
155	0xbff53cfd	-1.9159237
156	0x400193b0	2.0246391
157	0xc16901b4	-14.562916
158	0xc12f79e0	-10.967255
159	0x402de2f8	2.716978
160	0xc11aac5b	-9.667079
161	0x3e8469ea	0.25862056
162	0x3fbdd6f7	1.4831227
163	0xbfca7b3b	-1.5818857
164	0xbf359b3c	-0.70939994
165	0x3fa8872f	1.3166255
166	0xc0a54a5b	-5.1653266
167	0x40afff31	5.4999013
168	0x40363aae	2.8473315
169	0xbedf0098	-0.4355514
170	0x4108afa4	8.542881
171	0xc0cc3c76	-6.3823805
172	0x408f5c79	4.480038
173	0xbf73eb1c	-0.95280623
174	0x41132a72	9.197863
175	0xc0d64f5f	-6.697189
176	0x40b86ba7	5.763141
177	0xbffd4283	-1.9785923
178	0x41620f83	14.128787
179	0xc12d7463	-10.840915
180	0x3f6923f8	0.9107051
181	0xbee908e6	-0.455146
182	0x3e17b836	0.14816365
183	0x3eca6b60	0.39535046
184	0x40f808c9	7.7510724
185	0x40948061	4.6406713
186	0xc13919c6	-11.568792
187	0xbe06857a	-0.13136855
188	0x412edd2e	10.928999
189	0x4097668d	4.7312684
190	0x410f7db7	8.968192
191	0x3e12f56d	0.14351435
192	0x40c46c46	6.138217
193	0xc14a4288	-12.641243
194	0xbfc5fcc7	-1.5467767
195	0x40b917da	5.7841616
196	0xc093bdd1	-4.616921
197	0xc02d2fec	-2.70605
198	0xc01c4c2f	-2.4421499
199	0x4086e659	4.2156186
200	0xc083ffbe	-4.1249685
201	0xc02f2322	-2.7365193
202	0x4123d5c9	10.239694
203	0xc1683dc2	-14.515078
204	0x41571290	13.442032
205	0x40dfd19f	6.9943385
206	0xc060cdb6	-3.5125556
207	0x4042eb3a	3.045607
208	0xc05baeea	-3.432551
209	0xc001147e	-2.0168757
210	0x3fba5596	1.4557369
211	0xc11c3367	-9.762549
212	0xc07519c1	-3.829697
213	0x40931c0f	4.597175
214	0xc06c1c42	-3.6892247
215	0x411d86c5	9.845403
216	0x40acedb5	5.404017
217	0xc0e986f5	-7.2977242
218	0x4077dd53	3.8728836
219	0xc18abe0e	-17.3428
220	0xc0ebf56d	-7.373709
221	0xbf509a51	-0.8148547
222	0x3fb82000	1.4384766
223	0xbec14dbe	-0.37754625
224	0x3fb82f1a	1.4389374
225	0xc0ec951f	-7.3932033
226	0xc142a99c	-12.166409
227	0x405cf289	3.4523032
228	0xc09c7fca	-4.8905993
229	0xc0723fe1	-3.7851489
230	0xc0e1a217	-7.0510364
231	0x3f8128c9	1.0090572
232	0xc1185296	-9.520163
233	0xc0bc30fd	-5.88098
234	0xc11024b2	-9.008959
235	0x4003a7d0	2.0571175
236	0x40b186de	5.5477133
237	0x3ff58c2d	1.9183403
238	0x40dfffb1	6.9999623
239	0xc00317be	-2.048324
240	0x41038eca	8.222361
241	0xc122b867	-10.17002
242	0x3f545e00	0.8295593
243	0xc14eb2ee	-12.918684
244	0x4121ba4b	10.107982
245	0xc123a705	-10.228276
246	0x40526d3b	3.287917
247	0xbec837e1	-0.39105132
248	0x3f545e90	0.8295679
249	0xbf83190f	-1.0242022
250	0xbf63197e	-0.88710773
251	0x406af7cf	3.671375
252	0xbfd94f79	-1.6977378
253	0x405fbb04	3.4957895
254	0xbf955a15	-1.1668116
255	0x3e018c9b	0.12651293

network.0.bias f4 [234]
0	0x401aaeae	2.4169116
1	0x40a47dec	5.1403713
2	0x4011ab89	2.2760947
3	0xbdf91d6b	-0.12163814
4	0x4018e4fa	2.3889756
5	0x40227227	2.5382173
6	0x40273ac5	2.612962
7	0x401d76d4	2.4603777
8	0x401ec1c2	2.480576
9	0x4028cace	2.6373782
10	0x3e21b704	0.15792471
11	0x401cf6fc	2.4525747
12	0x409f4093	4.9766326
13	0x4016b864	2.3550043
14	0x402054cd	2.5051758
15	0x3fbe5306	1.4869087
16	0x3fce3197	1.6108884
17	0x3e24f08a	0.16107383
18	0x4098cb9c	4.7748547
19	0x4025a543	2.5882118
20	0x4017ce18	2.371954
21	0x40136b78	2.3034344
22	0x402080e6	2.5078673
23	0x4015d27f	2.3409727
24	0x40aa1809	5.315434
25	0x40af35ad	5.475302
26	0x40115a2a	2.2711282
27	0x401c9a28	2.446909
28	0x4030b61c	2.761115
29	0x4009e61e	2.1546702
30	0x3f437759	0.76353985
31	0x401dedc1	2.4676363
32	0x402070e0	2.5068893
33	0x40173922	2.362862
34	0x4020b77c	2.511199
35	0x402eb8db	2.7300327
36	0x4090767e	4.5144644
37	0x401847f0	2.3793907
38	0x4013be61	2.3084948
39	0x4019e139	2.4043715
40	0x400b5e26	2.1776214
41	0x402357d5	2.5522358
42	0x402171cc	2.5225706
43	0x4006b35b	2.104697
44	0x40017b1c	2.023139
45	0xbebfe263	-0.37477407
46	0x401e7d38	2.4763927
47	0x401bdbfb	2.4353015
48	0x401a792a	2.4136453
49	0x3f689d9b	0.90865487
50	0x3d8fea87	0.070271544
51	0xbe0788ab	-0.13235728
52	0x40192064	2.392602
53	0x3f3f31a0	0.74685097
54	0x3d83ec15	0.064415134
55	0x3f9f5476	1.244765
56	0x400349d9	2.0513823
57	0x401e2307	2.470888
58	0x4018d63a	2.3880754
59	0x3f4dcb52	0.8038837
60	0x4017f23d	2.37416
61	0x401d6db1	2.45982
62	0x40a9e728	5.3094673
63	0x3f2928a8	0.6607766
64	0x40995ddd	4.792708
65	0x401e90e5	2.4775937
66	0x4035973a	2.8373551
67	0x402464dd	2.5686562
68	0x401a930f	2.4152257
69	0x40357652	2.8353467
70	0x401c946c	2.446559
71	0x4019dbde	2.4040446
72	0x402185bc	2.5237875
73	0x4034eed7	2.8270776
74	0x401ffe48	2.499895
75	0x3bf12980	0.0073596835
76	0x401cc28e	2.4493747
77	0x4021a7ee	2.5258746
78	0x402070c8	2.5068836
79	0x401a4f9f	2.4111097
80	0x3f500780	0.81261444
81	0x4026b03d	2.6045067
82	0x4025184e	2.5796084
83	0x402a29f4	2.6588106
84	0x40191c06	2.3923354
85	0x40266b06	2.6002822
86	0x401e4cd9	2.4734404
87	0x4019dfa0	2.404274
88	0x4028e7ba	2.6391435
89	0x401f1ba8	2.486063
90	0x401e0130	2.4688225
91	0x401b78e4	2.4292536
92	0x3faf7de9	1.37103
93	0x3fff0bf7	1.9925526
94	0x401204cf	2.2815435
95	0x401eeba8	2.4831333
96	0x4015812f	2.3360097
97	0x401c09d0	2.438099
98	0x402df1f2	2.7178922
99	0x4031d83e	2.7788234
100	0x409d817b	4.9220557
101	0x3ef697cb	0.48162684
102	0x4023888c	2.5552092
103	0x40171a82	2.360993
104	0x401e95d6	2.4778953
105	0x40289ea4	2.6346827
106	0x4019646d	2.3967545
107	0x4024e73f	2.5766141
108	0x401a85d1	2.4144175
109	0x40126b85	2.2878125
110	0x40267afd	2.6012566
111	0x40266592	2.5999494
112	0x402a2cd1	2.6589854
113	0x401bda55	2.435201
114	0x401cdd77	2.4510171
115	0x401023e1	2.2521899
116	0x40252b7a	2.5807786
117	0x401a562d	2.4115098
118	0x4027cc2a	2.6218362
119	0xbe88bc55	-0.26706186
120	0x4024aecf	2.5731695
121	0x402f916a	2.7432504
122	0x3f76e8b4	0.96448827
123	0x402485f1	2.5706751
124	0x401fb446	2.495378
125	0x3ff4e6ca	1.9132931
126	0x402d234c	2.7052794
127	0x401a6f84	2.4130564
128	0x402099d2	2.5093884
129	0x3f81f958	1.0154219
130	0x40179db1	2.3689997
131	0x3d7c7eff	0.06164455
132	0x3f526589	0.8218618
133	0x3e3cf32d	0.18452139
134	0x40185f68	2.3808231
135	0x402514b7	2.5793893
136	0x401dda14	2.4664354
137	0x402baf5f	2.6825788
138	0x402fad5c	2.744956
139	0x3f8aebf8	1.0853262
140	0x3f0e63b4	0.55620885
141	0x3f0ac065	0.5419982
142	0x401d0d40	2.4539337
143	0x40882397	4.2543445
144	0x4020e2f8	2.513853
145	0x404fa234	3.244275
146	0x4021df86	2.5292678
147	0xbe73d829	-0.23812927
148	0x401b49d4	2.426381
149	0x402c76e2	2.694756
150	0x3fc19a78	1.5125265
151	0x40213c8f	2.5193212
152	0x402dfe1a	2.7186341
153	0x40205086	2.5049148
154	0x4027a964	2.6197138
155	0x401f1454	2.4856157
156	0x40264465	2.5979245
157	0x3e6618f0	0.2247045
158	0x3f85394d	1.0408112
159	0x3f287660	0.65805626
160	0x3ffad0d6	1.9594982
161	0x400b92b9	2.1808302
162	0x40a17f36	5.0467787
163	0x401ae3ae	2.4201465
164	0x403a4fe3	2.911126
165	0x401a1ff2	2.4081998
166	0x40256d72	2.584805
167	0x4001e5c5	2.029649
168	0x40107878	2.2573528
169	0x3e9cd39d	0.30630198
170	0x40907f4e	4.51554
171	0x402155b4	2.520856
172	0x40200c2a	2.5007424
173	0x400e1039	2.2197402
174	0x3f5b0320	0.85551643
175	0x401e03d7	2.4689844
176	0x400b2ea9	2.174723
177	0x401a705f	2.4131086
178	0x3ef3d22e	0.47621292
179	0x40a3777e	5.1083364
180	0x4019707d	2.3974907
181	0x402311c9	2.5479605
182	0x402e99ab	2.7281291
183	0x4013d31d	2.3097603
184	0x400fa8ce	2.244678
185	0x3ed815cd	0.42204133
186	0x40272115	2.6113942
187	0x409e3291	4.9436727
188	0x401e5fcc	2.474597
189	0x4048b017	3.1357477
190	0x401daa52	2.4635205
191	0x4024df81	2.5761416
192	0x40222be0	2.533928
193	0x4019426f	2.3946798
194	0x4028fbc9	2.6403677
195	0x409c320d	4.8811097
196	0x40a45090	5.1348343
197	0x4028b5d1	2.6360972
198	0x409eeadd	4.96617
199	0x40245ab3	2.5680358
200	0x4010f68a	2.2650476
201	0x4025932c	2.5871077
202	0x401f1295	2.4855092
203	0x401d5c1f	2.4587476
204	0x409f080a	4.9697313
205	0x407baa58	3.932272
206	0x401a8803	2.4145515
207	0x400d4ed3	2.207936
208	0x4011edac	2.2801313
209	0x401e194e	2.4702945
210	0x4028e10f	2.6387365
211	0x401a88a7	2.4145906
212	0x402410d4	2.563527
213	0x40222fbf	2.5341642
214	0x4023e0f5	2.5606053
215	0x4006ee2e	2.1082873
216	0x401bdf8e	2.4355197
217	0x401ee966	2.4829955
218	0x401be5ea	2.4359078
219	0x40261a90	2.5953712
220	0x4030be05	2.7615979
221	0x3eb71d67	0.3576462
222	0x40273a39	2.6129286
223	0x3ff5df36	1.9208744
224	0x4033a43c	2.806899
225	0x401e6789	2.4750693
226	0x40244c95	2.5671742
227	0x4028f553	2.6399734
228	0x402891bf	2.6338956
229	0x4010d2af	2.262859
230	0x4012d995	2.2945302
231	0x4015516f	2.3330953
232	0x401bf7b6	2.436994
233	0x4021351e	2.518867

network.1.weight f4 [234]
0	0x4109d721	8.615022
1	0x41025dc5	8.147893
2	0x40fd554a	7.9166613
3	0x410cb657	8.794517
4	0x410ca7bd	8.790952
5	0x40f7db01	7.745484
6	0x4107969f	8.474273
7	0x40ec78f6	7.3897657
8	0x410c6a88	8.776009
9	0x4104dd0f	8.303969
10	0x411ffc9f	9.999175
11	0x410660ee	8.398664
12	0x41179695	9.474263
13	0x41074ba6	8.455969
14	0x40f645ae	7.696006
15	0x41180489	9.501107
16	0x4114e1c1	9.305116
17	0x41049b14	8.287861
18	0x4101d5cf	8.114699
19	0x40f30c7f	7.5952754
20	0x410c7910	8.779556
21	0x4111f78d	9.122937
22	0x410a4ecd	8.644238
23	0x40f53116	7.662242
24	0x41088206	8.531744
25	0x40f73e82	7.7263803
26	0x41145f39	9.273248
27	0x410f6518	8.962181
28	0x4100732e	8.02812
29	0x41133389	9.200082
30	0x411212ed	9.129621
31	0x40f2acfb	7.583616
32	0x41123b2a	9.139444
33	0x410e9c8f	8.913222
34	0x4116afe0	9.417938
35	0x41144a8e	9.268202
36	0x41062ca7	8.385901
37	0x410fde30	8.991745
38	0x4103c55c	8.235683
39	0x4102e707	8.181403
40	0x4107f6bb	8.497737
41	0x410276bc	8.153988
42	0x4114b679	9.294549
43	0x4107d0e3	8.488498
44	0x4104f679	8.310174
45	0x4105236d	8.321149
46	0x410626f5	8.384511
47	0x40cec5d5	6.4616494
48	0x410af95c	8.685879
49	0x4100485c	8.017666
50	0x40ca8744	6.329012
51	0x40cbf1b2	6.373254
52	0x4104120d	8.254407
53	0x411bec30	9.745163
54	0x41015145	8.082341
55	0x4108bb66	8.545752
56	0x4104345d	8.262784
57	0x41085d80	8.522827
58	0x40fecfc3	7.9628615
59	0x411135ab	9.075603
60	0x40febb7b	7.960386
61	0x410e6a70	8.900986
62	0x4116ec83	9.432742
63	0x410e8f7c	8.91003
64	0x4102f255	8.184163
65	0x410a46c6	8.642279
66	0x41069ba4	8.412998
67	0x410d7807	8.841804
68	0x410afc9c	8.686672
69	0x40d89950	6.768715
70	0x410c93a5	8.786046
71	0x412456b0	10.271164
72	0x4116916c	9.410503
73	0x40f15d9d	7.5426774
74	0x41072885	8.447392
75	0x3ec06619	0.37577894
76	0x410df908	8.873299
77	0x40f3191d	7.5968156
78	0x41106fb9	9.027276
79	0x40ef9dc2	7.4880075
80	0x40f62167	7.6915774
81	0x410786c0	8.470398
82	0x41044bd6	8.268515
83	0x40f9a793	7.801706
84	0x410d7166	8.840185
85	0x40f6b521	7.7096105
86	0x410b7980	8.717163
87	0x410988d5	8.595906
88	0x4106e5a5	8.431066
89	0x410eb26e	8.918562
90	0x41078d41	8.471986
91	0x410b4918	8.705345
92	0x4110d8d8	9.05294
93	0x4114f6f0	9.310287
94	0x40f39c76	7.612849
95	0x410819b4	8.506275
96	0x410804ad	8.501142
97	0x40f69f98	7.7069817
98	0x410db471	8.856553
99	0x41154202	9.328615
100	0x41104998	9.017967
101	0x410dd09d	8.863431
102	0x41030284	8.188114
103	0x410cfd4d	8.811841
104	0x41142afa	9.260492
105	0x41087160	8.527679
106	0x4102563d	8.146054
107	0x4100d710	8.0525055
108	0x411b67e9	9.712869
109	0x41172a3c	9.447811
110	0x4103301a	8.199244
111	0x4101d36b	8.114116
112	0x4104dbec	8.303692
113	0x40e20972	7.063653
114	0x4109e0f8	8.617424
115	0x411160c3	9.086123
116	0x4106ccf1	8.4250345
117	0x40fe7f60	7.9530487
118	0x4107b988	8.482796
119	0x40f4b053	7.646524
120	0x40fb70cd	7.8575196
121	0x40c3aea8	6.1150703
122	0x4119f54c	9.622387
123	0x40f50487	7.6568027
124	0x4105f2a2	8.371737
125	0x410f58cf	8.959182
126	0x4104fe2c	8.312054
127	0x40e028b5	7.004969
128	0x4108ffa1	8.562409
129	0x41198461	9.594819
130	0x410f43c1	8.9540415
131	0x40e6fd16	7.2183943
132	0x40feafca	7.9589586
133	0x3e04243f	0.12904452
134	0x40e8d7bf	7.276336
135	0x410fc206	8.984869
136	0x40f6f8ed	7.7178864
137	0x4108404d	8.515698
138	0x40fc7ea4	7.890459
139	0x410e7bb6	8.905203
140	0x41157270	9.340439
141	0x410a9bbd	8.663022
142	0x40ec7c98	7.390209
143	0x412183df	10.094695
144	0x41000eba	8.003595
145	0x40effa92	7.499337
146	0x410c9866	8.787207
147	0x40e4ecd2	7.1539087
148	0x40f82abc	7.7552166
149	0x40dc080c	6.8759823
150	0x411f41bf	9.953551
151	0x410486c7	8.282905
152	0x41070b7b	8.440303
153	0x41049631	8.286668
154	0x40db3ceb	6.8511863
155	0x410a6fb8	8.652275
156	0x410d3403	8.825198
157	0x410dafae	8.855391
158	0x411b7492	9.71596
159	0x411fb966	9.982763
160	0x4116ea71	9.432237
161	0x40fe0520	7.9381256
162	0x410afdc0	8.686951
163	0x4114236a	9.258646
164	0x41050f1b	8.316188
165	0x4112351c	9.137966
166	0x4102165a	8.130457
167	0x411c2f1f	9.761504
168	0x41033304	8.199955
169	0x40f2ff7f	7.5936885
170	0x410affa6	8.687414
171	0x40dd06c4	6.907076
172	0x40fa8929	7.829243
173	0x40ec4c52	7.3843164
174	0x4127ac2d	10.479535
175	0x410583cc	8.344677
176	0x4106861a	8.40774
177	0x40f696a1	7.7058873
178	0x40f9beee	7.804557
179	0x41174e14	9.456562
180	0x410623ff	8.383788
181	0x41060522	8.376253
182	0x40fd47ad	7.9149995
183	0x4108a144	8.5393715
184	0x410a7d90	8.655655
185	0x410c4558	8.76693
186	0x410ef0cf	8.933791
187	0x410b92c8	8.723335
188	0x4117aca1	9.479646
189	0x40db9aed	6.862662
190	0x41141861	9.255952
191	0x40f419f0	7.628166
192	0x410c7a85	8.779912
193	0x41098024	8.593784
194	0x410a417f	8.64099
195	0x41069082	8.41028
196	0x4116a006	9.414068
197	0x41022e31	8.136277
198	0x41141f4f	9.257644
199	0x41042ff8	8.261711
200	0x410f2d44	8.948551
201	0x410dfb06	8.873785
202	0x41165d0c	9.3977165
203	0x410a3033	8.636767
204	0x4112cb6f	9.174666
205	0x410b0616	8.688986
206	0x41091c4c	8.569408
207	0x4118735c	9.528164
208	0x411b6d8f	9.714248
209	0x410d118f	8.816787
210	0x4103ea84	8.244755
211	0x40edc201	7.429932
212	0x41029d7e	8.16345
213	0x40f2e633	7.5906005
214	0x410064e7	8.024634
215	0x410a20fe	8.633055
216	0x41056de4	8.339329
217	0x4108f24c	8.5591545
218	0x410ace2e	8.675337
219	0x41071544	8.442692
220	0x40ffe65e	7.996871
221	0x3e0ad750	0.13558698
222	0x41046ff0	8.2773285
223	0x411de326	9.867956
224	0x40ec7a1c	7.389906
225	0x41047561	8.278657
226	0x410da04b	8.851634
227	0x4104d4c5	8.301946
228	0x41121b9b	9.13174
229	0x410d7ba3	8.842685
230	0x4113b0c7	9.230659
231	0x41087712	8.52907
232	0x40fb05d4	7.8444614
233	0x410362e4	8.211643

network.1.bias f4 [234]
0	0xc08baffe	-4.3652334
1	0x407dc266	3.9649901
2	0xc02a2989	-2.658785
3	0xc0a21199	-5.064648
4	0xc0454d9b	-3.0828617
5	0xbfe89f3f	-1.8173598
6	0xc084dfb4	-4.1523075
7	0xbff1b834	-1.8884339
8	0xc05af3b4	-3.4211245
9	0xc06dc256	-3.7149863
10	0xc0af6b4c	-5.481848
11	0xc0119c58	-2.2751675
12	0x40e61344	7.1898518
13	0xc05afad2	-3.4215589
14	0xc05b1e39	-3.4237196
15	0xc0cd4279	-6.4143643
16	0xc0a9e2e4	-5.3089466
17	0xc0982cf1	-4.755486
18	0x40ba6e91	5.825997
19	0xc060b71e	-3.5111766
20	0xc05f38bd	-3.487838
21	0xc08eb594	-4.4596653
22	0xc0a76594	-5.2311497
23	0xc04c501c	-3.1923895
24	0x40cd840e	6.42237
25	0x405d8394	3.461156
26	0xc0be6d5a	-5.9508486
27	0xc01d9669	-2.4623053
28	0x409bf068	4.8730965
29	0xc057abde	-3.369865
30	0xc0e6ea53	-7.216104
31	0xbfc34238	-1.5254583
32	0xc0639845	-3.5561688
33	0xc0a90c29	-5.2827344
34	0xc07e8e75	-3.977445
35	0xc07d6bea	-3.9597116
36	0x41126f20	9.15213
37	0xc08aab8a	-4.33344
38	0xc02f4e78	-2.7391644
39	0xc01d1261	-2.4542468
40	0xc09fd3c4	-4.9946003
41	0xc0374266	-2.8634276
42	0xc09a7724	-4.8270435
43	0xc06fd7e0	-3.747551
44	0xc0951fb5	-4.6601205
45	0xc045560e	-3.0833774
46	0xc07d29be	-3.9556727
47	0x3f2bd35f	0.671194
48	0xc044618f	-3.0684545
49	0xc09125b3	-4.535852
50	0xc05d714a	-3.4600396
51	0xc0501090	-3.251011
52	0xc060d4ac	-3.5129805
53	0xc10348de	-8.20529
54	0xc09b4c6d	-4.8530793
55	0xc03b992d	-2.931224
56	0xc08a7aeb	-4.3275046
57	0xc04821cc	-3.1270628
58	0xc02e2d41	-2.721512
59	0xc0cc7b20	-6.39003
60	0xc0278d64	-2.6180048
61	0xc08700f5	-4.218867
62	0x407d3aa8	3.956705
63	0xc095fabe	-4.686858
64	0x40e13ba8	7.0385323
65	0xc07ce94f	-3.95174
66	0xc078832a	-3.8830056
67	0xc0ac25e5	-5.379626
68	0xc080608a	-4.0117846
69	0xbfafab0a	-1.3724072
70	0xc06294e5	-3.5403378
71	0xc0af80c9	-5.484471
72	0xc06667f8	-3.6000957
73	0xc034ea09	-2.8267844
74	0xc061921f	-3.5245435
75	0xbfbf9c6c	-1.4969611
76	0xc0a8bba4	-5.2729053
77	0xc00839aa	-2.1285195
78	0xc095e97f	-4.684753
79	0xc01b65e8	-2.4280949
80	0xc057e07a	-3.373076
81	0xc06f5c28	-3.7399998
82	0xc0530a1d	-3.2974923
83	0xc02df642	-2.7181554
84	0xc010c50c	-2.2620268
85	0xbfb79da1	-1.434498
86	0xc084ae8f	-4.1463084
87	0xc06e6320	-3.7248
88	0xc00fb7b3	-2.245587
89	0xc088c8bc	-4.2745037
90	0xbff5b761	-1.9196588
91	0xc066a36f	-3.6037252
92	0xc0def132	-6.966943
93	0xc0ae3918	-5.4444695
94	0xc0042327	-2.0646455
95	0xc0366929	-2.8501685
96	0xc010c19a	-2.2618165
97	0xc0524509	-3.2854636
98	0xc045ed7a	-3.0926194
99	0xc061f46a	-3.5305429
100	0x40804098	4.007885
101	0xc0a0411b	-5.0079474
102	0xc07fa0d7	-3.994192
103	0xc0adee6d	-5.4353547
104	0xc064c330	-3.5744133
105	0xc03cb844	-2.9487467
106	0xc0816a09	-4.0441937
107	0xbfeab773	-1.8337234
108	0xc0a5f6f0	-5.1863937
109	0xc0a29ccd	-5.0816407
110	0xc02af77a	-2.6713548
111	0x4101a900	8.10376
112	0xc03ea146	-2.9785933
113	0xbf4b4738	-0.79405546
114	0xc02c6acf	-2.694019
115	0xc088d1b2	-4.2755976
116	0xc05d5103	-3.4580696
117	0xc0005460	-2.0051498
118	0xc031755c	-2.772788
119	0xc0739292	-3.805821
120	0xc040e85c	-3.014182
121	0xbf3df602	-0.74203503
122	0xc0d00288	-6.500309
123	0xbfc93865	-1.5720335
124	0xc05b1a4b	-3.4234798
125	0xc0af29f7	-5.4738727
126	0xc044ddce	-3.076038
127	0xc011b3c4	-2.276597
128	0xc084f032	-4.1543207
129	0xc0ca2ac1	-6.317719
130	0xc09f4d54	-4.9781895
131	0xc08a135c	-4.314863
132	0xc0d0a212	-6.519784
133	0xbf90829c	-1.1289859
134	0xc01d7134	-2.4600344
135	0xc06369af	-3.5533254
136	0xc07363d5	-3.8029683
137	0xc062c5d1	-3.5433238
138	0xc020aee4	-2.5106745
139	0xc0995993	-4.7921844
140	0xc0f81661	-7.752732
141	0xc0875d38	-4.2301292
142	0xbfff012b	-1.9922231
143	0x40d0a948	6.520664
144	0xc025492d	-2.5825913
145	0x3fe941ec	1.8223243
146	0xc0961248	-4.6897316
147	0xc084c044	-4.14847
148	0xc097bcd4	-4.7418003
149	0xbffc117e	-1.9692838
150	0xc0cdf4f5	-6.436152
151	0xc07f899c	-3.992774
152	0xc016cac6	-2.3561263
153	0xc03869c9	-2.8814566
154	0xbf7dc0bd	-0.9912222
155	0xc0972369	-4.7230725
156	0xc09f9141	-4.986481
157	0xc0c8b26b	-6.2717795
158	0xc0b21339	-5.5648465
159	0xc0e0c710	-7.0242996
160	0xc0b572b6	-5.670253
161	0xc04bda68	-3.1852055
162	0x40db1eba	6.847501
163	0xc08d70ee	-4.4200354
164	0xc06de750	-3.7172432
165	0xc0a4b6b2	-5.1473017
166	0xc06ced0d	-3.7019684
167	0xc0afadf9	-5.489987
168	0xc07e3bb4	-3.972394
169	0xc089415c	-4.2892284
170	0x40603c1e	3.5036693
171	0xbfab7a01	-1.3396608
172	0xc001e8be	-2.0298305
173	0xc0166ca9	-2.350382
174	0xc0d000c9	-6.500096
175	0xc0b0ebe1	-5.528794
176	0xc05bc4f6	-3.4338965
177	0xc05a33c8	-3.4094105
178	0xc0a9d856	-5.307658
179	0x40d3602c	6.6054897
180	0xc095f00e	-4.6855536
181	0xc014fb28	-2.3278294
182	0xc05ca4b9	-3.4475539
183	0xc0b3d868	-5.620167
184	0xc020e41c	-2.5139227
185	0xc0b1ee7e	-5.560363
186	0xc06919b2	-3.6421933
187	0x40126a9a	2.2877564
188	0xc0804fa1	-4.0097203
189	0x40477896	3.116735
190	0xc0b66a37	-5.7004657
191	0xc03838f1	-2.8784754
192	0xc07dd372	-3.9660306
193	0xc055fbe7	-3.3435
194	0xc05d3367	-3.4562624
195	0x40dd8393	6.9223113
196	0x40c1421e	6.039321
197	0xc06ba802	-3.6821294
198	0x41c79577	24.94798
199	0xc06d86ec	-3.71136
200	0xc0aabec2	-5.335786
201	0xc05e108f	-3.4697607
202	0xc088a2dd	-4.269881
203	0xc091c862	-4.555711
204	0x40dbdb35	6.8705087
205	0x40a84849	5.258824
206	0xc04d4e3c	-3.2079
207	0xbfeefb48	-1.8670435
208	0xc0887fed	-4.265616
209	0xc04e8bbc	-3.2272787
210	0x40c605e5	6.1882195
211	0xbfe911d5	-1.8208567
212	0xc0649472	-3.5715604
213	0xc00507ef	-2.0786092
214	0xc01d3e5e	-2.4569316
215	0xc05360cd	-3.3027833
216	0xc0686b4d	-3.6315491
217	0xc0acc1a6	-5.3986387
218	0xc09c002d	-4.8750215
219	0xbfbbab46	-1.4661644
220	0xc037c03f	-2.8711088
221	0xbfa754da	-1.307277
222	0xc07e4dea	-3.9735055
223	0xc0c48380	-6.1410522
224	0xbfa2eb4c	-1.2728057
225	0xbfebce6d	-1.8422371
226	0xc037e2cf	-2.8732183
227	0xc01f1364	-2.4855585
228	0xc035337b	-2.831267
229	0xc08da7bb	-4.426725
230	0xc069ff27	-3.6561983
231	0xc0485121	-3.1299517
232	0xc02fcdad	-2.7469285
233	0xbfc20379	-1.515731

network.1.running_mean f4 [234]
0	0x40218178	2.5235271
1	0x40a4afc3	5.1464553
2	0x40157281	2.3351138
3	0xbe3317f2	-0.17489603
4	0x40184f1a	2.379828
5	0x40210475	2.515897
6	0x40253f6e	2.5819964
7	0x401e34e5	2.4719784
8	0x401d50f7	2.4580667
9	0x4030d4e4	2.7629938
10	0x3e4ffd43	0.20311455
11	0x401b9e70	2.4315453
12	0x40a044fb	5.0084205
13	0x40162b64	2.3463984
14	0x401f4e9b	2.4891727
15	0x3fb8f748	1.4450464
16	0x3fd0bb9c	1.6307254
17	0x3e36ff83	0.17870907
18	0x409a07d1	4.813454
19	0x4020e7ce	2.5141482
20	0x401ed413	2.481694
21	0x4013901f	2.3056715
22	0x40235bd9	2.552481
23	0x401b198c	2.4234343
24	0x40a858b5	5.2608285
25	0x40ae96c7	5.4559054
26	0x400d592d	2.2085679
27	0x401e737d	2.4757988
28	0x403041ef	2.7540243
29	0x40096ba5	2.147195
30	0x3f53d9b9	0.82754093
31	0x401da6ab	2.4632976
32	0x401c6f71	2.4443018
33	0x4017bc68	2.3708744
34	0x402247b0	2.5356255
35	0x40322446	2.783464
36	0x40926ad2	4.5755396
37	0x401bca56	2.4342246
38	0x40129f6d	2.2909806
39	0x4014e8bf	2.3267057
40	0x400af5a4	2.1712427
41	0x402e2fe2	2.7216725
42	0x40234671	2.5511744
43	0x4009777b	2.1479175
44	0x3ff66a71	1.9251233
45	0xbef277f8	-0.47357154
46	0x401d079c	2.4535894
47	0x401d19d1	2.4547007
48	0x4015bc64	2.3396235
49	0x3f5f759d	0.8728884
50	0x3dc2705a	0.094940856
51	0xbcf170d0	-0.029472739
52	0x4015d406	2.341066
53	0x3f432fb7	0.7624468
54	0x3e839ed9	0.2570713
55	0x3fadf35b	1.3589891
56	0x4003b6d1	2.0580332
57	0x401ec54c	2.480792
58	0x4014b98b	2.3238246
59	0x3f33dd57	0.7025961
60	0x4015213e	2.330154
61	0x40202bda	2.5026765
62	0x40aca480	5.3950806
63	0x3f30ae70	0.6901617
64	0x40977ab7	4.73373
65	0x401dd17f	2.4659116
66	0x4032e83e	2.795425
67	0x40249f27	2.572214
68	0x401afec5	2.4218
69	0x4032e91c	2.7954779
70	0x401e788e	2.476108
71	0x401b8526	2.4300017
72	0x402474f4	2.5696383
73	0x40303b15	2.753606
74	0x40200252	2.5001416
75	0xbb8a41f9	-0.0042192903
76	0x401e779f	2.476051
77	0x40212eaa	2.5184731
78	0x402147e1	2.5200121
79	0x401cea74	2.45181
80	0x3f4a188c	0.78943706
81	0x402175e5	2.5228207
82	0x4020e958	2.5142422
83	0x402b641a	2.6779847
84	0x401c03f2	2.4377408
85	0x40246c47	2.5691087
86	0x401a6859	2.4126189
87	0x401ff8e8	2.499567
88	0x402851fc	2.630004
89	0x402290f9	2.5400984
90	0x4020c255	2.511861
91	0x4020c308	2.5119038
92	0x3fa8031b	1.3125948
93	0x3ff18174	1.8867631
94	0x4011c95c	2.277915
95	0x401758a1	2.3647845
96	0x4015601a	2.3339906
97	0x401dbdbe	2.464706
98	0x402a5863	2.6616447
99	0x403413c2	2.813706
100	0x409d2954	4.911295
101	0x3f1102e0	0.5664501
102	0x4024c142	2.5742955
103	0x401422fd	2.3146355
104	0x401ad44d	2.4192078
105	0x40239860	2.5561752
106	0x40178c99	2.3679564
107	0x402873e7	2.632074
108	0x401ce6ba	2.4515824
109	0x40124b2d	2.2858384
110	0x4029e0dc	2.6543493
111	0x402852b7	2.6300485
112	0x40297fc0	2.6484222
113	0x401ab107	2.417055
114	0x401fe953	2.498616
115	0x400dea7d	2.217437
116	0x4029527e	2.64566
117	0x4018822a	2.3829446
118	0x4029fda9	2.6561072
119	0xbe0bbc77	-0.13646112
120	0x402718af	2.6108816
121	0x402a7eaa	2.663981
122	0x3f7b8022	0.9824239
123	0x4026bc3c	2.605239
124	0x401da5d6	2.4632468
125	0x3fe925af	1.8214625
126	0x40322801	2.7836916
127	0x40187b36	2.3825202
128	0x40206ba6	2.5065703
129	0x3f825f9f	1.0185431
130	0x401994ed	2.3997147
131	0xbd1a6b86	-0.0377002
132	0x3f5fdc0e	0.8744515
133	0x3e359a7f	0.17734717
134	0x401c6553	2.4436843
135	0x4020791b	2.5073917
136	0x401c8980	2.4458923
137	0x402dbbf5	2.714597
138	0x403498b3	2.82182
139	0x3f8cd39c	1.1002078
140	0x3f21274a	0.62950575
141	0x3ee42112	0.4455648
142	0x401b9cd6	2.4314475
143	0x408a9ece	4.3318853
144	0x40203647	2.5033128
145	0x404edca4	3.2322168
146	0x4020ed38	2.5144787
147	0xbeb91518	-0.36148906
148	0x401a1e5d	2.4081032
149	0x402862ea	2.6310372
150	0x3fc0248b	1.5011152
151	0x4022fd12	2.5466962
152	0x40327d8b	2.7889125
153	0x4025380b	2.5815456
154	0x40292c2b	2.6433208
155	0x40181ff2	2.3769498
156	0x4024272a	2.5648904
157	0x3ea5b77b	0.32366547
158	0x3f84b306	1.0367134
159	0x3f1c2855	0.6099904
160	0x4003b1cd	2.057727
161	0x40073385	2.1125195
162	0x40a29f2a	5.081929
163	0x40220167	2.5313356
164	0x4037503a	2.8642716
165	0x4015c19d	2.3399422
166	0x402336ce	2.55022
167	0x40053c76	2.0818152
168	0x4015613d	2.33406
169	0x3eaee000	0.34155273
170	0x408e8308	4.453495
171	0x401fabbc	2.4948568
172	0x401de466	2.4670653
173	0x4009bab5	2.1520207
174	0x3f68d6ed	0.9095295
175	0x4023215d	2.5489113
176	0x400e4b1c	2.2233343
177	0x401e5bb8	2.474348
178	0x3ebae531	0.36502984
179	0x40a2adee	5.0837317
180	0x401ca66b	2.4476573
181	0x401889ca	2.38341
182	0x403350b4	2.8018007
183	0x40164caf	2.3484304
184	0x40105c83	2.2556465
185	0x3eae0602	0.3398896
186	0x402a6631	2.6624873
187	0x40a0810f	5.015754
188	0x401ed076	2.4814734
189	0x404cf9fa	3.2027574
190	0x4025822f	2.5860708
191	0x401f48c3	2.488816
192	0x401fc494	2.4963732
193	0x4019b479	2.4016402
194	0x4026b366	2.6046996
195	0x409bf9c8	4.874241
196	0x40a3b55d	5.115889
197	0x402df8ba	2.718306
198	0x409cfca8	4.905842
199	0x4022fffe	2.5468745
200	0x400fff59	2.2499602
201	0x401f8a40	2.492813
202	0x402273fb	2.538329
203	0x40197e80	2.398346
204	0x409d610c	4.9180965
205	0x40795aa5	3.8961575
206	0x401d00dd	2.4531777
207	0x4008bd0c	2.1365385
208	0x401414b0	2.3137627
209	0x401e33ca	2.471911
210	0x40249985	2.57187
211	0x401c6d68	2.4441776
212	0x40245599	2.5677245
213	0x40234edc	2.5516882
214	0x401f7373	2.4914215
215	0x40086367	2.131067
216	0x401981d6	2.3985496
217	0x40210147	2.515703
218	0x401bf11e	2.4365916
219	0x4029aa2b	2.6510112
220	0x4031a285	2.7755444
221	0x3eb645b2	0.35600048
222	0x4025b514	2.5891771
223	0x3fef5848	1.8698816
224	0x40345402	2.8176274
225	0x402128d2	2.5181165
226	0x402259f4	2.5367403
227	0x402cbd2d	2.6990464
228	0x40270050	2.609394
229	0x40129023	2.2900474
230	0x4019bf01	2.402283
231	0x4013b6b3	2.308026
232	0x40195adb	2.3961704
233	0x402279e0	2.5386887

network.1.running_var f4 [234]
0	0x4059612a	3.3965554
1	0x40797719	3.8978941
2	0x4075f3a3	3.8429954
3	0x4052e62b	3.2952983
4	0x4075da8e	3.8414645
5	0x408d32fa	4.4124727
6	0x407f9330	3.9933586
7	0x4083df63	4.121019
8	0x409e7ae0	4.9524994
9	0x40703ab5	3.7535832
10	0x4059edf8	3.4051495
11	0x407c68d3	3.943898
12	0x407aef52	3.920857
13	0x40880c88	4.2515297
14	0x4081b32b	4.053121
15	0x405bf8db	3.437064
16	0x4054eaec	3.3268385
17	0x40df2788	6.9735756
18	0x4071c383	3.777558
19	0x408b6030	4.3554916
20	0x408aa4ee	4.332633
21	0x4070aa03	3.7603767
22	0x406da2fd	3.713073
23	0x408470c4	4.1387653
24	0x407fad0c	3.994937
25	0x406f4969	3.7388556
26	0x4060127d	3.5011284
27	0x407ecf66	3.9814086
28	0x40816c83	4.044496
29	0x4072a948	3.791582
30	0x4057ba4b	3.3707454
31	0x4082d196	4.088084
32	0x40810b72	4.032647
33	0x4073bd58	3.8084316
34	0x4094afe5	4.6464715
35	0x4064e51f	3.5764844
36	0x4062e515	3.545232
37	0x4088397f	4.2570186
38	0x4089490c	4.290167
39	0x407df986	3.9683547
40	0x405c5454	3.442647
41	0x4078bf90	3.886692
42	0x406b7a43	3.6793373
43	0x406efea7	3.7342927
44	0x4063ec93	3.5613143
45	0x40fcfd6e	7.9059362
46	0x406c4383	3.6916206
47	0x408352f2	4.103875
48	0x407d27a2	3.955544
49	0x40a13561	5.037766
50	0x40825984	4.073427
51	0x40a092e6	5.017932
52	0x4079bac2	3.9020238
53	0x4050142a	3.2512307
54	0x4190cd58	18.100266
55	0x408b8a8a	4.3606615
56	0x407d3881	3.9565737
57	0x40b3149e	5.5962667
58	0x407fe904	3.9985971
59	0x40580b4f	3.3756902
60	0x407d5e25	3.9588711
61	0x408f643b	4.480985
62	0x40753c06	3.8317885
63	0x40a11efc	5.0350323
64	0x40763e10	3.847538
65	0x4070df28	3.7636204
66	0x40709989	3.759371
67	0x40711ac2	3.7672582
68	0x4084f9bc	4.155485
69	0x40ea782b	7.327169
70	0x4066cee7	3.6063783
71	0x405a8ddf	3.4149091
72	0x40872927	4.2237735
73	0x406d9447	3.7121751
74	0x406f57bd	3.7397301
75	0x3db11954	0.08647409
76	0x4060b700	3.5111694
77	0x408ca4f6	4.395137
78	0x40873ade	4.225936
79	0x407e23a2	3.9709249
80	0x40e7cb2f	7.2435527
81	0x40834173	4.1017394
82	0x407a7e96	3.9139762
83	0x40718d84	3.7742624
84	0x40aeae47	5.458774
85	0x4077e08a	3.8730798
86	0x407d6e4f	3.9598577
87	0x4080ebc8	4.028782
88	0x40724872	3.7856717
89	0x4071e53f	3.779617
90	0x40808232	4.015893
91	0x40834535	4.102198
92	0x404e3136	3.2217536
93	0x405e403c	3.4726706
94	0x4086d015	4.2129006
95	0x407b4643	3.9261634
96	0x40811867	4.034229
97	0x40a0ea5a	5.0286074
98	0x4080196b	4.003103
99	0x40822def	4.068107
100	0x4075355e	3.8313823
101	0x40acd84e	5.4014044
102	0x407547b8	3.8325024
103	0x407c19f9	3.9390852
104	0x4083cb7b	4.118589
105	0x4092a332	4.5824213
106	0x406d44cb	3.7073238
107	0x408e6a66	4.450488
108	0x405cbe75	3.4491246
109	0x407011f3	3.7510955
110	0x4096b828	4.70998
111	0x4076fa96	3.8590446
112	0x40b88c66	5.7671385
113	0x407ff36a	3.9992318
114	0x406ca235	3.6974003
115	0x40879a39	4.237576
116	0x40681bf3	3.626706
117	0x40952d82	4.661805
118	0x4087861b	4.2351203
119	0x40a5ea04	5.1848164
120	0x4065c72a	3.590281
121	0x4084c480	4.148987
122	0x4059ebde	3.4050212
123	0x407b22d1	3.924
124	0x407bddb9	3.9354079
125	0x40696f64	3.6474237
126	0x408aa6bf	4.3328547
127	0x408e55d1	4.4479756
128	0x4080d725	4.0262628
129	0x40562013	3.3457077
130	0x407ef90d	3.9839509
131	0x409d76db	4.9207587
132	0x4046438e	3.0978732
133	0x3d9d0aac	0.07668051
134	0x4086d1a9	4.2130933
135	0x4083a6ff	4.1141353
136	0x40740286	3.812654
137	0x408146c5	4.039889
138	0x4091e01b	4.5586066
139	0x40650d36	3.5789313
140	0x406845f7	3.6292703
141	0x40a6c915	5.212046
142	0x4081b465	4.053271
143	0x40657dce	3.5858035
144	0x409348ec	4.6026516
145	0x406d5ec8	3.70891
146	0x40758de9	3.8367865
147	0x40c12e86	6.036929
148	0x405d2881	3.4555972
149	0x40ab3b0d	5.3509583
150	0x404bc434	3.1838503
151	0x408f70b6	4.4825087
152	0x409ddb75	4.933039
153	0x408500c3	4.156343
154	0x408d19a6	4.409381
155	0x4076dc34	3.8571901
156	0x406edc8c	3.732211
157	0x40422b48	3.0338917
158	0x405e5e18	3.474493
159	0x405b6737	3.4281747
160	0x405674e8	3.3508854
161	0x408efffc	4.468748
162	0x4070c96b	3.7622936
163	0x405dd412	3.4660687
164	0x407a78a6	3.9136138
165	0x406ea379	3.7287276
166	0x407e788b	3.9761074
167	0x4075b455	3.8391316
168	0x405786ff	3.3676145
169	0x405c91cd	3.446399
170	0x40787d61	3.8826525
171	0x4082651b	4.074842
172	0x4088b28a	4.2717943
173	0x408fafc6	4.4902067
174	0x4058e454	3.388936
175	0x4061d000	3.5283203
176	0x40841860	4.1279755
177	0x4094bbe3	4.6479354
178	0x408f2f47	4.474521
179	0x40719552	3.7747388
180	0x408d596f	4.417167
181	0x40a18d6e	5.0485144
182	0x40738cb1	3.8054621
183	0x406d6ad4	3.7096453
184	0x408fdc6e	4.495658
185	0x405374a5	3.3039944
186	0x405ecf52	3.4814038
187	0x40790bd0	3.891346
188	0x406a6ee2	3.6630177
189	0x408aa81f	4.3330226
190	0x40782993	3.8775375
191	0x4072170f	3.7826574
192	0x408283fc	4.0786114
193	0x4098ae7e	4.7713003
194	0x4081bb3b	4.0541053
195	0x406e8711	3.7269938
196	0x406eb99d	3.730079
197	0x405b14b7	3.4231393
198	0x4086f997	4.2179675
199	0x40746321	3.8185503
200	0x40705811	3.7553751
201	0x406d94b4	3.712201
202	0x409b6297	4.855785
203	0x406d7828	3.7104588
204	0x407d1c9f	3.954872
205	0x4074a37c	3.8224783
206	0x40674a15	3.6138966
207	0x40937d94	4.6090794
208	0x40736661	3.8031237
209	0x407e05f7	3.969114
210	0x4077cdbb	3.8719318
211	0x408bd50b	4.369756
212	0x40650926	3.5786834
213	0x4072c55d	3.793296
214	0x408ea116	4.457164
215	0x407aab82	3.916718
216	0x40a11613	5.0339446
217	0x40656651	3.58437
218	0x407bceac	3.9344893
219	0x408e1944	4.440584
220	0x40b43394	5.631296
221	0x3db09ec9	0.08624036
222	0x407ff2fb	3.9992054
223	0x4061ad76	3.5262122
224	0x4099d5b6	4.8073378
225	0x4072b4a2	3.792275
226	0x407ab96a	3.9175668
227	0x4087f3da	4.248517
228	0x40a54b29	5.165425
229	0x4068af76	3.6357093
230	0x40804595	4.008494
231	0x408978ba	4.295987
232	0x40858001	4.1718755
233	0x408878d9	4.264752

network.4.weight f4 [243, 234]
0	0xc1ba1563	-23.260443
1	0xbf83e672	-1.0304701
2	0x4091f6dd	4.5613847
3	0xc0933627	-4.6003604
4	0x3fd46741	1.659401
5	0xc12797f3	-10.474597
6	0x417e5c20	15.897491
7	0xc0795985	-3.8960888
8	0xbeb63b66	-0.35592192
9	0xbf79d023	-0.97583216
10	0x3f5471b5	0.82986003
11	0x3f66d879	0.9017406
12	0x401253c8	2.2863636
13	0xc07a0987	-3.9068315
14	0xc03c1d43	-2.939286
15	0xc0a57671	-5.170708
16	0xc09d192a	-4.909322
17	0x3ec0b619	0.3763893
18	0xc0b3aae8	-5.6146126
19	0x411652bc	9.395199
20	0xbfd71512	-1.6803305
21	0x41475483	12.458133
22	0xc0def1bb	-6.967008
23	0x410b2edf	8.698943
24	0xc0d6ade3	-6.7087264
25	0x40a10308	5.03162
26	0x40e9bbb8	7.304165
27	0x411c0084	9.750126
28	0x3f85344e	1.0406587
29	0xc07b9bcb	-3.9313838
30	0xc12277ec	-10.154278
31	0x41244f02	10.269289
32	0xbffd09bc	-1.9768596
33	0xbff8ae62	-1.9428217
34	0xc04aa7f5	-3.1665013
35	0x3f6aafca	0.9167448
36	0xbe63f412	-0.22261074
37	0xc0dc4909	-6.8839154
38	0xc167ab0b	-14.479259
39	0x40f26505	7.5748315
40	0x3f2c1a86	0.6722797
41	0x40d429ab	6.6300864
42	0xc087ed48	-4.247715
43	0xc07c563a	-3.9427629
44	0x4108a19c	8.539455
45	0xc10d2bd6	-8.823202
46	0xc0c54a3c	-6.165312
47	0xbf851a88	-1.0398722
48	0xc043b59b	-3.0579593
49	0xc09f6c01	-4.981934
50	0x414c2a49	12.760324
51	0x4044ef77	3.0771158
52	0xc090eaba	-4.528653
53	0x3e3f91fd	0.18708034
54	0x41553e04	13.327641
55	0x41061a91	8.381486
56	0x402a5bc0	2.66185
57	0xc1189d80	-9.538452
58	0x3f5d3e87	0.86423534
59	0x409f50ef	4.9786296
60	0x413eda16	11.928244
61	0x40ba4aa4	5.8216114
62	0xc03be7b7	-2.9360178
63	0x40beb03f	5.9590144
64	0x400385cd	2.0550416
65	0x41585e21	13.522981
66	0x40ffb508	7.9908485
67	0xc0a79504	-5.2369404
68	0xc10cd859	-8.802819
69	0xc0956b9a	-4.669385
70	0xc08d9066	-4.423877
71	0xc0fad55e	-7.838546
72	0xc0e129c7	-7.03635
73	0x3eba9200	0.36439514
74	0x400c2ad5	2.1901143
75	0x3e99d2ec	0.30043733
76	0xc0eba567	-7.3639407
77	0x409184be	4.547454
78	0x406ff4ec	3.7493238
79	0x40080a35	2.125623
80	0x41013227	8.074744
81	0xc0bca04e	-5.8945684
82	0xc0fec61f	-7.9616847
83	0x3f8b4907	1.0881661
84	0x410a28c7	8.634955
85	0x41753fc6	15.32807
86	0xbfdd2949	-1.7278224
87	0x401dc2f5	2.4650242
88	0x40e6d3ce	7.213355
89	0xc09de357	-4.9340014
90	0x3eadae5e	0.33922094
91	0x3fe8b4a8	1.8180132
92	0xc13eb268	-11.918556
93	0x40c68d35	6.204737
94	0x41401305	12.004643
95	0x40dea7cf	6.9579844
96	0xbe4f937a	-0.20271102
97	0x404ab4fc	3.1672964
98	0xc172e9a9	-15.182046
99	0xc0066ae8	-2.100275
100	0xbf2226e3	-0.63340586
101	0xc128d794	-10.552631
102	0xbffa02c1	-1.953209
103	0x40de28ed	6.942496
104	0x40cd7740	6.420807
105	0x4155236f	13.321151
106	0xc0c07502	-6.014283
107	0xc043e4c9	-3.060839
108	0xc082f438	-4.092312
109	0x4030a1d0	2.7598763
110	0x3fe29851	1.7702733
111	0x4030576e	2.7553363
112	0x403a9c45	2.915788
113	0x3f96ac4b	1.177133
114	0x41312c93	11.073382
115	0x40934056	4.6016035
116	0x3f9ed587	1.2408913
117	0xc0a9fea5	-5.3123345
118	0x413cf8c0	11.81073
119	0x3ff0bf85	1.8808447
120	0xc0a3ae3a	-5.115018
121	0xc0818b6c	-4.0482693
122	0x40a7b6a7	5.2410464
123	0xc01a9a7a	-2.4156785
124	0x40aab3ac	5.3344326
125	0x40f21829	7.565449
126	0x412d274f	10.822097
127	0xbf9ef12a	-1.2417347
128	0x410e3971	8.889024
129	0x40e6350d	7.193976
130	0x404cd287	3.2003496
131	0xc12fdd96	-10.991598
132	0x40f48aae	7.6419287
133	0x3f541a88	0.82852983
134	0x3f5e8c46	0.8693279
135	0xc0b6b113	-5.7091155
136	0x3fee2cd4	1.860743
137	0x40f0a0b9	7.5196195
138	0x3cd142cf	0.025544552
139	0x40a25f60	5.0741425
140	0xc00137ca	-2.01903
141	0x4091bd10	4.554329
142	0x410cd025	8.800817
143	0x40a22a3d	5.067656
144	0xbfeca9f9	-1.8489372
145	0x40b364a7	5.6060367
146	0x41501071	13.004014
147	0x412f3cef	10.952376
148	0x4013ce18	2.309454
149	0xc14ed1a6	-12.926184
150	0xc0e5279a	-7.161084
151	0x41174a64	9.455662
152	0xbfe4369f	-1.7829169
153	0x3fdad1ea	1.7095311
154	0xc01bbdbf	-2.4334562
155	0x4105a307	8.352302
156	0xc0c3d8ca	-6.1202135
157	0xbd5c321d	-0.05375873
158	0xc0a89a68	-5.2688484
159	0x3faa0d3b	1.3285288
160	0x40905c59	4.511273
161	0xc0952cd5	-4.6617227
162	0x404b9a63	3.181298
163	0x405c9457	3.446554
164	0xbec5dbae	-0.38644165
165	0xc104a081	-8.289186
166	0x412c05b5	10.751393
167	0x402d61a6	2.709085
168	0x416e5517	14.895774
169	0xc0e537f1	-7.163079
170	0xc0f42e49	-7.63065
171	0x3f382bca	0.71941817
172	0xc0eb98d2	-7.362405
173	0xbfe055fc	-1.752624
174	0x40bf865f	5.9851527
175	0xbfd05e71	-1.6278821
176	0xc1141dee	-9.257307
177	0xc0d8b3df	-6.771957
178	0x3f48c055	0.78418475
179	0xc06cc572	-3.699551
180	0xbfe88454	-1.8165383
181	0x40e40228	7.125263
182	0xbb4e2e00	-0.0031460524
183	0xbfad74b0	-1.3551235
184	0xc0a30f4e	-5.0956182
185	0xc1554195	-13.328511
186	0x418b5b7c	17.41967
187	0xbf9dc539	-1.2325813
188	0x3fd40681	1.6564485
189	0x407d0b35	3.953809
190	0x40d45e04	6.6364765
191	0x4018a976	2.385343
192	0x41351639	11.317925
193	0xc0b781b8	-5.734585
194	0xc04a60ff	-3.1621702
195	0xc0251f6e	-2.5800433
196	0xc03224f5	-2.7835057
197	0xc019e993	-2.4048812
198	0x4003c563	2.0589225
199	0xc018ee78	-2.389555
200	0xc0d69435	-6.7055917
201	0xc0a00acf	-5.0013194
202	0xc0227d3a	-2.5388932
203	0xc0e2eefb	-7.0916724
204	0xbfb199f8	-1.3875113
205	0x3e153af1	0.14573266
206	0x4134a520	11.290314
207	0xc088c8af	-4.2744975
208	0x40513731	3.2689936
209	0xc02ff5a4	-2.7493677
210	0xbf932928	-1.1496935
211	0xc0ef579a	-7.4794436
212	0xc10def86	-8.870977
213	0xbea4bc42	-0.3217488
214	0xc0ad016e	-5.4064245
215	0x3f8f139a	1.1177857
216	0xc0bf2a88	-5.973942
217	0xc1153004	-9.324223
218	0x416d96ce	14.849318
219	0xc105915e	-8.34799
220	0xc0db8554	-6.8600254
221	0xbdfa35a7	-0.122172646
222	0xc0059c3a	-2.0876603
223	0xc0c58c5f	-6.173385
224	0x4062e6ad	3.5453293
225	0x40b75c2e	5.7300024
226	0x4108053e	8.50128
227	0xc081a7e0	-4.0517426
228	0x407ecd27	3.9812715
229	0xc03b214f	-2.923908
230	0x41374936	11.455374
231	0xc11617d2	-9.3808155
232	0x412edb94	10.928608
233	0xc0120687	-2.2816484
234	0x40800fc4	4.0019245
235	0x40be72ff	5.9515376
236	0x3f2c8abe	0.67399204
237	0x40d2e9da	6.5910463
238	0x409f9740	4.987213
239	0x40873136	4.224757
240	0xc0d7a902	-6.739381
241	0x40826c4e	4.075721
242	0xc1453cc0	-12.327332
243	0x3f309c0c	0.6898811
244	0x410d516f	8.832381
245	0x40ced5fc	6.463621
246	0x40bda411	5.9262776
247	0xc0f65057	-7.697307
248	0x411d3c1e	9.827177
249	0x40eac92b	7.3370566
250	0xc070142c	-3.7512312
251	0x410d0904	8.814701
252	0xc0c3c082	-6.1172495
253	0xc0952285	-4.660464
254	0xbf97ada3	-1.1849865
255	0xc12621c4	-10.383244

network.4.bias f4 [243]
0	0x3d0c5bf2	0.034267373
1	0xbcafb7cb	-0.021449944
2	0x3cfa6ba0	0.030568898
3	0xbd54aed9	-0.05192456
4	0x3d97018b	0.07373341
5	0xbd115a6d	-0.035486627
6	0xbd316ddb	-0.043317657
7	0x3d8202c8	0.06348187
8	0xbcfb969a	-0.03071146
9	0xbd63d74d	-0.05562525
10	0x3d499747	0.049216535
11	0x3ca52bd5	0.020162502
12	0x3d6f1900	0.05837345
13	0xbc52ee33	-0.012874174
14	0xbbe5834b	-0.0070041767
15	0x3d1032e4	0.035204783
16	0xbb5af545	-0.0033410352
17	0x3c4e3fbb	0.012588437
18	0xbc05566d	-0.008138281
19	0xbd323a99	-0.043512914
20	0xb9cf903a	-0.00039589574
21	0xbcad2d9e	-0.021139916
22	0xbc47cf98	-0.01219549
23	0x3b61102b	0.0034341912
24	0xbd0e9557	-0.03481039
25	0x3d01216b	0.03152601
26	0x3d638885	0.055550117
27	0xbd24751c	-0.040150747
28	0xbd528180	-0.051393032
29	0xbd0fc01b	-0.035095315
30	0xbd5c3986	-0.053765796
31	0xbcc3f9e5	-0.02392287
32	0xbb71a358	-0.0036871042
33	0xbca4bd8b	-0.020109912
34	0xbd148fc2	-0.03626991
35	0x3afeab0c	0.0019429638
36	0xbccf8893	-0.025333678
37	0xbb7a6b48	-0.0038210917
38	0x3c967fce	0.018371489
39	0xbcd08946	-0.025456082
40	0x3d76a0c2	0.060211904
41	0x3be70aed	0.007050863
42	0x3d44c4f9	0.04803941
43	0x3d42e211	0.047578875
44	0xbd9db90b	-0.0770131
45	0x3d4c7e2a	0.049925007
46	0xbd21d4da	-0.03950963
47	0x3d47b6ff	0.048758503
48	0xbd255678	-0.040365666
49	0xbce7c075	-0.028290013
50	0xbcdf3c7d	-0.027250523
51	0xbbe2a3c0	-0.006916493
52	0xbd2570a1	-0.040390614
53	0x3d0100b5	0.031494815
54	0xbd2e69ee	-0.04258149
55	0xbc1976d3	-0.009366709
56	0xbcf8a2fb	-0.030351153
57	0xbd1eacee	-0.038739137
58	0xbc8f18e3	-0.017467922
59	0xbd4bbed4	-0.049742535
60	0x3d5fbdda	0.054624416
61	0x3b3f0007	0.0029144303
62	0xbc49aebe	-0.012309728
63	0x3d281cc0	0.041043043
64	0x3d8cefae	0.06881653
65	0x3cabc8ae	0.020969715
66	0xbd878e4d	-0.066189386
67	0xbd3dfe82	-0.046385296
68	0xbd44e554	-0.048070267
69	0x3d6a8996	0.05726012
70	0x3d053a3b	0.032526236
71	0x3d3cbb7a	0.04607723
72	0x3cb30b27	0.021855904
73	0x3d674425	0.056461472
74	0xbd5dbcf8	-0.054135293
75	0x3cfce925	0.03087289
76	0xbcdab7d0	-0.026698977
77	0x3d1ace7f	0.037794586
78	0xbc9f9f4f	-0.019485144
79	0xbc2c4b82	-0.010516049
80	0xbd877704	-0.06614497
81	0xbc827dda	-0.015929151
82	0xbd3581f9	-0.044313405
83	0xbd3d4b26	-0.046214245
84	0x3c074568	0.008256294
85	0x3d6db255	0.0580314
86	0x3d6a44e3	0.0571946
87	0xbd781115	-0.060563166
88	0xbd15091f	-0.03638565
89	0xbd2b66f0	-0.041846216
90	0x3cc48f4d	0.023994112
91	0xbc0bdeab	-0.008536975
92	0xbb038148	-0.0020066071
93	0xbd2b0d66	-0.041760825
94	0xbcee3599	-0.029078292
95	0x3d33c69c	0.04389058
96	0x3cbe441e	0.02322584
97	0x3ce1bdde	0.027556356
98	0xbcaa5eeb	-0.020797214
99	0x3d495901	0.049157146
100	0xbcf53ae6	-0.029935312
101	0x3c28a469	0.010293105
102	0xbd22e382	-0.03976775
103	0x3d018321	0.031619195
104	0x3caf506f	0.021400658
105	0xbd4082f5	-0.04699989
106	0x3d53414c	0.051575944
107	0x3d4bd37d	0.049762238
108	0x3d574810	0.05255896
109	0x3d25a0eb	0.040436666
110	0x3c17b6e1	0.00925991
111	0xbcea537a	-0.028604258
112	0xbbec46a4	-0.0072105695
113	0x3c4cd9b7	0.012503079
114	0x3cddab93	0.027059352
115	0xbd28e97f	-0.041238304
116	0xbcbe34b2	-0.023218486
117	0xbd5855d8	-0.052816242
118	0xbc97eddf	-0.018546043
119	0x3ccd6868	0.025074199
120	0xbbf8e5c5	-0.00759575
121	0x3ae21e11	0.0017251392
122	0x3d6bc9eb	0.05756561
123	0x3baec984	0.005334081
124	0x3d3781fa	0.04480169
125	0x3cd55c67	0.026045037
126	0xbd7c6b81	-0.06162596
127	0xbca02ce6	-0.01955266
128	0x3c9eb9db	0.019375732
129	0xbce61fd6	-0.028091352
130	0xbdb9860d	-0.09058771
131	0x3d03985d	0.032127727
132	0xbd55bb5e	-0.05218064
133	0xbd4682b2	-0.048464485
134	0x3ad7b228	0.0016456293
135	0x3d888d51	0.06667579
136	0xbc900da1	-0.017584624
137	0x3c998021	0.018737854
138	0x3d96f77b	0.07371422
139	0xbc16144d	-0.0091601135
140	0x3d220c1b	0.039562326
141	0xbd7f8c3a	-0.06238959
142	0x3d1967a0	0.03745234
143	0x3c3c74a3	0.011502418
144	0x3d72846b	0.059208315
145	0xbd824ca3	-0.063622735
146	0xbc1e4839	-0.009660774
147	0xbd852652	-0.0650145
148	0xbc7981e0	-0.0152287185
149	0x3d319497	0.043354597
150	0xbc5f391c	-0.013624456
151	0xbd3cea42	-0.046121843
152	0xbd5ea391	-0.054355208
153	0x3d29aa60	0.041422248
154	0xbcc99569	-0.024607377
155	0xbd1fff9a	-0.03906212
156	0x3d36b0aa	0.044602074
157	0xbcec90b5	-0.028877595
158	0x3b8f6c44	0.00437692
159	0xbd90566a	-0.07047732
160	0xbd3d7afa	-0.046259858
161	0x3cbd8f82	0.023139719
162	0xbc318204	-0.010834221
163	0xbc15e79d	-0.009149459
164	0x3d6f6185	0.05844261
165	0x3c88471d	0.016635472
166	0xbce5f5b9	-0.028071271
167	0xbd01a8df	-0.03165519
168	0xbd6d22ed	-0.057894636
169	0x3cdde6c8	0.027087584
170	0xbd109caa	-0.035305656
171	0x3cba1c6b	0.022718629
172	0x3d803f4d	0.06262074
173	0x3cbd6306	0.023118507
174	0x3cc7fb98	0.024411961
175	0x3cbb02c7	0.022828473
176	0x3d0aaff8	0.033859223
177	0xbce71133	-0.028206443
178	0xbd5f08b6	-0.054451667
179	0x3d34d846	0.044151567
180	0xbc18ca52	-0.009325581
181	0x3d942dd2	0.07235302
182	0xbd0e4483	-0.034733307
183	0xbd519022	-0.051162846
184	0x3c66c506	0.01408506
185	0xbcd8ea8e	-0.026479032
186	0xbd531b28	-0.05153957
187	0xbcdf778e	-0.027278688
188	0xbc45fae2	-0.012083741
189	0xbc9834a1	-0.018579783
190	0xbc7b8c66	-0.015353298
191	0x3d8e1470	0.06937492
192	0xbcc863cd	-0.024461651
193	0x3c86bd9a	0.016447831
194	0x3cde5039	0.027137863
195	0xbcbab7e7	-0.02279277
196	0x3d6d6c62	0.05796469
197	0x3ca8bda1	0.020598235
198	0x3c0c48df	0.008562296
199	0xbc2e284c	-0.010629725
200	0xbc6937fa	-0.014234537
201	0xbb256bda	-0.0025241286
202	0x3d1d4ec3	0.03840519
203	0x3d29189e	0.041283242
204	0xbcc7fb3f	-0.024411796
205	0x3d203ef4	0.039122537
206	0x3bb9875f	0.0056618894
207	0xbd4fc6cc	-0.050726697
208	0xbc2ac191	-0.010422126
209	0x3c2b082b	0.010438959
210	0x3cd25e6d	0.025679791
211	0x3c0a20c2	0.008430662
212	0x3cd45483	0.025919205
213	0x3ce484ed	0.027895415
214	0xbc4c579c	-0.01247206
215	0x3d221eab	0.03958003
216	0xbc69051d	-0.0142224105
217	0x3d4d247a	0.050083615
218	0xbda230d0	-0.079194665
219	0x3b164836	0.0022931225
220	0xbd0bae31	-0.03410167
221	0x3c25800d	0.0101013305
222	0xbd6cd9ce	-0.057824902
223	0x3d218a2b	0.039438408
224	0xbc76641f	-0.015038519
225	0xbccc9d8d	-0.02497747
226	0x3c97095f	0.018437086
227	0x3d6058ab	0.05477206
228	0xbc967b8f	-0.018369464
229	0x3d303c22	0.043026097
230	0xbd6b371c	-0.057425603
231	0x3d8df6d1	0.06931842
232	0x3c5e4e6f	0.013568505
233	0xbc7797e5	-0.015111898
234	0xbd550479	-0.05200622
235	0x3c70283b	0.014658029
236	0xbd7a84d4	-0.06116183
237	0x3d805a5a	0.06267233
238	0xbcdc4c84	-0.026891954
239	0xbc8ac0d5	-0.016937653
240	0x3d21859e	0.039434068
241	0x3c97dd46	0.018538129
242	0xbda09b84	-0.07842162
