best models/saved_models/architecture_9/best_model.pt (torch, 490850 bytes, 25 tensors)

network.0.weight f4 [232, 15]
3.2745743 2.9831867 -3.6755638 5.1264296 -7.3912325 -4.197701 6.3089104 2.5732186
-1.5477808 -1.0911769 4.2171435 -6.939197 5.8582883 8.237105 -9.039082 -2.1804044
-0.6236024 -4.7736344 -1.9122545 3.4935045 0.31705198 -9.838138 1.9234115 4.5283213
10.324423 1.7870885 3.0322783 9.044827 -3.8612857 5.8022375 3.7746181 1.5214463
6.044535 -7.425407 10.560079 3.0426328 12.599057 -2.8526387 4.9506555 2.4091547
5.7927394 0.24648076 -1.3719503 0.2743405 -0.9632985 6.179197 -6.5472403 2.9519496
8.720476 -9.08508 9.292058 -5.766924 2.5578282 -3.1348116 4.40152 0.5879751
-1.1968989 3.3666642 0.6361375 -0.6625358 10.605174 -3.3516965 -1.302357 2.2666516
-3.4433427 0.45914552 -0.013355798 8.466469 -9.289819 3.2987585 0.3069682 5.9841537
-6.351152 3.1219177 0.948105 5.7868166 -3.2645183 1.1105081 -4.998225 7.8801136
-4.8323874 2.2748542 -2.5742831 4.537697 -2.9923227 1.6370918 -7.5360575 11.55587
-6.7597566 1.9967288 -0.17615087 -0.7777168 0.7198922 10.475694 0.46635738 -0.32454562
-0.62988496 2.1425984 -0.71455526 -0.07844843 -1.4260001 -27.81753 -1.7768202 0.6247771
-1.0253333 -1.628085 -2.3960521 -4.6513653 5.770452 4.918838 6.0151834 12.926447
-3.8572154 -5.592685 -4.4417605 -8.665274 1.6589233 1.8892502 0.07227192 3.9994118
0.60910195 -7.3410897 2.2077365 -7.982131 2.0028455 -15.187444 4.9986496 -2.1878753
1.9615519 -4.852634 2.602879 -2.7644715 0.42356578 -5.1332784 3.4497342 -1.6604942
-2.4508586 -1.9382579 -0.25071365 1.4988797 -1.5025342 1.3730929 0.4782932 7.9555593
7.0974517 3.4560459 -0.05275439 9.475754 12.67781 8.484189 3.2423089 -1.3669974
7.210548 -0.4745535 -2.6003556 3.0292735 1.5099037 1.7006009 -0.52518034 3.2310863
-5.7359214 5.808743 -9.225994 1.8593125 -17.298943 -6.200848 -8.06278 -4.1514583
-4.434103 -2.8559225 -6.158137 -1.6134338 6.7249994 6.8661046 6.982402 3.692987
-4.5135946 -3.5315022 -3.2160797 0.5612509 4.301897 -1.5613765 7.5651197 0.026015861
1.4100827 -0.6169786 -1.7357727 5.7385125 -2.6638567 2.1709323 -5.7819457 -10.294762
6.54817 -1.2360355 11.153134 -4.8940597 -8.104728 1.9967122 -8.039272 -7.489223
-12.698946 2.3552036 1.1722053 -3.7001305 1.5490742 0.08556961 1.1512703 1.1937807
1.2079446 -5.0454116 0.26046976 -0.9222754 -0.88418144 -1.0350876 -0.3045275 -1.1098189
-0.09110843 22.510338 -0.1713899 1.2717874 0.04352442 -13.074833 1.0297855 -0.2549296
-0.19443676 -2.6497192 4.3978467 -6.9055114 -4.486874 -3.6365454 7.233525 -6.539414
5.6624546 5.4391637 -5.371271 8.775102 -2.1718144 -1.2973337 2.24061 -5.8759093
1.1635395 -0.44078085 -1.2192925 2.2647088 0.23979384 0.08306703 -0.2049246 -19.723038
0.23338838 -0.9053247 -1.3918508 -14.309592 1.702832 -0.73043627 -1.9148248 -0.05485147
00000000: a092 5140 88ec 3e40 703c 6bc0 b60b a440
00000010: fa84 ecc0 9153 86c0 98e2 c940 9daf 2440
00000020: ae1d c6bf afab 8bbf d7f2 8640 e70d dec0
00000030: 1977 bb40 2fcb 0341 14a0 10c1 bf8b 0bc0
00000040: 68a4 1fbf 9dc1 98c0 c1c4 f4bf 9495 5f40
00000050: a354 a23e 0369 1dc1 5932 f63f 02e8 9040
00000060: d630 2541 51bf e43f d910 4240 9db7 1041
00000070: 4e1f 77c0 eeab b940 5893 7140 c1be c23f
00000080: d56c c140 ef9c edc0 15f6 2841 7fba 4240
00000090: bd95 4941 a291 36c0 c56b 9e40 972f 1a40
000000a0: 1f5e b940 7465 7c3e 119c afbf 5c76 8c3e
000000b0: bb9a 76bf fbbb c540 fe82 d1c0 beec 3c40
000000c0: 1287 0b41 7d5c 11c1 45ac 1441 a48a b8c0
000000d0: 75b3 2340 c1a0 48c0 40d9 8c40 8985 163f
000000e0: fc33 99bf 6d77 5740 e8d9 223f f29b 29bf
000000f0: cbae 2941 3282 56c0 a2b3 a6bf d210 1140
00000100: ba5f 5cc0 1f15 eb3e 47d2 5abc a876 0741
00000110: 19a3 14c1 dc1e 5340 f02a 9d3e 307e bf40
00000120: a33c cbc0 80cd 4740 02b7 723f 9a2d b940
00000130: deed 50c0 2125 8e3f 76f1 9fc0 e429 fc40
00000140: eba2 9ac0 3697 1140 0ec1 24c0 d034 9140
00000150: 3782 3fc0 398c d13f 6227 f1c0 d8e4 3841
00000160: ed4f d8c0 cf94 ff3f e560 34be 7318 47bf
00000170: db4a 383f 719c 2741 65c6 ee3e d82a a6be
00000180: 2440 21bf 5520 0940 18ed 36bf 92a9 a0bd
00000190: 2c87 b6bf 4d8a dec1 d86e e3bf 64f1 1f3f
000001a0: 1f3e 83bf 1765 d0bf eb58 19c0 fcd7 94c0
000001b0: 8ba7 b840 1f67 9d40 627c c040 bad2 4e41
000001c0: 9edc 76c0 47f7 b2c0 e722 8ec0 f6a4 0ac1
000001d0: 9957 d43f f3d2 f13f 4d03 943d 5df6 7f40
000001e0: 1bee 1b3f 35ea eac0 8e4b 0d40 9e6d ffc0
000001f0: 9f2e 0040 c5ff 72c1 f0f4 9f40 2606 0cc0
00000200: 2214 fb3f c748 9bc0 9295 2640 1aed 30c0
00000210: 9ddd d83e d143 a4c0 72c8 5c40 138b d4bf
00000220: deda 1cc0 d618 f8bf 8a5d 80be 4adb bf3f
00000230: 0a53 c0bf 82c1 af3f d9e2 f43e f193 fe40
00000240: 531e e340 db2f 5d40 fd14 58bd b09c 1741
00000250: 4fd8 4a41 3dbf 0741 fd81 4f40 c5f9 aebf
00000260: cfbc e640 adf8 f2be 3a6c 26c0 9edf 4140
00000270: 8644 c13f 4aad d93f 3872 06bf 1eca 4e40
00000280: ab8c b7c0 39e1 b940 ac9d 13c1 f4fd ed3f
00000290: 3c64 8ac1 596d c6c0 2601 01c1 bfd8 84c0
000002a0: 2ce4 8dc0 6fc7 36c0 750f c5c0 0085 cebf
000002b0: 3233 d740 21b7 db40 d66f df40 e659 6c40
000002c0: 5e6f 90c0 2204 62c0 40d4 4dc0 24ae 0f3f
000002d0: 24a9 8940 2fdb c7bf 7615 f240 371f d53c
000002e0: 977d b43f 4ff2 1dbf cd2d debf e5a1 b740
000002f0: a17c 2ac0 8ef0 0a40 b305 b9c0 58b7 24c1
00000300: 9c8a d140 6936 9ebf 3d73 3241 239c 9cc0
00000310: f7ac 01c1 4494 ff3f dca0 00c1 b7a7 efc0
00000320: e22e 4bc1 a8bb 1640 d30a 963f f0ce 6cc0
00000330: 1048 c63f 1f3f af3d d35c 933f cecd 983f
00000340: ee9d 9a3f 0374 a1c0 4b5c 853e 3e1a 6cbf
00000350: b759 62bf c07d 84bf 07eb 9bbe 8c0e 8ebf
00000360: 0e97 babd 2c15 b441 d580 2fbe eec9 a23f
00000370: aa46 323d 8432 51c1 03d0 833f 2286 82be
00000380: 6e1a 47be 0095 29c0 29bb 8c40 f3f9 dcc0
00000390: 7994 8fc0 29bd 68c0 0979 e740 e142 d1c0
000003a0: d432 b540 a10d ae40 74e1 abc0 d166 0c41
000003b0: 02ff 0ac0 080f a6bf 2766 0f40 7307 bcc0
000003c0: ddee 943f 07ae e1be c711 9cbf fdf0 1040
000003d0: 848c 753e 0c1f aa3d c1d7 51be c8c8 9dc1
000003e0: 5dfd 6e3e 5cc3 67bf 2b28 b2bf 17f4 64c1
000003f0: 66f6 d93f dffd 3abf fb18 f5bf efab 60bd

network.0.bias f4 [232]
1.2874117 2.7517242 2.5461757 2.618979 1.4113828 2.3721628 0.8146625 2.572305
2.438663 2.578377 2.0386515 1.4211743 0.80395216 1.6657041 0.9674902 2.6182137
-0.18905699 -0.4296566 2.5352733 -0.509327 2.6148195 3.3597288 2.5018625 2.1888065
2.6842995 2.3341694 1.8240561 2.2196493 1.6928592 2.421937 2.4240673 2.3719711
2.3407297 4.8914595 2.8524935 2.2547495 2.455134 2.3968475 1.4700773 2.5941346
2.2958093 2.587998 2.4787428 2.3117263 0.9860979 2.3272521 2.2182772 2.5987427
2.4375157 2.4751735 1.9206867 2.324099 2.0501385 2.257216 2.5167992 2.4335437
2.3764253 0.98482233 2.5025752 1.0930818 2.4625888 2.240781 0.08849356 2.1843479
2.7305932 2.0974324 2.1900575 2.4915695 2.4735801 2.3505433 1.4577255 2.3673782
2.5712402 1.0475948 0.7413556 2.395148 2.6307418 1.4700915 2.35742 2.5153522
2.5481563 1.4600677 2.613509 0.23326921 0.676184 2.4109764 2.6511023 2.3254673
2.3875065 0.12944551 2.463208 2.2526698 2.428814 2.9791267 2.350341 2.633323
2.559856 2.3429408 0.83009154 2.4862304 2.430161 5.007673 0.55765444 2.5298953
1.9814031 2.666152 2.1917055 2.4210274 0.9806118 2.5751646 4.7899327 1.2086109
2.624828 2.3292346 1.3036423 5.1134167 2.5190725 1.712116 2.564188 0.77884215
1.5176297 2.223373 2.2115986 2.286253 2.276171 2.7476246 2.6000834 2.5061247
2.5770075 2.3810103 2.0742111 2.4344673 2.6264265 2.3199956 1.6912931 2.3799133
2.4914653 2.389511 2.5922265 4.6690693 1.1971061 2.6000857 2.617278 3.028639
2.4823105 2.1149178 1.3201741 0.9423786 2.6057155 0.95650595 2.3768132 2.543727
2.613227 2.6502879 2.531115 0.7687309 2.4467888 2.4452064 2.1867301 2.3665357
5.126018 2.3995135 2.4607267 2.4062116 2.467537 2.7470388 0.83669 2.5426612
2.3862822 2.4496343 2.3256574 2.3311555 0.8288836 4.7933726 2.2989292 1.2595123
2.1255832 1.6273587 2.3547218 2.6767983 2.4538734 2.4560769 2.568632 1.0010784
1.1276484 2.2829204 1.4631661 2.576468 2.53424 9.965102 1.7768651 2.0989294
1.1619813 2.3113286 2.3381503 2.5213704 5.040081 0.7535837 2.5687878 2.5085204
1.4195408 0.50610113 2.4124718 2.267498 2.5518315 0.21836811 2.903803 1.426628
2.44085 1.3590221 2.3340058 3.3690739 5.3471227 2.5167246 2.636481 2.3859591
2.4824975 1.9516686 1.3130071 2.615919 2.3590255 1.4860069 1.5409375 2.3368092
1.4349598 2.315747 1.126215 1.4849921 2.2659779 2.5981517 3.0613513 2.4022076
00000000: e8c9 a43f 401c 3040 8bf4 2240 5a9d 2740
00000010: 31a8 b43f 84d1 1740 b98d 503f a5a0 2440
00000020: 0e13 1c40 2104 2540 4479 0240 0ae9 b53f
00000030: cfcf 4d3f cb35 d53f 70ad 773f d090 2740
00000040: 2898 41be f3fb dbbe eb41 2240 4163 02bf
00000050: 3459 2740 cc05 5740 841e 2040 6815 0c40
00000060: 90cb 2b40 0863 1540 ac7a e93f bc0e 0e40
00000070: 9caf d83f 0401 1b40 eb23 1b40 60ce 1740
00000080: 84ce 1540 d686 9c40 418f 3640 d14d 1040
00000090: ea20 1d40 f365 1940 7e2b bc3f 4d06 2640
000000a0: 8aee 1240 c2a1 2540 b9a3 1e40 53f3 1340
000000b0: e970 7c3f b3f1 1440 41f8 0d40 cd51 2640
000000c0: 4200 1c40 3e69 1e40 10d9 f53f 0abe 1440
000000d0: 7835 0340 3a76 1040 3d13 2140 2ebf 1b40
000000e0: 5a17 1840 511d 7c3f 312a 2040 1bea 8b3f
000000f0: 0e9b 1d40 f568 0f40 1d3c b53d 5bcc 0b40
00000100: 0ac2 2e40 553c 0640 e729 0c40 e075 1f40
00000110: 234f 1e40 4d6f 1640 c096 ba3f 2083 1740
00000120: 338f 2440 9617 863f 7bc9 3d3f 1b4a 1940
00000130: 135e 2840 f52b bc3f f8df 1640 88fb 2040
00000140: fe14 2340 80e3 ba3f bb43 2740 20de 6e3e
00000150: 651a 2d3f 704d 1a40 a9ab 2940 75d4 1440
00000160: e8cc 1840 5d8d 043e 33a5 1d40 be2b 1040
00000170: b071 1b40 03aa 3e40 fd6b 1640 5d88 2840
00000180: aed4 2340 bef2 1540 e180 543f 661e 1f40
00000190: c287 1b40 db3e a040 71c2 0e3f cee9 2140
000001a0: 9e9e fd3f 3ca2 2a40 e744 0c40 1df2 1a40
000001b0: 6009 7b3f 7fcf 2440 2147 9940 c3b3 9a3f
000001c0: 2ffd 2740 2e12 1540 c0dd a63f 1ca1 a340
000001d0: 7c38 2140 9e26 db3f a81b 2440 3362 473f
000001e0: b141 c23f be4b 0e40 d58a 0d40 f851 1240
000001f0: c9ac 1140 15d9 2f40 c467 2640 5964 2040
00000200: b1ed 2440 7962 1840 e0bf 0440 50ce 1b40
00000210: 5f17 2840 cf7a 1440 4b7c d83f 8050 1840
00000220: 2b74 1f40 c0ed 1840 0ae7 2540 0469 9540
00000230: c63a 993f ce67 2640 7c81 2740 39d5 4140
00000240: 2dde 1e40 d05a 0740 77fb a83f b93f 713f
00000250: 0bc4 2640 93dd 743f b51d 1840 6ccc 2240
00000260: 1c3f 2740 519e 2940 cafd 2140 8ccb 443f
00000270: 3098 1c40 437e 1c40 63f3 0b40 5275 1740
00000280: 5708 a440 a191 1940 8c7c 1d40 5fff 1940
00000290: 20ec 1d40 7ccf 2f40 5131 563f f6ba 2240
000002a0: d9b8 1840 cfc6 1c40 92d7 1440 a731 1540
000002b0: b731 543f 4f63 9940 a821 1340 b337 a13f
000002c0: 8e09 0840 4a4d d03f c3b3 1640 aa50 2b40
000002d0: 430c 1d40 5d30 1d40 7764 2440 5623 803f
000002e0: c856 903f 5e1b 1240 0749 bb3f dae4 2440
000002f0: fd30 2240 0f71 1f41 5170 e33f dc54 0640
00000300: cebb 943f cfec 1340 41a4 1540 225e 2140
00000310: 5848 a140 ddea 403f 0567 2440 998b 2040
00000320: 83b3 b53f d88f 013f f065 1a40 b01e 1140
00000330: 3551 2340 e49b 5f3e e9d7 3940 bf9b b63f
00000340: e336 1c40 70f4 ad3f 5a60 1540 e89e 5740
00000350: a11b ab40 0412 2140 1bbc 2840 8eb3 1840
00000360: 3de1 1e40 47d0 f93f 9e10 a83f 386b 2740
00000370: 46fa 1640 7935 be3f 713d c53f 488e 1540
00000380: c3ac b73f 3335 1440 d027 903f 3914 be3f
00000390: c805 1140 1e48 2640 2eed 4340 c5bd 1940

network.1.weight f4 [232]
6.166877 5.223887 6.6289577 6.756371 7.141515 7.8781857 6.8680806 6.470857
6.5282087 5.180408 6.3626637 7.2795973 7.320055 6.759738 6.622787 6.7630057
6.6837063 5.2546782 6.3984423 6.120562 6.5674653 5.5532084 6.326141 5.47604
7.0195055 6.786596 7.905975 6.6433063 6.280946 7.222533 5.5244684 7.121747
5.742347 7.597845 6.5229454 6.6701255 6.3810487 6.037194 8.000221 6.124916
5.4173346 6.293553 6.9321947 6.443839 7.168063 6.7395115 7.2641745 6.214924
6.693582 6.817055 6.820858 6.023698 7.890622 6.161918 7.5002713 6.884304
6.592418 7.5087366 7.0504637 7.116171 7.431876 7.257665 6.6739006 7.790794
6.3545866 7.361466 6.804305 6.3044367 6.508995 6.67858 7.371222 6.675467
5.8451242 8.093579 7.1453767 6.4611063 6.462134 6.561622 6.618169 6.7717004
6.356252 7.277021 5.9193044 6.081331 6.8270283 6.6774545 6.799244 6.5692625
6.4643764 5.6262693 6.9252396 7.423927 6.4021616 6.0459023 6.5939145 6.6793103
6.021808 7.1658754 5.7942157 6.8731008 7.0476193 6.7698274 7.317583 6.8148036
6.993501 6.5822325 6.380142 7.0209346 7.843856 6.0752044 6.4245477 6.937978
5.7580967 7.247436 6.910812 6.8672934 7.3233957 7.2860413 6.9118986 7.675027
7.069542 7.4992366 7.363348 6.4909854 7.7525983 6.6063213 6.0141196 7.0565333
5.139173 5.9817142 6.555447 6.790574 6.5135155 6.403558 8.280564 6.5970883
6.50182 6.8241243 7.716625 6.298096 7.739717 6.5273466 6.8717318 5.6480007
7.1829166 7.0524316 6.9319377 6.721877 6.0744653 7.361781 7.5327067 5.89809
7.0061536 6.6503897 6.9575925 6.680957 6.5940347 6.165828 6.6186037 6.2524805
6.8869877 6.7356915 6.970341 5.871755 6.1054225 7.6553926 7.870179 6.1987634
6.805454 5.225584 7.1188574 6.17257 7.58994 6.713842 6.4463005 7.2165136
6.6156282 6.117309 6.943924 6.117953 6.60964 5.9624157 6.0862494 7.4361463
7.3483963 6.78904 6.660795 6.538518 5.87836 6.206636 5.998123 7.224909
7.4756055 7.137385 6.69315 7.0800295 7.0912185 7.279767 6.816287 6.787626
7.643005 6.2407784 6.310364 7.4066486 7.2654085 6.9661956 6.6176143 7.2915215
5.6599083 6.418738 6.4251227 7.5910373 7.711716 7.761197 7.7139745 6.2516418
5.4906797 6.287065 6.8938847 5.652926 5.864284 6.6517553 6.679037 6.9354057
7.4749923 6.5172443 7.2106147 6.3662205 7.3147492 6.800938 6.5764604 6.606678
00000000: 0e57 c540 152a a740 6c20 d440 3134 d840
00000010: 4a87 e440 191a fc40 51c7 db40 4311 cf40
00000020: 16e7 d040 e7c5 a540 f19a cb40 76f2 e840
00000030: e43d ea40 c64f d840 dfed d340 8b6a d840
00000040: ece0 d540 5326 a840 0ac0 cc40 a5db c340
00000050: ad28 d240 e2b3 b140 bf6f ca40 b83b af40
00000060: ca9f e040 cb2b d940 bffd fc40 f795 d440
00000070: 82fd c840 fe1e e740 72c8 b040 5ae5 e340
00000080: 4ec1 b740 8c21 f340 f8bb d040 ab71 d540
00000090: 8d31 cc40 b130 c140 e800 0041 50ff c340
000000a0: ce5a ad40 c964 c940 8ad4 dd40 ee33 ce40
000000b0: c660 e540 14aa d740 1e74 e840 a8e0 c640
000000c0: d331 d640 5125 da40 7844 da40 22c2 c040
000000d0: fa7f fc40 6f2e c540 3902 f040 384c dc40
000000e0: 17f5 d240 9247 f040 669d e140 acb7 e340
000000f0: eed1 ed40 cb3e e840 9890 d540 2f4e f940
00000100: c658 cb40 2191 eb40 debc d940 f2bd c940
00000110: b049 d040 edb6 d540 0de1 eb40 6d9d d540
00000120: 420b bb40 4d7f 0141 eda6 e440 62c1 ce40
00000130: cdc9 ce40 cff8 d140 0ac8 d340 c5b1 d840
00000140: 6b66 cb40 5bdd e840 f16a bd40 439a c240
00000150: 0477 da40 b5ad d540 6893 d940 6637 d240
00000160: 2cdc ce40 660a b440 909b dd40 cf90 ed40
00000170: 82de cc40 0878 c140 5901 d340 e9bc d540
00000180: a7b2 c040 da4e e540 376a b940 71f0 db40
00000190: 1986 e140 6da2 d840 a429 ea40 df12 da40
000001a0: c3ca df40 a6a1 d240 202a cc40 7fab e040
000001b0: de00 fb40 1368 c240 e595 cd40 ea03 de40
000001c0: 5442 b840 ffea e740 5f25 dd40 dec0 db40
000001d0: 4259 ea40 4027 e940 462e dd40 d299 f540
000001e0: b039 e240 bff9 ef40 8ca0 eb40 27b6 cf40
000001f0: 4915 f840 fc66 d340 ab73 c040 1fcf e140
00000200: 1b74 a440 346a bf40 39c6 d140 624c d940
00000210: b86e d040 f2e9 cc40 317d 0441 591b d340
00000220: e90e d040 3a5f da40 98ee f640 018a c940
00000230: c3ab f740 06e0 d040 3ae5 db40 6cbc b440
00000240: 74da e540 85ad e140 6fd2 dd40 9e19 d740
00000250: 0562 c240 b693 eb40 ef0b f140 27bd bc40
00000260: 6932 e040 fecf d440 99a4 de40 66ca d540
00000270: 5502 d340 774e c540 9acb d340 5214 c840
00000280: 3462 dc40 c98a d740 090d df40 6be5 bb40
00000290: 9f5f c340 faf8 f440 82d8 fb40 455c c640
000002a0: 47c6 d940 fc37 a740 aecd e340 b285 c540
000002b0: cae0 f240 cbd7 d640 1848 ce40 aeed e640
000002c0: 3ab3 d340 ffc0 c340 a034 de40 45c6 c340
000002d0: 2c82 d340 1ccc be40 8ec2 c240 e9f4 ed40
000002e0: 1026 eb40 d13f d940 3c25 d540 8a3b d140
000002f0: 861b bc40 c39c c640 a0f0 bf40 7432 e740
00000300: 2938 ef40 7565 e440 492e d640 9a8f e240
00000310: 43eb e240 daf3 e840 061f da40 3b34 d940
00000320: 7f93 f440 75b4 c740 80ee c940 4403 ed40
00000330: 3a7e e840 13eb de40 7fc3 d340 2554 e940
00000340: f81d b540 4d66 cd40 9b9a cd40 c7e9 f240
00000350: 61c6 f640 ba5b f840 e1d8 f640 730d c840
00000360: a6b3 af40 a32f c940 b49a dc40 c5e4 b440
00000370: 37a8 bb40 2edb d440 acba d540 d8ee dd40
00000380: 2333 ef40 448d d040 5bbd e640 14b8 cb40
00000390: 6d12 ea40 49a1 d940 5d72 d240 e869 d340

network.1.bias f4 [232]
-2.7062051 -0.21850087 -2.68553 -3.6737607 -4.227551 -3.3805757 -3.8839412 -1.8880407
-3.0239446 -0.5594424 -1.9957768 -4.9532456 -4.214495 -3.7209804 -3.4936643 -3.1622066
-3.6531 -0.7767087 -1.6565397 -2.6891167 4.91318 -0.36450994 -2.193733 -1.0480821
-3.1409755 -3.3948388 -5.214385 -3.4815598 -2.3136837 -4.099885 -0.8214452 6.8705797
-1.4554896 6.3586235 4.7197747 -3.0656478 -2.1581063 -0.50442827 -4.978352 -0.7790226
-1.3058655 -2.3236823 -2.0502207 -2.087034 -3.501027 -3.9656117 -2.5702858 -1.8300903
-2.2219028 -2.6659632 -3.043064 -2.4998503 -5.3774304 -4.0723248 -4.16351 -3.7380664
-3.2240796 -5.7463655 -3.2559838 -3.7189279 -4.368542 -2.7982647 -3.247124 -4.3134756
-1.9866638 -4.2374544 -3.0386791 -3.0539494 -2.0786514 -3.8824823 -3.9510548 -1.9938276
-1.1948718 -5.834486 -5.148807 -2.5410097 -2.451486 -3.5553317 -3.2284143 -3.3573334
-1.878256 -4.7943745 -0.91825473 -3.2692204 -2.46415 -4.174413 -3.1711864 -2.7901282
-3.4320889 -3.7508647 -3.8791735 -3.7212486 -1.8667451 -0.12030523 -3.437087 -3.513907
-0.5502433 -4.829084 -2.8231823 7.835986 -3.5142543 5.7990685 -4.7826114 4.5755577
-3.6475697 5.403324 -1.9221251 -4.616343 -5.3800735 -1.6701995 5.4412737 -3.9149606
-0.6538217 -4.4871974 -3.9504821 4.97623 -3.8991315 -4.439152 -3.0318315 -5.325411
-3.5151608 -4.129306 -3.4894388 -3.6533246 -4.7868896 -2.4969146 -0.92562985 -2.855065
-0.8557066 -1.9964266 -2.2590208 -1.7525247 -1.8510753 -3.1034427 -5.4926896 -1.5693609
-3.708973 5.5618567 -3.8316636 7.6488976 -4.5722194 -1.386721 -3.5091395 3.720007
-3.5327458 -4.6981597 -3.9483094 -3.748233 -0.89289033 -2.8933442 -3.9364803 -2.2746613
-3.2651207 -3.4095101 -3.4312193 -4.451092 -1.4619777 -2.348108 -2.4672163 -2.9486544
18.328129 -2.7799094 -2.8810325 -1.4042008 -1.5163141 -3.4285755 -4.520081 -2.0492902
-3.3786871 0.67582613 -3.667851 -2.7219808 -4.8780684 6.932487 -3.5372064 -4.8357944
-3.2954109 -1.3891219 -3.807887 -3.033819 -3.1883202 -2.6819232 -0.17864868 -4.9848404
-3.6032774 -3.3921268 -2.7442653 -1.6697472 -1.4207946 4.7415385 -1.8716627 -2.8067532
-4.130788 -3.5221722 5.0176783 -2.598597 5.745136 -3.2578764 -2.5233588 -1.8638394
-4.370764 -2.5640204 -1.6269814 -3.380557 -3.027259 -3.7463474 4.2287526 -4.0709667
-0.635492 -3.3812656 -3.3167076 5.802767 6.514447 -4.2367473 4.942677 -2.134746
-0.84672076 -2.3150477 -2.8321176 -1.2169092 -0.8869032 -3.5192137 -2.5953531 -2.5131226
-4.1380296 -3.3201053 -4.7970505 -2.8555923 -3.3805003 -2.9197876 6.095757 -3.8079808
00000000: 7732 2dc0 b1be 5fbe b9df 2bc0 e51e 6bc0
00000010: 1948 87c0 5a5b 58c0 7e92 78c0 51ab f1bf
00000020: 4f88 41c0 9e37 0fbf 9d75 ffbf fd80 9ec0
00000030: 25dd 86c0 8b24 6ec0 3298 5fc0 9861 4ac0
00000040: 64cc 69c0 62d6 46bf 7e09 d4bf 7d1a 2cc0
00000050: c538 9d40 0ca1 babe 1f66 0cc0 8e27 86bf
00000060: be05 49c0 0a45 59c0 3edc a6c0 e0d1 5ec0
00000070: 6513 14c0 4232 83c0 3c4a 52bf cadb db40
00000080: 7c4d babf d879 cb40 6508 9740 9333 44c0
00000090: 6a1e 0ac0 3622 01bf a94e 9fc0 066e 47bf
000000a0: 9a26 a7bf 36b7 14c0 d136 03c0 f791 05c0
000000b0: d410 60c0 95cc 7dc0 907f 24c0 6640 eabf
000000c0: a833 0ec0 249f 2ac0 90c1 42c0 8cfd 1fc0
000000d0: e913 acc0 7c50 82c0 793b 85c0 7b3c 6fc0
000000e0: 5257 4ec0 3ae2 b7c0 0a62 50c0 ea02 6ec0
000000f0: 19cb 8bc0 c516 33c0 e1d0 4fc0 fe07 8ac0
00000100: 004b febf 3a99 87c0 b879 42c0 e873 43c0
00000110: a008 05c0 977a 78c0 15de 7cc0 be35 ffbf
00000120: 8ff1 98bf 1cb4 bac0 07c3 a4c0 e79f 22c0
00000130: 26e5 1cc0 8e8a 63c0 579e 4ec0 8dde 56c0
00000140: b16a f0bf 846b 99c0 be12 6bbf e83a 51c0
00000150: a2b4 1dc0 cb94 85c0 b8f4 4ac0 7691 32c0
00000160: 58a7 5bc0 2b0e 70c0 6144 78c0 f028 6ec0
00000170: 81f1 eebf 9762 f6bd 3cf9 5bc0 dae3 60c0
00000180: bfdc 0cbf db87 9ac0 05af 34c0 66c0 fa40
00000190: 8be9 60c0 f891 b940 270b 99c0 f86a 9240
000001a0: c871 69c0 08e8 ac40 3208 f6bf 15b9 93c0
000001b0: 9029 acc0 19c9 d5bf ea1e ae40 b78e 7ac0
000001c0: dc60 27bf 1f97 8fc0 b3d4 7cc0 473d 9f40
000001d0: 5f8b 79c0 880d 8ec0 8709 42c0 c469 aac0
000001e0: 65f8 60c0 4623 84c0 f752 5fc0 12d0 69c0
000001f0: 332e 99c0 73cd 1fc0 14f6 6cbf 63b9 36c0
00000200: 960f 5bbf e88a ffbf cc93 10c0 bb52 e0bf
00000210: 09f0 ecbf ce9e 46c0 1dc4 afc0 d1e0 c8bf
00000220: d05f 6dc0 bbfa b140 fa39 75c0 c5c3 f440
00000230: 9f4f 92c0 1380 b1bf be95 60c0 9814 6e40
00000240: 8218 62c0 5357 96c0 1ab1 7cc0 0de3 6fc0
00000250: 7694 64bf 8d2c 39c0 4bef 7bc0 0d94 11c0
00000260: bdf7 50c0 6a35 5ac0 1999 5bc0 586f 8ec0
00000270: 1622 bbbf 6747 16c0 dfe6 1dc0 c1b6 3cc0
00000280: 02a0 9241 09ea 31c0 d662 38c0 dabc b3bf
00000290: 9516 c2bf c86d 5bc0 81a4 90c0 9227 03c0
000002a0: 693c 58c0 f102 2d3f 12be 6ac0 ef34 2ec0
000002b0: 2319 9cc0 efd6 dd40 9761 62c0 d4be 9ac0
000002c0: 03e8 52c0 bfce b1bf 6cb4 73c0 172a 42c0
000002d0: 700d 4cc0 a1a4 2bc0 aeef 36be d083 9fc0
000002e0: 199c 66c0 9b18 59c0 0ba2 2fc0 47ba d5bf
000002f0: 99dc b5bf afba 9740 a592 efbf d8a1 33c0
00000300: 6a2f 84c0 456b 61c0 d290 a040 6a4f 26c0
00000310: 27d8 b740 0c81 50c0 b67e 21c0 4a92 eebf
00000320: 4cdd 8bc0 e918 24c0 ed40 d0bf 0c5b 58c0
00000330: 9dbe 41c0 28c4 6fc0 f151 8740 5c45 82c0
00000340: 9baf 22bf a866 58c0 f044 54c0 44b0 b940
00000350: 5a76 d040 6f93 87c0 692a 9e40 ae9f 08c0
00000360: b1c2 58bf be29 14c0 6a41 35c0 aec3 9bbf
00000370: 170c 63bf cc3a 61c0 441a 26c0 00d7 20c0
00000380: bd6a 84c0 9b7c 54c0 7081 99c0 06c2 36c0
00000390: 1e5a 58c0 cddd 3ac0 7110 c340 f5b5 73c0

network.1.running_mean f4 [232]
1.3353175 2.7553804 2.470758 2.6610758 1.4485763 2.3525922 0.8814319 2.5475593
2.4141324 2.5604954 2.0162206 1.4307604 0.82987785 1.6644399 1.0275006 2.640978
-0.187545 -0.41855338 2.5494115 -0.49918592 2.6541219 3.327632 2.4893262 2.223506
2.6751058 2.3408656 1.8827367 2.1790178 1.683466 2.451999 2.4486976 2.3906324
2.3438609 4.9033365 2.8173084 2.2809112 2.428339 2.4155192 1.4559879 2.6053164
2.2810926 2.5555937 2.5213938 2.259644 1.0075272 2.282428 2.253682 2.6277773
2.4578812 2.4749284 1.9529628 2.2952733 2.0621345 2.2203624 2.55017 2.427306
2.3544621 0.98288375 2.5098016 1.0758655 2.4215927 2.235645 0.14389308 2.1632538
2.739707 2.0712492 2.1828277 2.5161977 2.4374056 2.3598804 1.4909545 2.3608105
2.573406 1.0520331 0.7158188 2.3975291 2.6220672 1.4926645 2.3603323 2.4836733
2.5799203 1.4207734 2.593253 0.21913967 0.6903667 2.3738115 2.713939 2.3503528
2.3735254 0.1441321 2.4622753 2.2563057 2.408523 2.9727693 2.3659513 2.6652362
2.55079 2.359154 0.815451 2.490979 2.4181232 5.0354686 0.5549447 2.4939885
1.959625 2.6631985 2.2028103 2.3740332 1.0041312 2.5978813 4.809096 1.1883247
2.620581 2.319858 1.3122859 5.0813513 2.530582 1.7595289 2.5416267 0.76952803
1.5028387 2.272238 2.2165105 2.307396 2.2444985 2.750191 2.6411002 2.4630523
2.5997334 2.3387637 2.1081374 2.415401 2.6523457 2.3407671 1.6733807 2.3706956
2.4867125 2.3977768 2.6080558 4.630435 1.2125739 2.609894 2.5832748 2.9951513
2.4948263 2.068117 1.3432127 0.8799002 2.6188383 0.96601534 2.3904498 2.5154276
2.5646996 2.6392999 2.5356247 0.753069 2.4376223 2.4208393 2.2158828 2.3289502
5.1084914 2.4170382 2.4119818 2.419321 2.476384 2.7570724 0.8262131 2.5372488
2.393742 2.4247808 2.3396409 2.3399637 0.8565846 4.8342056 2.3057067 1.2347285
2.151244 1.6199849 2.3425667 2.6704695 2.4516835 2.4538925 2.5534017 0.9912326
1.1205257 2.2564864 1.4140667 2.5691655 2.5783446 9.948649 1.7216393 2.1550534
1.2299337 2.2739227 2.322308 2.502204 5.0489464 0.74413437 2.58656 2.5232043
1.4234416 0.50531405 2.3950987 2.2921233 2.5643263 0.15985383 2.8938463 1.3707589
2.43069 1.2873466 2.319301 3.406889 5.3542438 2.5255346 2.6475084 2.4371355
2.479021 1.969775 1.3224713 2.6397696 2.3734055 1.4806885 1.5213249 2.3701527
1.4683859 2.3572428 1.0913854 1.5633888 2.221023 2.550151 3.0292926 2.4359486
00000000: afeb aa3f 2758 3040 e620 1e40 114f 2a40
00000010: f36a b93f df90 1640 85a5 613f 360b 2340
00000020: 2581 1a40 28df 2340 c209 0140 2823 b73f
00000030: e072 543f 5e0c d53f 2485 833f c905 2940
00000040: cc0b 40be a14c d6be 8f29 2340 4c95 ffbe
00000050: 22dd 2940 ecf7 5440 1f51 1f40 ec4d 0e40
00000060: ef34 2b40 bed0 1540 84fd f03f 0775 0b40
00000070: d07b d73f 8ded 1c40 76b7 1c40 1f00 1940
00000080: d101 1640 22e8 9c40 c84e 3440 73fa 1140
00000090: e869 1b40 de97 1a40 d05d ba3f 81bd 2640
000000a0: 6cfd 1140 d98e 2340 845e 2140 029e 1040
000000b0: a7f6 803f 4d13 1240 533c 1040 812d 2840
000000c0: ed4d 1d40 3a65 1e40 affa f93f c2e5 1240
000000d0: 03fa 0340 6b1a 0e40 fc35 2340 fb58 1b40
000000e0: 82af 1640 459e 7b3f 97a0 2040 f6b5 893f
000000f0: 60fb 1a40 cf14 0f40 b558 133e c072 0a40
00000100: 5c57 2f40 598f 0440 73b3 0b40 6209 2140
00000110: 74fe 1b40 4808 1740 99d7 be3f 8517 1740
00000120: afb2 2440 05a9 863f e73f 373f 1e71 1940
00000130: f3cf 2740 a10f bf3f af0f 1740 81f4 1e40
00000140: 6a1d 2540 e7db b53f dbf7 2540 2666 603e
00000150: dfbb 303f 87ec 1740 2db1 2d40 2e6c 1640
00000160: d7e7 1740 5d97 133e eb95 1d40 5067 1040
00000170: 3e25 1a40 da41 3e40 bf6b 1740 3b93 2a40
00000180: 2540 2340 61fc 1640 66c1 503f 336c 1f40
00000190: 88c2 1a40 8f22 a140 db10 0e3f 829d 1f40
000001a0: fed4 fa3f d871 2a40 d8fa 0c40 29f0 1740
000001b0: 5f87 803f b043 2640 1de4 9940 061b 983f
000001c0: 99b7 2740 8e78 1440 fcf8 a73f 6e9a a240
000001d0: 0ef5 2140 3e38 e13f 03aa 2240 caff 443f
000001e0: 055d c03f 596c 1140 4fdb 0d40 60ac 1340
000001f0: dda5 0f40 2103 3040 c907 2940 a6a2 1d40
00000200: 0862 2640 4eae 1540 b9eb 0640 ee95 1a40
00000210: 08c0 2940 21cf 1540 5731 d63f 7ab9 1740
00000220: 4c26 1f40 2d75 1940 63ea 2640 862c 9440
00000230: 9f35 9b3f 8108 2740 6054 2540 8fb0 3f40
00000240: 3cab 1f40 075c 0440 65ee ab3f 2441 613f
00000250: 0c9b 2740 c84c 773f 21fd 1840 c4fc 2040
00000260: 0a24 2440 4aea 2840 ad47 2240 21c9 403f
00000270: 0102 1c40 08ef 1a40 06d1 0d40 850d 1540
00000280: c378 a340 c1b0 1a40 e95d 1a40 28d6 1a40
00000290: 137d 1e40 e073 3040 b482 533f 4962 2240
000002a0: 1233 1940 9c2f 1b40 adbc 1540 f7c1 1540
000002b0: 2149 5b3f d0b1 9a40 b390 1340 950b 9e3f
000002c0: fbad 0940 aa5b cf3f 9dec 1540 f9e8 2a40
000002d0: 62e8 1c40 930c 1d40 ef6a 2340 6bc1 7d3f
000002e0: 636d 8f3f 466a 1040 2300 b53f 356d 2440
000002f0: 9903 2540 ab2d 1f41 ad5e dc3f 65ec 0940
00000300: 786e 9d3f f387 1140 b2a0 1440 1c24 2040
00000310: f890 a140 977f 3e3f 338a 2540 2e7c 2140
00000320: 5633 b63f 435c 013f 4c49 1940 26b2 1240
00000330: ec1d 2440 b9b0 233e c734 3940 0775 af3f
00000340: 6d90 1b40 c6c7 a43f 6d6f 1440 780a 5a40
00000350: f755 ab40 5ca2 2140 c770 2940 07fa 1b40
00000360: 48a8 1e40 9621 fc3f bd46 a93f fcf1 2840
00000370: e0e5 1740 3387 bd3f c6ba c23f 95b0 1740
00000380: 12f4 bb3f 11dd 1640 84b2 8b3f 201d c83f
00000390: 3e25 0e40 ad35 2340 eedf 4140 95e6 1b40

network.1.running_var f4 [232]
2.3709059 2.383193 2.7242765 2.3733728 2.1774573 2.5057437 4.302472 2.5852675
2.6191578 2.6528423 2.799379 2.1613154 2.1455212 2.5667262 3.7819402 2.2271426
3.060009 2.4943976 2.541815 2.7031782 2.4277225 7.8578115 2.6151342 2.569225
2.7173498 2.329612 2.0653954 2.44989 2.3886962 2.5723283 2.4649203 2.4182928
3.352853 2.436206 2.4824839 2.3849244 2.328696 2.3430076 2.127046 2.7221541
3.0065577 3.0495956 2.4049551 3.2823663 2.298548 2.3579004 2.4955182 3.6977625
2.4886034 2.4284685 2.313658 2.474609 2.2120745 2.1828995 2.4395227 2.336736
2.677594 2.0913334 2.946856 2.452406 2.4354973 3.081377 3.3444762 2.4561484
2.7930753 2.6425593 2.691422 2.3298542 2.658698 2.5188153 2.1526546 2.4289994
2.863838 2.071483 2.236766 2.5771072 2.9952223 2.0855517 2.5315294 2.489861
2.7158365 2.245723 2.996153 2.2418833 3.4815853 3.0393696 2.3951743 2.8273926
2.4932542 3.0857415 2.443355 2.3315759 2.4958239 2.468108 2.632107 2.4931178
2.4266808 2.5725973 2.7233434 2.3643644 2.358162 2.4073114 2.2965846 2.3724468
2.4351418 2.530668 2.4271514 2.5823596 2.2181704 2.2160077 2.3956087 2.2717519
3.1698608 2.408164 3.1736085 2.42671 2.3216684 2.3629582 2.4998786 2.1921694
2.507674 2.3631606 2.3045375 2.2510164 2.2328746 2.5186527 3.8546424 2.3433666
2.9889855 2.8942852 2.595472 2.6120784 2.933755 2.205424 2.1696186 2.70352
2.311464 2.383282 2.4719064 2.5854478 2.2470384 2.8159306 2.4514477 2.5055254
2.3149025 2.3505418 2.2812095 3.5261154 2.967002 2.406483 2.4148211 2.4302876
2.5321543 2.7055593 2.6979425 3.6092184 2.3745801 2.2552252 2.6913705 2.8681173
2.464307 2.4980843 2.6523304 2.5718539 3.012567 2.2719421 2.2148855 2.3904846
2.385666 2.4733431 2.2776415 2.4221532 2.1029382 2.5905097 2.3868506 2.1654716
2.4389915 2.7827623 2.3967726 2.3706055 2.581033 2.4247205 5.2393985 2.2018359
2.197461 2.3547025 2.5949755 3.1140692 2.5376337 2.4159596 2.503291 2.3736262
2.1454372 2.4601393 2.4416347 2.6504717 2.529953 2.3574824 2.949399 2.8209975
2.4284384 2.3560185 2.7435095 2.4629781 2.4071426 4.2890425 2.5648966 2.2852845
3.2742624 4.6106033 2.4559734 2.4360764 2.3925197 2.3718731 2.4482136 2.8301573
2.8102539 2.4317255 2.371261 4.472842 2.574293 2.3523278 2.6416552 3.2808776
2.6643457 2.3029375 2.1711547 2.5578544 2.5451047 2.5128105 2.5318644 2.2869742
00000000: ecbc 1740 3c86 1840 8c5a 2e40 57e5 1740
00000010: 765b 0b40 1b5e 2040 daad 8940 0675 2540
00000020: 48a0 2740 2bc8 2940 0729 3340 fe52 0a40
00000030: 3850 0940 3e45 2440 4f0b 7240 8189 0e40
00000040: 30d7 4340 36a4 1f40 19ad 2240 df00 2d40
00000050: ce5f 1b40 3173 fb40 5c5e 2740 2f6e 2440
00000060: 0fe9 2d40 5d18 1540 702f 0440 ffca 1c40
00000070: 66e0 1840 07a1 2440 41c1 1d40 4fc5 1a40
00000080: 2595 5640 cdea 1b40 04e1 1e40 9aa2 1840
00000090: 5b09 1540 d6f3 1540 8621 0840 c637 2e40
000000a0: 716b 4040 932c 4340 c9ea 1940 4a12 5240
000000b0: 691b 1340 d7e7 1640 92b6 1f40 24a8 6c40
000000c0: 4745 1f40 076c 1b40 f912 1440 fe5f 1e40
000000d0: a192 0d40 a0b4 0b40 2421 1c40 158d 1540
000000e0: b35d 2b40 68d8 0540 4a99 3c40 38f4 1c40
000000f0: 30df 1b40 4835 4540 e60b 5640 8931 1d40
00000100: bfc1 3240 b11f 2940 4240 2c40 551c 1540
00000110: 1c28 2a40 4534 2140 18c5 0940 ba74 1b40
00000120: 1f49 3740 2d93 0440 2d27 0f40 53ef 2440
00000130: b9b1 3f40 ae79 0540 9404 2240 e259 1f40
00000140: 44d0 2d40 edb9 0f40 f9c0 3f40 047b 0f40
00000150: 4bd2 5e40 0885 4240 894a 1940 00f4 3440
00000160: 7a91 1f40 ca7c 4540 ee5f 1c40 8a38 1540
00000170: 94bb 1f40 7bf5 1d40 7174 2840 3e8f 1f40
00000180: bd4e 1b40 6fa5 2440 424b 2e40 bf51 1740
00000190: 20ec 1640 6411 1a40 3efb 1240 2bd6 1740
000001a0: 5dd9 1b40 77f6 2140 7356 1b40 6145 2540
000001b0: 81f6 0d40 12d3 0d40 a751 1940 6264 1140
000001c0: 00df 4a40 5c1f 1a40 671c 4b40 374f 1b40
000001d0: 3796 1440 b53a 1740 03fe 1f40 814c 0c40
000001e0: bb7d 2040 063e 1740 8b7d 1340 a710 1040
000001f0: 6be7 0e40 9b31 2140 76b2 7640 b8f9 1540
00000200: 8a4b 3f40 f83b 3940 371c 2640 4b2c 2740
00000210: a4c2 3b40 ab25 0d40 08db 0a40 7906 2d40
00000220: 07ef 1340 b187 1840 b733 1e40 fa77 2540
00000230: 7acf 0f40 3538 3440 85e4 1c40 875a 2040
00000240: 5d27 1440 476f 1640 56ff 1140 e0ab 6140
00000250: 5ce3 3d40 d103 1a40 6e8c 1a40 d589 1b40
00000260: d10e 2240 e227 2d40 17ab 2c40 6ffd 6640
00000270: 1ff9 1740 9c55 1040 6a3f 2c40 3c8f 3740
00000280: 35b7 1d40 9de0 1f40 c8bf 2940 4199 2440
00000290: e6cd 4040 8067 1140 afc0 0d40 b3fd 1840
000002a0: c0ae 1840 414b 1e40 e1c4 1140 8f04 1b40
000002b0: 8a96 0640 e9ca 2540 29c2 1840 1697 0a40
000002c0: 7018 1c40 c718 3240 b964 1940 00b8 1740
000002d0: a52f 2540 9f2e 1b40 27a9 a740 e1ea 0c40
000002e0: 33a3 0c40 72b3 1640 1414 2640 e94c 4740
000002f0: 9768 2240 159f 1a40 eb35 2040 7ee9 1740
00000300: d84e 0940 ec72 1d40 be43 1c40 54a1 2940
00000310: c0ea 2140 fee0 1640 f4c2 3c40 398b 3440
00000320: 896b 1b40 02c9 1640 a995 2f40 6fa1 1d40
00000330: a00e 1a40 d63f 8940 4427 2440 1a42 1240
00000340: 848d 5140 108a 9340 ab2e 1d40 ade8 1b40
00000350: 0b1f 1940 c5cc 1740 88af 1c40 4c21 3540
00000360: 33db 3340 64a1 1b40 bdc2 1740 8621 8f40
00000370: 37c1 2440 8a8c 1640 e110 2940 e6f9 5140
00000380: a484 2a40 5463 1340 33f4 0a40 e3b3 2340
00000390: ffe2 2240 e3d1 2040 110a 2240 c95d 1240

network.4.weight f4 [256, 232]
5.2590365 -4.619974 2.614347 -0.92412806 -21.617819 -7.7285514 2.5174809 1.8416955
2.266198 8.588027 9.064038 0.47918385 -2.6424735 1.8028598 4.3116055 6.1931534
1.7764366 -3.7912993 -4.2212834 5.9531245 2.4904304 6.3229685 -0.7604484 2.6327543
3.314528 -2.4390018 3.722323 -10.34812 0.488843 0.58972186 2.9538143 2.8238125
-9.183171 2.151163 6.2482257 0.9422568 -0.4042559 6.8217173 4.4419026 -1.0439572
-4.755366 1.834071 0.7343561 6.722937 0.28451192 6.7432613 3.8713078 -1.6868471
0.32017744 12.589608 2.9941924 13.685524 -14.093978 -0.026918627 -15.212457 6.02403
1.594736 9.242251 11.398084 -7.4411197 15.1483345 -2.798389 0.78916496 -5.9811983
-1.2179754 0.13951868 -7.359241 8.132583 -3.4652746 5.1235 -2.4534407 1.7496576
1.3635821 0.7478496 2.8082354 -5.880883 2.3635798 -6.015279 -5.821101 -0.8149094
0.7227717 4.8864074 3.7728274 -1.0377295 -3.133926 4.826093 2.964781 -2.0470154
-3.622199 -3.3361943 8.074382 -0.4251139 1.5312536 1.4557304 16.363005 3.514901
-10.323695 -8.842742 -4.3623343 6.110225 -4.4606175 6.736737 3.1788745 -1.2244043
2.7553587 0.8704963 -2.2062428 -10.197857 3.5760007 -4.965442 -2.7621603 -7.6954007
-0.51427734 13.412557 6.9528193 6.2111087 -4.0765705 -6.896043 2.9288647 -5.6293435
-7.2296734 4.77369 0.97391814 -1.7773746 -0.6187749 -0.65340406 0.30207723 5.5113945
-0.026671926 9.697604 1.6020491 1.7717636 -10.09008 3.6082168 1.4692434 1.9619641
-8.196094 1.0032166 -5.343377 -5.0989413 -2.1853526 -4.925693 -1.9918694 -0.4001908
4.03825 -12.188154 2.404925 9.917449 -0.74863976 1.9084486 3.8188994 4.9780226
-3.4655461 3.6183887 -1.9199421 0.8579765 -3.3840625 5.9237165 1.825243 -0.25473532
3.5415945 2.3260603 7.831823 1.4321071 -11.107852 11.349613 0.9530049 -2.330456
-1.7005064 1.3477249 -19.96478 -4.947158 -0.4304671 0.55760056 -8.607447 -2.81895
-6.9466286 -0.54118913 2.485318 8.342496 3.6244993 -0.5700466 -3.6441972 -2.1247337
-2.2821343 -6.4333773 -6.451056 -4.100394 6.2103314 -5.498599 -1.3011277 4.1157293
3.8574584 -5.4078817 4.6937127 -1.1853346 -4.308305 0.26468298 4.9360824 6.671798
0.29007858 3.34075 -7.8213143 2.3611717 -7.4577885 -1.1827325 2.5783188 -0.61157054
5.4261994 2.2572389 8.802244 4.153072 4.6735773 3.4889164 11.4774885 2.2083352
-1.8601869 -1.9573269 6.891994 3.8766568 1.2604501 -6.763569 4.1054654 6.162409
2.820687 5.6782556 -2.7751667 3.4245987 4.419814 -2.4874997 1.6109446 1.8091583
8.380208 5.4287477 -2.5435822 -9.667123 8.872392 1.1414988 -3.6824262 -5.948861
-2.3371058 -1.1816306 -5.065202 8.030505 -11.697045 -3.5383427 -4.9904337 -1.2345816
-0.5710957 -3.8332014 5.21308 -4.458482 -4.1450067 1.7852424 -4.6551104 2.0691597
00000000: 074a a840 d4d6 93c0 7651 2740 a893 6cbf
00000010: 4bf1 acc1 4b50 f7c0 681e 2140 aebc eb3f
00000020: 6309 1140 8f68 0941 4d06 1141 9657 f53e
00000030: 491e 29c0 1cc4 e63f acf8 8940 502e c640
00000040: 4662 e33f a6a4 72c0 c114 87c0 ff7f be40
00000050: 3663 1f40 c255 ca40 bfac 42bf 0c7f 2840
00000060: 3a21 5440 9b18 1cc0 8a3a 6e40 e691 25c1
00000070: a149 fa3e 03f8 163f 4b0b 3d40 58b9 3440
00000080: 45ee 12c1 a8ac 0940 77f1 c740 be37 713f
00000090: a1fa cebe 824b da40 1124 8e40 64a0 85bf
000000a0: f52b 98c0 d7c2 ea3f c3fe 3b3f 4d22 d740
000000b0: 8cab 913e ccc8 d740 82c3 7740 9bea d7bf
000000c0: 4cee a33e 096f 4941 d9a0 3f40 e8f7 5a41
000000d0: ef80 61c1 7484 dcbc 3966 73c1 dbc4 c040
000000e0: 4f20 cc3f 43e0 1341 8d5e 3641 a71d eec0
000000f0: 945f 7241 ce18 33c0 b706 4a3f fa65 bfc0
00000100: 9ee6 9bbf fcdd 0e3e e77e ebc0 0f1f 0241
00000110: 0fc7 5dc0 b6f3 a340 2c05 1dc0 c8f4 df3f
00000120: dc89 ae3f 1273 3f3f 21ba 3340 3230 bcc0
00000130: e444 1740 2a7d c0c0 7646 bac0 e79d 50bf
00000140: 9107 393f 735d 9c40 0176 7140 52d4 84bf
00000150: 3e92 48c0 5b6f 9a40 f9be 3d40 4d02 03c0
00000160: 1cd2 67c0 3584 55c0 ab30 0141 87a8 d9be
00000170: 1e00 c43f 6055 ba3f 6fe7 8241 23f4 6040
00000180: db2d 25c1 df7b 0dc1 3e98 8bc0 f786 c340
00000190: 61bd 8ec0 5993 d740 ae72 4b40 48b9 9cbf
000001a0: cc57 3040 d8d8 5e3f 1533 0dc0 6c2a 23c1
000001b0: 32dd 6440 e7e4 9ec0 3cc7 30c0 b940 f6c0
000001c0: aea7 03bf d599 5641 7f7d de40 67c1 c640
000001d0: 4473 82c0 62ac dcc0 8572 3b40 9523 b4c0
000001e0: 7c59 e7c0 12c2 9840 b352 793f 0381 e3bf
000001f0: 0868 1ebf 7d45 27bf dea9 9a3e 585d b040
00000200: 157f dabc 6329 1b41 f20f cd3f 26c9 e23f
00000210: f870 21c1 06ed 6640 2b10 bc3f a421 fb3f
00000220: 3323 03c1 6769 803f f2fc aac0 872a a3c0
00000230: d1dc 0bc0 479f 9dc0 94f5 febf cfe5 ccbe
00000240: 5839 8140 ae02 43c1 4bea 1940 dfad 1e41
00000250: dba6 3fbf 0b48 f43f d968 7440 f64b 9f40
00000260: 82cb 5dc0 ae93 6740 aac0 f5bf 59a4 5b3f
00000270: 7b94 58c0 168f bd40 90a1 e93f ab6c 82be
00000280: 7ca9 6240 2cde 1440 4b9e fa40 494f b73f
00000290: c3b9 31c1 0498 3541 21f8 733f 3126 15c0
000002a0: 32aa d9bf 4082 ac3f dfb7 9fc1 1e4f 9ec0
000002b0: 2f66 dcbe e9be 0e3f 1ab8 09c1 ad69 34c0
000002c0: c84a dec0 5f8b 0abf 730f 1f40 dd7a 0541
000002d0: ccf7 6740 93ee 11bf 873a 69c0 a3fb 07c0
000002e0: 7d0e 12c0 3ade cdc0 0d6f cec0 6d36 83c0
000002f0: 09bb c640 86f4 afc0 5a8b a6bf 0eb4 8340
00000300: 99e0 7640 5e0d adc0 e532 9640 0bb9 97bf
00000310: a2dd 89c0 8784 873e 63f4 9d40 5f7f d540
00000320: 2e85 943e d9ce 5540 3548 fac0 701d 1740
00000330: 34a6 eec0 c763 97bf 2d03 2540 e38f 1cbf
00000340: 6da3 ad40 9a76 1040 fed5 0c41 f7e5 8440
00000350: f28d 9540 684a 5f40 cba3 3741 5d55 0d40
00000360: 9b1a eebf b089 fabf 378b dc40 251b 7840
00000370: 6e56 a13f 286f d8c0 f95f 8340 7432 c540
00000380: 2386 3440 45b4 b540 559c 31c0 a02c 5b40
00000390: 1e6f 8d40 3233 1fc0 6f33 ce3f 8092 e73f
000003a0: 5515 0641 4db8 ad40 0dca 22c0 89ac 1ac1
000003b0: 51f5 0d41 a21c 923f dfac 6bc0 125d bec0
000003c0: 2493 15c0 ac3f 97bf 2316 a2c0 f37c 0041
000003d0: 1927 3bc1 3574 62c0 a2b1 9fc0 c506 9ebf
000003e0: 5433 12bf 2c53 75c0 8dd1 a640 e2ab 8ec0
000003f0: e5a3 84c0 d382 e43f aaf6 94c0 1d6d 0440

network.4.bias f4 [256]
-0.03414461 -0.020874603 0.033147912 -0.06984095 0.0193537 0.040685587 -0.04904201 -0.037627846
0.013570804 -0.03424186 0.023643786 -0.002170156 0.022965265 0.030842507 0.054513354 0.055942673
-0.04889728 -0.018112777 -0.023068141 -0.027662182 0.0155890845 -0.008182818 -0.03333867 -0.016484719
0.02812522 -0.053436685 -0.00083454576 -0.0853079 -0.051892348 0.035580635 -0.004881221 0.060124855
-0.020093461 -0.015694296 -0.015655806 0.028492255 0.0059306007 -0.050286956 0.049216837 0.06078222
-0.016757885 0.015456952 0.01622708 0.050431054 -0.029409695 -0.038387794 0.054688096 -0.019621016
-0.03627048 0.032581616 0.026932396 -0.030551724 -0.0033820819 -0.035634752 0.061494596 -0.014390577
0.0118340505 -0.013485321 -0.012018295 0.048079085 -0.054215103 -0.029266223 0.052304186 0.046367243
0.087156005 0.07987652 0.028625056 0.050555658 -0.003508085 -0.0076907473 0.02693036 0.054870117
-0.025070347 0.043298643 0.044491276 0.04590177 0.036377188 0.051881593 0.0061901156 0.0010758352
0.041973718 0.01840452 0.053980142 0.017207298 -0.020972244 0.035395592 0.073897265 -0.04593956
0.046813074 0.018798323 -0.018099813 -0.0047806776 -0.031314768 -0.06567478 -0.06981948 0.0044414997
0.007465595 0.005877705 0.050775796 0.044803645 -0.04993695 -0.0041726213 0.010503616 0.023732854
0.0021367373 0.06505536 -0.0024361718 0.033108905 0.05188356 0.03013919 0.0056321966 0.046881106
-0.050823916 0.023897145 -0.06113664 -0.04534935 0.060627814 -0.054215886 0.0140118925 0.03135482
0.009495764 0.04336541 -0.055145852 -0.034156486 -0.039557967 0.02804959 -0.024815178 0.079546824
0.013479422 0.0016144693 -0.013021186 -0.013101814 0.011881663 0.008470556 0.028900089 -0.06502035
-0.058780205 -0.024087418 0.004369636 -0.041497573 0.045383975 0.033770926 -0.00041042658 0.005499271
0.0035028795 -0.0074975775 -0.011296667 -0.0062434846 0.061264593 0.019795796 0.051436532 -0.011043416
0.059559885 -0.0022051788 -0.0146048935 -0.04271602 -0.0014061666 -0.0014737039 0.039972305 -0.029750498
0.046855282 0.059214108 0.055899255 -0.0077302326 -0.032646116 0.038659707 -0.06648865 0.075614855
0.0027086698 -0.06768267 0.0088476855 0.023282263 0.037465185 -0.050440457 -0.030234482 -0.023610279
0.00087463565 -0.013507888 0.00023067347 -0.012373092 0.00803978 -0.024598347 -0.03503046 -0.040891346
-0.040174644 0.00037495303 -0.068149604 0.0033678534 0.030913785 0.01596952 0.032374967 0.036574908
-0.01630986 -0.0168875 -0.047694605 0.04695972 0.06985564 -0.06888035 -0.019622706 -0.03250506
0.04847133 -0.017357036 0.050854255 0.028174423 -0.042399652 -0.05809328 -0.00981149 -0.03672023
-0.003076463 -0.034034386 -0.07005161 -0.023070032 0.014858019 -0.051103625 0.051263977 -0.014209023
-0.0057141995 -0.03522638 -0.0071874307 -0.06353584 -0.019754501 0.03391272 0.032176 0.014651129
0.055824004 -0.023608636 0.010555646 -0.02917939 0.04797728 0.03681628 -0.037552662 0.04628423
-0.014967496 0.0631239 -0.019653937 -0.041074414 -0.031250857 -0.04468373 0.039215494 -0.09191107
0.042653088 0.07687176 0.0120801665 0.03551894 -0.031539597 0.003921292 -0.047968157 0.009194274
-0.052240897 -0.058303744 0.038864356 -0.05318976 0.002224195 -0.06386244 0.037310787 -0.06743978
00000000: 38db 0bbd 3701 abbc 1bc6 073d c608 8fbd
00000010: a78b 9e3c eea5 263d 46e0 48bd a81f 1abd
00000020: 1458 5e3c 3141 0cbd 9db0 c13c 2d39 0ebb
00000030: a721 bc3c 6da9 fc3c 6549 5f3d 2524 653d
00000040: 8448 48bd 3f61 94bc 66f9 bcbc cd9b e2bc
00000050: 5c69 7f3c 3a11 06bc 218e 08bd f60a 87bc
00000060: dd66 e63c 6de0 5abd 6bc5 5aba e9b5 aebd
00000070: 128d 54bd 00bd 113d a6f2 9fbb 7b45 763d
00000080: 0b9b a4bc 5391 80bc 9b40 80bc 9768 e93c
00000090: 7c55 c23b b2f9 4dbd 9897 493d c7f6 783d
000000a0: d547 89bc 283f 7d3c a7ee 843c cb90 4e3d
000000b0: 9aec f0bc 853c 1dbd a000 603d 41bc a0bc
000000c0: 5b90 14bd 4d74 053d 54a1 dc3c 9c47 fabc
000000d0: eba5 5dbb bff5 11bd c2e1 7b3d 74c6 6bbc
000000e0: 9be3 413c 89f1 5cbc 62e8 44bc 93ee 443d
000000f0: a810 5ebd b8bf efbc ea3c 563d 94eb 3d3d
00000100: d97e b23d 4d96 a33d 187f ea3c 7313 4f3d
00000110: e6e7 65bb aa02 fcbb 0f9d dc3c 7dbf 603d
00000120: 5460 cdbc eb59 313d 7c3c 363d 7f03 3c3d
00000130: 3f00 153d cb81 543d 74d6 ca3b 0a03 8d3a
00000140: a2ec 2b3d 13c5 963c 481a 5d3d 52f6 8c3c
00000150: fccd abbc f8fa 103d 7357 973d 1f2b 3cbd
00000160: 11bf 3f3d f1fe 993c 0f46 94bc 3ba7 9cbb
00000170: ea43 00bd 8080 86bd 84fd 8ebd 008a 913b
00000180: f3a1 f43b c399 c03b 48fa 4f3d 0784 373d
00000190: b08a 4cbd 7cba 88bb 5c17 2c3c 676b c23c
000001a0: 8108 0c3b bf3b 853d 2ea8 1fbb 349d 073d
000001b0: db83 543d 76e6 f63c 4a8e b83b 6706 403d
000001c0: bd2c 50bd f2c3 c33c 6a6a 7abd 3dc0 39bd
000001d0: df54 783d 7a11 5ebd 2392 653c e96d 003d
000001e0: 1f94 1b3c ee9f 313d 9ee0 61bd ace7 0bbd
000001f0: 8907 22bd 41c8 e53c 3349 cbbc 72e9 a23d
00000200: cbd8 5c3c 9a9c d33a d056 55bc fea8 56bc
00000210: 4fab 423c 16c8 0a3c e1bf ec3c 6429 85bd
00000220: 83c3 70bd fa52 c5bc 2a2f 8f3b 5cf9 29bd
00000230: 8ce4 393d 6253 0a3d 862e d7b9 3b33 b43b
00000240: 9190 653b 3dae f5bb a815 39bc 2596 ccbb
00000250: 95f0 7a3d cb2a a23c 1daf 523d 72ef 34bc
00000260: 11f5 733d c384 10bb 5d49 6fbc fef6 2ebd
00000270: 1f4f b8ba 4c29 c1ba 00ba 233d 51b7 f3bc
00000280: 53eb 3f3d 7e8a 723d 9ef6 643d e44d fdbb
00000290: efb7 05bd a459 1e3d 342b 88bd f6db 9a3d
000002a0: f083 313b 369d 8abd e2f5 103c 72ba be3c
000002b0: 1875 193d a79a 4ebd 4eae f7bc 586a c1bc
000002c0: ce47 653a 3050 5dbc f0e0 7139 82b8 4abc
000002d0: 48b9 033c 7982 c9bc 1a7c 0fbd af7d 27bd
000002e0: 2b8e 24bd 5895 c439 0592 8bbd 34b7 5c3b
000002f0: e83e fd3c 83d2 823c 9d9b 043d 92cf 153d
00000300: 419c 85bc a857 8abc 6b5b 43bd d658 403d
00000310: 7910 8f3d 2411 8dbd ccbf a0bc 0724 05bd
00000320: e089 463d 5830 8ebc 8d4c 503d 0cce e63c
00000330: 42ab 2dbd 38f3 6dbd 5fc0 20bc f467 16bd
00000340: 7c9e 49bb a467 0bbd 3877 8fbd 5dfd bcbc
00000350: 0c6f 733c 0952 51bd 2dfa 513d f6cc 68bc
00000360: 2e3e bbbb 8949 10bd 8a84 ebbb 141f 82bd
00000370: 31d4 a1bc 10e8 0a3d fbca 033d 4a0b 703c
00000380: b6a7 643d e666 c1bc 97f1 2c3c 9e09 efbc
00000390: d383 443d abcc 163d d2d0 19bd 8894 3d3d
000003a0: 3a3a 75bc 1a47 813d 4b01 a1bc a53d 28bd
000003b0: e600 00bd 4906 37bd 6da0 203d df3b bcbd
000003c0: 01b5 2e3d f16e 9d3d e4eb 453c 4f7c 113d
000003d0: aa2f 01bd 2e7e 803b 427a 44bd 95a3 163c
000003e0: 8dfa 55bd e8cf 6ebd 3b30 1f3d 81dd 59bd
000003f0: cdc3 113b 50ca 82bd 32d3 183d de1d 8abd

network.5.weight f4 [256]
4.6678953 4.9681597 6.102996 6.2066765 6.4358287 6.4554 5.84897 3.8822284
6.4325604 4.0874314 4.141994 5.6186066 6.4208984 5.519095 4.988768 5.267341
4.55152 6.079164 3.870872 5.8104115 6.6774144 5.8979106 6.399343 6.39124
5.1964965 4.6704626 6.2488375 5.467145 6.254759 5.9544883 4.3902626 4.3630877
5.835197 3.9299097 9.093364 6.528286 6.38807 6.1985545 4.4765615 6.2857795
3.8702126 6.479041 5.343625 4.7982793 5.3806224 5.6557603 5.4709063 4.4411483
5.1529803 4.9273195 4.147695 6.343968 5.095929 5.760648 5.4269395 4.8195505
4.277161 4.3103805 5.410674 6.6891356 5.307335 4.0245237 6.3308125 5.9996905
6.777623 5.6588073 6.392025 5.689851 4.152203 5.429385 4.147143 5.617817
5.7555766 4.9233556 5.032053 4.295196 3.9343438 5.1583304 6.5373955 5.6727686
6.584833 6.5031734 5.6332793 5.7006044 5.7916913 5.727723 5.799672 6.051884
5.446328 5.2991633 5.7640576 5.6515665 5.4399676 5.9169545 5.5044928 5.015089
5.851903 5.0054927 5.2365866 5.4177814 5.20031 5.4241138 4.317636 6.2098846
5.4342566 4.240975 4.1009216 5.3005757 0.2126044 4.2108173 6.370263 4.75671
5.700037 5.7273717 5.9869895 5.1270843 4.101004 5.4400153 7.1059055 6.3015733
4.0475984 6.5009055 4.2884126 4.985589 3.99298 4.1661863 6.008102 5.7983403
4.910276 4.754993 4.3792796 5.0451875 4.208391 5.251209 5.7276745 6.5381703
5.400412 3.7412236 5.3509393 4.7290516 5.7949805 6.5039167 6.8977757 5.3996196
3.6057112 6.6214676 6.369441 5.2875075 5.2938414 4.2939963 6.1970935 4.284042
5.5335035 3.8962755 3.740865 4.245778 4.104411 5.10171 4.1061807 4.301844
4.3207707 4.1737046 6.1802235 6.448207 5.878711 4.398182 4.004545 5.8220563
4.492532 5.694746 5.894899 4.247313 4.176142 3.903084 6.1271725 4.54936
6.356878 6.074213 5.927589 5.4370327 5.935869 5.8245015 4.240635 4.300211
5.681538 4.543306 6.2081885 6.7297134 5.62357 6.0356574 6.69663 5.3575225
3.8816054 6.2223454 5.333668 4.8479795 4.269576 5.5693216 6.3895235 6.0337195
6.2578273 5.976622 5.5933805 5.022629 5.007713 6.500265 5.7989626 6.436442
4.2467046 4.608807 6.4524984 3.993762 5.21091 4.9004517 4.8253946 5.2399764
3.7887812 4.114983 6.307544 4.2532578 4.0402308 6.576963 5.7775965 5.9133487
4.9392815 5.0804925 5.6617694 4.2794266 3.8698945 5.1707463 5.8710437 5.0659556
4.0960464 5.713067 3.666168 6.212173 4.593515 4.7410665 5.288287 6.3641596
6.073451 6.091348 3.830961 5.942661 6.103347 4.1655235 6.485235 5.1613216
3.965557 4.215573 6.0447445 4.236154 5.854935 5.876146 5.9976654 5.934691
00000000: 665f 9540 2afb 9e40 be4b c340 189d c640
00000010: 4ff2 cd40 a392 ce40 c32a bb40 6e76 7840
00000020: 89d7 cd40 3dcc 8240 378b 8440 a0cb b340
00000030: 0078 cd40 6d9c b040 fda3 9f40 0f8e a840
00000040: 0da6 9140 8388 c240 5ebc 7740 e4ee b940
00000050: 61ad d540 afbb bc40 6bc7 cc40 0a85 cc40
00000060: b349 a640 6e74 9540 7af6 c740 daf2 ae40
00000070: fc26 c840 2b8b be40 087d 8c40 6a9e 8b40
00000080: efb9 ba40 a483 7b40 6b7e 1141 b8e7 d040
00000090: 126b cc40 8f5a c640 fe3f 8f40 1b25 c940
000000a0: 90b1 7740 4e54 cf40 fafe aa40 818b 9940
000000b0: 0f2e ac40 fdfb b440 aa11 af40 e31d 8e40
000000c0: 37e5 a440 9aac 9d40 ebb9 8440 c901 cb40
000000d0: da11 a340 3a57 b840 7da9 ad40 c239 9a40
000000e0: 81de 8840 a3ee 8940 3e24 ad40 660d d640
000000f0: b0d5 a940 e6c8 8040 0496 ca40 77fd bf40
00000100: 4ae2 d840 f314 b540 788b cc40 4213 b640
00000110: d9de 8440 86bd ad40 65b5 8440 28c5 b340
00000120: af2d b840 218c 9d40 9406 a140 3f72 8940
00000130: 4acc 7b40 0b11 a540 5832 d140 5287 b540
00000140: f4b6 d240 ff19 d040 d343 b440 5a6b b640
00000150: 8955 b940 8249 b740 ea96 b940 09a9 c140
00000160: 5248 ae40 bf92 a940 2973 b840 a2d9 b440
00000170: 3714 ae40 b157 bd40 ce24 b040 9c7b a040
00000180: ca42 bb40 ff2c a040 1e92 a740 775e ad40
00000190: f168 a640 5792 ad40 132a 8a40 60b7 c640
000001a0: 6ee5 ad40 11b6 8740 c03a 8340 519e a940
000001b0: f8b4 593e 04bf 8640 32d9 cb40 f836 9840
000001c0: b466 b640 a146 b740 6b95 bf40 1311 a440
000001d0: 6d3b 8340 9b14 ae40 9463 e340 7da6 c940
000001e0: ed85 8140 6b07 d040 ad3a 8940 f289 9f40
000001f0: fc8c 7f40 6651 8540 5f42 c040 018c b940
00000200: fb20 9d40 e728 9840 0f23 8c40 2d72 a140
00000210: 24ab 8640 e709 a840 1c49 b740 b138 d140
00000220: 2dd0 ac40 3570 6f40 e53a ab40 6454 9740
00000230: 7b70 b940 1620 d040 94ba dc40 afc9 ac40
00000240: f9c3 6640 10e3 d340 76d2 cb40 4333 a940
00000250: 2667 a940 6b68 8940 974e c640 df16 8940
00000260: 7612 b140 945c 7940 556a 6f40 6add 8740
00000270: 5657 8340 3541 a340 d565 8340 b5a8 8940
00000280: c143 8a40 fd8e 8540 64c4 c540 b657 ce40
00000290: 671e bc40 e8bd 8c40 3c25 8040 494e ba40
000002a0: d2c2 8f40 5c3b b640 03a3 bc40 fde9 8740
000002b0: f5a2 8540 21cc 7940 cc11 c440 5b94 9140
000002c0: 8b6b cb40 f45f c240 cfae bd40 2cfc ad40
000002d0: a4f2 bd40 5162 ba40 48b3 8740 549b 8940
000002e0: 29cf b540 c362 9140 7ba9 c640 d059 d740
000002f0: 49f4 b340 1b24 c140 cb4a d640 d370 ab40
00000300: 396c 7840 741d c740 69ad aa40 a622 9b40
00000310: 5ea0 8840 e237 b240 fa76 cc40 3b14 c140
00000320: 1f40 c840 7d40 bf40 f9fc b240 60b9 a040
00000330: 2f3f a040 2c02 d040 1a91 b940 55f7 cd40
00000340: 01e5 8740 597b 9340 de7a ce40 cc99 7f40
00000350: c6bf a640 80d0 9c40 a269 9a40 e3ad a740
00000360: 647b 7240 f1ad 8340 67d7 c940 b01a 8840
00000370: 9249 8140 7b76 d240 12e2 b840 273a bd40
00000380: 980e 9e40 6593 a240 372d b540 10f1 8840
00000390: 5aac 7740 c176 a540 97df bb40 4f1c a240
000003a0: d012 8340 72d1 b640 7fa2 6a40 1fca c640
000003b0: 13fe 9240 d1b6 9740 a639 a940 32a7 cb40
000003c0: b659 c240 53ec c240 772e 7540 472a be40
000003d0: 9e4e c340 f84b 8540 0c87 cf40 8c29 a540
000003e0: b0cb 7d40 f9e5 8640 8c6e c140 938e 8740
000003f0: a15b bb40 6309 bc40 e0ec bf40 fde8 bd40
