best models/saved_models/architecture_4/best_model.pt (torch, 442018 bytes, 25 tensors)

network.0.weight f4 [244, 15]
0	0xbed8f972	-0.42377812
1	0xbeb0b6b9	-0.34514406
2	0x3edf7327	0.43642542
3	0x3f556369	0.8335481
4	0x402bd890	2.685093
5	0xbf2da95c	-0.67836547
6	0xbf4df948	-0.804585
7	0xbfdcb729	-1.7243396
8	0xc10a30c6	-8.636908
9	0x4007ed20	2.123848
10	0x4040e9df	3.0142744
11	0x3f50933c	0.8147466
12	0x40b32714	5.5985203
13	0xbfcadecd	-1.5849243
14	0xbfe7a1db	-1.8096269
15	0xc004db31	-2.0758784
16	0xc06f8ecd	-3.7430909
17	0x3fdee838	1.7414618
18	0xc08b200d	-4.3476624
19	0xc0665cc9	-3.5994132
20	0xc0dd71de	-6.92015
21	0x3fcfcbde	1.623409
22	0x3c239f2d	0.009986681
23	0xbfef84a0	-1.8712349
24	0x3e83c324	0.25734818
25	0xbe45711b	-0.19281428
26	0x3f4adf4d	0.7924698
27	0x3f31efb9	0.6950641
28	0x3ee2a6c7	0.44267866
29	0xc011e7fa	-2.2797837
30	0x3e4cea16	0.20011172
31	0xbe9373be	-0.28799242
32	0x3fa6a89b	1.3020204
33	0x40d8a02f	6.7695537
34	0x3d62f275	0.055407006
35	0x3f169b6a	0.58830893
36	0xc048591d	-3.130439
37	0x40d9ad1d	6.802382
38	0xbf8010d5	-1.0005137
39	0x3ed0a682	0.40752035
40	0xc017e9e9	-2.3736517
41	0x40500e24	3.250863
42	0xbd9d1e82	-0.076718345
43	0xbf41f8eb	-0.75770444
44	0xbf9a1582	-1.2037814
45	0x4016a1bb	2.3536212
46	0x3d35810e	0.04431253
47	0x40a1e183	5.0587783
48	0x3f778c68	0.9669862
49	0xbf6f519c	-0.934839
50	0x3ec1d60c	0.37858617
51	0xbf65aa81	-0.89713293
52	0x406afe9d	3.6717904
53	0xbff4a2d2	-1.9112189
54	0xbe907c33	-0.28219756
55	0xc05c1c96	-3.4392447
56	0xc087f4a9	-4.2486157
57	0x3fbcc499	1.4747497
58	0x3e6a6074	0.22888356
59	0x40a1d317	5.057018
60	0x3ea74921	0.3267298
61	0xbf294d90	-0.66133976
62	0x3ea19645	0.3155996
63	0xbe6f3bca	-0.23362651
64	0x4077d256	3.872213
65	0xc052837b	-3.289275
66	0x4025240d	2.5803254
67	0xbea21672	-0.3165775
68	0xc084874d	-4.141516
69	0xc03610ec	-2.8447828
70	0x406fbdcc	3.7459593
71	0x3f133370	0.5750036
72	0xbe9824a9	-0.2971547
73	0xc081f1eb	-4.060781
74	0xc0980cf3	-4.7515807
75	0xc00308cd	-2.0474122
76	0x3e1d8ecd	0.15386505
77	0x3e4bb655	0.19893773
78	0x3ea6f0bf	0.3260555
79	0x40dd0159	6.9064145
80	0xbf95c83b	-1.170173
81	0x3f76b5db	0.9637124
82	0x3fa06551	1.2530919
83	0x410587f8	8.3456955
84	0xbf249171	-0.64284426
85	0x3ea0f04c	0.31433332
86	0xbeb76f20	-0.3582697
87	0xc08a4dac	-4.3219814
88	0x3f4a9ce6	0.7914566
89	0x3ea5329a	0.32265168
90	0x3de41e14	0.111385494
91	0x3d6638a0	0.056206346
92	0xbe30f087	-0.17279254
93	0xc0a45c50	-5.1362686
94	0x3f72da51	0.94864374
95	0x3e9e2f88	0.30895638
96	0x3ea51612	0.322434
97	0xc0d9a311	-6.8011556
98	0x3e8bb834	0.27288973
99	0x3d18de9c	0.03732167
100	0x3cb60c4c	0.02222266
101	0x40f6f910	7.717903
102	0xbe3cae40	-0.18425846
103	0x3e14f40d	0.14546223
104	0x3f0f0f8c	0.558831
105	0xbf4d368d	-0.8016136
106	0xc02be190	-2.6856422
107	0x401bd049	2.4345877
108	0xbfd31cb8	-1.6493139
109	0xbf05a85c	-0.5221002
110	0xc0013695	-2.0189564
111	0x3fdfaf01	1.7475282
112	0xbfa8ad2e	-1.317785
113	0xbe8ddad2	-0.2770601
114	0xbfb6b694	-1.4274468
115	0x3feaad35	1.8334109
116	0x4087c438	4.2427025
117	0x3f8b959a	1.090503
118	0x40daac18	6.8335075
119	0xc0a6a7d6	-5.207988
120	0x403aaece	2.9169192
121	0x3f2a1b65	0.6644805
122	0x3eeb1804	0.4591676
123	0xbf3e83db	-0.74419945
124	0x402fdb0f	2.7477453
125	0x3d68b19a	0.05681
126	0xbe17e136	-0.14832005
127	0xc072e247	-3.7950609
128	0x41194f92	9.581926
129	0x3fead25f	1.834545
130	0x3f5a046d	0.85163003
131	0xbfc33c74	-1.5252824
132	0x4084498a	4.133977
133	0x3f18a9ad	0.59633905
134	0x3f2744cf	0.6533937
135	0x403349c1	2.8013766
136	0xbf83a208	-1.0283823
137	0xc01de3ec	-2.4670362
138	0xc03e5817	-2.9741266
139	0x409c1307	4.8773227
140	0xbf48f71e	-0.7850207
141	0xc08187b7	-4.0478168
142	0x404637f6	3.0971656
143	0xc0923f6c	-4.570242
144	0x3f345cda	0.7045418
145	0x407c6c22	3.9441
146	0xbe036c03	-0.12834172
147	0xbdebd1ec	-0.11514649
148	0xbbe8f27d	-0.007108985
149	0xbd57c7e4	-0.052680865
150	0xc07ac3bc	-3.9181967
151	0xc0109818	-2.259283
152	0xbfb0a8ee	-1.3801553
153	0x40679dd8	3.619009
154	0x40ae6518	5.4498405
155	0x407e75e5	3.9759457
156	0x3fed1861	1.8523065
157	0xbcb8ca44	-0.022557385
158	0x3e42d968	0.19028246
159	0x3faf89f8	1.371398
160	0x3f076497	0.5288786
161	0xc003b3b1	-2.0578425
162	0xc0631fe7	-3.5488222
163	0xc0248b1b	-2.5709903
164	0xbe78aeb4	-0.24285394
165	0x3c07a3e3	0.00827882
166	0xbe716faa	-0.23577753
167	0xbfae23c3	-1.3604664
168	0x3edad3fe	0.42739862
169	0x40267284	2.6007395
170	0xc020544b	-2.5051448
171	0xbfee59ec	-1.8621192
172	0x3e75ab48	0.2399112
173	0x3f99a50d	1.2003495
174	0x3e714a7c	0.2356357
175	0xbf7d1fe8	-0.9887681
176	0x3f82d574	1.0221391
177	0xc08ac04b	-4.3359733
178	0x40a79167	5.2364993
179	0x41028f18	8.159935
180	0xc0933555	-4.6002603
181	0xbf735ec9	-0.95066506
182	0x4087e958	4.2472343
183	0x3e884645	0.2661611
184	0x3f92c33e	1.1465833
185	0xbf277880	-0.65418243
186	0x3f7d49a7	0.9894051
187	0xc0839899	-4.1123776
188	0xc09dd54d	-4.9322877
189	0xbf76599b	-0.9623048
190	0x40839c2f	4.1128154
191	0xbec8f982	-0.3925286
192	0xbf2fb6de	-0.6863841
193	0xbfd39a16	-1.6531398
194	0xbf34ac54	-0.7057545
195	0xbf907e8f	-1.1288623
196	0xc0158eab	-2.3368328
197	0xc03a79ac	-2.9136763
198	0x401937c1	2.394028
199	0x3fd2c3bf	1.6465987
200	0x402b4c38	2.676527
201	0x408bbec9	4.367039
202	0xc072106d	-3.7822526
203	0xc007caa8	-2.1217442
204	0xc081207c	-4.0352154
205	0xc09ce2e9	-4.902699
206	0x3ea9d61e	0.3317117
207	0x3f0b7119	0.5446945
208	0x3f07715f	0.52907366
209	0x3f7fae44	0.99875283
210	0x3ef15da5	0.47141758
211	0x403127b5	2.7680485
212	0x408204e4	4.063097
213	0xc0b47b86	-5.6400785
214	0x3fba4696	1.4552791
215	0x4085271f	4.1610255
216	0x4090c1b6	4.5236464
217	0x3fce4e89	1.6117717
218	0xbf00370d	-0.50084
219	0xbfbd6685	-1.4796911
220	0xbf90e9a4	-1.1321301
221	0xbf852c1b	-1.0404085
222	0x3f314a44	0.69253945
223	0x3f0e1302	0.55497754
224	0x3f202881	0.62561804
225	0xbefbfc9d	-0.49216166
226	0x3d3eba50	0.0465644
227	0xbd38f8da	-0.0451592
228	0x3ec4e642	0.38456923
229	0x40b603e0	5.687973
230	0xbf64c4da	-0.8936287
231	0x3fa73eb3	1.3066009
232	0x3e7a0293	0.24415044
233	0xbde84b06	-0.113424346
234	0x4074aa36	3.8228889
235	0x409a7c15	4.8276467
236	0x3ee7872e	0.4522032
237	0xbefa3c7b	-0.48874268
238	0xc0903f1d	-4.5077043
239	0x408b2051	4.347695
240	0xc001d5dc	-2.028678
241	0xbff9362c	-1.9469657
242	0x3e71c792	0.23611286
243	0xc000eed8	-2.0145779
244	0xc080c5d9	-4.0241513
245	0xc04b1194	-3.172948
246	0x3d2e82f4	0.042605355
247	0xbf909071	-1.129408
248	0xc06417ac	-3.5639448
249	0xc030a60c	-2.7601347
250	0x3ec195f7	0.37809727
251	0xc04ba270	-3.1817894
252	0xc0adcd3a	-5.431302
253	0xc07a7c1b	-3.9138248
254	0x3e7542f2	0.23951319
255	0xc00e201b	-2.2207096

network.0.bias f4 [244]
0	0x3fb0a326	1.3799789
1	0x3f98dada	1.1941788
2	0x3eeb4ce0	0.45957088
3	0x3f942002	1.1572268
4	0x3fd74a13	1.6819481
5	0x3fa19859	1.2624618
6	0x3f3509f9	0.7071834
7	0x3fb51e12	1.4149802
8	0x3f989ba2	1.1922495
9	0x3fb3026f	1.3985118
10	0x3f9034d8	1.1266127
11	0x3fa75f50	1.3075962
12	0x3fa9276a	1.3215153
13	0x3f9ab855	1.2087504
14	0x3f923b4e	1.1424348
15	0x40a01f25	5.003802
16	0x3f9a807e	1.2070463
17	0x3f9f7456	1.2457378
18	0x3f97e45b	1.1866564
19	0x3fa8968c	1.3170943
20	0x3f9bf3f9	1.218383
21	0x3fa2678f	1.2687854
22	0x3f948859	1.160411
23	0x3f6debea	0.929381
24	0x3f849011	1.0356466
25	0x3f06b0d0	0.52613544
26	0x3fa9eb7b	1.3274988
27	0x3fbe6ace	1.4876344
28	0x3f978158	1.1836348
29	0xbd052b4a	-0.032511987
30	0x3f9b3396	1.2125118
31	0x3fa98f56	1.3246868
32	0x3fa52aa0	1.2903633
33	0x3f975c14	1.1824975
34	0x3f9c2088	1.2197428
35	0x3fa6b665	1.3024412
36	0x3f9f9cd2	1.2469733
37	0x3fa3fd25	1.2811629
38	0x40907af1	4.5150075
39	0x3f9ac173	1.2090286
40	0x3ed7ed1c	0.42173088
41	0x3fa11cb3	1.2586883
42	0x3f9abaa2	1.2088206
43	0x3f8f40c7	1.1191643
44	0x3f84a63b	1.036323
45	0x3f1ea03c	0.6196325
46	0x3f946730	1.159399
47	0x3fb121d8	1.3838453
48	0x40248735	2.5707524
49	0x3f8b9063	1.0903438
50	0x3f9a12b1	1.2036954
51	0x3fab4214	1.337954
52	0x402b33ba	2.6750321
53	0x3f9245d7	1.1427563
54	0x3f82980f	1.0202655
55	0x3f93807f	1.1523589
56	0x40216c50	2.5222359
57	0x4124347c	10.262814
58	0x41265c0e	10.397474
59	0x3f980047	1.1875085
60	0x3fa26b7a	1.2689049
61	0x3f9d8f30	1.2309322
62	0x3fa35841	1.2761308
63	0x40a77e5a	5.234174
64	0x3f964c92	1.1742117
65	0x3fac9e13	1.348574
66	0x3f94666d	1.1593758
67	0x3b14d5ac	0.0022710366
68	0x3f986d6a	1.190839
69	0x3b3a5cbd	0.0028436624
70	0x3fa44b4b	1.2835478
71	0x3f73c946	0.95228994
72	0x3ea56b32	0.32308346
73	0x3f9e0d80	1.234787
74	0x3f9e8ad8	1.2386122
75	0x3f140af2	0.578292
76	0x3f946cee	1.1595743
77	0x3f9caa25	1.2239424
78	0xbf411a7a	-0.75431025
79	0x3f7c9602	0.98666394
80	0xbde2c1c9	-0.11072118
81	0x3f9697f9	1.1765128
82	0x3fc7bcc5	1.5604483
83	0x3fa08aa4	1.254231
84	0x3f91f65b	1.1403307
85	0x3f9fb7eb	1.2478002
86	0x3f773af9	0.9657436
87	0x3f9ccfc1	1.2250901
88	0x3f926f91	1.1440297
89	0x3f9ccb36	1.2249515
90	0x3f8ba32c	1.0909171
91	0x3f9b2356	1.2120159
92	0x3fa7415c	1.3066821
93	0x403416f3	2.8139007
94	0x40d513cd	6.658667
95	0x3f83b725	1.0290266
96	0x40185ea5	2.3807766
97	0x3f973172	1.1811965
98	0x3f8a42fb	1.0801691
99	0x3f9ad753	1.2096962
100	0x3f9efca1	1.2420846
101	0x3f963f27	1.1738023
102	0x3fa41460	1.2818718
103	0x3e24b7d4	0.1608575
104	0x3f9c91e6	1.2232025
105	0x3f112094	0.56690335
106	0x3fb43e3a	1.408149
107	0x3f913d67	1.1346864
108	0x3f9ad287	1.2095498
109	0x3e64bfb6	0.22338757
110	0x412a955c	10.661465
111	0x3f8bbbc0	1.0916672
112	0x3faeca5f	1.3655509
113	0x3fa62b5a	1.298198
114	0x3f8ecac0	1.1155624
115	0x3f9e9d75	1.2391802
116	0x3fa91b7b	1.3211511
117	0x3fa6063f	1.2970656
118	0x3f905345	1.1275412
119	0x3fa64bbe	1.2991865
120	0x402e98fc	2.7280874
121	0x3f075d76	0.52876985
122	0x3fa01812	1.2507346
123	0x3faac1a7	1.3340348
124	0x3fa35891	1.2761403
125	0x3f39b9da	0.7254921
126	0x3fcbf1c8	1.5933161
127	0x3f924d6e	1.142988
128	0x3f9116d9	1.1335098
129	0x3f9a678b	1.2062849
130	0x409f1313	4.9710784
131	0x3f992461	1.1964227
132	0x3f923194	1.142138
133	0x4021eb28	2.5299778
134	0x3f95502d	1.1665093
135	0x3f9df6ab	1.2340902
136	0x3fa488af	1.2854213
137	0x3f90d0a3	1.1313671
138	0x401d78e6	2.460504
139	0x3f92c20d	1.146547
140	0x3fb5db15	1.4207484
141	0x40042879	2.0649703
142	0x3f9ef467	1.2418336
143	0x3fa2a79e	1.2707403
144	0x3fa13ed8	1.2597303
145	0x3e992d9d	0.29917613
146	0x3fa3a053	1.2783302
147	0x3fb977f0	1.4489727
148	0x3f977149	1.1831447
149	0x3efa68fd	0.48908225
150	0x40199b3f	2.4001005
151	0x3f8ae305	1.0850531
152	0x3f984568	1.1896181
153	0x3fa039e6	1.2517669
154	0x3da8a54a	0.082346514
155	0x3f8e06da	1.1095841
156	0x3f973f0b	1.1816114
157	0x3fa9d9bf	1.3269576
158	0x3f93e92a	1.1555531
159	0x3f9ec3d9	1.2403518
160	0x402043eb	2.5041454
161	0x3f884d6b	1.0648626
162	0xbfa5bf7c	-1.2949061
163	0x402356fc	2.552184
164	0x3fa776bd	1.3083111
165	0x40a45643	5.13553
166	0x3f97f3dd	1.1871296
167	0x3fa935d6	1.3219554
168	0x3fac8471	1.3477918
169	0x3f8aa9e5	1.0833098
170	0x3f9d68cf	1.229761
171	0x3fb90af5	1.4456469
172	0x3f9c92db	1.2232317
173	0x3fb3455f	1.4005545
174	0x3f8da48b	1.106584
175	0x3fa63dc1	1.2987596
176	0x3fa1a9af	1.2629908
177	0x3f9c27c3	1.2199634
178	0x3f9d3965	1.228314
179	0x3f69e522	0.91365254
180	0x3f8b6b8e	1.0892198
181	0x3f9a1f95	1.2040888
182	0x3f9b270b	1.212129
183	0x3f9593d6	1.1685741
184	0x3f9d5a69	1.2293216
185	0x4128bd02	10.5461445
186	0x3fc00bc5	1.5003592
187	0x3f924be1	1.1429406
188	0x3f869baa	1.0516255
189	0x3f9c51ae	1.2212427
190	0x402c28e6	2.6899962
191	0x3f791070	0.97290707
192	0x3fa24b87	1.2679299
193	0x3fa6403b	1.2988352
194	0x3faa9166	1.3325622
195	0x3fafd166	1.3735778
196	0x3facf5d7	1.3512524
197	0x3fa2141d	1.2662388
198	0x3f97478a	1.1818707
199	0x3f9a2cf4	1.2044969
200	0x3df4d987	0.119555525
201	0x40287b23	2.6325157
202	0x3f968505	1.1759344
203	0x3f8acc60	1.084362
204	0x3faed689	1.3659221
205	0x3fa89e09	1.3173229
206	0x3f9dc420	1.2325478
207	0x3fa99f21	1.3251687
208	0x3fa0def0	1.2568035
209	0x3f8d5301	1.1040956
210	0x3f9a7b71	1.2068921
211	0x3f96de07	1.1786507
212	0x3fad9014	1.3559594
213	0x3fa84887	1.3147134
214	0x3faa7903	1.331818
215	0x3f994ab6	1.1975925
216	0x3f62a7ed	0.88537484
217	0x402352ca	2.551928
218	0x3f9c4b27	1.2210435
219	0x3fabf8dc	1.3435321
220	0x3f9a638b	1.2061628
221	0x3fa5a8e3	1.2942165
222	0x3f68b2a3	0.9089758
223	0x3fcfaed4	1.6225228
224	0x3f96bdfd	1.177673
225	0x3f0a72bd	0.54081327
226	0x3fc5709b	1.542499
227	0x3ed3abe5	0.41342083
228	0x3f9ff61d	1.2496983
229	0x3fa37123	1.2768902
230	0x3fac9543	1.3483051
231	0xbe3bb903	-0.18332295
232	0x3fc719f2	1.5554793
233	0x3f93e020	1.1552773
234	0x3f9f2ca7	1.2435502
235	0x3fa4a986	1.2864234
236	0xbe405497	-0.18782268
237	0x3f98cbed	1.1937233
238	0x3f31ed92	0.6950313
239	0x3f8b9746	1.090554
240	0x3f96c8b1	1.1779996
241	0x3fd1bd3d	1.6385876
242	0x401fe398	2.4982662
243	0x403650c0	2.8486786

network.1.weight f4 [244]
0	0x405621e1	3.3458178
1	0x4074c932	3.82478
2	0x4047ead4	3.1237078
3	0x4083f877	4.12408
4	0x406209d6	3.5318503
5	0x405327ae	3.2992969
6	0x40631045	3.547868
7	0x406a39d0	3.6597786
8	0x40773c53	3.863057
9	0x40648fd6	3.571279
10	0x405b7c8c	3.4294767
11	0x40488f6e	3.1337543
12	0x404c9912	3.1968427
13	0x40847ccd	4.1402345
14	0x4083712f	4.1075664
15	0x40605017	3.5048883
16	0x405cb1f7	3.448362
17	0x40754dcb	3.832873
18	0x405fc1f3	3.4962127
19	0x405a8cfc	3.414855
20	0x40692742	3.643021
21	0x40749b65	3.8219845
22	0x405c3df6	3.4412818
23	0x407e5236	3.9737678
24	0x40745197	3.8174798
25	0x40731492	3.7981305
26	0x405afdc3	3.4217384
27	0x406f4577	3.7386148
28	0x40551a29	3.3297217
29	0x4086921d	4.205336
30	0x4077ffc8	3.8749866
31	0x407ce6cf	3.9515874
32	0x406f4e88	3.7391682
33	0x4071600a	3.7714868
34	0x407e7ff6	3.97656
35	0x40653803	3.5815437
36	0x4074bb7b	3.823943
37	0x407383ca	3.8049188
38	0x4062708c	3.5381193
39	0x407862ef	3.8810384
40	0x407cf5a2	3.9524922
41	0x4073057d	3.79721
42	0x4081f70f	4.0614085
43	0x405b8100	3.4297485
44	0x4085b5ac	4.1784267
45	0x4087cf99	4.2440915
46	0x407dcd5d	3.9656594
47	0x407819f8	3.876585
48	0x4044e804	3.076661
49	0x408f5d6b	4.4801536
50	0x40655d47	3.5838182
51	0x40624862	3.535668
52	0x4059655b	3.3968112
53	0x4070651b	3.756171
54	0x407fc34b	3.9962947
55	0x407ea24c	3.9786558
56	0x405b6862	3.428246
57	0x407d2711	3.9555094
58	0x405d6fea	3.4599557
59	0x405dcfea	3.465815
60	0x40852ee8	4.161976
61	0x40642fd3	3.565419
62	0x4059cdcb	3.4031856
63	0x404b6b65	3.1784298
64	0x406dc65a	3.7152314
65	0x4085c8b9	4.1807523
66	0x406444a1	3.5666888
67	0x40601393	3.5011947
68	0x4071fcfa	3.7810655
69	0x406e4dff	3.7235105
70	0x4060e50c	3.51398
71	0x408a42eb	4.3206687
72	0x4053d2de	3.3097453
73	0x405f51d9	3.4893706
74	0x407af752	3.9213452
75	0x407842b1	3.8790705
76	0x40764129	3.847727
77	0x405eec8e	3.4831882
78	0x4022bf0d	2.5429108
79	0x40860f60	4.189377
80	0x405d61ff	3.4591062
81	0x4072a21a	3.791144
82	0x404b6c90	3.1785011
83	0x4050650c	3.2561674
84	0x4054e078	3.3262005
85	0x408668a0	4.2002716
86	0x4067620b	3.615359
87	0x405904f6	3.3909278
88	0x405edd64	3.4822626
89	0x405ed8d3	3.481984
90	0x408090d6	4.01768
91	0x405a7396	3.4133048
92	0x407ae30f	3.9201086
93	0x40587d63	3.382653
94	0x4060e993	3.5142562
95	0x407e036c	3.9689589
96	0x4066c8c6	3.6060042
97	0x40834c6d	4.1030793
98	0x40630c9f	3.5476453
99	0x406c6168	3.6934452
100	0x40665905	3.5991833
101	0x4055da1b	3.341437
102	0x404de2f1	3.2169764
103	0x407e1950	3.970295
104	0x406278fb	3.538634
105	0x40861650	4.1902237
106	0x407f6b6b	3.9909313
107	0x405b93ee	3.430904
108	0x405a7a18	3.413702
109	0x4044ce59	3.0750945
110	0x404f317f	3.237396
111	0x405c26ac	3.4398603
112	0x40686daf	3.6316946
113	0x406de0e2	3.7168508
114	0x4076b23c	3.8546286
115	0x408531d2	4.1623316
116	0x4053c5e1	3.3089526
117	0x406f21b4	3.736432
118	0x40708a4a	3.7584405
119	0x4061169e	3.5170054
120	0x404cb96f	3.198818
121	0x407b5f27	3.9276826
122	0x405f914a	3.4932427
123	0x404d7906	3.2105117
124	0x4063a0bf	3.5566862
125	0x407df11e	3.9678416
126	0x405f9317	3.4933527
127	0x407dc02e	3.9648547
128	0x407f4b1f	3.98896
129	0x404d6ef6	3.2098975
130	0x40696b02	3.6471562
131	0x40764949	3.848223
132	0x406f910e	3.7432284
133	0x40708852	3.7583203
134	0x407518b6	3.8296332
135	0x406bcbb5	3.6843083
136	0x405fcdcd	3.496936
137	0x406001e4	3.5001154
138	0x4073c9a2	3.8091817
139	0x40704b3e	3.7545924
140	0x4062127e	3.5323787
141	0x4073984b	3.8061702
142	0x405f919c	3.4932623
143	0x40638a7d	3.5553277
144	0x406e45be	3.7230067
145	0x40543c85	3.3161938
146	0x40725e4a	3.787005
147	0x40564fd0	3.3486214
148	0x40589943	3.3843544
149	0x408b1a6d	4.346976
150	0x4054e00f	3.3261755
151	0x4052b863	3.292504
152	0x40507064	3.2568598
153	0x40610b09	3.5162985
154	0x405b1b6b	3.4235485
155	0x406ced77	3.7019937
156	0x406fd7fe	3.747558
157	0x4072e5ee	3.7952838
158	0x405ef203	3.4835212
159	0x406f5cce	3.7400393
160	0x4067193f	3.610916
161	0x40746ac9	3.8190176
162	0x40851360	4.158615
163	0x404daf8e	3.21384
164	0x4068da76	3.6383338
165	0x407983f5	3.898679
166	0x408882bb	4.2659583
167	0x4086d941	4.2140203
168	0x408ff1d1	4.4982686
169	0x4053825c	3.3048315
170	0x405c2822	3.4399495
171	0x406c73cf	3.6945684
172	0x4070c881	3.7622378
173	0x4073290a	3.7993798
174	0x4061b6c7	3.5267808
175	0x40685a2f	3.6305044
176	0x407b6faf	3.9286916
177	0x40873932	4.225732
178	0x406b4dae	3.6766162
179	0x40718106	3.7735
180	0x40785bdb	3.8806064
181	0x405828e6	3.3774962
182	0x404e6c56	3.2253623
183	0x4085ae04	4.177492
184	0x406ef572	3.7337308
185	0x406d1829	3.7045996
186	0x40628e0f	3.5399206
187	0x407adff0	3.919918
188	0x40621b5f	3.5329206
189	0x405665e2	3.3499684
190	0x406c60b4	3.6934023
191	0x408276b0	4.076988
192	0x407d0f7e	3.9540706
193	0x40649a35	3.571912
194	0x406b5b8a	3.677462
195	0x40870a78	4.220028
196	0x4067620f	3.61536
197	0x4053ff75	3.3124669
198	0x406b5f98	3.6777096
199	0x40649bed	3.572017
200	0x403aba8d	2.9176362
201	0x405de327	3.4669893
202	0x407aa0a8	3.9160557
203	0x407dceb7	3.9657419
204	0x4069dcdc	3.6541052
205	0x405d41c4	3.457139
206	0x4078549b	3.880164
207	0x406481b8	3.5704174
208	0x406956b9	3.6459181
209	0x4086c267	4.2112308
210	0x40762c04	3.8464365
211	0x40631f4e	3.5487857
212	0x405ce8da	3.4517121
213	0x4060fe9e	3.5155406
214	0x4085198f	4.15937
215	0x40573dc3	3.3631446
216	0x4080e432	4.027856
217	0x405224ee	3.283504
218	0x406d774d	3.7104065
219	0x406e1c6a	3.7204843
220	0x40728de0	3.7899094
221	0x4061920f	3.5245397
222	0x406a6044	3.6621256
223	0x405ccb62	3.4499135
224	0x406eba81	3.7301333
225	0x408357c0	4.1044617
226	0x40592fd2	3.3935437
227	0x406eedf7	3.7332742
228	0x407aa42c	3.9162703
229	0x4073a417	3.8068902
230	0x40741731	3.8139155
231	0x4047fd5b	3.1248386
232	0x403d7eeb	2.9608715
233	0x406432f8	3.565611
234	0x4065a7a2	3.5883565
235	0x40846875	4.137751
236	0x407c98c9	3.9468253
237	0x404edfc0	3.2324066
238	0x40619342	3.524613
239	0x407a8c45	3.9148114
240	0x40821353	4.064859
241	0x403f4f32	2.9892087
242	0x4097d73e	4.7450247
243	0x403ab328	2.9171848

network.1.bias f4 [244]
0	0xbeda4e24	-0.42637742
1	0xbffd11ee	-1.9771097
2	0xbf2f3441	-0.6843911
3	0xc03c1938	-2.9390392
4	0x3fecd9b6	1.850394
5	0xbf0f5992	-0.5599605
6	0xbfc5f6e4	-1.546597
7	0xbff9a428	-1.9503222
8	0xbfa24b82	-1.2679293
9	0xbff9f513	-1.9527916
10	0xbfd5bbc9	-1.6697932
11	0xbec0509b	-0.37561497
12	0xc004f31e	-2.0773387
13	0xc0095085	-2.1455395
14	0xc00d0441	-2.2033846
15	0x401fe741	2.4984896
16	0xbf8ce189	-1.1006328
17	0xbfdba994	-1.7161126
18	0xbf9f1329	-1.2427722
19	0xbf208fef	-0.62719625
20	0xc002e470	-2.0451927
21	0xbff4b283	-1.9116977
22	0xbf5034d4	-0.8133061
23	0xc00dbdfd	-2.214721
24	0xbff8eaaf	-1.944662
25	0xbfdbe60f	-1.7179583
26	0xbfb2e11d	-1.3974949
27	0x3ee7f981	0.45307544
28	0xc00736f7	-2.1127298
29	0xc01e2547	-2.4710252
30	0xbfd19750	-1.6374302
31	0xbfa24927	-1.2678574
32	0xbf27985c	-0.65466857
33	0xbffb3439	-1.9625312
34	0xc0147f79	-2.3202803
35	0xbf9a0dca	-1.2035458
36	0xbfefa72e	-1.8722894
37	0xbfc82628	-1.5636644
38	0x40151feb	2.330073
39	0xbfb5b67c	-1.4196315
40	0xc00a1699	-2.1576293
41	0xbfdcd4e1	-1.7252465
42	0xbfed07d7	-1.8518018
43	0xbfe34da8	-1.7758074
44	0xbfe0c722	-1.756077
45	0xc02498d8	-2.5718288
46	0xbf928c8f	-1.1449145
47	0xc01e9c4f	-2.4782903
48	0xbec8a453	-0.3918787
49	0xc0281f64	-2.626916
50	0xbfb5c870	-1.4201794
51	0xbf6b7af1	-0.9198447
52	0x3ef0b317	0.47011635
53	0xbfb49b71	-1.4109937
54	0xc0436355	-3.0529377
55	0xc00cd593	-2.2005355
56	0x3ee4f4da	0.44718057
57	0x400772e8	2.1163883
58	0x3ff98327	1.949315
59	0xc02c82eb	-2.6954906
60	0xc018d45c	-2.3879614
61	0xc01df825	-2.4682705
62	0xbf783394	-0.969537
63	0x4044dc76	3.0759559
64	0xc007331d	-2.1124947
65	0xbf34be86	-0.70603216
66	0xc00059dd	-2.0054848
67	0xbfeeca15	-1.865542
68	0xbfe59c77	-1.7938374
69	0xbfd860e4	-1.6904569
70	0xbfad03df	-1.3516806
71	0xc0259fec	-2.5878859
72	0xbfbdebc5	-1.4837576
73	0xbf76a81e	-0.96350276
74	0xbf8fe7b5	-1.1242586
75	0xc02db448	-2.7141285
76	0xc0324e21	-2.7860186
77	0xbf8461de	-1.0342367
78	0xbf861421	-1.0474893
79	0xc01badb6	-2.4324775
80	0xc00a3256	-2.1593223
81	0xc038d507	-2.8880022
82	0xbed41d65	-0.41428676
83	0xbf2f53f9	-0.6848751
84	0xbfb76038	-1.4326239
85	0xc006c2d3	-2.1056411
86	0xbfe8cee7	-1.8188142
87	0xbf753059	-0.957769
88	0xbf9f5e4d	-1.2450653
89	0xbf877dcc	-1.0585265
90	0xbfd35d04	-1.6512761
91	0xbf19682a	-0.59924567
92	0xbfcdbc4e	-1.6073091
93	0x3fca0b39	1.5784675
94	0x3fca68a2	1.5813181
95	0xc024e520	-2.5764847
96	0x3f8cbcb5	1.0995089
97	0xbfaedd4d	-1.3661286
98	0xbfa40f85	-1.2817236
99	0xbf4c86e3	-0.7989332
100	0xbfb40be8	-1.4066133
101	0xbf7d4655	-0.98935443
102	0xbefd5e6d	-0.49486104
103	0xbfe4d9da	-1.7878983
104	0xbfa870b4	-1.3159394
105	0xc053ad5f	-3.3074567
106	0xbfe0a628	-1.7550707
107	0xbf15f50a	-0.58577025
108	0xbf440818	-0.7657485
109	0xbf84e176	-1.0381305
110	0x3fa40f22	1.2817118
111	0xbf34bf8e	-0.7060479
112	0xbfe6634c	-1.7999053
113	0xc0063878	-2.0971966
114	0xbfa654ef	-1.299467
115	0xbfa62a0d	-1.2981583
116	0x40292ec2	2.6434789
117	0xc01a3190	-2.409275
118	0xc01837d4	-2.3784075
119	0xbf7e9015	-0.994386
120	0x40444f39	3.0673354
121	0xc0001de8	-2.0018253
122	0xbf3910dd	-0.72291356
123	0xbf9dec1a	-1.2337677
124	0xbf4e9a9a	-0.80704653
125	0xc0095a7d	-2.146148
126	0xbf3fed08	-0.74971056
127	0xbff7f67b	-1.9372095
128	0xc04a3f34	-3.1601076
129	0xbf368a75	-0.7130502
130	0x3f9ddc0d	1.2332779
131	0xbfddc957	-1.7327069
132	0xbfd026c1	-1.6261827
133	0x403f3032	2.9873166
134	0xc01a2047	-2.40822
135	0xbf569668	-0.8382325
136	0xbf6f0d2d	-0.9337948
137	0xbfffae52	-1.9975073
138	0x401a555e	2.4114604
139	0xbfd2221a	-1.6416657
140	0xbfdf0643	-1.7423786
141	0xbf81b6a4	-1.0133862
142	0xbfdea96d	-1.7395455
143	0xbf5062e5	-0.814009
144	0xc010e9a0	-2.2642593
145	0xbf99244a	-1.19642
146	0xbf84638f	-1.0342883
147	0xbf3b606a	-0.7319399
148	0xbf9fc053	-1.2480568
149	0xc0333eb8	-2.800703
150	0x3f9682da	1.1758683
151	0xbf4d1096	-0.80103433
152	0xbf4c1674	-0.7972176
153	0xbf917a65	-1.1365477
154	0xbf8a3610	-1.0797749
155	0xbfd36372	-1.6514723
156	0xc0050adf	-2.0787885
157	0xbfd1dfe9	-1.6396457
158	0xbfe1576c	-1.7604804
159	0xc01635a2	-2.3470235
160	0x3f21b9b2	0.63173974
161	0xc01c61d8	-2.443472
162	0xbdabb0dc	-0.083833426
163	0x3fc05dc8	1.502862
164	0xbf3dbaa5	-0.7411292
165	0x3feb6c67	1.8392457
166	0xc01d31a8	-2.4561558
167	0xc0221269	-2.5323737
168	0xc012c1e5	-2.2930844
169	0xbfc53cdc	-1.5409198
170	0xbff3bb7e	-1.9041593
171	0xbfd3818d	-1.6523911
172	0xc011867b	-2.273833
173	0xbfc2c0f9	-1.521514
174	0xbfbae223	-1.4600261
175	0xbf857ad5	-1.042811
176	0xc027637c	-2.615447
177	0xc03099de	-2.7593913
178	0xbfea9e83	-1.8329624
179	0xc0116d72	-2.272305
180	0xbfe518c6	-1.7898185
181	0xbf4023d3	-0.75054663
182	0xbf152274	-0.58255696
183	0xc014c830	-2.3247185
184	0xbfdf7939	-1.7458869
185	0x4016dda2	2.3572774
186	0xbfed36c7	-1.8532342
187	0xbfb05e6e	-1.3778818
188	0xbff107ce	-1.8830507
189	0xbf291d4e	-0.6606034
190	0x3eb74259	0.35792807
191	0xc02347c6	-2.5512557
192	0xc0152be7	-2.3308046
193	0xbff3850f	-1.9024981
194	0xbf9a38b9	-1.204856
195	0xc015dc0d	-2.3415558
196	0xbf7436e9	-0.95396286
197	0xbfad896e	-1.3557565
198	0xbfc8e9ab	-1.569631
199	0xbfccf0eb	-1.6011022
200	0xbf89d041	-1.0766679
201	0x3fb598cc	1.4187255
202	0xbf7bd4a5	-0.98371345
203	0xc01407d8	-2.3129787
204	0xc01855f2	-2.3802457
205	0xbfaf61e9	-1.3701755
206	0xbf670f1d	-0.90257436
207	0xbf5268e2	-0.8219129
208	0xbffe6113	-1.9873375
209	0xbfdad98b	-1.7097639
210	0xbfb622e5	-1.4229399
211	0xbfc14181	-1.5098115
212	0xbf17ea9d	-0.59342366
213	0xbf3f1afe	-0.7465056
214	0xc014b022	-2.3232503
215	0xbf7509f3	-0.95718306
216	0xc01723dc	-2.3615637
217	0xbf37711c	-0.71656966
218	0xbff05938	-1.8777227
219	0xbfe07799	-1.7536498
220	0xbfddac9a	-1.7318299
221	0xc009758a	-2.147799
222	0xc0242471	-2.5647242
223	0xbf7891d0	-0.9709749
224	0xbfc26228	-1.5186205
225	0xc012d86e	-2.2944598
226	0xbf3ab2c0	-0.72929
227	0xc01ce7a8	-2.4516392
228	0xbfdcdb54	-1.7254434
229	0xbfe5c296	-1.7950008
230	0xbfcd2ea7	-1.6029862
231	0xbfb1d0bf	-1.3891829
232	0x3f195a90	0.5990381
233	0xbfb50c72	-1.4144423
234	0xbf036747	-0.51329464
235	0xbfd9c384	-1.7012792
236	0xbfc3a93d	-1.5286022
237	0xbee83e49	-0.4536002
238	0xc0052fe4	-2.081048
239	0xbfeb42c0	-1.8379745
240	0xc02aa9c9	-2.6666129
241	0xbf104f62	-0.5637113
242	0x3e421a9d	0.18955465
243	0x3fa709ac	1.3049827

network.1.running_mean f4 [244]
0	0x3fadef9b	1.3588747
1	0x3f9494d6	1.1607921
2	0x3ee707e8	0.4512322
3	0x3f95aa0c	1.1692519
4	0x3fd450f8	1.658721
5	0x3fa28085	1.2695471
6	0x3f28679e	0.6578311
7	0x3fb0937d	1.379501
8	0x3f98526b	1.1900152
9	0x3fb25c52	1.3934424
10	0x3f945aa7	1.1590165
11	0x3fa7e052	1.3115332
12	0x3fa7314c	1.3061919
13	0x3f9cf9d4	1.2263741
14	0x3f926946	1.1438377
15	0x409fad5c	4.989912
16	0x3f9b93a9	1.2154437
17	0x3f9f91f7	1.246642
18	0x3f979895	1.1843439
19	0x3fa5b1a4	1.2944837
20	0x3f9eafff	1.239746
21	0x3fa5111d	1.2895848
22	0x3f9593a5	1.1685683
23	0x3f68d61a	0.90951693
24	0x3f85e73f	1.0461196
25	0x3f0d7c49	0.5526777
26	0x3fa8359e	1.3141363
27	0x3fbcdda0	1.4755135
28	0x3f97e07d	1.1865383
29	0xbb2f18a9	-0.002671758
30	0x3f9c34e5	1.2203642
31	0x3fa9a23b	1.3252634
32	0x3fa2d0d1	1.2719976
33	0x3f96986b	1.1765264
34	0x3f9ead3f	1.239662
35	0x3fa7b8a3	1.3103222
36	0x3fa02626	1.2511642
37	0x3fa57445	1.2926108
38	0x409079b2	4.5148554
39	0x3f9cb24c	1.2241912
40	0x3ececb0e	0.40389293
41	0x3f9f1b3d	1.2430187
42	0x3f98cacf	1.1936892
43	0x3f92a2b3	1.1455902
44	0x3f84609e	1.0341985
45	0x3f26afdd	0.65112096
46	0x3f94b785	1.1618506
47	0x3fb0d9ed	1.3816506
48	0x4023bf62	2.558556
49	0x3f8dcc4c	1.1077971
50	0x3f9a4593	1.2052482
51	0x3fad6388	1.3546
52	0x4029acbd	2.651168
53	0x3f932a5e	1.1497304
54	0x3f84a73e	1.0363538
55	0x3f90512f	1.1274775
56	0x402142bb	2.519698
57	0x412447c6	10.267523
58	0x4126327d	10.387326
59	0x3f997e91	1.199175
60	0x3f9f6fc7	1.2455987
61	0x3f9f9f3a	1.2470467
62	0x3fa3e210	1.2803364
63	0x40a82436	5.2544203
64	0x3f99ef10	1.2026081
65	0x3faa68dc	1.331325
66	0x3f9587c1	1.1682054
67	0x3c4e6ae6	0.012598729
68	0x3fa049c1	1.2522508
69	0x3d58ad32	0.052899547
70	0x3fa5e18c	1.2959456
71	0x3f7c5fd3	0.98583716
72	0x3e964cf9	0.293556
73	0x3fa295a9	1.2701923
74	0x3f9ff3c4	1.2496266
75	0x3f1587e6	0.5841049
76	0x3f98efef	1.1948222
77	0x3f9c2969	1.2200137
78	0xbf3f75a2	-0.7478887
79	0x3f78a8c4	0.97132516
80	0xbd7c4585	-0.061589736
81	0x3f974e3e	1.1820753
82	0x3fc94255	1.5723368
83	0x3fa38918	1.2776213
84	0x3f95479c	1.1662478
85	0x3f9e69c7	1.2376031
86	0x3f64802e	0.89258087
87	0x3f9f2e5e	1.2436025
88	0x3f8dc2e1	1.1075097
89	0x3f9ee460	1.2413445
90	0x3f8e19c3	1.1101612
91	0x3f96c43b	1.1778635
92	0x3fab034d	1.3360382
93	0x4033a948	2.807207
94	0x40d4c6b5	6.649256
95	0x3f7e660c	0.9937446
96	0x4018954a	2.384112
97	0x3f956cb4	1.1673799
98	0x3f87b4db	1.0602068
99	0x3f9d3731	1.2282468
100	0x3fa0232c	1.2510734
101	0x3f998aca	1.199548
102	0x3fa3ad19	1.27872
103	0x3e3da356	0.18519339
104	0x3f9ad7f2	1.2097151
105	0x3f136e30	0.5759001
106	0x3fb248fe	1.3928525
107	0x3f92017a	1.1406701
108	0x3f9b2bcc	1.2122741
109	0x3e593454	0.21211368
110	0x412af93c	10.685848
111	0x3f8a5244	1.0806355
112	0x3fb46083	1.4091953
113	0x3fa293f7	1.2701405
114	0x3f905c88	1.1278238
115	0x3f9b9e90	1.2157764
116	0x3fa6cbc8	1.3030939
117	0x3fa639e6	1.2986419
118	0x3f93d296	1.1548641
119	0x3fa49619	1.2858306
120	0x402dccf6	2.7156348
121	0x3f042d66	0.5163177
122	0x3f9ee090	1.2412281
123	0x3faaae9a	1.3334534
124	0x3fa1c4f8	1.2638235
125	0x3f3b9012	0.7326671
126	0x3fc984b5	1.5743624
127	0x3f9580fb	1.1679987
128	0x3f94d268	1.1626711
129	0x3f9bf4b9	1.2184058
130	0x409f66a6	4.9812803
131	0x3f9c700d	1.2221695
132	0x3f92f0f7	1.1479787
133	0x40225983	2.5367134
134	0x3f97d7e6	1.1862762
135	0x3f9f3542	1.2438128
136	0x3fa52e85	1.2904822
137	0x3f92b11f	1.1460303
138	0x401d3142	2.4561315
139	0x3f968d84	1.1761937
140	0x3fb34ae1	1.4007226
141	0x40047e9a	2.0702271
142	0x3f9d7be5	1.2303435
143	0x3fa41ccb	1.2821287
144	0x3f9df7e3	1.2341274
145	0x3e8f859b	0.2803162
146	0x3fa04dae	1.2523706
147	0x3fb9bcd2	1.4510748
148	0x3f9654af	1.1744593
149	0x3edf8c41	0.43661693
150	0x4019e9fb	2.404906
151	0x3f8d61ae	1.1045434
152	0x3f96e573	1.1788772
153	0x3fa1bd20	1.2635841
154	0x3def5353	0.11685815
155	0x3f8d0391	1.1016713
156	0x3f966bdd	1.1751667
157	0x3facfeb4	1.3515229
158	0x3f951b32	1.1648924
159	0x3f9d244e	1.2276704
160	0x401f7621	2.491585
161	0x3f8abb59	1.0838424
162	0xbfa83273	-1.3140396
163	0x4023714a	2.5537896
164	0x3fa7ed76	1.3119342
165	0x40a48d22	5.142228
166	0x3f982370	1.1885815
167	0x3fa7bb70	1.3104076
168	0x3fa89496	1.3170345
169	0x3f8a9bed	1.0828835
170	0x3f9cef59	1.2260543
171	0x3fb49d62	1.411053
172	0x3f9a0ada	1.2034562
173	0x3fb3927e	1.4029081
174	0x3f8aa1bb	1.0830606
175	0x3fa95fd4	1.323237
176	0x3fa3d9e5	1.2800871
177	0x3f9ca0a8	1.2236528
178	0x3f9c7283	1.2222446
179	0x3f63a556	0.8892416
180	0x3f8a88bd	1.0822979
181	0x3f993ec6	1.1972282
182	0x3f9e0d0a	1.2347729
183	0x3f95932f	1.1685542
184	0x3f9be459	1.2179061
185	0x412893e1	10.536103
186	0x3fbcc902	1.4748843
187	0x3f8fbe2e	1.1229913
188	0x3f835d00	1.0262756
189	0x3f9dfab4	1.2342134
190	0x402c4a3b	2.6920307
191	0x3f806e00	1.0033569
192	0x3fa5b31d	1.2945286
193	0x3fa2369e	1.2672918
194	0x3faaa6af	1.3332118
195	0x3faf0f45	1.3676535
196	0x3faa38c0	1.3298569
197	0x3fa49356	1.2857463
198	0x3f9b2541	1.2120744
199	0x3f9acbbd	1.2093426
200	0x3e0b90d4	0.13629466
201	0x40295d49	2.6463187
202	0x3f95f21a	1.1714509
203	0x3f894344	1.0723653
204	0x3fadd037	1.3579167
205	0x3fab17a4	1.336659
206	0x3fa19150	1.2622471
207	0x3fa68504	1.3009343
208	0x3fa0a3f7	1.2550038
209	0x3f89cb21	1.0765115
210	0x3f9b67d4	1.2141061
211	0x3f9747f4	1.1818833
212	0x3fae7c39	1.363166
213	0x3fa7aaac	1.309896
214	0x3fa76e30	1.3080502
215	0x3f998273	1.1992935
216	0x3f60ab5b	0.8776147
217	0x4023100e	2.547855
218	0x3f9cc23f	1.2246779
219	0x3fab9276	1.3404071
220	0x3f981ba8	1.188344
221	0x3fa56ddc	1.2924151
222	0x3f6545a3	0.8955938
223	0x3fd1c568	1.6388369
224	0x3f932f33	1.1498779
225	0x3f0705b7	0.52743095
226	0x3fc41742	1.5319598
227	0x3ee4b8bd	0.44672194
228	0x3f9ccd1e	1.2250097
229	0x3fa132e9	1.2593662
230	0x3fac88e1	1.3479272
231	0xbe1662ea	-0.1468617
232	0x3fca99bc	1.5828166
233	0x3f937a26	1.1521652
234	0x3f9d9f39	1.2314216
235	0x3fa70077	1.3047017
236	0xbe667ced	-0.22508593
237	0x3f9803b1	1.1876127
238	0x3f3a7367	0.7283234
239	0x3f8c204e	1.0947359
240	0x3f9528f1	1.1653119
241	0x3fceea8b	1.6165327
242	0x4020d9ce	2.5132937
243	0x40361c04	2.84546

network.1.running_var f4 [244]
0	0x3f59e709	0.85118157
1	0x3f2a1342	0.66435635
2	0x3f287f9c	0.65819716
3	0x3f07b92b	0.5301692
4	0x3f288089	0.6582113
5	0x3f5b38c0	0.8563347
6	0x3f2bb405	0.67071563
7	0x3f363185	0.7116931
8	0x3f579d9c	0.8422487
9	0x3f2a0a32	0.66421807
10	0x3f202fec	0.6257312
11	0x3f38aadb	0.72135705
12	0x3f1a3034	0.602298
13	0x3f1fbd8c	0.623986
14	0x3f15b9f8	0.5848689
15	0x3f28ab85	0.6588672
16	0x3f294c23	0.661318
17	0x3f29b262	0.66287816
18	0x3f2a6ccb	0.66572255
19	0x3f39345b	0.72345513
20	0x3f145c3c	0.5795324
21	0x3f2ce052	0.67529786
22	0x3f399f5e	0.725088
23	0x3f248171	0.6426001
24	0x3f2886fd	0.65830976
25	0x3f59a819	0.8502212
26	0x3f32f10f	0.69899076
27	0x3f22d6fe	0.636093
28	0x3f2f67fa	0.6851803
29	0x3f056db6	0.5212053
30	0x3f2baddf	0.6706218
31	0x3f28a3e6	0.6587509
32	0x3f1e0075	0.6171945
33	0x3f1f10b6	0.62134874
34	0x3f14a9db	0.5807168
35	0x3f646733	0.8921997
36	0x3f1ede4e	0.6205796
37	0x3f415c86	0.75531805
38	0x3f27a77d	0.6548994
39	0x3f8581ba	1.0430214
40	0x3f15dfb5	0.58544475
41	0x3f23747c	0.63849616
42	0x40271e78	2.6112347
43	0x3f1d454a	0.6143385
44	0x3f2d7879	0.6776195
45	0x3f089208	0.53347826
46	0x3f34d0f2	0.70631325
47	0x3f16dae1	0.5892773
48	0x3f2527ac	0.6451366
49	0x3f13af28	0.5768914
50	0x3f3934f0	0.723464
51	0x3f38aac2	0.72135556
52	0x3f33dfbd	0.7026327
53	0x3f1e6716	0.61876047
54	0x3f10f67f	0.56626123
55	0x3f4b4d79	0.7941509
56	0x3f334a93	0.70035666
57	0x3f26feea	0.6523272
58	0x3f2566a4	0.6460974
59	0x3f100c96	0.56269205
60	0x3f14bcff	0.58100885
61	0x3f1e5922	0.61854756
62	0x3f2f7ab2	0.68546593
63	0x3f2595af	0.64681524
64	0x3f25af4f	0.64720625
65	0x3f50619d	0.81398946
66	0x3f1a1750	0.6019182
67	0x4028881b	2.6333072
68	0x3f7d276b	0.9888827
69	0x3f2e77cd	0.6815155
70	0x3f2ea767	0.68224186
71	0x3f043e51	0.5165759
72	0x3f3b6bf9	0.7321163
73	0x3f2fa42d	0.6860989
74	0x3f47c90e	0.7804116
75	0x3f0d605e	0.5522517
76	0x3f0cac18	0.54950094
77	0x3f259d2a	0.6469294
78	0x3f2b8094	0.6699307
79	0x3f1999d8	0.6000037
80	0x3f34ff07	0.7070164
81	0x3f206934	0.6266053
82	0x3f25855c	0.64656615
83	0x3f570dd9	0.84005505
84	0x3f2e4d56	0.68086755
85	0x3f148896	0.58020914
86	0x3f9f36bc	1.2438579
87	0x3f6533d0	0.89532185
88	0x3f5e2184	0.8676989
89	0x3f1fe674	0.6246102
90	0x3f2a9395	0.6663144
91	0x3f5469c2	0.82973874
92	0x3f47654c	0.7788894
93	0x3f2cfb77	0.67571205
94	0x3f23e2d7	0.64018005
95	0x3f0eda26	0.5580162
96	0x3f22d3fd	0.6360472
97	0x3f36fc88	0.7147908
98	0x3f2196bc	0.6312063
99	0x3f5081c3	0.81448
100	0x3f2bba2b	0.67080945
101	0x3f15ce8b	0.58518285
102	0x3f364160	0.71193504
103	0x3f1b31c5	0.6062282
104	0x3f2591db	0.6467568
105	0x3f149d6e	0.5805272
106	0x3f1e3f21	0.6181508
107	0x3f289199	0.65847164
108	0x3f43e68e	0.76523674
109	0x3f24851e	0.6426562
110	0x3f2479ae	0.6424817
111	0x3f2b6d34	0.66963506
112	0x3f2aa4b1	0.6665755
113	0x3f1d11d0	0.61355305
114	0x3f258b52	0.6466571
115	0x3f49261c	0.78573775
116	0x3f2fe3e1	0.6870709
117	0x3f2d8ef1	0.67796236
118	0x3f10215c	0.563009
119	0x3f4d7cbd	0.8026846
120	0x3f25969f	0.64682955
121	0x3f13c221	0.5771809
122	0x3f66ca9b	0.901529
123	0x3f1ea55f	0.61971086
124	0x3f2f0f1f	0.6838245
125	0x3f1382f7	0.5762171
126	0x3f37911a	0.7170578
127	0x3f19c484	0.60065484
128	0x3f080911	0.53138834
129	0x3f302a5b	0.6881463
130	0x3f1fc4cc	0.62409663
131	0x3f39ae5a	0.72531664
132	0x3f2a2fd3	0.66479224
133	0x3f2bcd0b	0.67109746
134	0x3f201432	0.62530816
135	0x3f349fbc	0.70556235
136	0x3f283b24	0.6571524
137	0x3f242f9e	0.6413516
138	0x3f23145d	0.63702947
139	0x3f241f98	0.6411071
140	0x3f264afc	0.6495817
141	0x3f43b906	0.764542
142	0x3f1ecced	0.6203144
143	0x3f3207dd	0.6954325
144	0x3f246ef0	0.6423178
145	0x3f1d53df	0.614561
146	0x3f47442e	0.7783841
147	0x3f3c5ddb	0.7358071
148	0x3f302010	0.68798923
149	0x3f112a42	0.56705105
150	0x3f208b1a	0.6271225
151	0x3f2449af	0.6417493
152	0x3f34c83d	0.7061804
153	0x3f223d8f	0.6337518
154	0x3f194e25	0.59884864
155	0x3f388b12	0.72087204
156	0x3f23d9af	0.64004034
157	0x3f1c5c9f	0.6107883
158	0x3f243c2a	0.64154303
159	0x3f1ca018	0.61181784
160	0x3f25879c	0.6466005
161	0x3f109860	0.56482506
162	0x3f29e2f1	0.6636191
163	0x3f1f255e	0.6216639
164	0x3f376d3e	0.71651065
165	0x3f2f3768	0.6844392
166	0x3f25a783	0.6470873
167	0x3f266c78	0.6500926
168	0x3f1a1980	0.6019516
169	0x3f2c4351	0.67290217
170	0x3f1a74a4	0.6033423
171	0x3f24243c	0.6411779
172	0x3f201bb5	0.6254228
173	0x3f242a3d	0.6412695
174	0x3f30093e	0.687641
175	0x3f575c43	0.84125155
176	0x3f1a217c	0.60207343
177	0x3f0fc4f2	0.5615989
178	0x3f26083e	0.64856327
179	0x3f10639e	0.56402004
180	0x3f282627	0.65683216
181	0x3f224f7b	0.6340253
182	0x3f4aef34	0.79271245
183	0x3f141b8c	0.57854533
184	0x3f22742c	0.63458514
185	0x3f283275	0.6570199
186	0x3f2f8fb5	0.68578655
187	0x3f238963	0.6388151
188	0x3f34fe6d	0.7070072
189	0x3f34d13f	0.70631784
190	0x3f1f97b0	0.6234083
191	0x3f1c8887	0.61145824
192	0x3f1441f2	0.57913125
193	0x3f2fe2fe	0.6870574
194	0x3f296d27	0.6618218
195	0x3f191895	0.59803134
196	0x3f886dc2	1.0658495
197	0x3f31d5f2	0.6946708
198	0x3f49163c	0.7854955
199	0x3f261daf	0.64889044
200	0x3f32aece	0.6979798
201	0x3f1c05d3	0.6094639
202	0x3f3581b4	0.70901036
203	0x3f26ca95	0.65152866
204	0x3f1bb9d5	0.6083043
205	0x3f13b24d	0.5769394
206	0x3f2c2386	0.67241704
207	0x3f38804d	0.7207077
208	0x3f2fdcb4	0.6869614
209	0x3f233ae9	0.63761765
210	0x3f48bd67	0.78414005
211	0x3f3201a2	0.6953374
212	0x3f8216d5	1.0163218
213	0x3f55f97c	0.8358381
214	0x3f24105d	0.6408747
215	0x3f249c49	0.6430097
216	0x3f13e5b0	0.5777235
217	0x3f1f0049	0.6210981
218	0x3f19941c	0.5999162
219	0x3f2805c5	0.65633804
220	0x3f325c4b	0.6967208
221	0x3f1e504e	0.61841285
222	0x3f0ef05c	0.5583551
223	0x3f5dae18	0.8659377
224	0x3f634811	0.8878184
225	0x3f11d39d	0.5696352
226	0x3fa15f73	1.2607254
227	0x3f09d9b5	0.5384782
228	0x3f346b25	0.7047599
229	0x3f2fdf77	0.68700355
230	0x3f2ed586	0.6829456
231	0x3f2721d9	0.6528602
232	0x3f1fe6b4	0.624614
233	0x3f254d19	0.64570767
234	0x3f2b77c5	0.6697963
235	0x3f2a6271	0.6655646
236	0x3f194211	0.59866434
237	0x3f1c3c8f	0.61029905
238	0x3f31e69e	0.6949252
239	0x3f32eade	0.6988963
240	0x3f158736	0.5840944
241	0x3f9e39aa	1.2361348
242	0x3f1f0185	0.62111694
243	0x3f2af37a	0.66777766

network.4.weight f4 [245, 244]
0	0xbe8740d9	-0.26416662
1	0xc0898add	-4.298201
2	0x3f23e3a3	0.6401922
3	0x3f1d3b97	0.6141905
4	0xbf3b7f50	-0.7324114
5	0xbf0d7cac	-0.5526836
6	0x403a4820	2.9106522
7	0xc019c494	-2.4026232
8	0xc00aa5b5	-2.166364
9	0x3da644a5	0.08118562
10	0xc089d1b4	-4.3068485
11	0xbfc12db8	-1.5092077
12	0x3f83d878	1.0300436
13	0xbfe4f4b7	-1.7887181
14	0x405b139a	3.4230714
15	0x40a63193	5.1935515
16	0x3d1a936a	0.03773824
17	0xbfc6678d	-1.5500351
18	0x408da558	4.4264336
19	0x3faafa17	1.3357571
20	0xc097ee49	-4.7478375
21	0xbed3562b	-0.41276678
22	0x4047bf5f	3.1210554
23	0xc00ad69b	-2.1693485
24	0x3f4d7592	0.80257523
25	0xbd048a42	-0.032358415
26	0xbfd463d5	-1.6592966
27	0xbf7af810	-0.98034763
28	0x3f8283f8	1.0196524
29	0xc0dd1299	-6.90852
30	0xc0eb8e0e	-7.3610907
31	0x40897d49	4.2965436
32	0xbfa4c4db	-1.2872576
33	0xc093aad8	-4.614605
34	0x4004dc89	2.0759604
35	0x3f2add41	0.66743857
36	0xc0150984	-2.3287058
37	0x3fe88a01	1.8167115
38	0x3f84ef6d	1.0385567
39	0xc0817d6d	-4.046561
40	0x40a0199b	5.0031257
41	0x3fe9e86d	1.8274056
42	0x3fc7da27	1.561345
43	0x3e4019fc	0.18759912
44	0x4049b6b5	3.1517766
45	0x3fff3eb7	1.9941014
46	0x404cd846	3.2007003
47	0x40ce1a48	6.440708
48	0x40a4eab8	5.153652
49	0x4086b247	4.2092624
50	0xbfdc222f	-1.7197932
51	0xc0088921	-2.1333697
52	0x405f95bf	3.4935148
53	0xc0a0a566	-5.0201902
54	0x40c1c2c2	6.055024
55	0xc000771a	-2.0072694
56	0x40d0c0a4	6.5235157
57	0x408875d4	4.2643833
58	0x3f22f9fc	0.63662696
59	0x40637654	3.5540972
60	0xc063c6ff	-3.5590208
61	0xc0443da5	-3.0662625
62	0x3c16612e	0.009178443
63	0xbf37b6bb	-0.717632
64	0xc099cbc4	-4.8061237
65	0xbef60825	-0.4805309
66	0x405ca69f	3.4476697
67	0xbf37da52	-0.71817505
68	0x401bcdc6	2.4344344
69	0x40128317	2.289251
70	0xbe099155	-0.13434346
71	0x3eb5cb70	0.35506773
72	0xbfca2ab8	-1.5794287
73	0xc0002496	-2.002233
74	0x4094fe0b	4.656011
75	0x3fcc34c9	1.5953609
76	0xc0ae5c8a	-5.4487963
77	0x3ef3586f	0.47528407
78	0xc06b6e4f	-3.6786077
79	0xc091d7e1	-4.5576024
80	0x3f85ef39	1.046363
81	0xc0303ae9	-2.7535956
82	0x3fffd36a	1.9986393
83	0x3fcb8913	1.5901207
84	0xbfe140b1	-1.7597867
85	0xbff7ee6a	-1.9369633
86	0xbeeb778e	-0.4598965
87	0xbebd1234	-0.3692795
88	0x408af827	4.342792
89	0x4036d9fa	2.8570542
90	0x4057f7c0	3.3744965
91	0xc05cf8ed	-3.4526932
92	0xbfabd161	-1.3423272
93	0xbe948a95	-0.2901198
94	0x3f82b59f	1.0211676
95	0xc093fc2d	-4.624533
96	0x4020e554	2.513997
97	0x3f1597b2	0.58434594
98	0x40862052	4.1914454
99	0x40064046	2.097673
100	0x3f0c074d	0.5469864
101	0xbfeb29d3	-1.8372139
102	0x3f9b7bdc	1.2147174
103	0xc0ade07a	-5.433652
104	0x3f3f1295	0.7463773
105	0xbe2d9c8b	-0.16954248
106	0xbcc7e33f	-0.024400352
107	0x3e7a5e35	0.2445
108	0x3ff6d906	1.928498
109	0x3ee57017	0.4481208
110	0x401aeeaa	2.420817
111	0x407a39f3	3.909787
112	0x3fe80ffe	1.812988
113	0x40cd9054	6.423868
114	0x4093601e	4.605483
115	0x3ffc1105	1.9692694
116	0x40657e9b	3.5858524
117	0xbfca43a3	-1.5801891
118	0xbf5a5eb6	-0.8530077
119	0xbec81dc2	-0.39085203
120	0x3e392b8c	0.18083018
121	0xbeff4d1c	-0.49863517
122	0xbfd231ae	-1.6421411
123	0x3f38038f	0.7188043
124	0x3ff7e1a6	1.9365737
125	0xc10c10da	-8.754114
126	0xc005d351	-2.0910227
127	0xbfc731f4	-1.556212
128	0x4029558c	2.6458464
129	0x404171d6	3.022573
130	0x40bdac67	5.927295
131	0xbf5090cf	-0.8147096
132	0x3f655500	0.89582825
133	0xbfe4110f	-1.7817706
134	0x402e695e	2.725181
135	0xbeb91e75	-0.3615605
136	0xbf9e97db	-1.2390093
137	0xc06f669a	-3.7406373
138	0x3e91c582	0.28471
139	0xbf5b2314	-0.856004
140	0x40712f52	3.7685132
141	0xbeb45f76	-0.3522908
142	0xbc276fa5	-0.010219489
143	0x40281980	2.6265564
144	0xbfeee135	-1.8662478
145	0xbf49a54f	-0.78767866
146	0xbfef583d	-1.8698803
147	0x4020573c	2.5053244
148	0x3f8784af	1.0587367
149	0xc02414e2	-2.5637746
150	0x3f5037d7	0.81335205
151	0xbfef46e7	-1.8693513
152	0x3f7b8437	0.9824862
153	0x4086ad83	4.2086806
154	0xc12b53ea	-10.707987
155	0x40783572	3.878262
156	0xc01b2f75	-2.4247715
157	0xbf611469	-0.8792177
158	0x3e730f61	0.23736335
159	0x40b52387	5.660587
160	0x400e53ca	2.223864
161	0xc0390d08	-2.8914204
162	0xc0ae1461	-5.4399877
163	0x3e9f46ea	0.3110879
164	0xbf36cd13	-0.7140667
165	0x4064a422	3.5725179
166	0xbf5ff49e	-0.8748263
167	0x3ef5027b	0.47853455
168	0x3f46b4bb	0.7761952
169	0xbff6ae81	-1.9272004
170	0x4088cc1f	4.274917
171	0xc0075dff	-2.115112
172	0xbc7ad25b	-0.015308942
173	0xc05ec44e	-3.4807315
174	0x3f8aaf37	1.0834721
175	0x3f0d7c49	0.5526777
176	0xbfcf8aa3	-1.6214184
177	0xc0346ac6	-2.819017
178	0x40b1104a	5.5332384
179	0x40515268	3.2706547
180	0x3fb4b5b4	1.4117951
181	0x403cc1a8	2.9493198
182	0xbfd77859	-1.6833602
183	0xbf8c9f40	-1.0986099
184	0xbe67d146	-0.22638425
185	0xbef1efbf	-0.47253224
186	0x3da73d3e	0.08165978
187	0xbf9dcf22	-1.2328837
188	0x406c921e	3.6964183
189	0xbfb496ca	-1.4108517
190	0x40227a17	2.5387018
191	0x3e88dbcb	0.2673019
192	0xc0c9dffa	-6.308591
193	0x407d0e59	3.9540007
194	0x406c0c27	3.6882417
195	0xc0d1a16b	-6.5509543
196	0x407ad9e3	3.9195487
197	0xbf34a017	-0.7055678
198	0xbde4044d	-0.11133633
199	0xc035e126	-2.841867
200	0xbe85534a	-0.26040107
201	0x400ca021	2.1972735
202	0xbe88383a	-0.26605397
203	0xbf39d8a8	-0.72596216
204	0x3faf850b	1.3712476
205	0x3ff7145c	1.9303088
206	0x405e6f0c	3.4755278
207	0xbf961fa3	-1.1728405
208	0x40828e98	4.0799065
209	0x40884a55	4.2590737
210	0x4091a6ff	4.5516353
211	0xc0198083	-2.3984687
212	0x3f2384b5	0.6387437
213	0x40060177	2.0938394
214	0xbfccfe17	-1.6015042
215	0xbf72bf7d	-0.9482344
216	0x3fc6f93e	1.5544813
217	0x3dada091	0.08477891
218	0xbee097f8	-0.43865943
219	0xbfbc61e0	-1.4717369
220	0x4066f04f	3.6084173
221	0x3fd93175	1.6968218
222	0x4097c862	4.743211
223	0xbfbb3dec	-1.4628272
224	0xbfa50ecb	-1.289514
225	0x3e7c86fa	0.24660864
226	0x407b19b0	3.9234428
227	0x3f9ba409	1.2159435
228	0x4096a57e	4.7077017
229	0x3e1c33d5	0.15254147
230	0x409c90ca	4.8926744
231	0xbf9bdb4d	-1.21763
232	0x408efbc3	4.4682326
233	0xbfc207e5	-1.5158659
234	0x3fac7049	1.3471767
235	0x405ffd6c	3.4998426
236	0x3f2febe6	0.6871933
237	0x4079a4fb	3.9006946
238	0x405c2cb4	3.4402285
239	0xbf4cb1d5	-0.7995885
240	0x404417c6	3.063951
241	0x406d26f5	3.7055027
242	0x4054076e	3.3129535
243	0xbf9e3a75	-1.236159
244	0xc0312cc0	-2.7683563
245	0xbf5396cc	-0.8265197
246	0xbf660f68	-0.8986726
247	0xc00eef67	-2.233362
248	0xc0287052	-2.6318555
249	0x3faaa6c7	1.3332146
250	0xbff06ed3	-1.8783821
251	0x3f15f05d	0.5856989
252	0x4080b14f	4.021644
253	0xc11e369d	-9.888333
254	0x3f2ea3f7	0.6821894
255	0xbf82e316	-1.0225551

network.4.bias f4 [245]
0	0x3ca96623	0.020678585
1	0xbd434c34	-0.047680095
2	0x3d427c50	0.047481835
3	0x3aadaed6	0.0013250958
4	0xbd4e739d	-0.050403226
5	0x3d859ae5	0.065236844
6	0xbc73e73e	-0.014886675
7	0xbc49b3b6	-0.012310913
8	0x3c95a001	0.018264772
9	0xbd5e12f5	-0.054217298
10	0xbc0e8b4f	-0.008700206
11	0x3c87fd9b	0.01660042
12	0xbd0c1130	-0.03419608
13	0x3cd1a017	0.025589032
14	0x3d02abd3	0.031902146
15	0xbd4b9384	-0.04970123
16	0x3c14b8d9	0.009077274
17	0xbc40628f	-0.011742248
18	0x3d3e8a95	0.04651888
19	0x3ba0bd47	0.004905376
20	0xbd664eed	-0.056227613
21	0x3b1885ff	0.0023273227
22	0xba7b4908	-0.00095857726
23	0x3d339eba	0.043852545
24	0xbcb05307	-0.021523966
25	0x3d3b13ad	0.04567306
26	0x3c9fd7a9	0.019512014
27	0x3b5405d2	0.0032352102
28	0x3c8f3c70	0.017484874
29	0x3c5ce8f1	0.013483272
30	0xbd4c1714	-0.049826697
31	0x3d389720	0.045066
32	0xbd3c9b93	-0.046046805
33	0xbd40dd0c	-0.047085807
34	0x3d653221	0.05595601
35	0x3c67bd3e	0.01414424
36	0x3b1c33c7	0.0023834573
37	0xbd7681f9	-0.060182545
38	0x3b2b2409	0.0026114008
39	0x3d25c424	0.040470257
40	0x3c8af0ce	0.016960528
41	0x3d4b86ed	0.049689222
42	0xbd614152	-0.054993935
43	0xbd5c9e9f	-0.05386221
44	0x3d2be024	0.041961804
45	0x3d2cb7be	0.042167418
46	0xbd20c3b0	-0.039249122
47	0xbb88167e	-0.004153072
48	0x3d1c60c3	0.038178217
49	0xbd26e103	-0.04074193
50	0xbcae25ea	-0.021258313
51	0xbcdf7a71	-0.027280064
52	0xbbd37009	-0.0064525646
53	0xbd6e6950	-0.058205903
54	0x3d02cfb1	0.03193635
55	0x3d4c72c9	0.049914155
56	0x3d282dbd	0.041059244
57	0xbd5b8469	-0.053593073
58	0x3bcd5b6c	0.006267002
59	0x3cb65d71	0.022261353
60	0xbacddd97	-0.0015706298
61	0xbd801817	-0.06254595
62	0xb9b287c4	-0.0003405196
63	0x3c09bb3a	0.008406455
64	0xbd456c5b	-0.04819904
65	0xbd5a683a	-0.053322054
66	0x3d2e5d93	0.042569708
67	0xbc56bf37	-0.013107113
68	0xbc81b1fd	-0.015831942
69	0xbcb7007b	-0.022339096
70	0xbd9a515f	-0.075350516
71	0xbcc67968	-0.024227813
72	0x3d44ff2c	0.048094913
73	0x3d28ddbb	0.041227084
74	0x3d77e672	0.060522504
75	0x3c38dc8d	0.011283052
76	0xbd61c717	-0.055121507
77	0xbd497646	-0.04918506
78	0x3d4b54d3	0.04964144
79	0xbb9fc7ce	-0.0048761135
80	0xbcaee530	-0.02134952
81	0x3d7ad691	0.061239783
82	0x3d54f65c	0.05199276
83	0x3cd9a7e5	0.026569316
84	0xbc98508d	-0.018593097
85	0x3d0f96f8	0.035056084
86	0xbd0d56b4	-0.034506515
87	0xbd8e1f1f	-0.0693953
88	0x3d9195c4	0.07108644
89	0xbc8b9af5	-0.017041663
90	0xbd63c8d9	-0.055611465
91	0x3d3606de	0.044440143
92	0x3d87ad9c	0.0662491
93	0xbd060f2d	-0.032729317
94	0x3cd92c86	0.026510488
95	0xbd142c51	-0.036175076
96	0xbd5ede0a	-0.05441097
97	0xb907e715	-0.00012960688
98	0x3c0612a6	0.008183157
99	0x3d3c862f	0.046026405
100	0xbac8ce3c	-0.0015320252
101	0x3aea459a	0.0017873526
102	0xbca0efae	-0.019645538
103	0xbd1e068e	-0.03858047
104	0x3c07b601	0.008283139
105	0x3c899535	0.01679478
106	0x397a71a6	0.00023884195
107	0xbb939238	-0.0045035146
108	0x3cf953a5	0.030435393
109	0x3d760e1a	0.060072042
110	0xbd3469ef	-0.04404634
111	0xbd9d65eb	-0.07685455
112	0xbd832804	-0.06404117
113	0x3d32a0e4	0.04361047
114	0x3b494c5b	0.0030715677
115	0x3c930404	0.01794625
116	0x3d15b026	0.03654494
117	0x3cdebb7c	0.027189009
118	0xbcff0323	-0.031129425
119	0xbc99a179	-0.018753754
120	0x3d0d5947	0.03450897
121	0xbd6a0da1	-0.057141904
122	0x3c09d6d1	0.008413033
123	0xbcdaf41c	-0.026727729
124	0xbc63b104	-0.013897184
125	0xbd08b7ca	-0.0333784
126	0x3d644c30	0.05573672
127	0xbd715d37	-0.058926787
128	0x3d86f074	0.065888315
129	0x3ca4ddaf	0.020125238
130	0x3c1adb74	0.009451736
131	0xbdb3385d	-0.08750985
132	0xbbe16108	-0.006878022
133	0xbcb9b32c	-0.022668444
134	0x3bfe775c	0.0077656936
135	0xbd07ffc2	-0.033202894
136	0xbb88b10b	-0.004171496
137	0xbd1b9a67	-0.037989046
138	0x3c68437b	0.014176245
139	0x3d630fb9	0.055434916
140	0x3d1a92f5	0.037737805
141	0xbd8d6393	-0.06903758
142	0xbc86a8d1	-0.01643792
143	0x3cb5e0a7	0.02220185
144	0xbcf3cdfe	-0.02976131
145	0xbd583377	-0.052783456
146	0xbd06aca0	-0.03287947
147	0x3d15d538	0.036580294
148	0xbd1bf941	-0.038079504
149	0x3b8978f3	0.0041953265
150	0xbda3293c	-0.07966849
151	0xbb3c61bb	-0.0028744775
152	0x3d3d790c	0.046258017
153	0x3d3d5db3	0.046231937
154	0x3d925510	0.07145131
155	0x3c87654c	0.016527794
156	0xbd426667	-0.04746094
157	0xbca5e5bf	-0.020251153
158	0xbc95367b	-0.018214455
159	0x3c3dbeff	0.011581182
160	0x3d47d997	0.048791494
161	0x3d19a555	0.03751119
162	0xbcdce194	-0.026963033
163	0xba77a617	-0.00094470516
164	0x3b685db7	0.003545625
165	0xbd86d7b1	-0.065841086
166	0x3d0927a8	0.033485085
167	0x3c24f3b9	0.010067874
168	0xbd67693b	-0.05649684
169	0xbad99ade	-0.001660194
170	0xbd5487c0	-0.051887274
171	0xbbe99cf1	-0.0071293046
172	0xbc993ef8	-0.018706784
173	0x3ce539a1	0.027981581
174	0xbcd40815	-0.02588276
175	0xbcb52da9	-0.022116499
176	0x3d060fb9	0.032729838
177	0xbbd4cbd9	-0.006494027
178	0x3d04ef13	0.03245456
179	0xbc83632e	-0.016038503
180	0xbc2bae8a	-0.010478625
181	0x3ca06caf	0.019583074
182	0xbde1b92d	-0.110216476
183	0xb9d70a33	-0.00041015595
184	0xbcca0e05	-0.024664888
185	0x3d1e6a61	0.03867567
186	0xbc14c75b	-0.009080733
187	0xbd3c3fcc	-0.04595928
188	0xbc354438	-0.011063628
189	0xbd4613d8	-0.04835877
190	0xbda267a3	-0.079299234
191	0x3ca7d8ab	0.020489058
192	0xbd296df8	-0.04136464
193	0xbd628ed4	-0.055311993
194	0xbd6375fa	-0.055532433
195	0xbd771a5d	-0.060327876
196	0x3cec1715	0.0288196
197	0x3733d56a	1.0718921e-05
198	0x3d6251ea	0.0552539
199	0x3d23e602	0.040014274
200	0xbd2a18ba	-0.041527487
201	0x3cfa2ae6	0.030538034
202	0xbc702de5	-0.01465938
203	0xbcf9bed8	-0.03048651
204	0xbd30ff6e	-0.043212347
205	0xbcce74f1	-0.025202246
206	0xbd68a3d3	-0.05679686
207	0xbc5afe5a	-0.013366306
208	0xbc8bf48b	-0.01708438
209	0xbd5459f9	-0.051843617
210	0x3bb09bc2	0.0053896615
211	0xbc6cfda7	-0.014464772
212	0xbbec16e6	-0.007204878
213	0x3d5b301e	0.053512685
214	0x3d30d62b	0.043172996
215	0xb95d3a2b	-0.00021097872
216	0xbd5a41dd	-0.05328547
217	0xbd8858be	-0.06657551
218	0xbc13d012	-0.009021776
219	0x3d52b11a	0.05143843
220	0xbd9288ab	-0.071549736
221	0xbbc28023	-0.0059356852
222	0xbd0ff3dc	-0.03514467
223	0xbca4e2d5	-0.020127693
224	0xbc87da9a	-0.01658373
225	0x3d8f754a	0.07004793
226	0xba396fcc	-0.0007073849
227	0xbd179020	-0.037002683
228	0x3d381b27	0.04494777
229	0x3c5aa17a	0.013344163
230	0x3cb9fbf5	0.02270315
231	0x3d0d0821	0.03443158
232	0xbd348d11	-0.044079844
233	0xbd13b4ff	-0.036061283
234	0x3d2c1873	0.042015504
235	0xbcb1b336	-0.0216919
236	0xbd8bbb31	-0.06822813
237	0xbd85abed	-0.06526933
238	0xbd495293	-0.049151015
239	0x3c45c026	0.012069738
240	0x3d46ca47	0.04853275
241	0x3d3f37ad	0.046683956
242	0xbc1e4203	-0.009659293
243	0x3b82fa39	0.003997114
244	0xbcfc4c3f	-0.030798076
