best models/saved_models/architecture_3/best_model.pt (torch, 477986 bytes, 25 tensors)

network.0.weight f4 [241, 15]
-0.03916231 6.728531 3.866946 -0.4909278 1.3827223 1.2693775 2.665907 -4.303281
0.66338855 11.552712 5.5880485 -4.7723484 -1.1745235 11.151296 7.4957795 0.6856509
-2.6410956 4.996066 -1.061718 2.845372 -2.1645267 4.014638 -3.9782245 0.8504839
-7.7893023 12.1570835 3.8049848 0.085322686 4.717229 -12.782167 -4.60662 -3.8528097
1.952004 1.248337 1.1378275 0.5579244 -1.6309149 5.446403 10.385847 9.226482
-7.3789625 3.4366212 7.448332 5.941872 -3.6311345 -8.562418 4.9066815 -0.21350072
2.2575965 2.0224545 -3.6669877 -0.21195304 -6.3139687 -12.9443245 6.6349826 -1.8692524
2.6009402 7.5325727 -2.6150393 -2.3354409 -4.3289557 3.7684512 2.06179 1.2658024
2.5175352 -3.2890594 -1.2506566 -0.28392157 -0.29816252 -0.012763948 0.9467477 -6.774623
-14.130932 12.840589 7.5944085 -3.2283325 5.530439 -2.1444025 -3.0096374 -4.3274627
7.522152 -3.3650596 -1.2519249 -0.87598616 2.5240479 -0.62723356 -6.341005 -7.419574
12.713734 -7.2579646 1.265467 -0.26663983 1.607017 -0.71067554 4.660672 -7.325253
21.802277 -0.11631078 2.237624 -0.43428117 6.5544434 0.06959103 -3.3947778 3.531485
-5.568752 2.234206 0.45091742 6.863004 -5.6985674 5.781667 -0.25554815 12.691363
0.65961283 -0.9791779 -0.15025054 -2.9059618 -5.7588935 5.3096786 0.10351253 12.119312
0.38230017 1.457494 -0.37968728 0.57524157 -1.8935734 -7.5893197 8.376828 -1.0487492
7.485048 6.59789 -7.1361704 -1.3684728 3.5730882 10.647064 -3.9823823 1.568101
-6.8632674 1.1696115 -3.2982926 0.23061623 -9.581401 1.8417038 -0.2642493 2.1093335
-3.8380628 -1.8881385 -6.6756516 5.555401 -13.915547 5.5269275 2.1788557 -2.6025481
-2.3544464 5.1074276 -7.7848387 6.9130254 9.253335 0.5486859 -1.3326019 2.2001207
-0.28963056 4.7867823 -8.736754 5.488062 8.343601 0.20013645 -0.23807237 0.4120413
-7.7185445 -0.4849196 0.2202704 -0.42731762 -10.644773 -0.8650635 -0.22190149 -0.16224264
21.054333 1.2628133 -0.58691096 0.15996766 6.8921285 -0.34064728 -2.4017413 -1.989957
6.187402 -1.9023613 -2.4177382 0.15339126 0.08412896 0.08820156 1.7211121 7.539025
-18.907127 1.109106 7.682447 1.3650037 8.897886 2.9716368 2.9431174 -0.67472
-6.1924157 -3.4995654 5.9052305 -0.6810059 -11.39152 -3.5472999 -4.997106 -1.2314775
8.052856 4.311597 -2.288905 -1.3317033 -10.055452 9.844648 2.3645 3.0631506
12.076171 4.370993 2.8314567 0.17370653 4.948826 1.0989376 1.3529329 2.3037734
0.7007048 -1.8033156 -3.0400772 6.6124487 5.742043 2.81851 9.603336 -14.178589
-2.6737032 -3.2056837 -4.590394 6.348456 -1.0383698 -0.8530724 1.061506 2.226266
-0.57371414 -0.3076077 -0.18097448 -0.9147792 -4.410865 7.441932 15.39936 0.43089226
-0.27519894 -1.9749416 1.7350901 0.12100386 6.147709 -4.7115803 -11.408215 0.55192053
00000000: a968 20bd 2050 d740 0b7c 7740 e35a fbbe
00000010: 0bfd b03f f67a a23f 389e 2a40 7ab4 89c0
00000020: d5d3 293f e9d7 3841 4bd1 b240 14b7 98c0
00000030: c956 96bf b56b 3241 6ddd ef40 d186 2f3f
00000040: b607 29c0 c6df 9f40 60e6 87bf 931a 3640
00000050: 9b87 0ac0 ea77 8040 3b9b 7ec0 50b9 593f
00000060: f741 f9c0 6a83 4241 df84 7340 a9bd ae3d
00000070: 8af3 9640 c283 4cc1 6e69 93c0 6f94 76c0
00000080: 44db f93f 82c9 9f3f 55a4 913f 22d4 0e3f
00000090: d2c1 d0bf ef48 ae40 6e2c 2641 ac9f 1341
000000a0: 7620 ecc0 9af1 5b40 bc58 ee40 d123 be40
000000b0: 8264 68c0 aaff 08c1 8903 9d40 ef9f 5abe
000000c0: 767c 1040 e56f 0140 edaf 6ac0 380a 59be
000000d0: 080c cac0 f41b 4fc1 c751 d440 aa43 efbf
000000e0: ce75 2640 d60a f140 ce5c 27c0 dd77 15c0
000000f0: ce86 8ac0 4e2e 7140 5ef4 0340 d005 a23f
00000100: 4c1f 2140 f37f 52c0 8415 a0bf 2b5e 91be
00000110: c2a8 98be e11f 51bc 0f5e 723f b6c9 d8c0
00000120: 4c18 62c1 0d73 4d41 6505 f340 009d 4ec0
00000130: 5bf9 b040 e43d 09c0 e69d 40c0 937a 8ac0
00000140: 78b5 f040 235d 57c0 133f a0bf a140 60bf
00000150: 008a 2140 6192 20bf 83e9 cac0 266d edc0
00000160: 746b 4b41 3f41 e8c0 d3fa a13f 0485 88be
00000170: bcb2 cd3f d5ee 35bf 3a24 9540 7968 eac0
00000180: 106b ae41 5934 eebd 3b35 0f40 1a5a debe
00000190: 00be d140 be85 8e3d 0a44 59c0 da03 6240
000001a0: 3733 b2c0 3bfd 0e40 a6de e63e bb9d db40
000001b0: aa5a b6c0 6b03 b940 35d7 82be d30f 4b41
000001c0: 63dc 283f 67ab 7abf 47db 19be 47fb 39c0
000001d0: db48 b8c0 e3e8 a940 61fe d33d b4e8 4141
000001e0: d9bc c33e 2a8f ba3f 5f66 c2be 0843 133f
000001f0: 9d60 f2bf b5db f2c0 7d07 0641 6a3d 86bf
00000200: 8385 ef40 ea21 d340 825b e4c0 1e2a afbf
00000210: 7aad 6440 605a 2a41 5adf 7ec0 89b7 c83f
00000220: e39f dbc0 d4b5 953f 3a17 53c0 a926 6c3e
00000230: 6b4d 19c1 f3bc eb3f af4b 87be 52ff 0640
00000240: d2a2 75c0 86ae f1bf f09e d5c0 d8c5 b140
00000250: 15a6 5ec1 97dc b040 5f72 0b40 2690 26c0
00000260: 40af 16c0 0c70 a340 661d f9c0 8137 dd40
00000270: a90d 1441 ae76 0c3f b392 aabf c7ce 0c40
00000280: 754a 94be 522d 9940 bfc9 0bc1 349e af40
00000290: 647f 0541 92f0 4c3e 3ec9 73be 14f7 d23e
000002a0: 51fe f6c0 6247 f8be 908e 613e 60c9 dabe
000002b0: fd50 2ac1 cd74 5dbf 253a 63be ef22 26be
000002c0: 466f a841 dea3 a13f cc3f 16bf 90ce 233e
000002d0: 518c dc40 5269 aebe 21b6 19c0 e9b6 febf
000002e0: 32ff c540 9380 f3bf 39bc 1ac0 9912 1d3e
000002f0: ce4b ac3d 05a3 b43d 674d dc3f b13f f140
00000300: cc41 97c1 2ff7 8d3f 9bd6 f540 71b8 ae3f
00000310: be5d 0e41 4c2f 3e40 095c 3c40 73ba 2cbf
00000320: 4528 c6c0 e1f8 5fc0 a6f7 bc40 6756 2ebf
00000330: aa43 36c1 f606 63c0 4be8 9fc0 0ea1 9dbf
00000340: 80d8 0041 9af8 8940 6b7d 12c0 4175 aabf
00000350: 22e3 20c1 ae83 1d41 f853 1740 a90a 4440
00000360: ff37 4141 2ddf 8b40 9636 3540 20e0 313e
00000370: c85c 9e40 fda9 8c3f e82c ad3f 0671 1340
00000380: 6461 333f 0cd3 e6bf a090 42c0 2e99 d340
00000390: d1be b740 7862 3440 44a7 1941 80db 62c1
000003a0: f41d 2bc0 ec29 4dc0 82e4 92c0 8d26 cb40
000003b0: 4de9 84bf f462 5abf 6edf 873f 247b 0e40
000003c0: eede 12bf c27e 9dbe 6051 39be f82e 6abf
000003d0: ce25 8dc0 4f24 ee40 c763 7641 e99d dc3e
000003e0: e0e6 8cbe e3ca fcbf 6f17 de3f dfd0 f73d
000003f0: 08ba c440 44c5 96c0 0c88 36c1 aa4a 0d3f

network.0.bias f4 [241]
2.43723 2.2364562 2.5398295 2.4784184 2.3056302 2.4698753 2.8176131 2.2970166
2.6328948 2.6102774 2.0072484 1.1409931 2.608876 2.509233 0.8950708 2.1839864
2.3716404 2.6248755 1.8703678 2.194832 2.6443162 2.6851597 2.4057448 2.0997639
0.54435664 2.6048028 2.4641953 0.6753985 2.6417196 2.0447764 2.4946399 2.4485776
2.2797613 2.5382965 2.5924425 0.05246167 1.319044 2.408148 2.28103 0.42924193
2.4479537 2.3944516 2.5165148 2.547301 2.4720159 2.4059303 1.1961609 2.4963038
2.4480126 0.56017023 2.3603282 2.2478967 0.0362559 2.3167398 2.3319356 5.046757
0.046079118 -0.33172008 2.7704952 2.199487 2.1796834 2.2693315 1.4980687 6.963672
2.2874403 2.5768876 2.2492213 2.3790803 2.4493928 2.605433 0.7207157 2.4367802
2.4131737 1.3229268 2.3980334 2.1953769 2.451356 2.3071945 2.562883 2.3874834
2.3969054 2.2922564 2.2767801 2.1329277 2.5139952 2.6279385 2.314307 2.244141
1.9792281 2.467974 2.429239 2.1847465 2.8373535 2.4911969 2.6220918 0.876811
2.4262223 2.240402 2.5657132 1.2683859 2.4274325 2.6041803 2.3864505 2.4101145
2.5973973 2.3186243 1.9639896 2.366321 1.7666317 2.4581773 2.3162355 1.7862448
2.4507155 -0.2491507 2.46845 2.2844796 2.4097114 2.1623058 2.9668274 2.8526103
2.2051725 2.0700715 1.395261 0.25782755 2.4499578 2.265084 2.0326538 2.519222
2.484115 2.6204667 2.2693956 2.7170453 2.3852634 2.344349 2.3129 2.4040456
2.6128664 2.4225698 2.3731675 2.7270486 2.2138045 2.6302774 2.3400693 2.4329617
1.3362826 1.6199107 2.4045823 1.5488244 2.3307164 2.652872 2.1241386 0.94613695
2.3808465 2.7002578 2.3883266 1.9679602 2.2771158 2.4423192 2.4660017 1.4660262
2.138569 2.4188128 0.4179174 2.8700767 2.438609 2.519616 2.2915857 2.4979217
1.7102337 2.2762644 1.6279695 2.569508 0.8639146 0.348582 2.1402345 2.421996
2.3296502 2.3694925 2.4585264 2.5043867 2.4590209 2.568619 2.7303612 2.6376367
2.473589 2.5414622 2.7884462 2.4166107 2.4090443 2.1988304 2.3514004 2.2723231
2.186268 2.7225335 2.799846 2.2905498 2.3148332 2.4389112 2.3488808 2.5360827
2.3457854 1.9630451 -0.090130635 2.080111 1.4645274 2.257321 2.610194 2.412386
2.327475 2.468533 2.3595579 0.7327788 2.5076056 2.241668 2.270672 2.6363833
3.1497269 2.5279753 1.2414575 2.2920785 1.3312911 2.3803644 1.8285487 2.4021673
2.4470782 2.2137847 2.3779655 2.449315 2.3439212 1.3403617 2.3294635 2.3491538
2.3383777 0.4277206 2.467394 2.5822284 2.211795 2.4780037 2.2881272 0.48945728
2.2060542
00000000: 94fb 1b40 1922 0f40 918c 2240 689e 1e40
00000010: 728f 1340 7012 1e40 c653 3440 5202 1340
00000020: 5981 2840 c90e 2740 c276 0040 100c 923f
00000030: d3f7 2640 4697 2040 5c23 653f 6fc6 0b40
00000040: f5c8 1740 f6fd 2740 3668 ef3f 2178 0c40
00000050: 7a3c 2940 a8d9 2b40 b9f7 1940 8862 0640
00000060: f55a 0b3f 17b5 2640 60b5 1d40 ebe6 2c3f
00000070: ef11 2940 9edd 0240 2ea8 1f40 7fb5 1c40
00000080: 9ce7 1140 7373 2240 94ea 2540 0ce2 563d
00000090: 6fd6 a83f 191f 1a40 65fc 1140 99c5 db3e
000000a0: 46ab 1c40 b23e 1940 940e 2140 fb06 2340
000000b0: 8235 1e40 c3fa 1940 cd1b 993f 71c3 1f40
000000c0: 3dac 1c40 5167 0f3f 9e0f 1740 8add 0f40
000000d0: 1181 143d 7745 1440 6f3e 1540 097f a140
000000e0: 75bd 3c3d 37d7 a9be cb4f 3140 65c4 0c40
000000f0: ef7f 0b40 ba3c 1140 b7c0 bf3f 67d6 de40
00000100: 6c65 1240 baeb 2440 3ef3 0f40 da42 1840
00000110: dac2 1c40 6abf 2640 d380 383f 35f4 1b40
00000120: 7071 1a40 aa55 a93f 6179 1940 0e81 0c40
00000130: 04e3 1c40 13a9 1340 4606 2440 87cc 1840
00000140: e666 1940 54b4 1240 c4b6 1140 e381 0840
00000150: 4ce5 2040 2530 2840 9b1d 1440 02a0 0f40
00000160: 5957 fd3f 49f3 1d40 a778 1b40 e3d2 0b40
00000170: 3397 3540 c56f 1f40 5ad0 2740 b076 603f
00000180: 3a47 1b40 bf62 0f40 a534 2440 785a a23f
00000190: 0e5b 1b40 e4aa 2640 9bbb 1840 513f 1a40
000001a0: c23b 2640 5764 1440 0364 fb3f ce71 1740
000001b0: fd20 e23f c752 1d40 343d 1440 aba3 e43f
000001c0: 86d8 1c40 5c21 7fbe 16fb 1d40 ea34 1240
000001d0: b638 1a40 3863 0a40 80e0 3d40 2b91 3640
000001e0: 8c21 0d40 0d7c 0440 ea97 b23f f901 843e
000001f0: 1ccc 1c40 23f7 1040 0017 0240 ef3a 2140
00000200: bdfb 1e40 bab5 2740 c73d 1140 12e4 2d40
00000210: 28a8 1840 d009 1640 8e06 1440 e2db 1940
00000220: 3439 2740 620b 1b40 fae1 1740 f787 2e40
00000230: f9ae 0d40 7756 2840 b2c3 1540 a5b5 1b40
00000240: 4f0b ab3f 3c59 cf3f ade4 1940 e13f c63f
00000250: 752a 1540 a8c8 2940 e3f1 0740 0836 723f
00000260: ca5f 1840 06d1 2c40 58da 1840 1fe6 fb3f
00000270: 44bc 1140 f54e 1c40 f9d2 1d40 bfa6 bb3f
00000280: 51de 0840 d4cd 1a40 45f9 d53e 56af 3740
00000290: 2b12 1c40 6341 2140 57a9 1240 f3dd 1f40
000002a0: f0e8 da3f 51ae 1140 4e61 d03f d272 2440
000002b0: 8229 5d3f 5779 b23e 9af9 0840 fc01 1b40
000002c0: fd18 1540 c4a5 1740 7f58 1d40 df47 2040
000002d0: 9960 1d40 4164 2440 3dbe 2e40 0acf 2840
000002e0: 484f 1e40 51a7 2240 e775 3240 c0a9 1a40
000002f0: c82d 1a40 a3b9 0c40 587d 1640 be6d 1140
00000300: d1eb 0b40 fd3d 2e40 ad30 3340 5e98 1240
00000310: 3a26 1440 1f17 1c40 1054 1640 2e4f 2240
00000320: 5921 1640 1045 fb3f 6996 b8bd 8a20 0540
00000330: a275 bb3f f277 1040 6b0d 2740 8864 1a40
00000340: 5af5 1440 72fc 1d40 ff02 1740 6497 3b3f
00000350: 9c7c 2040 7d77 0f40 b152 1140 81ba 2840
00000360: 2095 4940 59ca 2140 14e8 9e3f 6ab1 1240
00000370: bf67 aa3f e457 1840 e20d ea3f 1cbd 1940
00000380: ee9c 1c40 a6ae 0d40 9630 1840 94c1 1c40
00000390: ce02 1640 f990 ab3f ee15 1540 8958 1640
000003a0: fba7 1540 32fe da3e c9e9 1d40 3b43 2540
000003b0: 0d8e 0d40 9d97 1e40 ad70 1240 259a fa3e
000003c0: fe2f 0d40

network.1.weight f4 [241]
7.375299 6.529936 6.995107 7.2908673 7.1764135 7.3237386 6.4663763 6.420777
5.9668827 7.5121226 6.6200337 6.864885 7.322456 7.2867827 7.998042 6.8570833
5.3473325 6.924542 6.9874516 7.529728 7.571587 6.6291323 6.0886536 7.4161816
7.903143 7.0373497 6.701385 6.980671 6.7540593 6.470953 6.917911 6.9388437
6.5646925 6.8771477 7.026932 6.7898417 7.915889 6.6468973 6.2684245 7.538839
7.1700325 6.0053577 7.68755 7.195729 6.8980484 7.098305 6.6892858 6.85554
6.9091625 7.0146675 6.5788608 6.437773 6.6524816 7.18267 5.755828 8.635798
5.5853767 5.303292 6.7629223 6.926534 7.666281 6.6676764 7.2406335 8.724448
7.720133 7.393648 6.109713 7.0620522 7.4834285 6.449711 5.5152016 7.1356754
6.6300893 8.906459 7.4159336 6.934456 7.2556624 6.7440906 6.9986134 7.729282
7.033687 6.6153684 6.3268495 7.9059477 6.4250264 6.810435 7.1920767 6.3997126
7.287284 7.608114 7.093142 6.3521266 7.6775274 6.9648356 7.492994 8.203564
7.057953 6.7223234 6.295619 7.372397 7.443985 6.941932 6.425431 6.8477945
6.387821 6.686457 6.997268 6.327301 7.9415216 7.491823 7.534399 7.1155286
7.150213 8.515334 6.826317 7.3831453 7.1851163 7.112304 7.2776685 6.954356
7.096516 7.4517484 7.2770185 6.936741 6.7530713 6.842943 7.1004357 6.444249
7.636283 6.27366 7.4919615 7.665965 6.94319 6.5802464 7.015656 7.4953213
6.8399076 6.8292766 7.217546 6.6293535 7.359324 6.7921286 7.018547 6.128888
7.739262 6.5695043 6.2260194 7.6990395 8.211654 6.431425 5.5395722 7.300892
6.405866 7.0333366 7.965235 6.778963 6.655018 7.133357 6.9207015 8.247005
6.396543 7.148387 7.974333 6.612113 8.199065 6.8333745 7.1356626 6.8349323
6.743489 7.179874 6.6731977 7.107338 8.183877 6.001902 6.341963 7.654072
5.750659 6.8889685 7.4631066 6.125608 6.755177 6.5292306 7.851807 8.13879
7.2384844 6.4486847 7.9034195 7.4272513 6.4492774 6.3831253 6.3759737 7.2362657
7.0021477 6.619247 7.6828184 6.753014 7.4424014 6.7054396 6.7727947 5.90324
8.013676 7.027367 6.5000277 7.5199156 7.181086 6.7498875 6.64533 7.147256
6.9914055 7.36954 7.2879443 6.3835406 6.506564 7.3254952 6.8753037 6.389981
8.582733 6.3717875 6.9478264 6.149194 7.1480346 7.67135 6.8005724 6.8437424
7.2731495 6.118842 6.315357 7.1325464 7.306317 7.4830804 6.6639905 7.5865235
7.3010507 6.6359177 6.185108 6.893186 7.06103 7.376787 6.953568 7.8503456
7.217488
00000000: 7302 ec40 3cf5 d040 ebd7 df40 c94e e940
00000010: 2ea5 e540 115c ea40 8eec ce40 0177 cd40
00000020: b4f0 be40 4f63 f040 51d7 d340 23ad db40
00000030: 8f51 ea40 532d e940 f6ef ff40 3a6d db40
00000040: 591d ab40 d995 dd40 3499 df40 88f3 f040
00000050: 714a f240 da21 d440 40d6 c240 5c51 ed40
00000060: 8ce6 fc40 f831 e140 bf71 d640 a861 df40
00000070: 4121 d840 0c12 cf40 875f dd40 020b de40
00000080: f611 d240 9811 dc40 a0dc e040 6246 d940
00000090: f64e fd40 62b3 d440 ef96 c840 2b3e f140
000000a0: e870 e540 e42b c040 6900 f640 6943 e640
000000b0: d0bc dc40 5125 e340 a10e d640 9560 db40
000000c0: dc17 dd40 2878 e040 0786 d240 3d02 ce40
000000d0: 21e1 d440 6fd8 e540 be2f b840 3b2c 0a41
000000e0: 68bb b240 91b4 a940 dc69 d840 2ba6 dd40
000000f0: 2d52 f540 9b5d d540 45b3 e740 5797 0b41
00000100: 540b f740 c498 ec40 c582 c340 55fc e140
00000110: 3f78 ef40 0864 ce40 887c b040 7457 e440
00000120: b129 d440 db80 0e41 544f ed40 10e7 dd40
00000130: 632e e840 97cf d740 a4f4 df40 4756 f740
00000140: f713 e140 19b1 d340 8d75 ca40 86fd fc40
00000150: d199 cd40 15ef d940 7e25 e640 72ca cc40
00000160: 6e31 e940 ab75 f340 05fb e240 9f44 cb40
00000170: 4eae f540 efdf de40 9bc6 ef40 cc41 0341
00000180: c0da e140 461d d740 b675 c940 adea eb40
00000190: 2035 ee40 4f24 de40 219d cd40 2221 db40
000001a0: 0869 cc40 75f7 d540 9fe9 df40 4079 ca40
000001b0: f220 fe40 04bd ef40 cc19 f140 69b2 e340
000001c0: 8bce e440 cf3e 0841 3071 da40 ba42 ec40
000001d0: 79ec e540 ff97 e340 a9e2 e840 168a de40
000001e0: a916 e340 b974 ee40 56dd e840 c8f9 dd40
000001f0: 2919 d840 64f9 da40 c536 e340 4a37 ce40
00000200: 6e5c f440 d3c1 c840 26be ef40 964f f540
00000210: 9d2e de40 6191 d240 4180 e040 acd9 ef40
00000220: 86e0 da40 6f89 da40 23f6 e640 aa23 d440
00000230: 957f eb40 1e59 d940 f097 e040 da1f c440
00000240: 09a8 f740 6139 d240 8d3b c740 885e f640
00000250: ef62 0341 3cce cd40 2d44 b140 e8a0 e940
00000260: dbfc cc40 1811 e140 35e3 fe40 44ed d840
00000270: e8f5 d440 7644 e440 6376 dd40 bcf3 0341
00000280: 7bb0 cc40 96bf e440 bc2d ff40 6e96 d340
00000290: 5f2f 0341 01ab da40 5957 e440 c4b7 da40
000002a0: a9ca d740 87c1 e540 d68a d540 506f e340
000002b0: 29f1 0241 950f c040 5cf1 ca40 28ee f440
000002c0: 6605 b840 6e72 dc40 c5d1 ee40 fb04 c440
000002d0: 692a d840 75ef d040 0142 fb40 7c38 0241
000002e0: aaa1 e740 a05b ce40 d0e8 fc40 0bac ed40
000002f0: 7b60 ce40 9042 cc40 fa07 cc40 7d8f e740
00000300: 9811 e040 dfd0 d340 a6d9 f540 b118 d840
00000310: 2728 ee40 f692 d640 bcba d840 58e7 bc40
00000320: 0438 0041 31e0 e040 3a00 d040 26a3 f040
00000330: 75cb e540 14ff d740 8ba6 d440 52b6 e440
00000340: 98b9 df40 46d3 eb40 d736 e940 f745 cc40
00000350: c635 d040 756a ea40 7d02 dc40 b97a cc40
00000360: e052 0941 afe5 cb40 9854 de40 32c6 c440
00000370: b3bc e440 b37b f540 4a9e d940 f0ff da40
00000380: a4bd e840 8ecd c340 6817 ca40 d23d e440
00000390: 59cd e940 6575 ef40 693f d540 cdc4 f240
000003a0: 35a2 e940 7059 d440 68ec c540 fb94 dc40
000003b0: f5f3 e140 a40e ec40 a183 de40 0836 fb40
000003c0: a9f5 e640

network.1.bias f4 [241]
-3.376262 -2.4758298 -2.9686048 -4.744474 -2.5478215 -3.0718768 -1.5092247 -3.191669
-1.7574956 -3.096224 -2.3215907 -4.130421 -2.9786081 -3.9799602 -4.2635427 -2.927563
-0.8044164 -3.4752917 -4.0869846 -5.407743 -0.7854278 -2.353366 -2.4223084 -3.784464
-4.4979396 -3.4709404 -4.8658347 -3.3566797 -3.1750743 -3.5947032 -2.764538 -3.3833475
-3.7988088 -2.2186723 -3.2914937 -4.164505 -4.2111473 -2.6373959 -2.82946 -4.884335
-2.898977 -2.328226 -3.8434625 -3.6476603 -3.9104774 -3.4304357 -2.3581698 -3.7291582
-4.003047 -4.0393577 -2.8845909 -2.3748612 -3.526482 -3.9322002 -1.8900149 1.1567588
-3.9218764 -2.5001059 -1.4968909 -2.9482083 -3.8955135 -3.3180256 -4.631821 0.6976059
-4.646981 -3.7865996 -2.3260465 -3.4007783 -3.7337706 -2.1512067 -3.679821 -3.3823864
-2.7349958 -5.968405 -3.5424008 -3.0776691 -4.7726855 -4.288841 -4.5129337 -4.6719437
-2.6392696 -2.9417772 -2.3731449 -4.494874 -2.6607049 -4.01378 -4.31637 -2.868528
-4.981629 -4.6651006 -2.7428038 -1.5818977 -4.5209794 -3.8523107 -3.9706721 -4.5852604
-3.8413465 -3.9177089 -2.70471 -4.157592 -4.5395823 -2.5792556 -1.9304873 -2.2799773
-1.4634552 -3.6676867 -3.0163333 -3.641927 -4.9066358 -3.9978952 -5.026835 -4.4916897
-4.58143 -4.659176 -2.9585533 -4.1539736 -4.4680524 -4.1123996 -0.104818635 -2.1330507
-4.0471964 -3.7800436 -3.8010032 -4.002029 -2.577195 -2.3077557 -3.4027674 -2.0201926
-4.866472 -1.5137599 -3.9193223 -3.529198 -3.4554846 -2.9954684 -4.0165634 -5.3577228
-3.3069973 -2.8246248 -4.1591406 -2.4068193 -5.2757597 -2.2468593 -4.383788 -1.7334783
-4.821435 -3.2061753 -2.8334453 -4.786221 -5.6327624 -3.307511 -1.3418957 -4.539891
-3.6827912 -3.6849334 -3.6299534 -3.6256392 -4.9831834 -3.2177882 -3.7089944 -4.9844193
-3.2140534 -2.881552 -6.263563 -0.38815156 -4.8686333 -3.1569023 -4.0231566 -2.3772337
-3.1992261 -4.6635118 -2.493087 -2.8329523 -5.84919 -2.9586444 -3.617345 -3.932614
-1.8842387 -2.7612698 -3.3332446 -2.95493 -3.627718 -3.174518 0.044275664 -3.889793
-3.8402014 -1.8828553 0.5739631 -3.9774601 -2.7518826 -2.4934897 -1.5791339 -3.2375765
-3.9763007 -3.3602448 0.5768131 -3.3697257 -3.497085 -2.519013 -2.7686012 -2.910818
-4.7657266 -4.8980794 -2.882736 -3.4293146 -5.197283 -3.2721958 -2.9383965 -4.1144834
-3.6385424 -4.501444 -5.3791986 -3.9368353 -3.7439334 -3.6236727 -3.086166 -1.1003853
0.67010474 -2.9699724 -3.6394055 -1.7319821 -3.5147936 -4.9505806 -3.9277716 -4.3433423
-4.3762927 -3.5958722 -2.484229 -4.175247 -3.9798694 -4.8544593 -3.2916908 -4.4460793
-3.4284475 -3.7039523 -0.9318485 -2.892205 -4.1147313 -3.5368755 -2.9637253 -4.8694234
-3.8654122
00000000: ad14 58c0 ff73 1ec0 9ffd 3dc0 bbd2 97c0
00000010: 820f 23c0 a199 44c0 462e c1bf 4e44 4cc0
00000020: 9ef5 e0bf 8928 46c0 f194 14c0 692c 84c0
00000030: 84a1 3ec0 abb7 7ec0 f16e 88c0 315d 3bc0
00000040: 3cee 4dbf 2e6b 5ec0 94c8 82c0 3b0c adc0
00000050: cc11 49bf 8c9d 16c0 1a07 1bc0 a834 72c0
00000060: 1fef 8fc0 e323 5ec0 ebb4 9bc0 d7d3 56c0
00000070: 6b34 4bc0 9e0f 66c0 31ee 30c0 c488 58c0
00000080: af1f 73c0 bafe 0dc0 d5a7 52c0 a043 85c0
00000090: b8c1 86c0 18cb 28c0 df15 35c0 794c 9cc0
000000a0: d788 39c0 a801 15c0 4afb 75c0 4473 69c0
000000b0: 4345 7ac0 428c 5bc0 41ec 16c0 87aa 6ec0
000000c0: f618 80c0 6b42 81c0 239d 38c0 bafd 17c0
000000d0: e2b1 61c0 2ba9 7bc0 02ec f1bf ac10 943f
000000e0: 0600 7bc0 bc01 20c0 1f9a bfbf 72af 3cc0
000000f0: 1850 79c0 885a 54c0 e137 94c0 4d96 323f
00000100: 11b4 94c0 a657 72c0 f2dd 14c0 5aa6 59c0
00000110: 19f6 6ec0 5fad 09c0 3082 6bc0 0579 58c0
00000120: 2c0a 2fc0 2cfd bec0 b2b6 62c0 88f8 44c0
00000130: d7b9 98c0 2f3e 89c0 f469 90c0 9080 95c0
00000140: cbe9 28c0 1446 3cc0 9be1 17c0 02d6 8fc0
00000150: fd48 2ac0 e370 80c0 b41f 8ac0 f695 37c0
00000160: 8169 9fc0 8148 95c0 198a 2fc0 a07b cabf
00000170: ddab 90c0 428c 76c0 7e1f 7ec0 74ba 92c0
00000180: 9fd8 75c0 bebb 7ac0 f819 2dc0 fe0a 85c0
00000190: 4244 91c0 8612 25c0 351a f7bf 26eb 11c0
000001a0: 8052 bbbf 61bb 6ac0 9b0b 41c0 5515 69c0
000001b0: 2903 9dc0 84dd 7fc0 d5db a0c0 ecbb 8fc0
000001c0: 139b 92c0 f817 95c0 f058 3dc0 5aed 84c0
000001d0: 49fa 8ec0 c798 83c0 27ab d6bd e783 08c0
000001e0: a282 81c0 3cec 71c0 a343 73c0 9f10 80c0
000001f0: c3f0 24c0 45b2 13c0 f1c6 59c0 d64a 01c0
00000200: 23ba 9bc0 e2c2 c1bf 2dd6 7ac0 61de 61c0
00000210: a926 5dc0 c1b5 3fc0 b087 80c0 7772 abc0
00000220: d8a5 53c0 a7c6 34c0 ae17 85c0 5409 1ac0
00000230: 06d3 a8c0 8bcc 0fc0 fe47 8cc0 9ee2 ddbf
00000240: 3249 9ac0 fa31 4dc0 2b57 35c0 b928 99c0
00000250: 973f b4c0 43ae 53c0 3dc3 abbf c946 91c0
00000260: dab2 6bc0 f3d5 6bc0 2851 68c0 790a 68c0
00000270: 3d76 9fc0 3ef0 4dc0 2a60 6dc0 5d80 9fc0
00000280: 0db3 4dc0 596b 38c0 1c6f c8c0 cdbb c6be
00000290: d8cb 9bc0 b00a 4ac0 b3bd 80c0 9924 18c0
000002a0: 1fc0 4cc0 7d3b 95c0 bd8e 1fc0 174f 35c0
000002b0: 912c bbc0 6e5a 3dc0 9582 67c0 f3af 7bc0
000002c0: bc2e f1bf a5b8 30c0 e153 55c0 931d 3dc0
000002d0: 882c 68c0 4e2b 4bc0 665a 353d 5ef2 78c0
000002e0: dcc5 75c0 6701 f1bf 3fef 123f b58e 7ec0
000002f0: d81e 30c0 5695 1fc0 0f21 cabf 7434 4fc0
00000300: b67b 7ec0 400e 57c0 06aa 133f 96a9 57c0
00000310: 3ed0 5fc0 8237 21c0 c330 31c0 d84a 3ac0
00000320: d580 98c0 11bd 9cc0 bf7e 38c0 e479 5bc0
00000330: 2450 a6c0 a86b 51c0 b00e 3cc0 d9a9 83c0
00000340: e1dd 68c0 d40b 90c0 6522 acc0 1cf5 7bc0
00000350: 9b9c 6fc0 41ea 67c0 be83 45c0 6dd9 8cbf
00000360: fc8b 2b3f 0714 3ec0 05ec 68c0 97b1 ddbf
00000370: 61f2 60c0 286b 9ec0 9c60 7bc0 a9fc 8ac0
00000380: 970a 8cc0 c522 66c0 9cfd 1ec0 a09b 85c0
00000390: 2eb6 7ec0 bb57 9bc0 10ab 52c0 4846 8ec0
000003a0: af6b 5bc0 8e0d 6dc0 a08d 6ebf e319 39c0
000003b0: e1ab 83c0 2b5c 62c0 adad 3dc0 51d2 9bc0
000003c0: ea62 77c0

network.1.running_mean f4 [241]
2.4341698 2.1603446 2.535051 2.4463675 2.3169436 2.4147832 2.7962115 2.3692253
2.633745 2.720039 1.9545062 1.0466725 2.605224 2.550355 0.88896465 2.154642
2.3134649 2.5689564 1.8628283 2.214735 2.6097026 2.6730611 2.4208467 2.1534226
0.4914735 2.567057 2.4219394 0.6396558 2.6808238 2.0545342 2.4911344 2.538597
2.292206 2.5711248 2.5452378 0.046193507 1.316489 2.4548616 2.2663941 0.44206664
2.4389608 2.3780856 2.5222027 2.517821 2.511529 2.476053 1.1954335 2.4744062
2.487405 0.5733437 2.4374678 2.1802528 0.12206519 2.3556952 2.3334222 5.0541277
0.2044537 -0.26150316 2.707207 2.2410064 2.1847253 2.257724 1.4840654 6.898214
2.2730424 2.53695 2.291805 2.4363217 2.4389653 2.6103034 0.7107863 2.4340532
2.4461691 1.3385087 2.4368758 2.1741903 2.4408834 2.3304212 2.470806 2.334694
2.4527059 2.346579 2.2816198 2.139653 2.4701917 2.6106107 2.3468196 2.251088
2.065866 2.5063787 2.4533627 2.3085902 2.8521879 2.420944 2.5425723 0.7986234
2.430639 2.2454565 2.6039612 1.2698087 2.4685552 2.56984 2.4198864 2.3771422
2.56962 2.2907703 2.0099204 2.3691075 1.7612137 2.4825516 2.3816295 1.8036823
2.3816292 -0.20024988 2.4995317 2.2475019 2.4093475 2.2126417 2.9603598 2.8426197
2.191501 2.1120288 1.4086444 0.3028505 2.535848 2.227475 2.0494187 2.5155008
2.433273 2.588432 2.2486374 2.7105503 2.356684 2.3749816 2.347151 2.3655183
2.5328186 2.415292 2.3630261 2.7858715 2.222837 2.6150653 2.3259568 2.346668
1.3415245 1.573368 2.4207609 1.5771247 2.3878067 2.634968 2.139052 0.89357555
2.386749 2.745905 2.363764 1.8903844 2.2974577 2.4405665 2.4314394 1.4531685
2.1290255 2.3711412 0.49066478 2.8958938 2.3942397 2.5044997 2.308446 2.575785
1.6239636 2.3151739 1.5911114 2.5116832 0.8046287 0.41939393 2.1414797 2.4322817
2.3647587 2.3217652 2.4669502 2.5061946 2.4644198 2.5634627 2.7966697 2.6208003
2.431295 2.5922878 2.8388634 2.4099634 2.4523807 2.2120607 2.3732984 2.3145244
2.1732118 2.7500906 2.8179643 2.282785 2.301661 2.4085789 2.3742933 2.592894
2.3950622 1.992614 -0.1182244 2.1305587 1.4004265 2.260099 2.6324785 2.4159684
2.3561914 2.512631 2.4039485 0.6198124 2.4686632 2.2660542 2.2463384 2.6409242
3.1246696 2.4842348 1.16427 2.3137789 1.3680482 2.34722 1.7159019 2.395329
2.463761 2.24414 2.4032598 2.4272153 2.3025348 1.2970247 2.3743162 2.3817186
2.3528078 0.50835854 2.362455 2.6184385 2.224423 2.401023 2.215079 0.44443616
2.1766157
00000000: 70c9 1b40 1643 0a40 473e 2240 4991 1c40
00000010: ce48 1440 cf8b 1a40 21f5 3240 63a1 1740
00000020: 478f 2840 1e15 2e40 422d fa3f 5df9 853f
00000030: fdbb 2640 0439 2340 3093 633f a8e5 0940
00000040: cf0f 1440 c869 2440 2871 ee3f 38be 0d40
00000050: 5e05 2740 6f13 2b40 27ef 1a40 add1 0940
00000060: 6aa2 fb3e a94a 2440 0e01 1b40 7cc0 233f
00000070: 9e92 2b40 7d7d 0340 bf6e 1f40 6078 2240
00000080: 81b3 1240 4f8d 2440 2de5 2240 6735 3d3d
00000090: b682 a83f 741c 1d40 9a0c 1140 8f56 e23e
000000a0: ef17 1c40 8e32 1840 c56b 2140 fb23 2140
000000b0: e4bc 2040 a777 1e40 f703 993f ac5c 1e40
000000c0: a531 1f40 a7c6 123f 79ff 1b40 4389 0b40
000000d0: 50fd f93d b6c3 1640 ca56 1540 6abb a140
000000e0: 505c 513e bee3 85be e142 2d40 a66c 0f40
000000f0: 8ad2 0b40 8d7e 1040 dbf5 bd3f 2bbe dc40
00000100: 8779 1140 645d 2240 efac 1240 b2ec 1b40
00000110: 0218 1c40 360f 2740 17f6 353f 87c7 1b40
00000120: 098e 1c40 4154 ab3f c6f5 1b40 ef25 0b40
00000130: 6f37 1c40 9f25 1540 af21 1e40 a06b 1540
00000140: 22f9 1c40 5a2e 1640 0f06 1240 13f0 0840
00000150: 9f17 1e40 3f14 2740 4b32 1640 d311 1040
00000160: 2637 0440 8268 2040 e503 1d40 f1bf 1340
00000170: 3f8a 3640 bff0 1a40 81b9 2240 9572 4c3f
00000180: 978f 1b40 8fb5 0f40 4da7 2640 1789 a23f
00000190: cffc 1d40 4278 2440 6bdf 1a40 1923 1840
000001a0: a774 2440 fb9b 1240 89a2 0040 759f 1740
000001b0: 736f e13f 20e2 1e40 9e6c 1840 10df e63f
000001c0: 9d6c 1840 4e0e 4dbe 54f8 1f40 12d7 0f40
000001d0: c032 1a40 ec9b 0d40 8976 3d40 7bed 3540
000001e0: 8d41 0c40 7b2b 0740 764e b43f 390f 9b3e
000001f0: 554b 2240 f38e 0e40 ad29 0340 f7fd 2040
00000200: bfba 1b40 dfa8 2540 ade9 0f40 a879 2d40
00000210: e9d3 1640 b3ff 1740 b937 1640 a764 1740
00000220: b319 2240 2594 1a40 d23b 1740 b84b 3240
00000230: f642 0e40 3b5d 2740 7adc 1440 cf2f 1640
00000240: 13b7 ab3f 1f64 c93f bfed 1a40 39df c93f
00000250: d3d1 1840 51a3 2840 3ae6 0840 5ec1 643f
00000260: 7fc0 1840 e8bc 2f40 e947 1740 1ef8 f13f
00000270: 8c09 1340 3e32 1c40 b49c 1b40 6d01 ba3f
00000280: f441 0840 c7c0 1740 6a38 fb3e 5356 3940
00000290: 393b 1940 b949 2040 94bd 1340 a9d9 2440
000002a0: 0ade cf3f cf2b 1440 8aa9 cb3f 6bbf 2040
000002b0: 25fc 4d3f cdba d63e 010e 0940 81aa 1b40
000002c0: 3558 1740 cd97 1440 83e2 1d40 7e65 2040
000002d0: 0eb9 1d40 c60f 2440 a3fc 3240 31bb 2740
000002e0: 569a 1b40 0be8 2540 f0af 3540 d73c 1a40
000002f0: cef3 1c40 6792 0d40 1fe4 1740 2b21 1440
00000300: e715 0b40 7c01 3040 8759 3440 2619 1240
00000310: 6a4e 1340 2826 1a40 6cf4 1740 faf1 2540
00000320: b348 1940 fa0d ff3f a21f f2bd 135b 0840
00000330: 2d41 b33f 76a5 1040 877a 2840 3a9f 1a40
00000340: d7cb 1640 f2ce 2040 4bda 1940 07ac 1e3f
00000350: 94fe 1d40 0807 1140 02c4 0f40 e704 2940
00000360: 96fa 4740 b4fd 1e40 cd06 953f f414 1440
00000370: 341c af3f da38 1640 aca2 db3f 124d 1940
00000380: 43ae 1d40 fd9f 0f40 02cf 1940 7f57 1b40
00000390: bb5c 1340 e804 a63f ccf4 1740 146e 1840
000003a0: 6794 1640 c923 023f 7632 1740 7f94 2740
000003b0: f25c 0e40 5caa 1940 dbc3 0d40 238d e33e
000003c0: ac4d 0b40

network.1.running_var f4 [241]
2.4693012 2.7724314 2.5808303 2.6533642 3.048993 2.6164382 3.905633 2.4926522
2.4723513 2.7242556 2.5715618 3.078457 3.2370338 2.5409174 2.315105 2.7476676
2.8680353 2.838641 2.5293794 2.2732613 2.5698137 2.5442598 3.0507565 2.3319037
2.1098719 2.5499 2.7799494 2.293526 2.8215327 2.433125 2.6495934 2.7046053
3.300304 3.3517141 2.6978645 2.1827252 2.1849713 2.6415617 2.4147055 2.1954079
2.4829018 3.7029738 2.9274833 2.5186737 2.4006336 2.2978437 2.9508357 2.578303
2.3240047 2.2329786 2.7741623 3.2816827 2.7260003 2.5285938 2.6897118 2.5435174
6.6177907 2.637388 2.4936 2.6237829 2.4423125 2.849099 2.3955758 2.471767
2.536936 2.341788 2.6530635 2.4374168 2.521943 3.4342365 3.3563402 2.8007598
2.5655255 2.2591407 2.422237 2.4749613 2.3469133 2.4588983 2.4573007 2.3683856
2.6046145 3.2836037 2.4992437 2.763264 2.6797283 2.7292593 2.3683083 3.4775906
2.1503007 2.2782292 2.321773 7.0273333 2.370617 2.6066117 2.9371824 2.4544373
2.3116999 2.5043988 2.7008092 2.359257 2.4802299 3.0391026 3.0659592 3.0994787
3.0678136 2.3516572 2.5354955 2.6536918 2.872266 2.3869946 2.1503978 2.731031
2.4324036 2.2047267 3.119746 3.0661275 2.7233067 2.3711915 2.4737933 2.8931806
2.5301669 2.3785095 2.3014112 7.2765613 3.187918 2.7492511 2.582138 2.8206015
2.333335 3.334397 2.4596572 2.508897 2.8297327 2.6109467 2.7075315 2.3939443
2.8813663 2.5612772 2.5582707 2.9629054 2.3041205 2.4757853 2.3715007 2.8175147
2.513218 6.2784133 3.1683369 2.3146956 2.300834 2.5055497 2.9876494 7.844858
2.4668996 2.6523585 2.6948466 2.6569462 2.2263637 2.4390304 2.556982 2.3733485
2.680092 2.541608 2.1491952 2.3918338 2.2835991 3.4755013 2.6278446 3.0759892
2.324842 2.6543374 2.6360621 2.7333922 2.2007678 8.033114 2.5823584 2.4910913
3.891814 2.6845872 2.6924367 2.6974206 2.8037097 3.580278 2.358907 2.5219266
3.2301736 4.1078367 2.4379904 2.4419677 2.7513208 2.822671 3.1207974 3.1213768
2.661462 3.1984248 2.4203618 2.875983 2.5342383 2.5834174 2.5404108 2.6410642
2.5070302 2.3300395 2.6863716 2.5973756 2.2137856 2.694799 2.3384044 2.468294
2.8916237 2.852268 2.2532766 4.9010806 2.640463 2.916105 2.6274426 3.885336
2.3614826 2.8502212 2.767281 2.5509415 2.539096 2.5510252 3.205351 2.524907
2.3479638 2.473871 2.4996834 2.6184032 2.610629 2.1728113 2.4603496 2.5180197
2.671954 3.0915732 11.441867 2.6170053 2.5731714 2.5296693 2.876153 2.1910222
2.5933526
00000000: 0809 1e40 846f 3140 532c 2540 b8d0 2940
00000010: b422 4340 b973 2740 e4f5 7940 9d87 1f40
00000020: 013b 1e40 345a 2e40 7894 2440 7105 4540
00000030: 902b 4f40 649e 2240 ae2a 1440 c9d9 2f40
00000040: e48d 3740 4bac 3540 5ae1 2140 1d7d 1140
00000050: d477 2440 27d5 2240 983f 4340 e93d 1540
00000060: 2408 0740 9031 2340 b1ea 3140 21c9 1240
00000070: fe93 3440 52b8 1b40 f092 2940 4118 2d40
00000080: 2e38 5340 7c82 5640 d0a9 2c40 c5b1 0b40
00000090: 92d6 0b40 590f 2940 898a 1a40 9081 0c40
000000a0: dde7 1e40 86fd 6c40 e35b 3b40 f331 2140
000000b0: fba3 1940 df0f 1340 7eda 3c40 eb02 2540
000000c0: 7ebc 1440 1fe9 0e40 e08b 3140 1707 5240
000000d0: ca76 2e40 7bd4 2140 3d24 2c40 fdc8 2240
000000e0: f1c4 d340 f7ca 2840 2497 1f40 0fec 2740
000000f0: d94e 1c40 a357 3640 1d51 1940 6e31 1e40
00000100: 295d 2240 dbdf 1540 cbcb 2940 a3fe 1b40
00000110: 8467 2140 88ca 5b40 47ce 5640 a63f 3340
00000120: 9231 2440 c395 1040 ee05 1b40 c465 1e40
00000130: d433 1640 975e 1d40 6a44 1d40 a193 1740
00000140: 01b2 2640 9026 5240 9cf3 1f40 51d9 3040
00000150: ab80 2b40 2fac 2e40 5d92 1740 d890 5e40
00000160: 879e 0940 82ce 1140 ee97 1440 eadf e040
00000170: 30b8 1740 bad2 2640 ccfa 3b40 8015 1d40
00000180: e4f2 1340 1248 2040 0fda 2c40 11fe 1640
00000190: 16bc 1e40 a880 4240 ad38 4440 dc5d 4640
000001a0: 0f57 4440 8d81 1640 8f45 2240 16d6 2940
000001b0: 35d3 3740 85c4 1840 1ea0 0940 36c9 2e40
000001c0: 80ac 1b40 3e1a 0d40 eba9 4740 6f3b 4440
000001d0: a84a 2e40 9ac1 1740 a152 1e40 df29 3940
000001e0: 41ee 2140 8039 1840 524a 1340 97d9 e840
000001f0: d906 4c40 bbf3 2f40 c041 2540 bc84 3440
00000200: 5c55 1540 c366 5540 066b 1d40 c591 2040
00000210: 571a 3540 c019 2740 3248 2d40 6236 1940
00000220: 4e68 3840 f7eb 2340 b5ba 2340 3ea0 3d40
00000230: b676 1340 4473 1e40 abc6 1740 2952 3440
00000240: 90d8 2040 c3e8 c840 08c6 4a40 f923 1440
00000250: dd40 1340 ed5a 2040 a635 3f40 1409 fb40
00000260: afe1 1d40 3ec0 2940 5e78 2c40 680b 2a40
00000270: be7c 0e40 1319 1c40 98a5 2340 f1e4 1740
00000280: a186 2b40 b5a9 2240 6a8c 0940 ce13 1940
00000290: 7d26 1240 9d6e 5e40 9b2e 2840 02dd 4440
000002a0: 36ca 1440 aae0 2940 3eb5 2840 e6ef 2e40
000002b0: 61d9 0c40 a387 0041 5c45 2540 0a6e 1f40
000002c0: 7b13 7940 47d0 2b40 e250 2c40 8aa2 2c40
000002d0: fb6f 3340 4623 6540 55f8 1640 3f67 2140
000002e0: 2abb 4e40 6673 8340 0908 1c40 3349 1c40
000002f0: a415 3040 a4a6 3440 25bb 4740 a3c4 4740
00000300: 6555 2a40 feb2 4c40 35e7 1a40 1b10 3840
00000310: f630 2240 b656 2540 1796 2240 3207 2940
00000320: 2f73 2040 5e1f 1540 83ed 2b40 673b 2640
00000330: aaae 0d40 9677 2c40 6ba8 1540 87f8 1d40
00000340: 5d10 3940 8f8b 3640 af35 1040 a7d5 9c40
00000350: 59fd 2840 77a1 3a40 0528 2840 58a9 7840
00000360: 8822 1740 066a 3640 221b 3140 a042 2340
00000370: 8d80 2240 ff43 2340 7924 4d40 1498 2140
00000380: 0a45 1640 e753 1e40 d0fa 1f40 eb93 2740
00000390: 8c14 2740 570f 0b40 5e76 1d40 3c27 2140
000003a0: 4b01 2b40 56dc 4540 e311 3741 047d 2740
000003b0: d7ae 2440 1ae6 2140 e412 3840 b539 0c40
000003c0: 7df9 2540

network.4.weight f4 [241, 241]
0.77564305 5.223028 -0.591206 -1.2649037 8.521044 1.7883517 1.6763868 1.723258
-8.548463 6.7778497 -2.4928524 1.803533 -0.65863395 6.8369293 12.435788 -6.293794
-2.659078 1.8073387 -1.0670519 3.9058905 -0.121620126 -2.8183863 -0.094661355 6.120638
6.962357 -7.16107 5.137724 -0.26995766 8.967791 2.0283456 3.2149947 2.5194712
-3.478842 -0.26225108 -0.7126425 2.4214458 -5.409988 8.734446 -2.5863721 8.879385
7.331472 -2.7180295 13.229987 4.611938 -2.9624686 -4.489569 3.0756829 0.42764562
-2.5762265 -4.4375916 -10.151106 3.897253 -9.547045 8.759891 -3.4487202 7.539774
-0.8485486 -7.245238 12.79213 6.449491 -5.235669 0.26196107 1.7054335 -4.5190487
0.580625 -8.462169 6.239606 -2.9572115 -1.5605025 2.9594302 -5.942697 -1.3384224
-6.3093834 2.5288188 -7.585922 8.137665 9.065347 0.4025627 1.8570147 1.0037113
8.736593 2.147978 -2.206806 2.6981187 -0.69613445 -2.033074 -3.0783246 2.5856695
7.0320044 15.227366 -5.2336326 0.12995113 -3.8185894 -6.4580126 1.7607574 -3.226296
2.8839867 3.7720902 1.0524547 1.7765745 2.3522496 10.886804 8.820075 5.3831577
-4.2631335 0.72464734 -6.1725583 -2.9161205 3.4033396 -0.32637644 4.763921 -4.5791965
3.8586936 -14.641769 3.9037938 -0.4700963 -4.4934206 -0.5798333 3.0736618 -0.59756774
7.200134 5.547321 10.7562 -4.415926 1.5690807 0.10354131 3.0180516 -8.119053
-10.104572 4.5999427 5.8735576 6.466671 3.7276516 0.7848082 2.8614259 7.2355795
-1.9866819 -3.1001828 1.7121977 -4.6259937 -4.0031877 -2.6724048 2.9844909 -2.4107866
-1.1557996 -3.658983 0.052292153 -0.42139983 13.677084 6.499372 1.0051254 -6.6722803
0.8879594 -6.16856 3.926774 5.844217 7.726584 -4.223365 -1.1066424 -2.0993
-4.580761 -1.479518 11.385749 5.4629436 -2.331265 8.85795 12.480372 -1.8187796
4.059219 -2.6423583 -3.0008638 -3.4959247 -1.8913633 -5.912063 -2.5391665 -16.278479
-1.6157571 -3.2154703 0.17469452 -2.8990977 3.6527548 2.7697234 -2.5828917 4.288676
8.870457 -2.406609 -1.9576523 -2.6879508 0.5682768 2.024562 6.593858 2.033908
1.5946895 -10.00222 15.509043 -0.43239963 11.96564 0.41851416 2.42241 1.0147976
7.559846 -33.594147 0.51627755 12.075933 -7.960787 10.420377 -3.6212518 1.6121267
-1.6903318 4.459332 7.9537716 -2.4230938 7.8801327 11.812635 -4.47685 4.3318334
6.4597063 0.72858536 -7.4172683 -4.0893235 -3.2022505 -7.6848164 -9.087334 -1.6688224
-5.831861 7.502682 3.0255866 -3.7253807 -1.6809629 0.49553433 -5.14811 6.819432
5.375339 -4.7343044 4.643102 1.0722139 -1.5293913 -7.3994336 -0.59060854 -0.14611375
-1.800945 -2.0814219 -1.9299974 7.5948014 7.7333493 -4.0291557 -1.6652803 0.9246459
5.12076 0.46614644 8.379412 -0.78508586 1.5620801 3.641896 4.3828497 -2.2860408
00000000: 8b90 463f 0c23 a740 4759 17bf 5de8 a1bf
00000010: 3256 0841 b5e8 e43f d893 d63f b893 dc3f
00000020: 81c6 08c1 25e4 d840 e58a 1fc0 2bda e63f
00000030: 3c9c 28bf 20c8 da40 fdf8 4641 c366 c9c0
00000040: 552e 2ac0 e056 e73f 2895 88bf 1cfa 7940
00000050: f913 f9bd 7160 34c0 d0dd c1bd 44dc c340
00000060: a1cb de40 7c27 e5c0 3c68 a440 e437 8abe
00000070: 127c 0f41 6ad0 0140 79c2 4d40 043f 2140
00000080: 59a5 5ec0 c645 86be bd6f 36bf f8f8 1a40
00000090: 9f1e adc0 4ac0 0b41 1f87 25c0 f611 0e41
000000a0: 6b9b ea40 32f4 2dc0 07ae 5341 ff94 9340
000000b0: 1699 3dc0 8daa 8fc0 fdd7 4440 5ef4 da3e
000000c0: e5e0 24c0 c000 8ec0 ee6a 22c1 986c 7940
000000d0: b2c0 18c1 8328 0c41 d5b7 5cc0 d445 f140
000000e0: 7b3a 59bf fdd8 e7c0 91ac 4c41 3b62 ce40
000000f0: 9a8a a7c0 c31f 863e a54b da3f 0c9c 90c0
00000100: d7a3 143f 0b65 07c1 daaa c740 f442 3dc0
00000110: 8cbe c7bf 4e67 3d40 932a bec0 6d51 abbf
00000120: 78e6 c9c0 2bd8 2140 dfbf f2c0 e033 0241
00000130: a90b 1141 b31c ce3e a8b2 ed3f 9d79 803f
00000140: 16c9 0b41 7978 0940 4f3c 0dc0 faad 2c40
00000150: de35 32bf e21d 02c0 4503 45c0 9c7b 2540
00000160: 2e06 e140 4ba3 7341 eb79 a7c0 e911 053e
00000170: c563 74c0 0aa8 cec0 8060 e13f a27b 4ec0
00000180: 3d93 3840 ed69 7140 d6b6 863f cb66 e33f
00000190: 428b 1640 5930 2e41 071f 0d41 d442 ac40
000001a0: 976b 88c0 7d82 393f 9985 c5c0 b8a1 3ac0
000001b0: 51d0 5940 d01a a7be 0a72 9840 c788 92c0
000001c0: d6f4 7640 b044 6ac1 c2d7 7940 76b0 f0be
000001d0: 1aca 8fc0 f56f 14bf e0b6 4440 33fa 18bf
000001e0: 7f67 e640 a783 b140 6519 2c41 444f 8dc0
000001f0: a3d7 c83f 770d d43d c227 4140 a4e7 01c1
00000200: 54ac 21c1 bb32 9340 2ff4 bb40 f8ee ce40
00000210: d891 6e40 31e9 483f 9a21 3740 de89 e740
00000220: 984b febf 6569 46c0 4b29 db3f 2408 94c0
00000230: 1d1a 80c0 ae08 2bc0 e601 3f40 544a 1ac0
00000240: 3ef1 93bf c72c 6ac0 4c30 563d b8c1 d7be
00000250: 56d5 5a41 dbfa cf40 f3a7 803f 5283 d5c0
00000260: 4f51 633f d864 c5c0 4450 7b40 d303 bb40
00000270: 2d40 f740 ce25 87c0 75a6 8dbf ee5a 06c0
00000280: 9895 92c0 d960 bdbf 072c 3641 6fd0 ae40
00000290: 7233 15c0 2aba 0d41 9baf 4741 c5cd e8bf
000002a0: 1fe5 8140 661c 29c0 270e 40c0 3bbd 5fc0
000002b0: 3118 f2bf 9f2f bdc0 b481 22c0 533a 82c1
000002c0: 21d1 cebf 44ca 4dc0 1fe3 323e d18a 39c0
000002d0: bcc6 6940 2643 3140 194e 25c0 d53c 8940
000002e0: 64ed 0d41 e205 1ac0 5a94 fabf 6307 2cc0
000002f0: 977a 113f 6c92 0140 e200 d340 8c2b 0240
00000300: c91e cc3f 1809 20c1 0a25 7841 7c63 ddbe
00000310: 4373 3f41 7d47 d63e c408 1b40 e3e4 813f
00000320: 42ea f140 6860 06c2 c42a 043f 0637 4141
00000330: c4be fec0 ddb9 2641 97c2 67c0 2b5a ce3f
00000340: cb5c d8bf d9b2 8e40 4c85 fe40 f813 1bc0
00000350: 0c2a fc40 8e00 3d41 5b42 8fc0 619e 8a40
00000360: eab5 ce40 9284 3a3f 435a edc0 bddb 82c0
00000370: acf1 4cc0 04ea f5c0 b865 11c1 f99b d5bf
00000380: 9b9e bac0 f915 f040 36a3 4140 a36c 6ec0
00000390: cb29 d7bf adb6 fd3e 51bd a4c0 c938 da40
000003a0: c702 ac40 6c7f 97c0 4b94 9440 4e3e 893f
000003b0: 18c3 c3bf 29c8 ecc0 1f32 17bf d89e 15be
000003c0: 5e85 e6bf 0436 05c0 280a f7bf 9d08 f340
000003d0: 9977 f740 d8ee 80c0 e827 d5bf 98b5 6c3f
000003e0: 44dd a340 bfaa ee3e 1212 0641 63fb 48bf
000003f0: 3ef2 c73f d314 6940 4e40 8c40 7e4e 12c0

network.4.bias f4 [241]
-0.015715318 -0.0070909034 0.012706627 -0.046638712 0.045733564 -0.0068340413 -0.034310937 0.028308982
0.05219894 -0.03116354 -0.013065701 0.04060413 -0.02614212 0.0022993009 0.005531592 -0.027388658
-0.0475156 0.014948453 9.704333e-05 0.052707344 -0.021875676 -0.0025242101 -0.025205702 0.067139834
-0.07257009 0.04813783 0.024211805 -0.00421512 0.038484227 -0.034100562 -0.014741808 0.015392509
-0.02228547 -0.031634096 -0.015655622 0.027105816 -0.053604055 -0.011765466 -0.005773016 0.008382804
0.037479434 0.06290965 0.029624222 -0.009429716 -0.032934166 -0.01164884 0.031153083 -0.051888946
-0.030166283 0.019874677 0.05366009 0.00683516 -0.0103231305 -0.04472865 0.052758668 0.0057145734
0.068697736 -0.056595318 0.043899886 -0.005201688 -0.0418815 -0.063013345 -0.021919947 0.07562247
-0.0219099 -0.0075338734 0.060345512 -0.023381026 -0.018856224 0.04895635 0.030777127 -0.029753642
0.049199823 0.03992242 -0.045453537 0.036881365 -0.05517599 0.016934456 0.07282151 0.033484045
-0.05639806 -0.011589353 0.047134925 0.040230684 -0.029305104 -0.00094081124 0.027917532 -0.044572268
-0.0049804603 -0.051498402 -0.03131601 -0.051417775 0.0057497793 -0.06725101 -0.02353198 0.048712015
0.022403147 -0.01585963 0.06625783 0.03946296 -0.053015236 -0.038548525 -0.011617134 -0.01436909
-0.008870825 -0.0624757 -0.03995087 -0.005611189 0.04026529 -0.039625954 -0.09002381 -0.013156497
-0.034847602 -0.042262074 0.036778852 0.028168935 -0.019531174 0.0013354615 0.024863495 0.059159916
0.028682029 -0.0032384314 -0.027373318 0.015126276 0.05081955 0.047348674 -0.056512855 -0.0012158107
0.053674243 0.026768103 -0.03408711 0.01977471 0.038883217 0.013064142 -0.0023132907 -0.023672689
-0.016032238 0.022592392 0.009637651 -0.049578767 0.026479663 -0.0044025374 -0.036051847 0.053144168
-0.05398563 0.029109024 0.05224083 -0.035878923 0.00029525062 -0.020531246 -0.010927816 -0.061826546
0.0017631035 -0.02696739 0.06371157 0.058073066 -0.044724695 -0.0089000985 -0.015199191 0.01660959
0.0042011007 0.02896622 0.039006434 -0.009918268 -0.05510489 0.033128228 0.05332752 0.019787934
-0.04348243 -0.024626575 -0.012801811 0.06043405 -0.050634842 0.00916637 0.0037303797 0.0046433755
-0.028131234 0.057061523 0.049077116 -0.05111669 -0.06164871 -0.049757928 0.047694787 -0.040825672
0.051048245 -0.018268133 0.051087737 -0.0470541 0.001665265 -0.062016778 -0.052425988 -0.045593236
0.04372214 -0.040250447 0.0418107 0.026300706 -0.0055594053 0.054823894 -0.035031255 -0.050152656
0.0010848348 -0.02308917 0.017185198 0.037991755 0.05384483 0.043424617 0.045151226 -0.024506548
0.011180893 -0.00077814463 0.08121339 0.058074396 0.04268101 -0.01728707 0.056923788 0.044133946
-0.058052965 0.019085275 0.018241154 0.020001946 -0.030939864 0.024738282 -0.012586691 -0.014577358
-0.048807822 -0.049276523 -0.008157644 -0.044817325 0.06209652 -0.060499348 -0.025755733 -0.0368683
0.031607654 -0.021195546 -0.041717112 0.0361084 0.007435064 0.0012215098 -0.00044960988 0.03969014
0.038357366
00000000: 69bd 80bc cf5a e8bb 752f 503c 3c08 3fbd
00000010: 1e53 3b3d 18f0 dfbb a089 0cbd 3de8 e73c
00000020: 8ece 553d ae4a ffbc 8611 56bc 8450 263d
00000030: 0028 d6bc deaf 163b 5b42 b53b 2e5e e0bc
00000040: b89f 42bd 5bea 743c be83 cb38 a8e3 573d
00000050: 9e34 b3bc 386d 25bb 307c cebc 9c80 893d
00000060: a19f 94bd 2c2c 453d d657 c63c fd1e 8abb
00000070: a3a1 1d3d 08ad 0bbd a087 71bc dd30 7c3c
00000080: 0590 b6bc c192 01bd 3840 80bc 040d de3c
00000090: ed8f 5bbd f1c3 40bc 912b bdbb 0758 093c
000000a0: 0984 193d c6d6 803d 7fae f23c 187f 1abc
000000b0: fae5 06bd c7da 3ebc c034 ff3c 8189 54bd
000000c0: 481f f7bc 38d0 a23c afca 5b3d 7af9 df3b
000000d0: 5922 29bc 6435 37bd 7919 583d 5141 bb3b
000000e0: 66b1 8c3d 7ed0 67bd 5ed0 333d ec72 aabb
000000f0: f08b 2bbd 240d 81bd 7691 b3bc f4df 9a3d
00000100: 647c b3bc b6de f6bb db2c 773d 9189 bfbc
00000110: 5e78 9abc 7486 483d 5020 fc3c e9bd f3bc
00000120: c185 493d b185 233d 7d2d 3abd ea10 173d
00000130: 3800 62bd 21ba 8a3c 7223 953d 9126 093d
00000140: a701 67bd 45e1 3dbc 8d10 413d eec8 243d
00000150: 4211 f0bc c6a0 76ba 4fb3 e43c 6991 36bd
00000160: 2133 a3bb fdef 52bd 3745 00bd 729b 52bd
00000170: a568 bc3b e6ba 89bd 24c6 c0bc 4086 473d
00000180: ce86 b73c 0eec 81bc 2fb2 873d eaa3 213d
00000190: 8126 59bd 0fe5 1dbd cb55 3ebc 556c 6bbc
000001a0: f056 11bc 85e6 7fbd 86a3 23bd 11de b7bb
000001b0: 37ed 243d d34e 22bd 675e b8bd 598e 57bc
000001c0: 5cbc 0ebd ff1a 2dbd 6ca5 163d 8ac2 e63c
000001d0: d7ff 9fbc a70a af3a 87ae cb3c ab51 723d
000001e0: 93f6 ea3c dd3b 54bb 023e e0bc 33d4 773c
000001f0: 2928 503d aff0 413d 067a 67bd d65b 9fba
00000200: 86d9 5b3d c848 db3c ed9e 0bbd 93fe a13c
00000210: 0244 1f3d fc0a 563c 949a 17bb 3aed c1bc
00000220: 0a56 83bc ae13 b93c 3de7 1d3c 1b13 4bbd
00000230: e1eb d83c 2943 90bb 1aab 13bd b3ad 593d
00000240: 0920 5dbd 0c76 ee3c 7bfa 553d c7f5 12bd
00000250: decb 9a39 2531 a8bc 950a 33bc d53d 7dbd
00000260: f017 e73a b7ea dcbc 367b 823d 06de 6d3d
00000270: 3e31 37bd b8d1 11bc 0706 79bc d610 883c
00000280: 63a9 893b 914a ed3c 36c5 1f3d 3b80 22bc
00000290: aab5 61bd 77b1 073d f56d 5a3d 4e1a a23c
000002a0: a21a 32bd acbd c9bc b0be 51bc b289 773d
000002b0: 7b66 4fbd 8b2e 163c 6379 743b 7527 983b
000002c0: 7973 e6bc 58b9 693d 1605 493d bc5f 51bd
000002d0: 5c83 7cbd f8ce 4bbd 9c5b 433d d238 27bd
000002e0: f717 513d 0da7 95bc 6041 513d cdbb 40bd
000002f0: 0545 da3a 4e05 7ebd a2bc 56bd f9bf 3abd
00000300: fd15 333d a7dd 24bd b241 2b3d 9474 d73c
00000310: ac2b b6bb 058f 603d ef7c 0fbd df6c 4dbd
00000320: 0431 8e3a 8025 bdbc f9c7 8c3c 3e9d 1b3d
00000330: 658c 5c3d 03de 313d 7ef0 383d f5c1 c8bc
00000340: 1030 373c 67fc 4bba 3553 a63d 6bdf 6d3d
00000350: 48d2 2e3d 9d9d 8dbc eb28 693d ccc5 343d
00000360: f2c8 6dbd b958 9c3c 796e 953c 1fdb a33c
00000370: 9975 fdbc f0a7 ca3c 6938 4ebc dfd5 6ebc
00000380: b6ea 47bd 2ed6 49bd a4a7 05bc 5f92 37bd
00000390: ec58 7e3d 2ace 77bd b0fd d2bc 3703 17bd
000003a0: 0777 013d 48a2 adbc 90df 2abd 67e6 133d
000003b0: d6a1 f33b 111b a03a 9eb9 ebb9 2192 223d
000003c0: 9d1c 1d3d
