best models/saved_models/architecture_10/best_model.pt (torch, 522914 bytes, 25 tensors)

network.0.weight f4 [249, 15]
00000000: 265d 0e3f eb50 773e a26b 3bbe 2f7f eb3c
00000010: d2fc 0e41 09ba 213f 4a0d 8ebe b9eb 90be
00000020: 82a3 2cbf f51e 36c0 6cf2 06c1 87a8 b6be
00000030: 8441 9cbe 56c4 0e41 79bb 2fc0 9345 e23f
00000040: 77e9 d340 6b8a 7f3f 3d8f c340 5e8d bebf
00000050: 20e3 cec0 7791 abbf 76e5 1740 46ec 773e
00000060: c49f 14c0 77fc 17bf 3bf8 d040 b0a0 aabf
00000070: 1a61 c5c0 2953 113f fcb2 4e40 f3be 30bf
00000080: 6286 7540 f2d7 f23f abb4 71c0 c925 4a3f
00000090: e53e 30c0 2603 8740 fb6d b5c0 af10 0740
000000a0: c0d1 c6c0 0c0f 8540 6883 c7c0 c5d0 0f3f
000000b0: 8360 e3c0 b780 99be 1678 02be 8a83 72bf
000000c0: b84a 8941 546e d53e 06b2 a03f d452 aabd
000000d0: ec0f ad40 45c5 dfbe 760f e13e cd25 81be
000000e0: 5c12 dec0 5700 09bf 2a6f 8cbf 098b ad3e
000000f0: c650 cabf 7469 c840 d8b5 3a40 8acb a440
00000100: e7e6 0a3f 2876 ccc0 a124 78c0 507f 1740
00000110: d2e3 a33d aacc 0dc0 b4c8 523e b2b1 cbc0
00000120: 4405 05c0 87bc ca40 5035 2a40 b4f4 abbe
00000130: 5620 f2bf 08be c73f 502c f33d df36 4640
00000140: aa62 b940 5d83 18c1 ce9c 893f 4d80 2140
00000150: 5160 c540 892a 08c1 0d06 14bf c323 503f
00000160: 46b3 803f 7a1f 3ac0 59a2 57c0 11c4 ecbf
00000170: 8651 8f40 9b0a 88c0 89b7 18c1 8b50 6bc0
00000180: 1de2 1941 4192 2e3e 48fd cabf 887e bc3f
00000190: 694c 6fbf 4c6c 583e 4c0f cc3f 207a bfbf
000001a0: 8beb 44c0 b5a1 2a3f 7cbb 8d3e ea26 4bbe
000001b0: aa61 d03e e155 4c40 4258 0141 3f71 be3f
000001c0: a492 113f b8a0 e2c0 35b2 5e40 62b0 89c0
000001d0: 2237 813d a330 96c0 8779 a43f d18f 0141
000001e0: 2a59 2a3f 86b6 28bf cf2d 90be c980 a7be
000001f0: 62b2 2640 324f 99c0 5034 cc40 eccc 853f
00000200: 0c2f fac0 f6b5 ff3f b962 9e40 3105 6f3d
00000210: edbb 74c0 a7b3 c0c0 5d0e a8c0 a9af 9140
00000220: 599a 5b3f 25f0 0cc0 9a7d 9440 eaef 39c1
00000230: 5ab8 74c0 b841 4440 d413 12c0 4dfd e140
00000240: 6805 763f a089 f1bf 3d0a cbbf 2b3c 6c40
00000250: e27d f53e a8f0 ffbe c644 5540 671f 75c0
00000260: e7f8 bf3f 40d8 65bf 95bc 2740 eecb 1cc0
00000270: e8da b33f bc8e 3cbf 597d eb3f 9044 4ac0
00000280: 54c8 723f d56b 8940 ad1f 05c1 19eb 2641
00000290: 05e7 a4c0 a6d8 8540 8aa8 8740 a97e 033f
000002a0: dd99 c23f e95f c7bf 81b3 4bc0 bad3 88bf
000002b0: 6ec2 b6c0 fd65 c440 dce3 a140 05c5 a63d
000002c0: b806 a6c0 bef1 cb40 6e85 7340 dfd1 ed3f
000002d0: 7e85 173e 0eee 783e 0aeb a23e a3e3 c83d
000002e0: 5276 8dc0 e4be e4bf 4e3b f0c0 86d9 c83e
000002f0: e0fc cdbe 3d7d 0b41 1902 08c0 527d 45bf
00000300: 8636 0041 2bbb 20bf f75f 98c0 cb8b 5940
00000310: b86e 70c0 7b40 6fc0 6652 8e40 2d12 9ec0
00000320: 30c3 bb40 7849 fa40 4f77 5140 279a 82c0
00000330: d04d 5140 027b 6b40 e7f1 e5bf ea63 9d3f
00000340: cbc4 d3bf 788b ebbf b68c 173e e3aa c1be
00000350: 8929 b03d 8b01 c8bc 597a 00c0 9370 74c0
00000360: 96a2 fec0 c7c5 d6bb 6db0 0a41 cc7b 143e
00000370: 9b14 0dc0 9274 e6bd ec6e bf3f ec33 04c1
00000380: 909b 8040 f865 4540 be1b 01c1 6c3a 04c0
00000390: fe0d ddc0 bd73 9a40 12a5 b9c0 6616 37c0
000003a0: b2d4 773f 1cf7 1fbe 9064 5940 22f5 7cbf
000003b0: f41c 8a3e 41f5 f13f 0afc 9e3f 5ae1 0f40
000003c0: d864 6040 08c2 32c0 13f5 3e40 c9df 2840
000003d0: 3989 4ec0 e244 7b40 8a48 49bf 63a9 a8bd
000003e0: ca88 733e 57e9 fa3f 5b80 39bf 25f9 c040
000003f0: 1ee6 01c1 f473 e640 ffc0 c1c0 8133 2640
0.55610883 0.24151962 -0.18302777 0.02874717 8.936724 0.6317449 -0.27744514 -0.28304842
-0.67436993 -2.8456395 -8.434185 -0.3567545 -0.30518734 8.922934 -2.7458174 1.7677482
6.622249 0.99820584 6.111235 -1.4886892 -6.465225 -1.3403767 2.3733802 0.24211225
-2.3222513 -0.59369606 6.5303016 -1.3330288 -6.168103 0.5676752 3.2296743 -0.69041365
3.836327 1.8972151 -3.776652 0.78963906 -2.7538388 4.2191343 -5.6696754 2.1103933
-6.2131042 4.158087 -6.234791 0.5617793 -7.105531 -0.29981014 -0.12741122 -0.9473196
17.161484 0.41685736 1.2554328 -0.083165795 5.4081936 -0.43705192 0.43957108 -0.25224152
-6.939741 -0.53516144 -1.0971425 0.33895138 -1.58059 6.2628727 2.9173489 5.149846
0.5425858 -6.3894234 -3.8772357 2.3671455 0.08002438 -2.2156167 0.20584375 -6.3654413
-2.0784464 6.3355136 2.659504 -0.3358513 -1.8916118 1.5604868 0.11873686 3.097099
5.793294 -9.532071 1.0750978 2.5234559 6.1680074 -8.510385 -0.5782173 0.8130457
1.005471 -2.9081712 -3.369284 -1.8497335 4.4787016 -4.2512946 -9.544808 -3.676791
9.617703 0.17047979 -1.5858545 1.4726114 -0.9347597 0.21135062 1.5942168 -1.4959145
-3.0768764 0.66652995 0.27682102 -0.19839063 0.40699512 3.1927416 8.084047 1.487831
0.5686438 -7.082119 3.479627 -4.302781 0.06309344 -4.693437 1.2849587 8.097611
0.66542304 -0.6590351 -0.2815995 -0.32715443 2.6046376 -4.7909174 6.381386 1.0453162
-7.818243 1.9977405 4.949551 0.05835456 -3.82397 -6.02193 -5.2517533 4.552693
0.8578239 -2.2021573 4.640332 -11.621073 -3.823752 3.0665112 -2.2824602 7.0621705
0.96102 -1.8870125 -1.58625 3.6911724 0.47947603 -0.49988294 3.3323226 -3.8300416
1.4997834 -0.89783096 2.6208851 -2.4499469 1.405118 -0.73655295 1.8397628 -3.1604347
0.94836926 4.294413 -8.320233 10.432397 -5.1532006 4.1826963 4.2393236 0.51365143
1.5203205 -1.5576144 -3.182831 -1.0689614 -5.711234 6.1374497 5.059065 0.08143047
-5.18832 6.3732595 3.805019 1.8579673 0.14797017 0.2430956 0.31819946 0.09809043
-4.4206934 -1.7870755 -7.5072393 0.39228457 -0.4023199 8.718076 -2.125128 -0.7714435
8.013311 -0.62785596 -4.7617145 3.3991573 -3.7567577 -3.7383106 4.4475584 -4.9397187
5.8675766 7.8214684 3.272907 -4.0813174 3.2703743 3.6793828 -1.7964448 1.2296116
-1.6544431 -1.8401937 0.1479977 -0.3782569 0.08601672 -0.024414798 -2.0074675 -3.819371
-7.957347 -0.0065543386 8.668073 0.1450035 -2.2043827 -0.11252703 1.4955726 -8.262676
4.0189896 3.0843487 -8.069273 -2.0660658 -6.907958 4.826628 -5.8014 -2.860742
0.9680892 -0.15621608 3.3967628 -0.98811543 0.26975214 1.890297 1.2420666 2.2481294
3.506155 -2.7930927 2.9837081 2.6386588 -3.2271254 3.9260793 -0.7862631 -0.08235433
0.2378265 1.960246 -0.7246148 6.030413 -8.118681 7.2016544 -6.054809 2.5968935

network.0.bias f4 [249]
00000000: c607 9b40 1cc0 3f3f 12da 903f 84c9 0540
00000010: 3ede a83f e081 0140 26dc 1340 fd63 1640
00000020: cb9e 9e40 d3d5 b53f 75be 1440 05e2 913f
00000030: 5541 2840 ffe5 ad3f 4fef 1b40 5bac a63f
00000040: 45e0 8c3f dc9d 29bc f921 1d40 e75b 9f3e
00000050: 6642 a83f e4c3 cf40 fa09 963f 0771 1240
00000060: fefc c33f 69e5 d23f cd15 863f 2e59 29be
00000070: 6d2f 1940 7dcb ca3e 1a04 2640 4714 ac3f
00000080: 7cdc 6f3f 55f5 b63f e7e2 2740 3fda 1540
00000090: 4934 a03f bb51 2741 4722 20bf 54d2 1b40
000000a0: 954b 1e40 695d a1be 47d2 cd3f a91c cb3f
000000b0: caaf 7f3f b4ee 0f40 3f33 3e3f 8644 a33f
000000c0: 5616 3340 18e1 1c40 f294 a140 0657 1240
000000d0: 900f 8c3f 7736 dc3f 3fd9 f73f 6496 1d40
000000e0: cf70 35be 93d8 0e40 7826 a13f 3bbb e33d
000000f0: c4de 2440 53f3 cd3f 959d 8c3f ebe8 cc3e
00000100: bce8 ad3f 1b0b 9e3f 7ccf 1d40 6191 2140
00000110: ff81 b8bc ac99 1b40 5acf b53f 1748 9a3f
00000120: b086 2140 4741 1240 0ea8 893f 4804 0840
00000130: acab 2d40 5139 ab3f 0043 ef3f 0be2 bf3f
00000140: df8d 0640 42ad 2240 f6a8 9f3f 6f75 483f
00000150: 946b 2f40 60f7 7f3f f629 bf3f 4c56 c33f
00000160: e44b 1740 7895 c53f b087 733f c46a b53f
00000170: ef01 843f b53e 2240 99bc aa3f 53ff a73f
00000180: b52a 943f 2bb2 8f3f 6411 b23f 6c76 e6bc
00000190: c51b 0c40 28fe 973f 8bf4 c83f 74c8 cf3f
000001a0: 0d9a ca3f f1c3 b13f 65e4 2840 5e42 2040
000001b0: b37c a63f 4ae0 493f 47aa bf3f a07f 2240
000001c0: a6ea 0a40 d3a2 653d f461 dd3f d25a ad3f
000001d0: b240 af3f c4cd 0e40 20bf 1340 ae9d 523f
000001e0: f001 2340 f14a 8f3f 60f7 8f3f 3d88 1940
000001f0: fd44 2640 bdd9 8f3f 9e74 873f 6083 a93f
00000200: 7135 b83f a44a 1a40 0358 ac3f e745 0d40
00000210: 4eaa 893f d891 b83f 1f7b 2240 7126 f73f
00000220: 0f43 1d40 32f4 2140 c91e 2e40 a2ef 353f
00000230: c273 853f 5c4c 1840 25a1 db3f 0280 bd3f
00000240: 21ce c03e 99ae d63f 32ea 953f 3aaa 1540
00000250: 7bf6 8f3f cd60 0c3e e432 a53f cb1c 1b40
00000260: 99f4 2d40 3503 a33f e141 bf3f 70e5 9e40
00000270: 21f3 1440 55e2 943f dc94 2440 0297 f13f
00000280: 027e 8d3f a6b6 2241 e006 c43f 56c7 1040
00000290: 75a2 1740 ca0f ad3f 13e3 1840 6fb8 373f
000002a0: cfe1 323f 9537 1d40 5ad4 1f40 50e5 2741
000002b0: 17bb b23f 7550 b63f aa3b 173f 0bf9 a440
000002c0: f37f a140 cb9b ae3f be95 1840 65b3 cf3e
000002d0: 6fcb b73f 2cce 583f a846 2940 6136 2040
000002e0: 420d fe3f 01d6 1d40 6de5 8a3f d2a5 2140
000002f0: be9c a53f 3820 0a3f bdb1 1540 a93b c73f
00000300: 1f57 883f 8475 1940 a001 1c3e 5736 a23f
00000310: 1bb7 1740 7f48 1640 cabc a53f 8182 cc3e
00000320: 54fb 2140 0c41 d63e 5677 1640 44e3 3340
00000330: e56e bd3f c74a 1340 772f 9c3f 44a2 1840
00000340: c00f 1140 c9d9 dc3f b5d8 873f 7003 e63f
00000350: 7ad3 a03f e05e 1e40 e07c 1740 e397 1840
00000360: 005d 2f3d 2b97 9d3f e326 b93f 63c3 873f
00000370: 3e81 2040 4dfd b43f 79ad 1840 4c80 983f
00000380: 751b 0f40 4bab 1240 463b b93f 391f 1940
00000390: d0e8 c13f fec3 1540 2863 1a40 5c75 963f
000003a0: 0919 a940 cbd0 c43f cbbd a73f 7f8f 1a40
000003b0: ec2f 703f 2696 1440 6e53 a43f 2082 1b40
000003c0: eeaa 1a40 c0ed 24bf 6513 1fbe e5b1 1b40
000003d0: c595 2240 92c9 1540 1f86 903f c540 663f
000003e0: c7ff 9e3f
4.844699 0.7490251 1.131655 2.0904245 1.3192823 2.023552 2.3103118 2.3498528
4.956884 1.4205879 2.3241246 1.1397101 2.6289876 1.3585814 2.4364812 1.3021349
1.1005942 -0.010352578 2.4551985 0.31124803 1.3145263 6.4926624 1.1721795 2.2881486
1.5311582 1.647626 1.0475403 -0.16537926 2.3935196 0.39608374 2.5940003 1.3443688
0.9369581 1.4293619 2.623224 2.3414457 1.2515956 10.457454 -0.62552303 2.4347124
2.4733632 -0.3151658 1.6079797 1.5868121 0.9987761 2.2489443 0.74296945 1.2755287
2.7982383 2.4512386 5.049432 2.2865615 1.0942249 1.7204121 1.9363173 2.462304
-0.17718814 2.2319686 1.2589865 0.11119696 2.5760965 1.6089882 1.098559 0.40021452
1.358665 1.2347139 2.4657888 2.5244982 -0.022522924 2.4312544 1.4203904 1.205325
2.5238457 2.2852342 1.0754411 2.1252613 2.713603 1.3376867 1.8692322 1.4990858
2.1024091 2.5418248 1.2473438 0.7830419 2.740941 0.9998684 1.493468 1.5260711
2.364007 1.5436239 0.9512892 1.4173207 1.031309 2.5350773 1.3338805 1.3124794
1.1575533 1.1226248 1.3911557 -0.02813264 2.189195 1.1874437 1.5699629 1.6233048
1.5828263 1.3887922 2.63894 2.5040507 1.3006805 0.7885786 1.497384 2.5390396
2.1705718 0.056063484 1.7295518 1.3543341 1.3691618 2.231309 2.3085403 0.8227185
2.5469933 1.1194745 1.1247368 2.3989403 2.5979607 1.1238323 1.0582464 1.3243217
1.4391309 2.4108057 1.3464359 2.2073915 1.0755098 1.4419508 2.5387647 1.9308606
2.457218 2.5305295 2.720629 0.71068776 1.0425951 2.3796606 1.7158552 1.480469
0.37657264 1.6772033 1.1712096 2.3385148 1.1247095 0.13708802 1.2906156 2.4236324
2.718054 1.2735354 1.494198 4.9655075 2.3273394 1.1631571 2.5715857 1.8874209
1.105408 10.169592 1.5314598 2.2621665 2.3692906 1.3520443 2.3888595 0.717658
0.69875807 2.4565175 2.497336 10.4934845 1.3963345 1.4243304 0.59075415 5.1554008
5.046869 1.3641294 2.3841395 0.40566555 1.4358958 0.84689593 2.6449375 2.503319
1.9847796 2.4661868 1.0851265 2.5257459 1.2938459 0.5395541 2.3389733 1.5565082
1.0651587 2.3977976 0.15234995 1.2672833 2.3705509 2.3481748 1.2948239 0.39943317
2.5309649 0.41846502 2.3510337 2.8107462 1.4799467 2.301439 1.2201985 2.384904
2.2665863 1.7253963 1.0613009 1.7969799 1.2564538 2.4745407 2.3669968 2.3842704
0.0428133 1.2311758 1.4464992 1.0606502 2.5078883 1.4139801 2.385588 1.1914153
2.2360508 2.291705 1.4471214 2.3925307 1.5149174 2.3400874 2.412302 1.1754565
5.284306 1.5376219 1.3104795 2.4150083 0.9382312 2.3216643 1.2837961 2.4298172
2.4166827 -0.6442528 -0.15534742 2.4327328 2.5403912 2.3404279 1.129093 0.8994258
1.2421807

network.1.weight f4 [249]
00000000: b2b8 a540 be62 b240 4aec 9f40 5bf1 a040
00000010: 3984 b140 ccb2 8840 0292 9140 1322 ae40
00000020: 590d aa40 bfcd 9c40 f252 9840 80b6 b740
00000030: 3336 9140 6808 b540 0f8c af40 b3f2 ad40
00000040: 9fe0 9d40 ad94 b140 47bb ab40 50b3 b840
00000050: 0b50 b040 91bb 9d40 c991 8640 4fda c040
00000060: 1bad b740 3fc0 a440 7b9a b840 16d8 af40
00000070: 3b1a 9f40 91c0 b740 d542 a340 5879 b140
00000080: 1d76 a540 3423 9240 3f69 9440 55cb b840
00000090: 9190 9d40 5d74 9440 e172 a740 6d2d b640
000000a0: 2175 aa40 f593 9f40 1a45 8340 f0f9 ad40
000000b0: 9304 c340 e8fc a340 ab86 b940 c5dc 9c40
000000c0: c286 b540 3c3a 9340 24b2 bd40 2f3b b640
000000d0: c49a a640 2413 ae40 5f2e 9e40 9038 a740
000000e0: 91e1 7040 d926 9940 508b b640 1dc2 bc40
000000f0: 57e9 9740 fe3c 9440 b465 a840 0909 cc40
00000100: 9fbd 9940 e39b b240 4f1d 8e40 7bcd a540
00000110: 4669 c140 9d79 9d40 1655 9140 c218 b140
00000120: bc5d b440 0837 c440 094d ae40 8514 a940
00000130: d934 a640 f09c a940 a332 b240 ece2 a740
00000140: d9a7 9940 c196 9240 549e aa40 7cfc b140
00000150: 53a8 9940 55ca 8a40 10a7 9840 732e 9f40
00000160: 0e58 a540 62bb b540 e53a bb40 7a3e 9240
00000170: d80d a740 400e ae40 23f6 a740 6e3f 9440
00000180: b219 af40 6a87 ae40 ccb2 a840 379d ae40
00000190: cef1 9b40 9319 b940 d9b3 a240 9bf2 a740
000001a0: 60df b040 598a a040 3515 9b40 3bf1 9c40
000001b0: 408c a240 5d3d b340 79b8 a440 da2e 9440
000001c0: f6a9 af40 2eaa a140 bf23 b240 85e4 9340
000001d0: 970a a640 4204 9640 1ca9 ba40 af46 c940
000001e0: be75 ac40 646c ad40 5ce3 a640 61b0 9d40
000001f0: aca2 c440 f49e ba40 56b9 ad40 d3e8 ae40
00000200: 1260 9540 b433 c240 31fd a540 dd26 8c40
00000210: 22fd 9e40 d941 a640 2ed3 ae40 502e 9940
00000220: 1288 ac40 0fd7 af40 61df 9d40 924b ac40
00000230: 31ca ab40 75a1 b040 c424 a840 c913 a440
00000240: 8109 9540 9902 9240 0432 9a40 c04e ab40
00000250: 1b18 ab40 703e ab40 853c bf40 6d02 9e40
00000260: 52c6 9d40 7561 bd40 7ce8 c240 7599 a940
00000270: 2046 a240 9f96 a840 c9af 8140 2082 ae40
00000280: 4642 b840 07b5 b940 6020 9b40 be84 aa40
00000290: 72e4 b540 3786 a440 2ede b240 245e bf40
000002a0: 389b ae40 1c75 9d40 45f7 9140 da90 c040
000002b0: 0f49 b540 5c5c 9540 5368 b640 4837 b940
000002c0: 8525 ae40 6614 a040 1ca4 ab40 e8d7 ad40
000002d0: 9c48 aa40 0c01 bb40 630b b140 821e aa40
000002e0: 16c4 b640 0b77 a240 893e b040 ef44 8b40
000002f0: f6e8 a840 ff77 a640 c2a0 9d40 f25f b440
00000300: f0cb 9c40 bb89 8c40 0176 ae40 6810 8f40
00000310: 14f0 9e40 a1d6 a540 e0ce b140 8fed b040
00000320: 214d a440 c4f9 a140 fa0a 9b40 b285 ac40
00000330: 9fad bb40 2de5 9d40 0612 af40 50c0 a140
00000340: 0264 b340 40e3 ab40 2090 a340 146e 9e40
00000350: acae a240 5f5e ac40 67e0 b740 97df a740
00000360: b6c0 a740 9aab 9340 1a3f 8b40 53f5 be40
00000370: 02a6 a240 3213 a140 35be a840 80b3 b040
00000380: 01fd b340 2fed 9440 96a2 9240 4c1e a540
00000390: da13 8b40 7f90 b240 3042 9340 bf88 a340
000003a0: 3b3f a840 62e1 a540 3154 a040 b520 9140
000003b0: 710d c540 2c74 b040 f2df ac40 b912 b740
000003c0: 0f21 b140 6c18 a840 9e82 a440 d384 8c40
000003d0: a31b 9540 f326 8c40 72d6 b540 6ba7 bf40
000003e0: f5cd 9e40
5.178796 5.5745535 4.997594 5.0294623 5.5473905 4.271826 4.549073 5.4416595
5.3141294 4.9001155 4.760125 5.741028 4.537866 5.657276 5.485847 5.4358764
4.9336696 5.549399 5.366611 5.7718887 5.509771 4.9291463 4.205296 6.026649
5.739881 5.1484675 5.7688575 5.4951277 4.971952 5.7422566 5.101908 5.5460625
5.170668 4.5667973 4.6378474 5.774821 4.9238973 4.6392045 5.2327733 5.693045
5.326798 4.986811 4.1021852 5.43676 6.0943084 5.1246223 5.797689 4.9019494
5.6727 4.6008587 5.9279957 5.6947246 5.2063923 5.4398365 4.9431605 5.2256546
3.7637675 4.785992 5.704506 5.8986955 4.747234 4.6324453 5.262415 6.376103
4.804397 5.581529 4.4410777 5.181333 6.0441008 4.9210954 4.5416365 5.534272
5.636442 6.1317177 5.4469037 5.283755 5.193951 5.3004074 5.5686812 5.2464504
4.801739 4.5809026 5.331827 5.562071 4.8017974 4.3371987 4.7703934 4.97442
5.166999 5.679124 5.8509393 4.5701265 5.22044 5.4392395 5.248796 4.632743
5.4718866 5.45403 5.271826 5.4566913 4.873267 5.784372 5.084454 5.248365
5.5272675 5.016888 4.8463387 4.904447 5.0796204 5.6012406 5.1475186 4.630719
5.489497 5.052024 5.5668635 4.6216455 5.1887927 4.6880198 5.833143 6.2898784
5.389373 5.4194813 5.215254 4.9277806 6.1448574 5.8319035 5.428874 5.465921
4.6679773 6.0688114 5.187157 4.379744 4.9684 5.195538 5.463279 4.7869034
5.39161 5.4950023 4.933518 5.384225 5.3684316 5.519709 5.254488 5.127415
4.65741 4.562817 4.8186054 5.353363 5.3466926 5.351372 5.9761376 4.937796
4.930459 5.9181466 6.0908794 5.2999825 5.07106 5.2683864 4.052708 5.4533844
5.75809 5.803348 4.847702 5.328704 5.6841364 5.1413836 5.5896215 5.980242
5.4564476 4.9205456 4.5614343 6.017682 5.6651683 4.6675243 5.700235 5.787998
5.44208 5.00249 5.363783 5.4326057 5.3213634 5.843878 5.53264 5.316224
5.7114363 5.0770316 5.5076337 4.3521647 5.2784376 5.202148 4.9258738 5.636712
4.8998947 4.391813 5.451905 4.4707527 4.9668064 5.18245 5.5565033 5.528999
5.134415 5.061739 4.84509 5.39132 5.864944 4.9342256 5.47095 5.0547256
5.605958 5.3714905 5.1113434 4.9509373 5.0838223 5.38652 5.746143 5.2460437
5.2422743 4.6146975 4.351453 5.967447 5.0827646 5.033593 5.2732186 5.5219116
5.6246343 4.653953 4.582347 5.1599483 4.3461733 5.5801387 4.6018295 5.1104426
5.2577186 5.1837626 5.0102773 4.5352426 6.157891 5.514181 5.402337 5.7210355
5.5352855 5.252981 5.1409445 4.391214 4.6596236 4.3797545 5.6824274 5.989187
4.9626412

network.1.bias f4 [249]
00000000: 979c 9140 6749 3ac0 e561 14c0 9003 14c0
00000010: cc1d 41c0 2e2a 55bf b141 bebf 0c88 b940
00000020: 7ab4 3c40 fe62 babf d013 b7bf 3d40 57c0
00000030: 7624 9340 1bd2 19c0 afc8 6d41 6286 8cc0
00000040: a01f 1bc0 31e9 45c0 8879 82bf 1894 6ac0
00000050: 8e06 f7bf 8a67 4a40 0116 dbbf 6b82 2dc0
00000060: 64cd 60c0 48c6 0bc0 2fc5 55c0 89b5 37c0
00000070: cc74 11c0 8b43 4cc0 9d54 50bf 1c26 1ac0
00000080: 90ac 2cc0 9123 953e 5211 e5be 3986 0ac0
00000090: 8282 9dbf 7638 ae3f 8e02 50c0 72e3 6640
000000a0: 7b5f 1a40 f509 3ac0 63ae e5be e2b3 48c0
000000b0: 4ece 5bc0 2223 53c0 87f2 45c0 6838 dabf
000000c0: 9f7b 4740 d724 0dc0 1569 6d40 53d3 03c0
000000d0: df09 52c0 0ce2 49c0 e4f1 a9bf aa1f 12c0
000000e0: d75d 32bf a2a1 aebf dfe6 81c0 8e21 68c0
000000f0: cb1f 9cbf 3d0d 24bf ac7d 14c0 e011 5cc0
00000100: 6131 e8bf ea4d 0fc0 6c50 3abf d28b e1bf
00000110: 23a4 56c0 afd2 27bf 3d6a c5bf 038b 2dc0
00000120: 867e 47c0 bbf6 28c0 b098 3cc0 e958 0bc0
00000130: 7c19 5440 102e 3bc0 5d24 18c0 120e 19c0
00000140: 9365 08c0 f2a8 c13f 1beb 41c0 be55 41c0
00000150: 272c fa3f 8221 5e3d 5206 0ec0 f774 1bc0
00000160: 8be9 f2be 77bd 33c0 6530 23c0 6b9d 0abf
00000170: 9967 13c0 f496 0240 00e0 cabf 61ca a7bf
00000180: ad27 2ac0 061d 81c0 6072 2ac0 aa66 4fc0
00000190: 9bd1 ecbf ddde 60c0 5145 31c0 7aba febf
000001a0: 5e2c 0dc0 af51 b6bf 46a5 10bf 80ea 10bf
000001b0: 394b babf b8c3 34c0 d235 36bf d1d7 56bd
000001c0: 0bca 16c0 fa10 07c0 946a 2fc0 3b0e 19c0
000001d0: 1ebb 3ec0 bc60 fcbf 54b7 4cc0 c69c 85c0
000001e0: a863 5c40 1707 27c0 cb0f d8bf 90bc f2bf
000001f0: 078e 8e40 f061 83c0 735d 6dc0 c7f4 25c0
00000200: 44bb 20c0 71b3 5ec0 fc71 12c0 220f 4fbf
00000210: cdc0 c9bf 9b81 c6bf 2a4f f5bf 79f0 b7bf
00000220: fba8 35bf dd9b 2ec0 b31b cc3f 6c01 2ac0
00000230: 6b0e 47c0 f1b8 31c0 598a c4bf 703f d1bf
00000240: 6edc 0ec0 1b1d 65bf 772b 1ec0 8802 63c0
00000250: 787a 12c0 ff8b 41c0 e6a8 76c0 27ed e0bf
00000260: ae64 3040 06fc 48c0 0131 5bc0 bcb2 0440
00000270: f131 14c0 377d 2dc0 6589 d63f 25b2 5ac0
00000280: 2c9b 28c0 1fad 9340 c0cb bdbf 8ca4 2ac0
00000290: c221 37c0 4387 19c0 034c 19c0 24ae 88c0
000002a0: c841 13c0 6205 e9bf fe4e 89bf a126 9640
000002b0: 2bac 61c0 64ff 6bbf c704 49c0 b001 5e40
000002c0: 4421 4f40 df8e c6bf dc6d dbbf 219f 3bc0
000002d0: bf44 ebbf dbc1 82c0 172e c440 ae41 4dc0
000002e0: 13c6 12c0 e48d afbf 2f80 4fc0 14d4 8640
000002f0: 2b70 8abf b64f 27c0 b200 c2bf d989 14c0
00000300: e8c9 f1bf 93f6 25bf cea8 2cc0 4dcd babf
00000310: 4b88 0e40 af18 d0bf 5555 cdbf 46c1 26c0
00000320: 4384 a4bf 9e1c 47c0 5176 f9bf bc24 2340
00000330: 96c2 2fc0 5667 f4bf 679e efbf 7147 80bf
00000340: 2090 15c0 99ea f6bf 0206 69bf 5c14 22c0
00000350: 7de7 f8bf 6bff 19c0 9770 39c0 ee15 0dc0
00000360: 0a05 12c0 ebe6 78bf ed28 cbbf 0576 4ac0
00000370: 5cba acbf fe2c fdbf f6d2 29c0 6909 3fc0
00000380: 02f3 27c0 e716 20bf 51ae 92bf cf57 dcbf
00000390: d457 6bbf d644 32c0 8af1 7abf dadb ebbf
000003a0: 98c2 9e40 4d03 f2bf 1997 d3bf 4597 bebe
000003b0: 29b6 83c0 4dcc 19c0 f59e 39c0 5a85 36c0
000003c0: 9433 f5bf 52bf 3dc0 a5b8 f2bf e7ed c7bf
000003d0: 692e 0fc0 6e43 fdbe 053f 3ac0 792c 80c0
000003e0: f35e d0bf
4.550365 -2.9107301 -2.318475 -2.3127174 -3.0174437 -0.83267486 -1.4863797 5.7978573
2.9485154 -1.456146 -1.4302921 -3.3632958 4.598201 -2.4034488 14.861495 -4.391404
-2.4238052 -3.0923579 -1.0193338 -3.665289 -1.9298875 3.1625695 -1.711609 -2.711085
-3.512536 -2.1839771 -3.3401601 -2.870455 -2.2727537 -3.1916225 -0.8137911 -2.408576
-2.6980324 0.29128698 -0.44739777 -2.1644423 -1.2305453 1.361098 -3.250156 3.6076322
2.4120777 -2.9068577 -0.4485961 -3.1359792 -3.4344668 -3.2990193 -3.0929277 -1.7048464
3.1169202 -2.2053735 3.7095387 -2.0597732 -3.2818525 -3.1544218 -1.3276944 -2.2831826
-0.6967444 -1.3643076 -4.0594325 -3.627048 -1.2197202 -0.640827 -2.3201704 -3.438591
-1.8140069 -2.2391305 -0.72778964 -1.7620795 -3.353768 -0.6555585 -1.5423046 -2.7116096
-3.1170974 -2.6400592 -2.9468193 -2.1773016 3.3140554 -2.9246864 -2.3772194 -2.3914838
-2.1311996 1.5129683 -3.0299747 -3.0208583 1.9544724 0.054231174 -2.2191358 -2.429014
-0.47443804 -2.808439 -2.5498288 -0.5414645 -2.303198 2.0404634 -1.5849609 -1.3108636
-2.6586716 -4.034793 -2.663231 -3.240641 -1.8501467 -3.5136025 -2.7698557 -1.9900658
-2.205833 -1.4243678 -0.5650219 -0.5660782 -1.4554206 -2.8244457 -0.71175873 -0.052451912
-2.3560817 -2.1104112 -2.74088 -2.3914936 -2.9801707 -1.9717021 -3.1986895 -4.1753874
3.4435825 -2.6098077 -1.687982 -1.8963795 4.4548373 -4.1057053 -3.7088287 -2.593065
-2.5114298 -3.4797022 -2.288207 -0.80882466 -1.5761963 -1.5508302 -1.9164784 -1.4370261
-0.7096097 -2.7282631 1.5945953 -2.6563368 -3.110255 -2.776913 -1.535472 -1.6347485
-2.232204 -0.89497536 -2.471403 -3.5470295 -2.288725 -3.0241697 -3.8540587 -1.7572373
2.756145 -3.1403823 -3.424866 2.073409 -2.3155482 -2.7107675 1.676068 -3.417123
-2.634471 4.614883 -1.4827805 -2.6662931 -2.8614354 -2.3988807 -2.3952644 -4.2712574
-2.30089 -1.8204768 -1.0727232 4.6922154 -3.5261333 -0.9218657 -3.1409166 3.468853
3.2364054 -1.5512351 -1.7142901 -2.9315875 -1.8380355 -4.086164 6.130626 -3.2071338
-2.2933395 -1.3715177 -3.2421987 4.2133884 -1.0815481 -2.6142402 -1.5156462 -2.3209136
-1.8889742 -0.6482937 -2.697803 -1.4593903 2.2270687 -1.6257533 -1.6041666 -2.6055465
-1.2852863 -3.1111217 -1.9489232 2.549117 -2.7462516 -1.9094036 -1.8720216 -1.0021802
-2.3369217 -1.9290344 -0.9102479 -2.5324926 -1.9445645 -2.4062145 -2.897497 -2.2044635
-2.2815576 -0.9722735 -1.5871865 -3.1634533 -1.3494372 -1.9779356 -2.653501 -2.9849494
-2.624207 -0.62534946 -1.1459447 -1.7214297 -0.9193089 -2.7854514 -0.9802481 -1.8426468
4.961254 -1.8907257 -1.6530486 -0.37224784 -4.1159863 -2.4030945 -2.900327 -2.8518891
-1.9156365 -2.9648023 -1.8962599 -1.5619477 -2.2372077 -0.49465507 -2.9100964 -4.005429
-1.6278976

network.1.running_mean f4 [249]
00000000: 3587 9940 47cc 373f ba92 8f3f 88d4 0440
00000010: 1e30 a53f a5c4 0040 5ae7 1540 da77 1440
00000020: 83dd 9e40 46fd bb3f e605 1440 75ae 943f
00000030: 87c2 2a40 25fd b23f aecc 1c40 c798 ab3f
00000040: 7f4c 8c3f d8d8 243b b16b 1d40 2340 b63e
00000050: 90aa a93f 36a5 cf40 ed0c 963f f4e7 1340
00000060: 6ca5 c53f 6d7e d33f 395c 833f 2e0b 52be
00000070: d8e9 1740 0b1a ce3e aaf0 2640 13aa a83f
00000080: 5ea7 7a3f 0ec3 b33f f8eb 2940 ca3f 1440
00000090: bbff 9e3f 7176 2741 2b24 29bf 463d 1c40
000000a0: a1c3 1e40 7b6e b6be 386c ce3f 6cd9 d03f
000000b0: 18b9 773f a97b 1140 66d1 4c3f 50b9 a33f
000000c0: 5373 3140 bc27 1e40 0322 a140 ecb8 1040
000000d0: 038b 8b3f ead6 db3f 697a f73f ab56 1f40
000000e0: f235 65be fcc3 0f40 5d48 a33f 750d 033e
000000f0: e0f6 2440 25b5 cc3f 0d8e 853f 43d9 cc3e
00000100: 152f b03f 2d7f 9c3f 04c2 1d40 4d7c 2340
00000110: a361 5ebd 0454 1a40 4ee4 b53f e42c 943f
00000120: 01bc 2240 12d7 1240 ca3b 863f 6945 0940
00000130: f454 2c40 ded8 a63f 8228 f03f 8386 c13f
00000140: eee6 0340 f990 2140 438f 9f3f fcab 503f
00000150: e8d4 2d40 440c 823f afb6 bc3f b678 c03f
00000160: d343 1640 4672 c23f 0a71 7c3f 2fce b73f
00000170: b7fd 843f 384d 2140 0bf9 a93f 24ed ab3f
00000180: ffe7 963f 34cb 963f 617d b33f e0f1 8ebd
00000190: 062f 0b40 7459 923f 14f9 c53f 905c cc3f
000001a0: ead5 cb3f 5504 b33f d379 2740 9d17 1e40
000001b0: f3e6 a73f 8c42 4a3f e736 be3f 1741 2240
000001c0: 7088 0a40 f12a 8f3d ff7a e03f 882a ad3f
000001d0: c94b b13f 6924 0b40 a113 1440 b05f 573f
000001e0: 2dea 2340 f1cc 8f3f c283 903f 4562 1840
000001f0: a362 2740 88e2 8e3f a7d9 843f b2c7 a23f
00000200: 90c6 be3f 5b44 1c40 8ee0 b03f 800a 0b40
00000210: d548 873f 6310 b73f b633 2340 33c6 fc3f
00000220: d2b6 1c40 c4cc 2240 bad8 2e40 a265 3c3f
00000230: b78f 803f 3bf0 1940 f40e d93f 36c4 b93f
00000240: c1b6 c13e 8bf2 d53f 4640 973f ed8e 1440
00000250: da00 8f3f d265 fb3d a5f8 a03f 73bd 1b40
00000260: e40a 3040 4283 9e3f a3de c13f f694 9e40
00000270: dc63 1640 b1da 913f fe3f 2540 9414 ee3f
00000280: 150f 8f3f 1489 2241 0613 c03f 532e 1040
00000290: eefe 1940 27c1 ab3f 7eb3 1b40 0564 303f
000002a0: e9f7 2d3f b314 1c40 4938 2140 fc52 2841
000002b0: 178e b23f 341d b13f 20a9 163f 2870 a540
000002c0: a1e2 a240 0d3f b33f b01f 1940 cbbc cb3e
000002d0: cda0 b73f 4a31 5a3f 1197 2940 45d0 1f40
000002e0: 0713 fe3f 4b17 1d40 182a 883f 6b7c 2140
000002f0: bf36 aa3f 8976 053f 6c97 1740 db7a c13f
00000300: af6b 863f c8c4 1a40 f72d 303e 0f69 9f3f
00000310: 8b82 1940 3b4f 1940 a5f6 a23f fb29 c23e
00000320: 147f 2240 0742 d63e 7d9e 1540 6049 3440
00000330: 0059 be3f 0deb 1440 8b09 9c3f 2bbd 1840
00000340: 8679 0f40 aa11 dd3f d78b 853f 8994 e53f
00000350: 6957 a33f 228a 1e40 347f 1740 9346 1840
00000360: 817b 823d 91da a03f 00e8 be3f c3b0 893f
00000370: 570a 1f40 ffa8 b63f a9ee 1840 67d1 973f
00000380: 50de 1140 06d0 1340 5010 b43f 46c1 1640
00000390: f6f4 c43f bef0 1440 836c 1c40 7700 923f
000003a0: 92d4 a740 3ebc cb3f 6582 a73f 9387 1a40
000003b0: 59eb 703f 34fa 1140 baa4 a73f 1705 1b40
000003c0: 639c 1a40 48e6 1ebf 22fa 0cbe 323b 1940
000003d0: 17cd 2240 5308 1740 365c 903f 9d83 6f3f
000003e0: 025d a03f
4.797755 0.7179608 1.1216652 2.0754719 1.2905309 2.0120022 2.3422456 2.3198152
4.96454 1.4686668 2.31286 1.161574 2.668123 1.3983504 2.4499927 1.3405999
1.0960845 0.0025153663 2.459698 0.35595807 1.3255177 6.4889174 1.1722695 2.3110323
1.5441108 1.6522957 1.0262519 -0.20512077 2.3736477 0.40254244 2.608439 1.3176903
0.9791163 1.4043901 2.6550274 2.3163934 1.2421793 10.466416 -0.6607081 2.4412398
2.4806902 -0.35631165 1.6126776 1.6316352 0.96766806 2.2731726 0.80007017 1.2790928
2.7726638 2.4711752 5.035402 2.2612867 1.0901798 1.7174962 1.9334232 2.4896648
-0.2238386 2.246337 1.2756459 0.12798102 2.577568 1.5992781 1.0433975 0.40009508
1.3764368 1.2226311 2.4649668 2.5544617 -0.054292332 2.411378 1.4210298 1.15762
2.5427248 2.2943769 1.0486996 2.1448615 2.6926851 1.3034933 1.8762362 1.5119175
2.0609698 2.5244734 1.2465595 0.8151243 2.7161198 1.0159993 1.4743251 1.5036838
2.3478897 1.5191123 0.98609984 1.4359797 1.0389928 2.520338 1.3279127 1.3431745
1.178955 1.1780763 1.4022638 -0.06979728 2.174745 1.1433549 1.5466638 1.5965748
1.5924656 1.3985697 2.6168106 2.4701912 1.3117355 0.7900779 1.4860505 2.5352228
2.1645775 0.06990612 1.7537535 1.3528605 1.3851253 2.1740973 2.313698 0.8413038
2.561168 1.1234418 1.1290209 2.380998 2.6153953 1.1162882 1.0378922 1.2717192
1.4904346 2.441672 1.3818529 2.1725159 1.0569102 1.4301876 2.5500312 1.9747986
2.4486585 2.543748 2.731978 0.7359258 1.0043858 2.4052875 1.6957688 1.4513004
0.37834743 1.6714643 1.181649 2.3212235 1.1172135 0.1227528 1.257588 2.433438
2.7506647 1.2383807 1.5146068 4.9556837 2.349845 1.1394864 2.5820308 1.860003
1.1176478 10.158466 1.5005805 2.2528274 2.4061847 1.341832 2.4328303 0.6890262
0.67956406 2.4387634 2.5190604 10.52026 1.3949612 1.3837037 0.58851814 5.169941
5.0901647 1.4003617 2.392559 0.39792475 1.4345948 0.8523146 2.6498454 2.4970868
1.9849557 2.4545467 1.0637846 2.5232189 1.3297957 0.52133995 2.368617 1.5115618
1.0501612 2.4182606 0.17205034 1.2453936 2.3985927 2.3954608 1.273152 0.37922654
2.5390062 0.4184725 2.3377984 2.8169785 1.4870911 2.3268464 1.2190412 2.386546
2.2417922 1.7271016 1.0433301 1.7935954 1.276105 2.477181 2.3671389 2.3793075
0.06371213 1.2566701 1.4914551 1.0757068 2.485006 1.4270324 2.3895667 1.186078
2.2791939 2.3095717 1.4067478 2.3555465 1.5387256 2.3271937 2.444123 1.1406392
5.2446985 1.5916822 1.3086668 2.4145248 0.9410911 2.2808962 1.3097146 2.4221857
2.415795 -0.6207013 -0.13767293 2.394238 2.5437677 2.359883 1.127814 0.935602
1.2528384

network.1.running_var f4 [249]
00000000: a622 c33f 2c31 9e3f 521b b03f 4836 0340
00000010: d4ea a73f 6c4d ca3f 94b5 c83f 8789 af3f
00000020: 9549 b33f 5c52 d33f ca34 bf3f c420 a33f
00000030: da92 aa3f 9ff7 ae3f 7983 b03f 2024 9b3f
00000040: 323d ad3f d551 a03f b6ad c03f ac86 a33f
00000050: 6a13 ae3f 74ab ae3f e14f a93f 1279 ae3f
00000060: 538e a63f 5730 b13f d045 983f 562d ab3f
00000070: ade0 b03f 18ec 9d3f 835e ae3f 8beb a93f
00000080: f62b ae3f 032a c63f e199 b63f 5f55 bb3f
00000090: f230 c63f f149 ae3f 0956 e03f 04cd b23f
000000a0: d237 c13f b558 a93f 2487 f13f ae0c ab3f
000000b0: 0330 a93f 520f a33f 510f a03f 0309 bd3f
000000c0: f47a ab3f 0709 b23f f2ba ab3f cec5 b23f
000000d0: 9f0e a73f ba3b ac3f fdc7 2d40 6c52 b93f
000000e0: b4cd e83f 0033 1040 eba9 973f 7ad3 923f
000000f0: 2aed ce3f 64cf b23f 486b b33f 788b 9b3f
00000100: d4e3 b23f 04ae a63f 0302 b53f 42de d03f
00000110: a53a 9e3f 493a fb3f 8893 b33f 518c a93f
00000120: cfc6 a93f aee8 bf3f 4792 a73f 55d9 d93f
00000130: 9103 b13f 83c6 ac3f 23e4 c93f 588a c73f
00000140: 8953 b13f bbdf b23f cc5c a93f b2b9 913f
00000150: 1ebd b73f f5a3 e63f 4351 c93f fd31 bc3f
00000160: db5c b23f a305 b73f 92b9 d73f 9672 ba3f
00000170: eb36 af3f 3443 b53f a14b b73f 1443 be3f
00000180: 1a6c a83f 7f4b a03f 0ffd ba3f 36b2 983f
00000190: 0b31 b63f f28b 9f3f 0661 a73f 2a14 b73f
000001a0: afa1 c93f 9a9f b43f 5646 be3f 4091 b73f
000001b0: 32bc c13f b807 a93f dc10 0f40 ea0d b63f
000001c0: c84b d63f f8d0 ae3f 1297 8c40 e7ac b43f
000001d0: bc48 a13f 7053 e23f 0e85 b43f d1bb a23f
000001e0: 7486 b53f eb46 a73f 268c c23f 7c4c b13f
000001f0: 2408 b83f 5f76 983f d78c a33f 5ace b43f
00000200: 345b a63f b724 bf3f 7436 b23f 061a e73f
00000210: ec04 dd3f e0a4 be3f 5178 a33f b8d0 e73f
00000220: de89 d03f 5eb2 bd3f 3eb9 ab3f 69a9 a73f
00000230: 00dc b33f e274 b23f eabc e33f 818d c23f
00000240: 023b 9c3f cae9 bc3f 80db b03f 96d0 a63f
00000250: bfe6 a83f 4b1a a63f 56db a43f 006a e03f
00000260: b264 ac3f 6b0b ac3f bae8 9f3f 1d0f b83f
00000270: 749c ac3f fc09 b83f 8392 ac3f 99e5 b53f
00000280: 8403 a73f 4284 aa3f b49d ca3f 19a1 b43f
00000290: 986c b43f f9cc a83f 4090 b23f cace aa3f
000002a0: 76ab 2e40 00b4 b33f 5ec4 a93f 9855 b03f
000002b0: 71cd 9d3f a847 bd3f 686f 943f d3f0 b23f
000002c0: 84f7 a63f c3f3 bc3f 7eed c43f 8010 ea3f
000002d0: eb73 af3f 2066 9b3f 960f b73f 0f0d b83f
000002e0: 37bf aa3f 5ce7 e13f 7d0b a63f 0afd b53f
000002f0: 430b b73f 5670 e03f 6786 b43f 9b71 bf3f
00000300: eebe b33f 8376 0240 b8da 9a3f 5298 ce3f
00000310: e11a b53f 1438 1040 dea9 be3f 3ba4 a63f
00000320: 7787 b63f b40d a53f d66d a13f 2f03 b33f
00000330: 823a ec3f 915f b63f c98c b93f 0c7f ab3f
00000340: 794c b73f 2f6a cf3f 48a7 cb3f cfc6 c83f
00000350: 00b5 a93f 5075 ae3f f9d8 b93f 8cc9 b73f
00000360: 5bdd d73f 8cbf ac3f 5bc8 ab3f 2eb6 9d3f
00000370: bbed ac3f 87a3 ae3f 9e77 a13f 1073 aa3f
00000380: 43e9 bd3f e0e9 0d40 0756 d93f 44e5 b13f
00000390: d6b5 d93f ab89 be3f 65ed ce3f 351e ba3f
000003a0: 6573 b63f 80d4 ae3f f272 b23f 3ab2 de3f
000003b0: af04 a13f 903c a73f 4e9f a53f 88e2 bd3f
000003c0: b0b6 cf3f 78fe 3040 5622 a03f e108 bb3f
000003d0: 0db4 aa3f 5220 a23f 88e1 9b3f 3076 8e3f
000003e0: 951b be3f
1.5244949 1.2358756 1.3758337 2.050188 1.3118539 1.5804877 1.5680413 1.3713845
1.400683 1.6509509 1.4937985 1.2744374 1.3326066 1.3669318 1.3790122 1.21204
1.35343 1.2524973 1.5053012 1.2775474 1.3599675 1.3646073 1.3227502 1.3630698
1.3012184 1.3842877 1.1896305 1.337321 1.3818566 1.2337675 1.3622593 1.3275007
1.3607166 1.5481571 1.426571 1.4635428 1.5483687 1.3616315 1.7526256 1.3968816
1.509516 1.3230196 1.8869367 1.3363245 1.3217777 1.273905 1.2504674 1.4768375
1.3396897 1.3909005 1.3416426 1.3966615 1.3051337 1.3455727 2.7153313 1.4478278
1.8187776 2.2531128 1.184873 1.1470788 1.6166127 1.396954 1.4017115 1.2151937
1.3975778 1.3021855 1.4141239 1.6317828 1.2361647 1.9627162 1.4029398 1.3245946
1.3263797 1.4992883 1.3091515 1.701945 1.3829213 1.3498081 1.5772747 1.5589094
1.3853618 1.3974527 1.3231444 1.1384795 1.4354589 1.8018786 1.5727924 1.4702755
1.3934587 1.4298595 1.6853507 1.4566219 1.3688635 1.4161134 1.4319955 1.4864221
1.315799 1.252304 1.4608477 1.1929386 1.4233717 1.2464583 1.3076484 1.4303029
1.5752467 1.4111207 1.4865215 1.4341202 1.5135558 1.320548 2.235404 1.4222996
1.6741877 1.3657522 4.393441 1.4115266 1.2600322 1.7681713 1.4103105 1.2713567
1.4181657 1.3068517 1.519902 1.3851466 1.4377484 1.1911124 1.2777356 1.4125473
1.2996583 1.493308 1.3922868 1.8054817 1.7267127 1.4894066 1.2771093 1.8110571
1.6292074 1.4820058 1.3415906 1.3098575 1.4051514 1.394192 1.7792027 1.5199434
1.2205508 1.4758847 1.3816986 1.3032405 1.3195418 1.2976774 1.2879436 1.7532349
1.346823 1.3440984 1.2492898 1.4379612 1.3485246 1.4378047 1.3482212 1.4210693
1.3047948 1.3321612 1.5829377 1.4111663 1.409564 1.3187553 1.3950272 1.3344357
2.7292151 1.4039307 1.3263052 1.3776121 1.2328321 1.4787493 1.1596498 1.3979744
1.3044286 1.476189 1.5384977 1.8286285 1.370725 1.2140541 1.4301631 1.4378985
1.3339604 1.764873 1.2972256 1.4217846 1.4300312 1.7534282 1.4103516 1.4956545
1.4042642 2.0384834 1.2097998 1.6140234 1.4148828 2.2534227 1.4895589 1.3018869
1.426009 1.2894807 1.2611644 1.3985347 1.8455355 1.4247915 1.4496089 1.3398147
1.4320213 1.620428 1.5910425 1.5685672 1.3258362 1.3629551 1.451934 1.4358382
1.6864427 1.3495955 1.3420519 1.2321222 1.351005 1.3643655 1.2614629 1.3316364
1.4836811 2.2173996 1.6979378 1.3898091 1.7008617 1.4885763 1.6166197 1.4540468
1.4253966 1.36586 1.3941329 1.739814 1.2579554 1.3065357 1.2939241 1.4834757
1.6227627 2.7655315 1.2510478 1.4612085 1.3336197 1.2666113 1.2178202 1.1129818
1.4852167

network.4.weight f4 [238, 249]
00000000: 3ea2 3a40 b874 4cc0 27de 13c0 b539 cec0
00000010: 9fbe 443f 1942 a540 4e59 6f40 43b2 8840
00000020: 17e2 6140 c916 c03f 642f 6940 7d5c 963e
00000030: d1a0 8b40 2ed8 ce40 8a69 bc40 b5ed 3dc0
00000040: df21 62bf 10f0 383e 7160 fcbd 498b 1440
00000050: 79ad 1dbf 099e 14bf 37e3 b73e 27f2 0b40
00000060: 816e c1bd 5180 acc0 a157 a640 602e 9d40
00000070: 48f0 5740 434e 4240 ce50 3a40 3297 8140
00000080: dcc8 10c1 fd2a 2e3f 06d7 b040 c938 14bf
00000090: 6f91 6840 0546 60bf e8af 503e 1cd3 7240
000000a0: 9810 4240 ddc9 f3c0 45b3 dc3f 0ec3 c23f
000000b0: 9ce3 d03f 966d a73f 5e7e 9cbf 9b8b c6bf
000000c0: b09e 3441 022e ae3f 539c 0c41 377c dc3f
000000d0: 44e1 43c0 d346 d140 78a3 9940 8fbc 8fc0
000000e0: c2f6 4bc0 c61b 3440 c525 4740 3c48 f0c0
000000f0: 6949 9c3e 5c90 1fbf 6c5b b23e cb36 1ec1
00000100: fd12 92c0 00f2 2ac1 e05e 86bf 03af 0ec0
00000110: c2bf c3c0 9d0b a53f 3957 ae3e 8379 5a40
00000120: 19e6 6d3e f28a e33f ac5a e6c0 1562 ab3f
00000130: 5a43 b440 dcab 2140 c459 1640 dd3d 3a40
00000140: dcca 0840 5611 ec40 cdc2 4440 cd62 0bc1
00000150: d378 653f aca1 a03f bedc 9e40 54c4 0140
00000160: 1c10 2bbd 4d3e 9840 4649 de40 0534 eabf
00000170: c397 783f adbb 5ebf a26f 2a40 74bd c83f
00000180: feb6 963f 7a95 0f40 727f 4f40 0880 7140
00000190: f46b 0941 5d45 7e3d 7dc4 d7bf e1f1 2f3f
000001a0: 2dd7 4f40 abe1 9840 6cdc ac3e 8ca2 1840
000001b0: e7da 2540 f241 2940 476c 3840 66f6 6c40
000001c0: a27e 7fbf e6d1 6ebf ca9c 363f fc01 bcbd
000001d0: dcdf 7840 1168 4940 f30b 1b40 9fd7 023f
000001e0: a45b 3740 d972 1540 fe1c c73c eb9a bc40
000001f0: df2a 1c41 a058 6d40 7d36 6440 f78a ad3f
00000200: 95ee a240 afa9 a2bf 6428 f63f 1ece 1a40
00000210: 70b3 e83f 978b dc3f ff2e bf3f b8db b7be
00000220: 2572 4740 6163 ab3f 0de6 7840 48e0 ba3f
00000230: 6f19 35c0 b9bb 133f 2da7 d440 cf2e 77c0
00000240: c4ca 49c0 1722 873f 076d 4d40 b03c 3a3e
00000250: 1328 763f e908 17c1 e983 7e40 429c cf3f
00000260: ca94 75c0 649e 9340 c1d3 d73f 7d86 e840
00000270: 285a 8e40 7cb5 4740 b195 7640 7749 4140
00000280: 21b7 393f 4622 8141 1b79 c03f 5cc0 6ec0
00000290: 16b6 5840 f813 b63f e3ee df3f 95a6 013e
000002a0: 20bc ae3f 25a0 4340 9670 41c0 2e31 1240
000002b0: fb9f 0b3f d1fd 1140 dd1b 9a40 a700 1841
000002c0: 7181 f13f 9b66 a240 bb35 5740 0db8 a8c0
000002d0: f1b1 44c0 779f 0240 c8e4 3bbf 5618 d23f
000002e0: ad17 4cbf dc55 5540 3487 f9bf 0fdd e040
000002f0: d34d 1e40 64ca 74c0 cbc7 21bf 6b92 a63f
00000300: 46c4 1740 c2b9 f63f da0e c7bf 1fa3 61bd
00000310: 3657 1a41 3105 0341 9d6a 3e40 ca94 b4c0
00000320: b44e c840 1a0e c040 39aa 993f 7c26 5941
00000330: 6ae6 943d c61e e8be ac29 8140 b52e 9c3f
00000340: ff16 be40 58e9 0b3f 2b28 09bf 2f18 b03f
00000350: 64b8 f540 8ab2 bcbf 1819 da3f d6d1 d840
00000360: 6059 c9bf 2b97 37be 7de1 b840 7ebd 1bc1
00000370: f66e 26be adee c140 b207 b340 1e1e 2c3e
00000380: e388 dd3f 51b6 5040 43be 13bf e468 c3bf
00000390: f11c f1bf f703 c4bf f0b7 8740 7ac1 dc40
000003a0: a5ba 2dbf 4da0 1040 99b3 9e40 2e32 4f40
000003b0: bfa2 0ec1 81f5 ebc0 1961 3dc0 a9ac fc3d
000003c0: 4d3d 9640 36c2 09c0 3e52 c9c0 aa0e c840
000003d0: 6b1f 87bf 8175 a540 4b15 43bf 4bf0 b6c0
000003e0: 27ae 38c0 fbb4 6240 05a9 2ebf d10c fcbe
000003f0: e5a3 8f40 5ee4 613f e904 593c 5e49 e83c
2.9161525 -3.194624 -2.310434 -6.4445443 0.76853365 5.1643186 3.7398257 4.2717605
3.5294244 1.5006953 3.6435175 0.29367438 4.363381 6.463889 5.887883 -2.9676335
-0.88332933 0.18060327 -0.12323082 2.3210013 -0.61592823 -0.5805364 0.3591554 2.1866548
-0.09444905 -5.3906636 5.198197 4.911911 3.3740406 3.0360267 2.911182 4.0497065
-9.049038 0.68034345 5.526248 -0.5789915 3.6338766 -0.8760684 0.20379603 3.794135
3.0322628 -7.6183915 1.7242209 1.5215776 1.6319461 1.3080318 -1.2226064 -1.5511354
11.288742 1.360779 8.788165 1.7225407 -3.0606241 6.5398955 4.8012047 -4.4917674
-3.186936 2.8141952 3.1116803 -7.5088177 0.30524758 -0.6232965 0.34835374 -9.888377
-4.564818 -10.684082 -1.0497704 -2.2294319 -6.117158 1.2894169 0.3405092 3.4136665
0.23232307 1.7776778 -7.1985683 1.3389307 5.6332216 2.5261145 2.3492289 2.9100258
2.1373816 7.377116 3.0743897 -8.711621 0.8963749 1.2549338 4.964446 2.027608
-0.04176341 4.757605 6.9464445 -1.8297125 0.9710657 -0.8700512 2.6630635 1.5682817
1.1774595 2.2434983 3.2421536 3.7734394 8.588856 0.06207787 -1.6856838 0.6872845
3.2475083 4.7775474 0.3376192 2.384921 2.5914857 2.64465 2.8816087 3.702539
-0.998026 -0.9328903 0.7133299 -0.09180066 3.8886633 3.1469767 2.4226043 0.5111026
2.8649683 2.3351347 0.024305817 5.893911 9.760467 3.7085342 3.5658257 1.3558034
5.091624 -1.2708033 1.9231076 2.4188304 1.817976 1.72301 1.4936217 -0.3590982
3.1163418 1.3389703 3.8890412 1.4599695 -2.8296773 0.5770832 6.645407 -3.862232
-3.1530008 1.0557278 3.2097795 0.18187213 0.961549 -9.439675 3.9768012 1.6219561
-3.8372064 4.613085 1.6861497 7.266417 4.4485054 3.120452 3.8528864 3.020109
0.7254506 16.141735 1.5036958 -3.7304907 3.3861136 1.4224844 1.7494777 0.12661202
1.3651161 3.0566494 -3.0224967 2.2842517 0.54540986 2.2811167 4.8159013 9.500159
1.8867627 5.075025 3.3626544 -5.272467 -3.0733607 2.040983 -0.7339597 1.6413677
-0.79723626 3.3333654 -1.9494386 7.0269847 2.4735 -3.824853 -0.63195485 1.3013433
2.3713546 1.9275439 -1.5551407 -0.055087205 9.646292 8.188767 2.9752572 -5.6431627
6.2596073 6.0017214 1.2005073 13.571896 0.072705105 -0.45335978 4.036337 1.2201754
5.940307 0.5465293 -0.53576916 1.375738 7.6787586 -1.4741986 1.7038908 6.7756147
-1.57304 -0.1792876 5.7775254 -9.733763 -0.16253266 6.060385 5.5946894 0.16808364
1.73074 3.2611277 -0.5771219 -1.5266385 -1.8836957 -1.531371 4.2412033 6.8986177
-0.6786292 2.259784 4.9594235 3.2374377 -8.914733 -7.3737187 -2.9590514 0.1233762
4.694983 -2.1524787 -6.2912893 6.25179 -1.0556463 5.1705937 -0.76204365 -5.7168326
-2.8856294 3.5422962 -0.68226653 -0.49228528 4.4887567 0.88239086 0.0132458 0.028355297

network.4.bias f4 [238]
00000000: 0cf3 203d e346 05bd 1724 aabb c0f1 d4bc
00000010: 02ae c53c 2c1e 433d 1ea4 493d 7985 08bd
00000020: bb21 1abd d448 663c c361 813d 4bee 093d
00000030: 15df a23c b02d cabc cef1 04bd 9ac5 883c
00000040: c019 283d be4d 91bd efb5 993d bc18 86bb
00000050: 8a7b 21bd 5410 3dbd 1908 47bd 3f80 3d3d
00000060: 9a01 273d b8a9 453d 6647 b5bd c180 d03c
00000070: 351c 3a3d d211 a8bd d5ff 093c 846d 4f3d
00000080: 4ffc 6f3d d514 303d 4e7e 67bd 029e 753c
00000090: 843c 95bc ab56 a73b e030 653b ace4 01bd
000000a0: e8ff ecbc 249f fd3c feff abbb 4d4e ac3b
000000b0: 7237 6abd 2d73 213d 6c43 96bc 1839 113d
000000c0: fe79 463d 99d4 85bb 82ae 11bc 70a1 96bd
000000d0: 27ae adbb 952d f8bb 57bc 29bd 60bd 2fbd
000000e0: d94d 373d 87e3 c5bc f576 e4ba dbde bdbc
000000f0: c05a e8bb 2af3 0dbd 2ffa 69bd d854 883d
00000100: 6d3b 17bd e185 a43b 6e70 843b abd5 7e3d
00000110: b3d9 143d b62c c8bc ac3c 45bd 0824 a03c
00000120: 97c4 7ebd 38de d73c 9d7f 31bd 33f0 63bd
00000130: 019f e8ba 6eb3 87bc bb18 2d3d 3fbb 49bd
00000140: 28f6 7e3d 7e2a fc3c 7254 ea3c 3630 353d
00000150: 4e9b 69bd ccda c7bb 967f 853d d701 9c3c
00000160: bb0e 21bb 982f 373d bc66 1dbd e8e8 58bd
00000170: c2de 153d 4a5f 7a3d 83e5 adbc 3f78 6f3c
00000180: 40ba 80bd c019 953c 9180 9cbd ebfc 233d
00000190: fe1f 22bd 0426 23bd 4645 893c ee89 363c
000001a0: bd4d 893d c56e 7dbd 3bc2 36bd 14ec 68bc
000001b0: 55f7 653c 7eb2 86bc 40f7 b6bc d31d 003d
000001c0: 4b3b 17bd c754 37bc 21ad 6dbd 6032 1fbd
000001d0: bd85 41bd de61 d6ba a130 3c3d 1fc8 18bd
000001e0: 4959 863d e09f 0c3d 05bd 773c e594 f23c
000001f0: 24cf 18bc 944d 363d 2f87 07bc a6ce 1bbd
00000200: 8b54 bcbc fc59 aa3b 006c c7bc d404 d73c
00000210: eaf5 5b3d 3562 e83c a6ea a9bc 90f8 57ba
00000220: 7477 233d d132 fbbc f87d d3bc dd02 aabc
00000230: 9a4e e0bc 7a9c 99b9 460d 083d f2d2 7abc
00000240: 289f 943c 16f9 433d ef1c a43c b296 2fbc
00000250: 84ed 943c 2735 1e3d 292a 843c a7f1 f2bc
00000260: 07c6 bd3a 1650 8e3d af79 20bd dc88 093c
00000270: f2e6 823b a7f5 853d 5fff 42bd 48e6 a3bc
00000280: f021 183d ee32 86bc 10c7 353d b1bc edbc
00000290: 4ae2 6e3d ef14 f7bb 0f6e 2dbd 764b 20bd
000002a0: b60e 21bd c95d 0e3d 0705 3dbd 8052 40bd
000002b0: cd4e 2bbd 9a83 0bbd 17fc 0dbb 5f3f 36bd
000002c0: d586 8dbd 23cb 3a3c a5fe 683d 7bf5 e13b
000002d0: 2e5e 0d3d c082 3abd e52c f23b 719d f2bc
000002e0: 4e00 05bc 4378 99bc 5a4e 84bd 7bbd b43c
000002f0: 2b8a 92bc fc74 a73c e929 5ebc bbb6 e1bc
00000300: d27f 48bd 2631 85bd 7e32 7cbd 965a 8b3d
00000310: 4160 c13c dd41 11bd d7c7 a53c 529d 17bc
00000320: 9cb0 f13c fec2 89bb 164b 753d fdd0 eabc
00000330: 3ac9 173d e51f 31bd 6b40 03bd 2160 a13c
00000340: eced c53c 2256 3d3a 06b9 01bd 7731 143b
00000350: 61e6 ce3c 1981 7f3c 2138 7b3c b5c9 323d
00000360: 35ef 603d 95c4 4bbd fa58 223d 88bd 983c
00000370: 8b4e f2bc 73b4 c13c 2863 e53c 3ea2 3fbd
00000380: 6ff4 15bd 0a98 303d 57ea 86bd 1ee6 9d3c
00000390: ceb4 93bd 5f82 85bd e6bc 913c 8185 493d
000003a0: 8bb7 1ebd 4c0d 983b 27ea 04bb 535b 893d
000003b0: b116 18bd a9c2 1b3d
0.039294288 -0.032538306 -0.0051922905 -0.025994182 0.024130825 0.047636196 0.04922878 -0.033330414
-0.037629824 0.0140554495 0.06317475 0.03367452 0.019881764 -0.024679989 -0.032457165 0.016695786
0.041040182 -0.07094906 0.07505404 -0.004092304 -0.039424457 -0.04615815 -0.048591707 0.046264883
0.04077301 0.04825756 -0.08851509 0.02545202 0.045437057 -0.08206524 0.0084228115 0.05064155
0.05859023 0.042988617 -0.056516938 0.014991285 -0.018217333 0.005106767 0.0034971759 -0.03171222
-0.02893062 0.030959673 -0.0052490225 0.0052583576 -0.057181783 0.03941648 -0.018342696 0.03545484
0.048456185 -0.0040841815 -0.008891704 -0.073550105 -0.0053003016 -0.007573793 -0.04143938 -0.04290521
0.044751976 -0.024156345 -0.0017430471 -0.023177555 -0.0070908964 -0.034655727 -0.05712336 0.06656808
-0.036921907 0.0050208424 0.004041723 0.06221549 0.036340427 -0.024435382 -0.048153564 0.019548431
-0.0621992 0.02635108 -0.043334592 -0.055648994 -0.0017747582 -0.01656505 0.042259913 -0.049250837
0.06224647 0.03078198 0.02860472 0.04423543 -0.057032876 -0.0060990807 0.06518476 0.019043846
-0.002457543 0.044723123 -0.038428053 -0.05295649 0.03658939 0.06112603 -0.021227604 0.014616071
-0.06285524 0.018200755 -0.076417096 0.040036123 -0.03958129 -0.039831176 0.016756665 0.011141283
0.067042805 -0.061873216 -0.044618826 -0.014216442 0.014036019 -0.016442534 -0.022334695 0.031278443
-0.03692178 -0.011189646 -0.058026437 -0.0388664 -0.047246683 -0.0016356071 0.045944814 -0.037300225
0.065599985 0.034332156 0.015120749 0.029612014 -0.00932673 0.044507578 -0.008271976 -0.038038872
-0.022989532 0.0051987153 -0.02434349 0.02624742 0.05370132 0.028367141 -0.020741772 -0.0008238638
0.03990884 -0.03066388 -0.025816903 -0.020753318 -0.02738123 -0.00029299018 0.033215784 -0.015309082
0.018142298 0.04784497 0.020033328 -0.010717081 0.018179663 0.03862491 0.016133385 -0.029656244
0.0014478572 0.06948869 -0.039178547 0.008394446 0.003994816 0.06540995 -0.047606822 -0.020007268
0.03714174 -0.016381707 0.044379294 -0.02902064 0.058321275 -0.0075403373 -0.04234129 -0.039134465
-0.03932067 0.03475741 -0.046147373 -0.046953678 -0.041823197 -0.034061052 -0.002166515 -0.04449403
-0.06910483 0.011400971 0.056883473 0.0068957186 0.034513645 -0.04553485 0.0073906058 -0.02961609
-0.008117748 -0.018734103 -0.06460257 0.022063008 -0.01788815 0.020441525 -0.013559797 -0.027552953
-0.048950024 -0.06503515 -0.06157159 0.06804387 0.023605468 -0.035463203 0.020236893 -0.009253817
0.02950316 -0.004204153 0.05988606 -0.028664107 0.03705714 -0.043243308 -0.032043856 0.019699158
0.024161302 0.00072226126 -0.031670593 0.002261249 0.025256338 0.015594744 0.015333206 0.043649394
0.054915626 -0.049748022 0.039635636 0.018645063 -0.029578468 0.023645615 0.028001383 -0.046785586
-0.036610063 0.043113746 -0.065876655 0.019274767 -0.0721222 -0.06519007 0.01779027 0.049199585
-0.03874926 0.004640257 -0.0020281167 0.06706872 -0.037131015 0.03802744
