best models/saved_models/architecture_1/fold_1/best_model.pt (torch, 485538 bytes, 25 tensors)

network.0.weight f4 [234, 15]
000000 64 36 3a bf 96 0d 34 c1 4e 92 9a 40 47 c6 bc be
       -0.72739244 -11.253317 4.8303595 -0.36870024
000010 46 fd e1 3e 6e 1c 8f 3f 5e 70 98 be ea 01 52 c1
       0.44138545 1.1180551 -0.2977323 -13.125467
000020 0a 8d 6e c0 a1 79 a7 c1 64 50 11 41 8b fb 81 c0
       -3.7273583 -20.93439 9.082127 -4.061956
000030 b9 38 90 bf 7d 99 d6 c0 0e 77 46 40 80 b2 bd bf
       -1.126731 -6.7062364 3.1010165 -1.4820099
000040 3d 1b a6 bf 99 16 28 40 40 0f 7e c1 59 23 ac 3d
       -1.2977062 2.6263793 -15.878723 0.084051795
000050 09 e3 bb 3f 48 fe 05 c0 f9 05 e7 c1 d3 78 ae 3e
       1.4678661 -2.093645 -28.877916 0.34076557
000060 6a 95 4d bf 20 17 e0 bf b2 ee fc 40 a9 5b 30 c0
       -0.8030611 -1.7507057 7.9041376 -2.7555945
000070 d5 7f a3 3d 2f b2 36 3f c2 e0 16 c0 e7 ab 0f 41
       0.079833664 0.71365637 -2.3574681 8.979468
000080 e3 14 12 40 cf 0e 13 c1 d4 82 d5 c0 a2 01 9b 41
       2.2825248 -9.191115 -6.67222 19.375797
000090 46 0c ae 40 b9 70 bf 40 c2 0b 69 40 15 db 84 c1
       5.438998 5.98251 3.6413426 -16.606974
0000a0 cb f0 34 c0 c1 77 f0 be 70 9a 85 3f 9d 30 7e 3f
       -2.8271968 -0.46966365 1.0437756 0.9929293
0000b0 22 1d 96 3f 4f 51 4f 40 11 ed 03 bf ec ee 12 40
       1.1727641 3.2393377 -0.5153361 2.2958326
0000c0 1f f6 0f c1 6b 01 7d 41 7d fb 18 c1 8b c1 ca 41
       -8.997588 15.812846 -9.5613985 25.344503
0000d0 d7 a5 8f bf 84 0f d6 3f 60 ac 34 c0 a5 3a 2a 40
       -1.1222485 1.6723485 -2.823021 2.6598294
0000e0 3f 49 36 c0 1a 71 79 40 7a 1f ce bf 55 5b 8b 40
       -2.8482206 3.8975282 -1.6103356 4.354899
0000f0 e0 19 42 c0 1f d9 6e c0 43 eb c9 c0 1c 98 04 c0
       -3.0328293 -3.732002 -6.3099685 -2.071784
000100 b8 10 01 c0 dd fb 93 c0 f9 6e 29 c0 91 c6 17 c1
       -2.0166454 -4.624495 -2.6473982 -9.485978
000110 bc 4e 31 c1 c7 ef 29 c1 43 c9 79 c1 1f 58 e0 c0
       -11.081722 -10.621039 -15.611636 -7.010757
000120 65 a3 66 c0 d3 dd d2 c0 8c d6 32 c1 06 f8 db c0
       -3.6037228 -6.589578 -11.17738 -6.8740263
000130 a1 ec 03 c1 25 f2 ff c0 b3 72 e3 c0 43 b3 bc c0
       -8.245271 -7.9983087 -7.1077514 -5.8968825
000140 33 ba 03 c1 a7 2a f6 c0 8b 16 0f 41 fa 3b 07 41
       -8.232959 -7.6927066 8.943004 8.452143
000150 90 e7 e3 40 f2 46 19 41 79 31 c4 40 59 0d 93 40
       7.122017 9.579821 6.131039 4.5953794
000160 b7 08 9e 40 20 dc f6 40 5e c1 e2 c0 74 38 9c c0
       4.938564 7.7143707 -7.0861044 -4.8818913
000170 c0 b9 e8 40 27 2f f2 c0 f7 3d ef c0 c3 50 6a c0
       7.2726746 -7.568256 -7.476314 -3.6611793
000180 51 c1 fa 40 c3 64 13 41 b5 23 45 41 8c 35 b6 40
       7.836098 9.2121 12.321218 5.6940365
000190 57 8a 21 c1 58 9b ad 40 ba 9a f5 40 99 6e 9a 40
       -10.096274 5.425213 7.6751375 4.8260007
0001a0 58 84 c6 c0 87 af 98 40 28 90 6f 41 7e 9d 07 3f
       -6.2036552 4.7714267 14.972694 0.5297469
0001b0 60 ad 72 c0 3f 05 89 3f 0f 4b 9b 40 8a c6 8f 3e
       -3.791832 1.0704726 4.8529124 0.2808116
0001c0 ad 82 cd be c4 2d c3 3e 03 dc 57 bd 3d 85 f0 3d
       -0.4013876 0.38120854 -0.052700054 0.11744163
0001d0 57 7e 76 41 7c 92 9b c0 06 fe 8c c1 eb 68 e5 3e
       15.405845 -4.8616314 -17.624035 0.4480661
0001e0 af 07 d5 c0 ca 76 88 3f 7b 7c a4 40 37 88 e7 c0
       -6.657188 1.0661252 5.1401954 -7.235378
0001f0 93 b2 76 c1 61 a4 b7 3e 74 9d 58 41 9d 41 1b be
       -15.418597 0.358676 13.538441 -0.15161748
000200 42 90 3c bf 3a f5 6b c0 28 6b 87 bf 92 e9 e0 40
       -0.7365762 -3.6868424 -1.0579576 7.028512
000210 d1 78 76 41 75 40 73 bf c5 5c 0a c1 2b 8b 8e 3e
       15.404496 -0.9502023 -8.647649 0.27840552
000220 3d 29 93 bf cb 32 ae 3e 03 ef 9b 41 b2 1a 9e bf
       -1.149696 0.34023127 19.491705 -1.2351897
000230 db 74 91 3f 9c 5e 2b 40 75 b9 d8 c1 bb 6d 0c 40
       1.1363786 2.6776495 -27.090555 2.1941974
000240 b3 94 6c bf 33 43 d5 bf 3c 12 d0 40 d2 be 96 bf
       -0.92414397 -1.6661133 6.502226 -1.1776984
000250 95 84 96 bf 21 86 3b 3f fe b5 10 c1 f1 f3 0f 41
       -1.1759211 0.7325154 -9.044432 8.997056
000260 a4 08 8a be c0 57 db c0 27 25 0c c1 ac 4a fa 40
       -0.26959717 -6.8544617 -8.75907 7.821615
000270 97 00 80 c0 68 0d 4a 40 99 26 e7 40 c5 20 b0 3f
       -4.000072 3.1570683 7.2234616 1.376
000280 ba 1c a8 be 1c 02 33 41 a3 45 2e 41 f0 8e 3c c1
       -0.32834417 11.188015 10.892001 -11.784897
000290 09 61 87 c0 2a b2 4d bf 1b 47 10 c0 4c 59 18 3f
       -4.230595 -0.8034998 -2.25434 0.59511256
0002a0 7f 01 99 41 13 c0 b7 bf 6d e5 58 be ac f8 26 bf
       19.12573 -1.4355491 -0.21181269 -0.65223193
0002b0 da c0 7e be db 1b 27 40 d1 b3 97 3f 62 ab c4 3d
       -0.24878255 2.6110752 1.1851751 0.09603001
0002c0 d8 9c eb 41 61 a0 59 3f 64 39 20 c0 95 6a 1b bf
       29.451584 0.85010344 -2.5035028 -0.60709506
0002d0 a4 b6 8b 40 f9 41 18 c1 d8 7e 21 c0 6b 57 ad c0
       4.366045 -9.516107 -2.523367 -5.416921
0002e0 99 37 b3 40 b7 84 30 c1 3c 14 70 be a0 35 2f c1
       5.600537 -11.032401 -0.23445219 -10.950592
0002f0 e6 1b 21 41 0f d8 8d c1 70 61 c8 c0 96 a3 07 c0
       10.069311 -17.730497 -6.261894 -2.1193595
000300 83 e7 87 40 f1 15 e0 bf 2c 61 7b be 2a 91 9b 3f
       4.2470107 -1.7506696 -0.24548787 1.2153676
000310 29 e5 c5 3d d0 02 02 c1 7b 2d 4c 40 43 fe 2a bf
       0.096628495 -8.125687 3.190276 -0.6679422
000320 c4 65 2e c0 57 9f 5e 40 1d 40 ed c0 a9 98 95 40
       -2.7249613 3.4784753 -7.4140763 4.6748853
000330 a7 2f 6d 3f 7f 3b cc c1 94 5a 62 40 bc c1 ae bf
       0.92650837 -25.52905 3.5367785 -1.3652873
000340 92 73 13 c0 51 c9 9a 41 35 a3 96 40 56 df e5 40
       -2.3039289 19.348299 4.7074227 7.1835127
000350 9a 23 55 bf b5 a6 dd c0 0c e4 f9 40 db 8a 4c 41
       -0.8325745 -6.9266 7.8090878 12.7839
000360 9a 4c 90 bf ad 1e 22 c1 7a 00 3e 41 1e 97 8a 41
       -1.1273377 -10.132489 11.875116 17.323788
000370 a0 f6 e9 3f 86 dc d2 bf dc e8 3b 40 23 83 18 40
       1.8278389 -1.6473548 2.9360876 2.383004
000380 29 a4 a0 bf 69 8b ac 40 43 93 95 40 e6 b4 13 c1
       -1.2550098 5.392018 4.6742263 -9.231665
000390 e4 8f 1e c1 ad 6c 0d 41 92 83 14 41 4e 6e 4c c1
       -9.91013 8.839032 9.282122 -12.77693
0003a0 fe 5d fd 3f 06 98 40 bf a5 72 d8 be 16 62 f3 3f
       1.9794309 -0.7523197 -0.42274967 1.9014308
0003b0 c4 dc e6 c0 c2 9a fe 40 84 72 db 40 a6 81 30 c1
       -7.214449 7.9563913 6.857729 -11.031652
0003c0 ef 84 59 41 60 24 2f c0 f2 ac 62 c0 de ea f6 be
       13.5949545 -2.7365952 -3.5418057 -0.48226064
0003d0 a3 aa 8c 40 b9 cf 1a bf 53 c1 cc 3e 74 a9 7a 40
       4.3958297 -0.6047321 0.39991245 3.9165926
0003e0 10 1c bf c0 b6 df 33 40 13 17 d0 3f 2e 46 4f 41
       -5.9721756 2.8105292 1.6257042 12.954634
0003f0 fb 1d ad c1 cc c7 a1 3f b4 c3 cb 40 2b 26 09 c0
       -21.639639 1.2639098 6.3676395 -2.1429546

network.0.bias f4 [234]
000000 94 c6 34 40 28 f3 b4 3f 05 fe 0f 40 dc 8a 25 40
       2.8246202 1.4136705 2.2498791 2.5866003
000010 48 1e 35 40 fd c1 26 40 fa d0 1a 40 26 e6 13 40
       2.8299732 2.60559 2.419005 2.3109221
000020 b5 07 32 40 e7 65 1a be ef 38 3b 40 b1 93 77 3f
       2.7817204 -0.15077935 2.92535 0.96709734
000030 02 06 32 40 fa 29 1f 40 3c ed 2e 40 05 0a 20 40
       2.7816167 2.486937 2.7332296 2.5006115
000040 78 24 20 40 e8 dc 3f 40 60 09 2d 40 d9 d1 16 40
       2.5022259 2.997858 2.7036972 2.356558
000050 57 59 1e 40 20 9e 2a 40 d4 3d 0b 40 ef 5e 06 3f
       2.4742029 2.6659012 2.1756487 0.5248861
000060 b4 9a 25 41 bb da 1d 40 86 32 0f 40 6d 45 46 40
       10.350269 2.4664752 2.2374587 3.0979874
000070 15 ca 11 40 c8 0a 1e 40 a2 ab a1 40 0c 12 30 40
       2.277959 2.469408 5.0522013 2.7511015
000080 88 e5 10 40 bc 88 17 40 47 ba 9c 40 a4 c4 1a 40
       2.2640095 2.3677206 4.897739 2.418252
000090 94 bb 43 40 4b 01 22 40 7e ef 0b 40 a3 48 22 40
       3.0583239 2.531329 2.1864924 2.5356834
0000a0 01 a9 2a 40 4e 28 0f 40 02 f9 da 3f d7 c3 ce 3f
       2.6665652 2.236835 1.7107241 1.6153516
0000b0 ed 71 36 40 36 36 27 40 0b b1 20 40 d9 ac 46 40
       2.8507035 2.6126838 2.5108058 3.1042998
0000c0 c7 a3 12 40 e1 41 e4 3f 02 4c 64 40 19 bc 24 40
       2.2912462 1.7832605 3.5671391 2.5739806
0000d0 ae d7 4a 40 0d e0 10 40 d6 fb 36 40 28 b3 2c 40
       3.169414 2.263675 2.8591208 2.6984348
0000e0 88 60 1f 40 65 6e 39 40 0c f3 13 40 8b ed 39 40
       2.4902668 2.897363 2.3117094 2.9051235
0000f0 52 ec 36 40 64 ee dd 3f 21 3c 12 40 32 13 a3 40
       2.8581738 1.7338376 2.28492 5.096093
000100 cb 0b 8d 40 9f 1b 34 40 04 3e 9e 40 45 01 24 40
       4.4076896 2.8141859 4.9450703 2.5625775
000110 43 d9 24 40 bf 63 26 40 e3 38 24 40 c3 3f 52 be
       2.5757606 2.599838 2.565972 -0.20532136
000120 be 77 a4 40 a1 a7 26 40 c0 c7 2b 40 19 5f 16 40
       5.139617 2.6039813 2.6840668 2.3495543
000130 51 d7 14 40 48 98 29 40 6a 8d 15 40 58 5a 12 40
       2.3256419 2.6499195 2.3367562 2.2867641
000140 8d bb 1f 40 b5 1b 19 40 b6 25 1a 40 fa 87 15 40
       2.4958222 2.392316 2.4085517 2.3364244
000150 a5 fc 23 40 f4 1e 14 40 92 e8 15 40 17 17 cd 3f
       2.5622952 2.3143892 2.34232 1.6022671
000160 b2 c7 1b 40 f3 4e 19 40 7b 47 25 40 b5 f8 81 40
       2.4340634 2.3954437 2.5824878 4.0616097
000170 f9 1f 9e 40 d3 f3 d8 3f 01 d2 a2 3f c2 4c 25 40
       4.941403 1.6949409 1.2720338 2.58281
000180 5a 0c 40 40 1c a9 55 40 6d 49 25 40 28 32 1e 40
       3.0007539 3.3384466 2.5826066 2.4718113
000190 4b 7b 20 40 ca 06 2b 40 4b 79 00 40 7d 73 0a 40
       2.5075252 2.6722894 2.0074031 2.1632988
0001a0 9e 8f 2a 40 81 57 1f 40 df 15 26 40 03 67 a7 40
       2.6650157 2.4897158 2.595085 5.2313247
0001b0 6f f3 30 40 50 49 22 40 ed 47 24 40 98 db 10 40
       2.764858 2.5357246 2.56689 2.263403
0001c0 0a 16 2a 40 aa 03 1a 40 49 69 ab 40 9a e3 24 40
       2.6575952 2.4064736 5.356602 2.5763917
0001d0 1a b1 2d 40 c2 50 13 40 1e 4e 2c 40 45 57 37 40
       2.7139344 2.301804 2.692268 2.8647015
0001e0 ec 67 50 40 9d 42 64 40 91 55 46 40 9e 9d 9d 40
       3.256343 3.5665658 3.0989726 4.9254904
0001f0 8e 3a 9c 40 f1 a2 2b 3f 31 b4 24 40 4a 28 1d 40
       4.882148 0.67045504 2.573498 2.455584
000200 83 4f 2a 40 38 14 b2 3f 03 79 a5 40 33 a6 42 40
       2.661103 1.391242 5.171022 3.041394
000210 63 01 19 40 cd b4 35 40 9b 59 ad 3f a0 b1 8c 40
       2.3907096 2.8391602 1.354297 4.3966827
000220 91 b2 27 40 30 ba 21 40 07 26 25 bf 11 b1 de 3f
       2.6202738 2.526989 -0.6451115 1.7397786
000230 99 0b 1b 40 1d 18 2b 40 cd 63 24 40 cd 98 1b 40
       2.4225829 2.6733468 2.5685914 2.4312012
000240 61 f0 28 40 10 05 3a 40 64 da 23 40 22 b8 23 40
       2.6396716 2.906559 2.5602045 2.5581136
000250 ac 8e 53 40 57 83 4a 40 11 fe 29 40 2f bd 26 40
       3.305583 3.1642663 2.656132 2.6052969
000260 12 7b 49 40 e1 43 98 40 8d 08 1c 40 c4 64 29 40
       3.1481366 4.758286 2.438022 2.6467752
000270 37 45 26 40 60 e8 2f 40 54 20 35 40 59 4e 85 3f
       2.5979745 2.748558 2.8300982 1.0414535
000280 93 c5 28 40 f1 30 33 40 2b 25 15 40 26 27 2e 40
       2.637059 2.7998621 2.3303936 2.7211394
000290 a5 13 0e 40 fa 53 93 40 ae 45 2b 40 af df 1e 40
       2.219949 4.604001 2.676128 2.4824026
0002a0 b8 af 3b 40 54 90 26 40 ba b7 d5 3f 69 dc 4f 40
       2.9326 2.602559 1.6696694 3.2478278
0002b0 3a c6 22 40 91 5a f6 3f f2 bc 95 40 e3 f8 35 40
       2.5433488 1.9246389 4.6793146 2.8433158
0002c0 a3 1a 3b 40 a7 ec 2b 40 de 79 2f 40 f8 c5 14 40
       2.9235008 2.686319 2.7418132 2.324583
0002d0 bc 76 ab 40 ac 19 14 40 8f 2f 3b 40 85 86 1e 40
       5.358244 2.314067 2.9247777 2.4769604
0002e0 b4 28 10 40 97 5d 80 40 a5 84 17 40 71 f2 4a 40
       2.2524843 4.0114245 2.367471 3.1710474
0002f0 9d 32 0f 40 f4 d7 28 40 e8 a2 9c 40 02 46 21 40
       2.2374642 2.6381807 4.894886 2.519898
000300 89 79 25 40 1d 54 1b 40 a1 26 a2 40 a1 7b 3e 40
       2.585543 2.4270089 5.0672154 2.9762957
000310 ed 2b 2b 3f dd ed 34 40 3d 58 99 40 55 ef 22 40
       0.668639 2.827018 4.7920213 2.5458577
000320 dd 38 2e 40 05 84 08 40 8c 4e 18 40 8c 8b a7 3e
       2.7222207 2.1330578 2.3797941 0.32723653
000330 1c 64 08 3f f7 dc 17 40 97 86 9e 40 ba 5f 1a 40
       0.53277755 2.3728616 4.9539294 2.4120927
000340 f3 37 1b 40 ae 6f a1 40 d4 48 30 40 b7 93 35 40
       2.4252899 5.044883 2.754445 2.8371408
000350 a2 06 d3 3f 2c 19 cd 3f 26 96 17 40 86 d8 14 40
       1.6486399 1.6023307 2.3685393 2.3257155
000360 72 8b c8 3e 3e d3 9b 3f 17 19 24 40 f6 a9 12 40
       0.39168888 1.2173841 2.5640314 2.2916236
000370 ea 4b 40 40 7e 3f 23 40 52 57 a0 40 bf b5 1e 40
       3.0046334 2.5507503 5.010659 2.479843
000380 fb 06 2a 40 5c bf 0a 40 78 dc c0 3f f8 6d a7 40
       2.656676 2.1679296 1.5067282 5.232174
000390 ec 14 14 40 cf 0e 2d 3f 04 d0 36 40 13 d2 00 40
       2.313777 0.6760072 2.8564463 2.012822
0003a0 89 a2 1e 40 c2 72 23 40
       2.4786704 2.5538793

network.1.weight f4 [234]
000000 21 b1 27 41 06 29 0e 41 54 d6 17 41 13 fe 0e 41
       10.480744 8.8850155 9.489826 8.93703
000010 ba a3 28 41 d6 87 28 41 dd a2 14 41 5b 86 31 41
       10.539972 10.533163 9.289762 11.095302
000020 81 2b 1a 41 65 e0 21 41 4f f2 2f 41 ed 89 12 41
       9.635621 10.117284 10.996657 9.158673
000030 fa 9c 21 41 94 26 08 41 13 71 1d 41 4f a3 17 41
       10.100824 8.5094185 9.840106 9.47737
000040 31 69 2f 41 0b b6 0e 41 27 8b 19 41 ca db 1d 41
       10.9631815 8.919444 9.596473 9.866159
000050 25 3c 2b 41 a2 4e 1e 41 0a 1c 2e 41 7f be 1b 41
       10.702184 9.894197 10.881845 9.734008
000060 26 0d 30 41 eb 15 3d 41 4f bb 1b 41 46 59 13 41
       11.00321 11.817851 9.73323 9.209295
000070 85 49 0c 41 b5 ef 2d 41 06 b9 27 41 88 96 2f 41
       8.767949 10.871022 10.482672 10.974251
000080 76 00 1e 41 7a 64 2d 41 a6 9f 18 41 04 cb 38 41
       9.875113 10.83703 9.538977 11.549564
000090 00 32 29 41 5c 32 1e 41 9c 12 23 41 5b 59 13 41
       10.574707 9.887295 10.192043 9.209315
0000a0 7f d4 1c 41 f5 e1 20 41 02 4f 24 41 55 b8 32 41
       9.801879 10.055165 10.269289 11.170003
0000b0 ac 05 1e 41 f9 53 12 41 18 5a 16 41 e7 87 22 41
       9.876385 9.145501 9.396996 10.158179
0000c0 89 6a 22 41 13 d6 1e 41 2f af 13 41 c9 57 28 41
       10.15101 9.927264 9.230269 10.521432
0000d0 4a 74 11 41 91 fa 19 41 cc 5e 1a 41 a7 26 10 41
       9.090891 9.623673 9.648144 9.009437
0000e0 60 7c 25 41 c3 5d 0a 41 eb cb 04 41 10 aa 1c 41
       10.342865 8.647891 8.299785 9.791519
0000f0 56 93 19 41 5f 6d 30 41 fa f7 1e 41 fd 59 2e 41
       9.598471 11.026702 9.935541 10.89697
000100 18 fb 20 41 5f 46 0d 41 1a ec 2c 41 71 9f 13 41
       10.061302 8.82968 10.807642 9.226426
000110 73 8c 1e 41 5f fe 1a 41 ad d4 27 41 06 14 1d 41
       9.909289 9.687102 10.489423 9.817389
000120 da 43 2f 41 a8 74 27 41 ef fb 26 41 9f e1 24 41
       10.954065 10.465981 10.436507 10.305083
000130 1e a4 1c 41 41 aa 20 41 df dc 17 41 51 21 39 41
       9.790068 10.041566 9.491424 11.570634
000140 a5 15 13 41 6e 5c 24 41 22 ba 27 41 be f3 25 41
       9.192784 10.272566 10.482943 10.372007
000150 1e 2b 25 41 d2 0a 3a 41 a8 2c 20 41 d7 51 2e 41
       10.323027 11.627642 10.010902 10.89498
000160 ab c7 1e 41 14 01 2c 41 21 86 1a 41 ba dd 1a 41
       9.923747 10.750263 9.657746 9.679132
000170 c3 90 40 41 15 35 26 41 1f 0a 16 41 ca 85 14 41
       12.035342 10.3879595 9.377471 9.282663
000180 d8 3e 22 41 2b 12 21 41 ef 1f 21 41 3e f6 19 41
       10.140343 10.066936 10.070296 9.622618
000190 cf 0a 14 41 58 3f 19 41 12 0b 28 41 55 37 22 41
       9.252639 9.577965 10.502703 10.138509
0001a0 34 bd 20 41 a9 5c 2d 41 a4 4c 1f 41 41 98 25 41
       10.046192 10.835122 9.956211 10.349671
0001b0 23 4d 29 41 b2 b3 1d 41 20 85 2f 41 47 ae 26 41
       10.581332 9.856371 10.970001 10.417548
0001c0 6d 38 31 41 dc a2 21 41 e7 e4 1a 41 e6 05 1e 41
       11.076276 10.102261 9.680884 9.87644
0001d0 c4 e3 1e 41 50 9d 42 41 06 cc 30 41 57 8f 28 41
       9.930607 12.163406 11.04981 10.534995
0001e0 29 d1 05 41 ee 18 12 41 72 3c 19 41 be b2 31 41
       8.3635645 9.131086 9.577257 11.106138
0001f0 66 52 17 41 52 71 3a 41 54 a5 32 41 a1 9b 14 41
       9.457617 11.652666 11.165363 9.287995
000200 be ab 19 41 fb e5 17 41 94 e1 1a 41 09 7a 1d 41
       9.604429 9.493648 9.680073 9.842294
000210 cc e2 29 41 82 e4 13 41 1e 1a 25 41 2d db 1c 41
       10.61787 9.243288 10.318876 9.80351
000220 d8 9a 18 41 78 8b 0e 41 39 16 14 41 b7 d7 32 41
       9.537804 8.90905 9.255425 11.177665
000230 40 e4 17 41 05 3a 19 41 b7 b1 14 41 c6 54 16 41
       9.493225 9.576665 9.293387 9.395697
000240 a9 50 15 41 98 e3 0b 41 d7 0a 24 41 9b 2c 1b 41
       9.332192 8.743065 10.252646 9.69839
000250 af 88 20 41 8e c7 17 41 a3 18 29 41 96 f0 12 41
       10.03337 9.486219 10.568515 9.183737
000260 f2 03 17 41 fe 22 33 41 d6 d2 11 41 5f e3 09 41
       9.438463 11.196043 9.113974 8.6180105
000270 05 0f 29 41 57 16 2f 41 19 2d 1d 41 d3 1d 26 41
       10.566167 10.942954 9.82351 10.382281
000280 1f cd 29 41 b4 e3 03 41 f3 b4 24 41 d3 83 29 41
       10.612578 8.243092 10.294177 10.594684
000290 ff 1a 2a 41 16 5e 1c 41 2c 33 27 41 b2 21 2a 41
       10.631591 9.77297 10.449993 10.633226
0002a0 5a a7 29 41 73 d2 0b 41 71 70 2c 41 90 9d 03 41
       10.603357 8.738879 10.7774515 8.225967
0002b0 2d 83 29 41 55 14 38 41 35 b4 18 41 7b 91 22 41
       10.594525 11.504964 9.543996 10.160518
0002c0 2c 06 12 41 a0 e5 1e 41 ec 70 1a 41 99 43 1e 41
       9.126507 9.931061 9.652569 9.891503
0002d0 b1 99 2f 41 33 67 13 41 5a d4 1f 41 31 8f 23 41
       10.975022 9.212695 9.989344 10.222459
0002e0 6a c8 2f 41 79 53 1e 41 ca 39 0b 41 39 8a 1d 41
       10.986429 9.895379 8.701609 9.846246
0002f0 11 e7 21 41 4d 82 15 41 07 0c 14 41 94 32 18 41
       10.118913 9.344312 9.252936 9.512348
000300 c1 d6 33 41 3a 18 27 41 3e 13 23 41 64 b5 1a 41
       11.23993 10.443415 10.192198 9.669285
000310 03 03 25 41 20 c1 1c 41 0d 94 1e 41 9d f5 24 41
       10.313235 9.79715 9.911145 10.309964
000320 cf 68 2a 41 b4 8e 0c 41 22 dd 47 41 ae 0d 23 41
       10.650588 8.78484 12.4914875 10.19084
000330 f5 3a 01 41 bf 43 0a 41 80 89 28 41 28 3e 1f 41
       8.076894 8.64154 10.533569 9.952675
000340 33 2b 2c 41 a2 28 28 41 e1 20 03 41 53 4a 29 41
       10.760547 10.50992 8.195527 10.580646
000350 7e e7 3d 41 d9 15 36 41 5e 6c 34 41 43 50 31 41
       11.869017 11.380334 11.276457 11.082095
000360 54 40 1f 41 a6 45 16 41 02 b6 09 41 8b 74 20 41
       9.953205 9.392004 8.6069355 10.028453
000370 20 c0 fa 40 7b e3 25 41 a0 75 32 41 61 df 09 41
       7.8359528 10.368037 11.153717 8.617036
000380 27 58 24 41 99 c2 35 41 ff f1 41 41 82 31 1e 41
       10.271522 11.360009 12.121581 9.887087
000390 fa 6c 34 41 1e 6e 18 41 95 23 18 41 70 3a 3d 41
       11.276606 9.526884 9.508687 11.826767
0003a0 a3 cc 15 41 81 f7 0c 41
       9.36246 8.810426

network.1.bias f4 [234]
000000 84 5c a2 c0 47 9c d1 bf e9 b4 34 c0 34 9b ce bf
       -5.0737934 -1.6375817 -2.8235419 -1.6141114
000010 b1 e5 55 c0 ce 89 cd c0 77 e5 a6 c0 9e 75 ec c0
       -3.3421443 -6.423072 -5.215511 -7.3893576
000020 e0 c6 54 c0 bb 30 89 c0 1f 06 9d c0 06 af 80 c0
       -3.3246384 -4.2871985 -4.906997 -4.021365
000030 01 80 82 c0 b0 2b 00 c0 a7 cd 4a c0 27 57 94 c0
       -4.0781255 -2.0026665 -3.168802 -4.6356387
000040 c2 d3 ad c0 85 75 56 c0 82 a7 95 c0 ef 8c 90 c0
       -5.4320993 -3.3509228 -4.6766977 -4.517204
000050 03 ca 08 c1 7e 73 86 c0 d6 95 c5 c0 64 92 bb c0
       -8.549319 -4.201598 -6.1745405 -5.86162
000060 34 00 b3 40 ed 35 fe c0 bb 2f 96 c0 52 e5 f3 bf
       5.593775 -7.9440827 -4.6933265 -1.9054358
000070 ea 1c 20 c0 d3 5a 87 c0 a7 e5 77 40 aa 9b bf c0
       -2.5017648 -4.229837 3.8733919 -5.987752
000080 4f a0 52 c0 61 ec d6 c0 a5 a6 ec 40 30 e8 a7 c0
       -3.2910345 -6.716355 7.3953424 -5.247093
000090 12 ba 90 c0 6a f7 98 c0 49 78 87 c0 dd 71 84 c0
       -4.5227137 -4.780202 -4.2334332 -4.1388993
0000a0 46 14 80 c0 a5 fe c2 c0 4d 4d 99 c0 47 ba af c0
       -4.002475 -6.0935845 -4.790686 -5.491489
0000b0 58 71 cf 3f fb d8 46 c0 c2 35 8f c0 1d a9 73 c0
       1.6206465 -3.1069934 -4.475312 -3.8071969
0000c0 59 72 9e c0 84 2f 9b c0 16 fc ce 3f 32 a2 96 c0
       -4.9514585 -4.8495502 1.617068 -4.707299
0000d0 5d e6 83 be 9a d7 32 c0 6b 69 7f c0 bf 70 14 c0
       -0.2576169 -2.7944093 -3.9908092 -2.3193815
0000e0 c3 92 71 c0 39 14 45 c0 53 82 0d c0 0b 3f 4f c0
       -3.7745826 -3.0793593 -2.2110794 -3.2382228
0000f0 12 1c 82 c0 41 ce dc c0 d3 1b 1b c0 87 fa 17 41
       -4.0659266 -6.9001775 -2.4235733 9.498664
000100 6c 32 30 c0 e3 c2 10 40 a9 65 78 40 1f 10 9a c0
       -2.7530775 2.261895 3.8812048 -4.814468
000110 97 2b 5e c0 53 65 6e c0 c9 18 b7 c0 58 7f a0 c0
       -3.4714105 -3.7249343 -5.7217755 -5.015545
000120 f7 94 9d 40 17 f5 88 c0 cd ac d8 c0 e5 1c 9c c0
       4.924434 -4.279918 -6.771094 -4.878527
000130 c9 1a 5f c0 a0 99 a6 c0 53 e3 78 c0 bc b4 06 c1
       -3.4860098 -5.206253 -3.8888748 -8.419125
000140 4a c3 8f c0 c0 0e 99 c0 d6 bf a7 c0 0b ba 98 c0
       -4.492589 -4.7830505 -5.2421675 -4.7727103
000150 91 58 bf c0 48 b6 0a c1 0e 8e a6 c0 bf b7 00 c1
       -5.9795613 -8.669502 -5.2048407 -8.04486
000160 29 c2 5a c0 20 77 a8 c0 86 3b 58 c0 6d c6 74 40
       -3.4181006 -5.2645416 -3.378633 3.824611
000170 19 85 c0 40 f9 e8 ac c0 e4 5b b2 c0 5e 42 4c c0
       6.0162473 -5.403439 -5.573717 -3.1915507
000180 70 27 86 c0 19 f6 ca 40 80 7b 8e c0 db 9d 80 c0
       -4.192314 6.342541 -4.4525757 -4.0192695
000190 a6 92 58 c0 71 2d 42 c0 58 07 d3 c0 a0 72 a1 c0
       -3.3839507 -3.0340235 -6.5946465 -5.0452423
0001a0 a0 8e 7b c0 3d 3c c8 c0 be da ad c0 8d 4f 73 40
       -3.9305801 -6.2573533 -5.432952 3.8017304
0001b0 88 62 98 c0 04 73 36 c0 04 1b bf c0 10 3b 03 c1
       -4.7620277 -2.85077 -5.972048 -8.20192
0001c0 41 5b b9 40 00 7a 71 c0 1b dc 2e 40 ca 02 13 c0
       5.7923894 -3.7730713 2.7321842 -2.2970452
0001d0 16 a6 22 c0 b8 c9 d7 c0 4d e9 9a c0 38 6b 8e c0
       -2.541387 -6.743374 -4.840979 -4.450588
0001e0 e7 df 04 bf 3e 6e d8 bf b8 b8 33 c0 de 3f 19 41
       -0.5190415 -1.6908643 -2.8081493 9.578093
0001f0 05 fd bd 40 9c 7d fb c0 23 f7 be c0 b1 bb 96 be
       5.937136 -7.859083 -5.967668 -0.29440072
000200 43 e1 6e c0 d8 9b 42 c0 5a 56 82 40 e9 4a b8 c0
       -3.732499 -3.040762 4.073041 -5.7591443
000210 05 26 88 c0 1f e3 61 c0 30 1d 9e c0 d0 f3 55 c0
       -4.254641 -3.5294874 -4.941063 -3.3430061
000220 fc 86 67 c0 67 57 40 c0 6c fd 85 c0 73 7a 0b c1
       -3.6176138 -3.0053346 -4.1871853 -8.717395
000230 8f f1 54 c0 d2 79 40 c0 c8 45 1a c0 67 0b 39 c0
       -3.3272436 -3.0074353 -2.410509 -2.891321
000240 d9 3f 7a c0 b3 d1 69 be 93 b1 89 c0 82 1e 4f c0
       -3.910147 -0.228339 -4.3029265 -3.236237
000250 da c8 8a c0 64 bd 66 c0 55 65 8e c0 aa 75 22 c0
       -4.337018 -3.6053095 -4.4498696 -2.5384316
000260 d4 e6 a0 be bc 24 1b 41 58 d6 5e c0 18 15 cf bf
       -0.31426108 9.696468 -3.4818325 -1.6178312
000270 5b 81 84 c0 9a a9 c0 c0 fb ec 8b c0 ea 64 b4 c0
       -4.1407905 -6.0207033 -4.3726783 -5.6373186
000280 be 67 a9 c0 57 91 8c bf 93 7e a7 c0 53 f7 b7 c0
       -5.293914 -1.0981854 -5.234201 -5.748941
000290 19 84 af c0 0e 4c 39 c0 9f 6f 9e c0 1b c7 cc c0
       -5.484875 -2.895267 -4.9511256 -6.399305
0002a0 aa a6 b5 c0 c6 ce 11 c0 f1 27 e9 c0 f9 3c e5 be
       -5.6765947 -2.2782454 -7.2861257 -0.4477308
0002b0 d2 54 86 c0 40 e9 d1 c0 22 3d eb bf ea 98 dd bf
       -4.197854 -6.559723 -1.8378031 -1.7312291
0002c0 5a 6b 6a c0 7d 4d 4f c0 bc 79 0d c0 4a c4 8b c0
       -3.6628022 -3.2391045 -2.210555 -4.367711
0002d0 2e 0c aa 40 7e 02 5d c0 6a fc 80 c0 d6 9d 2f c0
       5.313987 -3.453277 -4.0308123 -2.7440085
0002e0 85 38 e7 c0 c2 b8 a0 c0 17 b4 8b c0 60 0c 7e c0
       -7.2256494 -5.0225534 -4.3657336 -3.9695053
0002f0 d1 25 7e c0 d8 aa 8c c0 f3 80 05 3f e2 8b 3c c0
       -3.9710581 -4.395855 0.52149886 -2.9460378
000300 60 eb d5 c0 35 c9 b6 c0 51 59 88 40 c2 0e 9b 3f
       -6.6849823 -5.7120614 4.260903 1.2113879
000310 f8 00 6a c0 d3 a2 86 c0 a2 46 04 41 d0 d8 8e c0
       -3.6563091 -4.207376 8.267244 -4.4639664
000320 d2 d7 c6 c0 47 90 81 c0 ef bb eb c0 cd aa a1 c0
       -6.2138453 -4.048862 -7.366691 -5.0520997
000330 0b 1a 13 c1 bf 7b 58 c0 3c b7 a2 40 8a 4c 5e c0
       -9.193858 -3.3825529 5.0848675 -3.4734216
000340 48 a3 c7 c0 2d 18 9b 40 06 ac 22 c0 81 4c 4f c0
       -6.238682 4.846701 -2.5417495 -3.2390444
000350 71 a7 d2 c0 74 03 e1 c0 20 fd d7 c0 7c 7e ce c0
       -6.5829396 -7.0316715 -6.749649 -6.45294
000360 37 e2 91 c0 f6 dd b5 c0 31 68 30 bf 29 3e a0 c0
       -4.558864 -5.683345 -0.68908983 -5.007588
000370 1e 43 46 bf 20 63 c4 c0 50 b6 db 40 61 b3 4d c0
       -0.7744616 -6.1371 6.866005 -3.2140734
000380 0e 48 8f c0 35 3d ab c0 de 93 03 c1 13 4a f0 40
       -4.4775457 -5.3512216 -8.2236 7.5090423
000390 83 8e d6 c0 90 8a 79 c0 37 55 54 c0 10 48 d8 c0
       -6.7048965 -3.8990822 -3.317701 -6.7587967
0003a0 20 0d 62 c0 7f da 56 c0
       -3.532051 -3.357086

network.1.running_mean f4 [234]
000000 96 0e 34 40 ec 71 b2 3f 81 12 14 40 c3 88 26 40
       2.8133903 1.3941016 2.3136294 2.6020973
000010 f4 31 37 40 fa 56 29 40 f4 07 1d 40 75 a1 13 40
       2.862424 2.6459336 2.4536104 2.3067296
000020 7e 96 35 40 78 82 85 be f5 af 3d 40 77 d4 5d 3f
       2.8373103 -0.26076102 2.9638646 0.8665232
000030 59 44 32 40 9a b2 20 40 d0 4e 2a 40 47 57 1f 40
       2.7854216 2.510901 2.6610603 2.489702
000040 c4 c9 1c 40 9b 22 42 40 f3 5f 2c 40 6d 8f 17 40
       2.4498148 3.0333622 2.6933563 2.368129
000050 be 8f 19 40 61 ea 29 40 69 b4 08 40 5b 24 00 3f
       2.3993983 2.6549304 2.1360114 0.50055474
000060 ad 3f 25 41 e5 d8 24 40 84 f9 0a 40 16 52 43 40
       10.328046 2.5757382 2.1714792 3.0518851
000070 a2 6e 0e 40 58 fc 21 40 bf e0 a1 40 26 d7 33 40
       2.2255025 2.5310268 5.058685 2.8100066
000080 d3 90 11 40 fb 6c 14 40 15 35 9c 40 b3 b7 1c 40
       2.2744644 2.3191516 4.8814797 2.448712
000090 09 c8 46 40 05 eb 1e 40 d6 80 0a 40 f1 ba 25 40
       3.1059592 2.4830945 2.1641135 2.589535
0000a0 26 fc 26 40 06 50 0c 40 3a de dd 3f aa 88 d7 3f
       2.60914 2.1923842 1.7333443 1.6838582
0000b0 18 e6 35 40 d9 fe 25 40 50 21 25 40 53 08 44 40
       2.8421688 2.5936797 2.5801582 3.063008
0000c0 12 2d 15 40 7e 98 ef 3f aa 5f 67 40 d7 9c 29 40
       2.3308759 1.8718412 3.6152139 2.6501977
0000d0 ef 4d 48 40 ae c6 0d 40 37 23 34 40 c0 0b 2b 40
       3.1297567 2.2152514 2.8146493 2.6725922
0000e0 4e 8a 22 40 0e 23 39 40 7e 5e 17 40 9b 13 3e 40
       2.5396914 2.8927646 2.3651423 2.9699466
0000f0 b9 03 39 40 c3 52 de 3f 27 48 11 40 6f d7 a2 40
       2.8908522 1.7369007 2.2700288 5.088798
000100 72 98 8b 40 ad 67 34 40 4e 59 9c 40 37 03 24 40
       4.362359 2.8188279 4.8859015 2.5626962
000110 99 d3 23 40 cb 4d 25 40 cb 0f 27 40 c2 79 45 be
       2.55979 2.582873 2.610339 -0.19284728
000120 30 e2 a2 40 9f f9 2b 40 f9 66 2f 40 3a 2c 11 40
       5.090111 2.6871107 2.74066 2.2683244
000130 95 f4 10 40 47 b6 26 40 23 3c 13 40 f8 0a 14 40
       2.264928 2.6048753 2.3005455 2.3131695
000140 24 0d 26 40 0d 4d 18 40 77 63 19 40 3d 2a 17 40
       2.594552 2.3797028 2.3966959 2.361953
000150 c0 3b 22 40 cb f4 0f 40 91 12 18 40 d4 c5 ca 3f
       2.5348969 2.249316 2.3761332 1.5841622
000160 b0 b1 1b 40 6d 17 1b 40 b1 5c 25 40 f7 6c 82 40
       2.4327202 2.4233048 2.5837824 4.0758014
000170 03 b0 9e 40 c7 9e ed 3f 02 45 9e 3f b0 6f 25 40
       4.958986 1.856408 1.236481 2.5849419
000180 c2 3b 3b 40 77 70 53 40 e0 67 26 40 1f 2d 1b 40
       2.9255223 3.3037393 2.60009 2.424629
000190 4e ff 21 40 af 8d 26 40 60 35 01 40 f8 e1 09 40
       2.5312076 2.6023977 2.0188828 2.154417
0001a0 1c 8f 27 40 62 6e 21 40 f3 8b 22 40 9b f3 a7 40
       2.6181097 2.5223622 2.5397918 5.248487
0001b0 dc 58 31 40 a8 5d 1d 40 2d 45 1f 40 7b e0 10 40
       2.7710485 2.4588413 2.4885972 2.2637012
0001c0 30 94 2e 40 41 5a 18 40 76 d2 ab 40 84 64 27 40
       2.7277946 2.3805087 5.369441 2.61551
0001d0 59 61 33 40 c0 7e 14 40 d2 b7 2d 40 55 99 39 40
       2.8028166 2.3202362 2.7143445 2.8999836
0001e0 03 04 51 40 30 2d 65 40 ff 4c 48 40 f6 8b 9e 40
       3.2658699 3.580883 3.1296995 4.954585
0001f0 dc 3e 9c 40 48 9e 26 3f af 4a 25 40 90 b3 1b 40
       4.8826733 0.6508527 2.5826833 2.4328346
000200 ed a2 28 40 f6 e0 bb 3f e5 29 a5 40 70 a0 44 40
       2.6349442 1.4678028 5.161364 3.0722923
000210 25 80 17 40 79 81 34 40 9d 47 ac 3f 34 50 8b 40
       2.3671963 2.8204024 1.3459355 4.3535404
000220 6c 6a 27 40 16 99 1c 40 f8 b9 24 bf e6 7e d2 3f
       2.6158705 2.4468436 -0.64346266 1.6444976
000230 f8 e8 1b 40 b4 bc 2b 40 93 cb 24 40 5e 41 18 40
       2.4360943 2.6833925 2.5749252 2.3789897
000240 64 a3 21 40 d8 59 3c 40 d8 34 23 40 81 b5 24 40
       2.5255976 2.9429836 2.5501003 2.5735781
000250 f1 74 54 40 2c c2 48 40 33 44 2b 40 d0 d7 25 40
       3.3196375 3.1368513 2.6760375 2.5912971
000260 c4 d5 4c 40 68 e9 9a 40 d9 4e 1b 40 bf c5 27 40
       3.2005472 4.840992 2.4266875 2.6214445
000270 fe 2d 28 40 78 05 32 40 4b 23 38 40 12 35 92 3f
       2.6278071 2.7815838 2.877154 1.1422446
000280 e6 28 2c 40 58 4d 2e 40 ad 84 14 40 20 32 2b 40
       2.6899962 2.7234707 2.320598 2.6749344
000290 38 88 0e 40 fc bd 92 40 a4 81 26 40 87 d3 1b 40
       2.2270641 4.5856915 2.6016626 2.4347856
0002a0 6c 19 39 40 b2 35 26 40 45 6c dc 3f 6f 17 4d 40
       2.8921766 2.5970273 1.7220541 3.2045553
0002b0 d2 6e 21 40 27 8c e9 3f a7 88 95 40 76 e1 36 40
       2.522389 1.8245896 4.672931 2.857511
0002c0 fe b3 3b 40 c3 83 2a 40 d7 d1 2f 40 84 b1 19 40
       2.9328609 2.664292 2.7471826 2.4014597
0002d0 36 68 aa 40 da e2 11 40 a7 36 41 40 6c 53 1c 40
       5.325221 2.279471 3.0189607 2.4425917
0002e0 ba 4d 10 40 29 68 82 40 52 61 1d 40 6c 73 48 40
       2.254744 4.075215 2.459065 3.1320448
0002f0 7c bc 0a 40 71 90 29 40 a9 fe 9d 40 95 3d 20 40
       2.1677542 2.649441 4.9373364 2.5037587
000300 7e ab 23 40 71 dc 1b 40 cb 55 a2 40 87 a2 3a 40
       2.557342 2.4353297 5.072973 2.91617
000310 bd b1 26 3f eb 8c 3a 40 c5 49 99 40 59 a3 21 40
       0.6511496 2.914851 4.790255 2.525595
000320 8e cc 31 40 e8 f5 04 40 2d 11 17 40 1d e9 a0 3e
       2.77811 2.077509 2.3604233 0.3142785
000330 bb 45 04 3f 08 b3 16 40 a4 fc 9d 40 43 8f 17 40
       0.516689 2.3546772 4.93709 2.368119
000340 fd ae 16 40 8c bd a1 40 fd 2b 31 40 86 59 38 40
       2.3544304 5.054388 2.7683098 2.880464
000350 50 7f db 3f c7 38 c6 3f e8 50 1c 40 68 5e 13 40
       1.7148228 1.5486077 2.4424381 2.302637
000360 bb 42 87 3e 68 c4 9e 3f 1e 07 27 40 59 18 14 40
       0.264181 1.2403688 2.6098094 2.313986
000370 3a de 41 40 e6 f6 22 40 08 2e 9e 40 73 88 1f 40
       3.0291886 2.5463195 4.943119 2.4927032
000380 58 b0 2d 40 12 29 04 40 bc e1 c6 3f a1 47 a9 40
       2.7138882 2.0650067 1.5537639 5.289994
000390 79 f4 0d 40 b8 3c 2c 3f 07 c4 3b 40 f9 ca 01 40
       2.2180464 0.6728015 2.9338396 2.0280135
0003a0 85 c6 1d 40 50 cd 20 40
       2.4652417 2.5125313

network.1.running_var f4 [234]
000000 74 b1 b2 40 ce 12 d6 40 dd 75 a5 40 e5 21 e2 40
       5.5841618 6.6897955 5.1706376 7.0666375
000010 65 7c 9d 40 0e 4b 8d 40 ef 6e 98 40 1d b6 8f 40
       4.921435 4.415412 4.7635417 4.4909806
000020 ce 24 a3 40 db 47 d3 40 23 1d 91 40 99 d2 ca 40
       5.0982428 6.6025214 4.5348067 6.3382077
000030 a3 e3 ad 40 7f 9a dc 40 6a c1 ad 40 c7 cb 97 40
       5.4340377 6.8938594 5.42986 4.743625
000040 a6 85 af 40 d5 b3 ad 40 a6 be af 40 5a 41 9c 40
       5.4850645 5.428202 5.4920225 4.8829775
000050 7d c1 96 40 67 67 bb 40 98 ec 9b 40 70 d5 87 40
       4.711119 5.8563724 4.872631 4.2448044
000060 09 ac a4 40 d0 af 86 40 df bf 9b 40 95 03 bd 40
       5.1460004 4.2089615 4.867172 5.9066873
000070 d7 43 b4 40 f0 0f a0 40 7c 6d 93 40 09 6d 9b 40
       5.633281 5.0019455 4.607115 4.85706
000080 a8 3e 9a 40 70 ec a4 40 9b a1 9c 40 ce 3d 97 40
       4.8201485 5.153862 4.894727 4.7262945
000090 a3 03 98 40 91 94 9c 40 54 7d a1 40 40 85 9c 40
       4.750444 4.8931355 5.046549 4.891266
0000a0 67 19 a7 40 db 28 a7 40 3b e7 f2 40 29 79 87 40
       5.221851 5.2237372 7.5907264 4.23354
0000b0 72 8f 9b 40 86 79 b9 40 8e 0c a7 40 d2 31 e0 40
       4.8612604 5.7960844 5.2202826 7.0060816
0000c0 b1 55 91 40 34 1c d2 40 ba 2f 98 40 ff 6d a9 40
       4.5417104 6.565943 4.755826 5.2946773
0000d0 33 9e 15 41 27 11 a1 40 a9 eb 95 40 e1 f3 aa 40
       9.351123 5.033344 4.685017 5.3422704
0000e0 96 19 a5 40 14 82 b3 40 57 70 b9 40 e1 f9 b2 40
       5.1593733 5.6096287 5.7949634 5.593003
0000f0 b7 ee b3 40 08 3d 9f 40 0c cd a5 40 af 60 94 40
       5.62289 4.9762 5.18128 4.636802
000100 4d d4 c4 40 74 4f 9d 40 e8 38 9d 40 9b 7c 90 40
       6.1509156 4.915949 4.9131966 4.5152106
000110 36 5b a8 40 6a df a4 40 05 a0 a5 40 a6 bf 91 40
       5.261134 5.152272 5.1757836 4.5546446
000120 19 5a b0 40 f5 6e af 40 33 b9 9e 40 e6 76 c0 40
       5.5109982 5.4822946 4.9601073 6.014514
000130 43 d6 a8 40 a3 f2 97 40 18 c1 9d 40 6d 05 91 40
       5.276155 4.7483687 4.929821 4.5319123
000140 c1 66 a4 40 7d 54 a8 40 02 a9 9b 40 bd 6e de 40
       5.137543 5.2603135 4.864381 6.951018
000150 9d 03 9b 40 61 60 8c 40 0d 80 95 40 2c 4f 8c 40
       4.844191 4.386765 4.671881 4.3846645
000160 04 03 9f 40 e5 bc ab 40 a1 76 9b 40 d2 13 a5 40
       4.969118 5.3668084 4.858231 5.1586695
000170 70 ca 95 40 8f 6b fe 41 92 f3 06 41 0e 18 a1 40
       4.6809616 31.802519 8.434465 5.0341864
000180 11 f4 f2 40 76 a9 a0 40 a0 a2 93 40 a7 d3 a2 40
       7.5922933 5.020686 4.6136017 5.0883365
000190 58 94 af 40 c3 d3 a8 40 58 a5 90 40 28 09 92 40
       5.4868584 5.27585 4.5201836 4.5636177
0001a0 62 15 a8 40 ab ea 96 40 3d 2a 94 40 49 60 a7 40
       5.25261 4.716146 4.630156 5.2305036
0001b0 3b 74 b2 40 a3 ea a7 40 ee 41 a1 40 ea 96 8e 40
       5.5766883 5.247392 5.039298 4.455922
0001c0 52 dd a3 40 1f 3c 93 40 48 3b 9d 40 49 cf a1 40
       5.1207666 4.601089 4.9134865 5.0565534
0001d0 99 03 b0 40 af 56 94 40 59 98 96 40 af 61 9f 40
       5.500439 4.6355815 4.706097 4.9806743
0001e0 8f 5e 99 40 92 d0 a2 40 09 f9 c1 40 fb 62 ac 40
       4.792793 5.0879602 6.06165 5.3870826
0001f0 2d 8c a7 40 dd 3e a6 40 3b 5d 97 40 49 17 c4 40
       5.2358613 5.1951737 4.7301307 6.1278424
000200 5d fc c4 40 a1 a3 dc 40 28 a3 a7 40 b6 1f 9f 40
       6.155806 6.894974 5.2386665 4.972621
000210 44 54 a0 40 6c 08 a2 40 c7 10 94 40 10 09 c1 40
       5.0102863 5.063528 4.627048 6.0323563
000220 28 8d 9f 40 28 b1 ca 40 2f 4c b7 40 f7 bf 94 40
       4.985981 6.3341255 5.7280498 4.648433
000230 7b a3 91 40 b5 9d a7 40 87 2e a5 40 16 18 b7 40
       4.551206 5.2380013 5.1619296 5.72169
000240 20 89 ca 40 3a 01 3f 41 d7 61 9b 40 89 e3 9a 40
       6.329239 11.937799 4.8556933 4.8402753
000250 20 30 96 40 a7 02 df 40 c1 4d a3 40 0f ae d8 40
       4.6933746 6.969074 5.1032414 6.7712474
000260 9f 48 e5 40 76 6b 9f 40 c3 1f a3 40 c4 aa cf 40
       7.165115 4.981868 5.097627 6.4895954
000270 bb ab 9a 40 88 34 96 40 b4 0f c1 40 5c af c2 40
       4.833463 4.6939125 6.033167 6.083906
000280 38 27 b6 40 9a 34 ad 40 d2 b7 a0 40 94 dc 99 40
       5.6922874 5.412671 5.022439 4.808176
000290 f0 37 93 40 44 0c b3 40 09 05 a0 40 b3 25 94 40
       4.6005783 5.5952473 5.0006146 4.629602
0002a0 6a 8a 97 40 4a 3c ac 40 a7 3b 8a 40 f3 a0 c7 40
       4.7356462 5.3823595 4.319782 6.238397
0002b0 4d 7e b2 40 40 f3 99 40 60 f6 9e 40 f2 91 cd 40
       5.5779176 4.8109436 4.967575 6.4240656
0002c0 2e 30 ac 40 8f a5 9c 40 68 9d c0 40 b4 e5 b8 40
       5.3808813 4.89521 6.0192146 5.77804
0002d0 e8 b5 9d 40 c6 ac 9f 40 40 9d a9 40 b2 ea ba 40
       4.9284554 4.9898405 5.3004456 5.8411493
0002e0 5d 7c 8b 40 0b 95 99 40 be 6f 9a 40 af fd 98 40
       4.358931 4.7994437 4.8261404 4.780967
0002f0 98 55 9c 40 7c a3 af 40 f3 44 9e 40 d5 d2 ac 40
       4.8854485 5.4887066 4.9459167 5.4007363
000300 ea de 9d 40 46 26 99 40 cf 49 9c 40 3a bb a2 40
       4.933461 4.785922 4.88401 5.085355
000310 53 e6 91 40 c0 83 a7 40 a0 63 9e 40 fb e6 99 40
       4.5593657 5.234833 4.9496613 4.809446
000320 ee 2e a8 40 8d 05 c1 40 71 6d 94 40 1f 5a be 40
       5.2557287 6.0319276 4.6383595 5.948501
000330 01 f5 bc 40 da 8b a0 40 06 bc a6 40 a5 2d 9d 40
       5.9049077 5.0170717 5.210452 4.911822
000340 2c 2b 96 40 43 c4 a1 40 90 e9 a5 40 c3 22 af 40
       4.69277 5.0552077 5.184761 5.4729934
000350 c8 80 8f 40 11 16 8f 40 ae f5 8e 40 bf 31 97 40
       4.4844704 4.4714437 4.46749 4.7248225
000360 c3 94 8a 41 e1 48 e1 40 27 a8 9a 40 ff 5e 89 40
       17.322638 7.0401464 4.8330264 4.292846
000370 71 8b ac 40 33 fe a0 40 bd 9a a1 40 11 ed c2 40
       5.3920217 5.03103 5.050139 6.091439
000380 44 07 aa 40 58 48 a6 40 ad 5b 8b 40 46 b2 96 40
       5.313387 5.196331 4.354941 4.709262
000390 79 45 94 40 cc 4a 90 40 b3 38 9c 40 2a 9a 9b 40
       4.6334805 4.5091305 4.8819213 4.862569
0003a0 35 a0 ad 40 85 81 a3 40
       5.4258065 5.1095605

network.4.weight f4 [243, 234]
000000 e4 fe 86 c1 42 a6 0a c1 f2 0d 08 41 2a 58 18 3f
       -16.874458 -8.66559 8.503405 0.5950953
000010 8f a7 2e c0 ed 5f 15 40 97 ef 19 40 3a 9e 0e c1
       -2.728977 2.3339798 2.4052484 -8.91363
000020 5e 09 5c c0 82 ab 0e 40 44 6d 90 c1 8c 13 66 40
       -3.4380717 2.229218 -18.053352 3.594943
000030 16 e7 13 c0 a5 5c 55 3f 76 03 af 40 be 57 ed c0
       -2.3109794 0.8334449 5.4691725 -7.4169607
000040 d4 14 7c 41 b0 9d 50 40 f0 15 90 41 16 42 94 3f
       15.755085 3.2596245 18.010712 1.1582668
000050 e7 77 b2 40 56 c8 59 41 3c be ed 40 c6 9a 77 c0
       5.5771365 13.61141 7.429472 -3.8688216
000060 0a 75 16 c1 31 b7 23 40 04 e5 99 3f 17 2b 0c bf
       -9.403574 2.558056 1.2023015 -0.5475325
000070 cb 5a 87 40 d4 f8 07 c0 e5 8e 8e c0 cc 46 bc 40
       4.229833 -2.1245623 -4.454943 5.883642
000080 0b 9c 77 3e e0 ef e9 c0 46 f5 d2 3f 2b 7e fd c0
       0.2418062 -7.3105316 1.6481102 -7.9216514
000090 59 15 0b 40 ea 8a 66 c0 80 2a e9 c0 e3 f3 01 c0
       2.173178 -3.6022286 -7.286438 -2.0305107
0000a0 6b 70 57 41 ac 36 1b c0 7e 30 16 c1 fd 50 d8 40
       13.464946 -2.425212 -9.386839 6.7598863
0000b0 b1 32 81 3f 8c f6 64 41 97 96 77 40 31 0e d8 c0
       1.0093595 14.310192 3.8685663 -6.7517323
0000c0 ce 9b 9f 3f 92 03 48 40 06 a4 ff c0 05 e4 55 41
       1.2469423 3.125218 -7.9887724 13.368169
0000d0 df 36 fd 40 bb 8d 30 c1 4f 7c ee c0 de ef af c0
       7.912948 -11.034602 -7.4526744 -5.4980307
0000e0 03 d0 9c c0 83 22 b6 bf f3 20 32 40 73 b2 5a 41
       -4.900392 -1.4229282 2.783261 13.668567
0000f0 6b a1 c9 c0 dc b9 4b c1 d1 06 87 c1 4f 95 2a 3e
       -6.3009543 -12.732876 -16.878328 0.16658519
000100 87 3c 95 40 b9 27 8d 41 44 9d 48 c1 d3 cc 16 c0
       4.6636386 17.644396 -12.538395 -2.3562515
000110 a0 ab e1 40 41 53 88 41 47 9e 6d 40 41 59 0d 41
       7.0522003 17.040651 3.7127855 8.8342905
000120 d1 02 29 41 72 67 40 c1 17 f4 4b 40 d4 56 bf bf
       10.563188 -12.025255 3.186773 -1.4948373
000130 de 20 05 c1 76 1d 87 bf 0c 10 15 c0 5c 34 df 3f
       -8.320524 -1.0555866 -2.3291044 1.7437854
000140 fb 92 60 40 de 97 a0 3f 6e 9c b7 41 fc 44 4f 41
       3.508971 1.2546346 22.951382 12.954342
000150 74 4f 0f 40 11 ed 2b bf e5 66 a4 3f 08 ab 95 41
       2.2392244 -0.6715861 1.2843901 18.708511
000160 50 3d 59 41 b4 07 93 c0 a8 99 5e 3f 6c 0b f7 bf
       13.577469 -4.5946903 0.8695321 -1.9300361
000170 cb 8d 0c c1 00 06 a3 3f 06 91 3e c0 ed e8 7e 40
       -8.784617 1.2736206 -2.9776015 3.9829667
000180 f7 49 56 41 84 c0 2b 40 e0 2c 89 c1 a8 8d 23 40
       13.393058 2.6836252 -17.146912 2.555521
000190 47 70 95 40 de 80 07 c1 f3 2e 5a c0 77 39 4f 3f
       4.6699557 -8.468962 -3.4091156 0.8094706
0001a0 10 2e 4e c1 ce 77 c4 c0 11 a0 ba 41 18 3c ba c0
       -12.886246 -6.1396246 23.328157 -5.8198357
0001b0 98 09 4f 41 eb 1b 05 40 60 d1 45 41 4a d8 a3 c0
       12.939842 2.079829 12.363617 -5.1201525
0001c0 94 77 e5 c0 2f e6 f2 40 6d cd 96 c0 a8 5a 2d 40
       -7.170847 7.5905986 -4.7125764 2.7086582
0001d0 90 f9 3e c1 ee ff 69 40 78 25 b3 bf 5b 61 1f 40
       -11.935928 3.6562457 -1.399581 2.490317
0001e0 61 74 4b 40 16 0e 41 41 96 09 29 41 22 f6 9f c0
       3.1789782 12.065939 10.56484 -4.9987955
0001f0 22 a6 81 c0 fb 08 19 40 a0 eb 0a c0 c0 39 b7 40
       -4.05153 2.3911731 -2.1706314 5.7257996
000200 d2 5d fc 40 4a 6a 43 40 88 6f f8 40 90 62 78 c0
       7.8864527 3.0533624 7.7636147 -3.8810158
000210 03 61 b5 c0 eb 0b 36 bf 73 25 0a c1 ae f2 11 3f
       -5.6680923 -0.71111935 -8.634143 0.57010925
000220 f8 6f 9b c0 34 24 31 c0 e3 f3 2b c0 01 cf 03 c1
       -4.857418 -2.7678347 -2.6867607 -8.238038
000230 45 cc a9 be 61 05 31 41 12 0c c1 40 78 67 7d 40
       -0.33163658 11.063813 6.0327234 3.9594402
000240 4c 1b 04 c1 fb a6 c9 40 37 0b 03 bb 80 1a 41 c0
       -8.256664 6.3016334 -0.0019995698 -3.0172424
000250 dd 13 ef bf 77 5f d2 c0 11 e8 19 41 ac 35 5c c0
       -1.8677937 -6.5741534 9.619157 -3.4407759
000260 82 2c e3 40 ee e9 98 41 50 b5 1a c1 a1 eb 6c 40
       7.099183 19.114223 -9.669266 3.7018816
000270 ab da ae 40 3a 8e 0e 40 c3 85 45 41 0c ae 74 40
       5.464193 2.2274308 12.345157 3.823123
000280 b4 07 2b c0 e2 10 2c 40 b1 9d 1c 40 ed c7 7b 3f
       -2.6723452 2.6885304 2.4471247 0.9835194
000290 f6 69 a1 c0 b3 95 92 40 c6 cf 83 c1 a0 94 eb 3f
       -5.0441847 4.580774 -16.476452 1.8404732
0002a0 11 9a 00 41 8a 4d 11 c1 76 af 94 bd be 8d 0f 40
       8.037614 -9.08143 -0.07260029 2.2430263
0002b0 48 d7 8a c0 2f fe 37 c1 62 2d 7f 40 10 2d 43 41
       -4.3387794 -11.499557 3.987145 12.198502
0002c0 be 59 f6 3f 34 5c ad c0 41 a9 28 41 fa d1 c1 c0
       1.9246137 -5.4175053 10.541322 -6.056882
0002d0 32 c6 3c 40 af 40 0f c1 22 59 89 40 75 47 75 c0
       2.949597 -8.953292 4.2921305 -3.8324864
0002e0 8b 31 ba 3f 9e 79 aa 40 eb 50 21 41 fa 0c 53 40
       1.4546369 5.327346 10.082255 3.297667
0002f0 5c 9a 04 40 17 8a ad c0 d3 be c6 40 6a 9e 8f c0
       2.0719213 -5.4231067 6.210794 -4.4880877
000300 6f 6a 69 c1 4d 5c 87 c0 2f 39 51 41 da 7e e0 c0
       -14.588485 -4.230017 13.076461 -7.015485
000310 af d9 a9 40 43 75 75 41 1a 1c 5d 40 5a 0a f4 3e
       5.3078227 15.341128 3.4548402 0.47664148
000320 76 d8 0d 41 de 77 03 c1 d2 0c c6 c0 b7 3a bc c0
       8.865347 -8.216764 -6.189065 -5.8821673
000330 63 d2 20 40 f5 28 ad 40 4d d2 d8 3f 9b df 8b c0
       2.512841 5.4112496 1.6939179 -4.3710456
000340 c2 55 1c 40 99 6a e0 3f 27 44 c9 c0 f7 61 8b 40
       2.4427342 1.7532531 -6.2895694 4.3557086
000350 b6 3a 03 c1 fa f6 52 3f 47 24 0d 40 0c a0 49 41
       -8.201834 0.82408106 2.2053392 12.601574
000360 c3 38 b5 c0 87 e7 97 c0 10 2a 07 40 0d 70 06 41
       -5.663179 -4.7470126 2.1119423 8.402356
000370 a0 32 cb 40 12 f2 6a 41 e1 00 c0 40 f3 48 7d c1
       6.34993 14.684099 6.0001073 -15.83031
000380 53 f2 2c 41 01 75 b2 c0 4e b4 bd 40 50 80 30 40
       10.809161 -5.5767827 5.92826 2.7578316
000390 46 bb 9a c0 8f 7d cf 3f 50 c0 a0 c0 f2 db e5 3f
       -4.8353605 1.6210192 -5.0234756 1.7957747
0003a0 63 a6 25 c0 ea f9 a3 40 3e d9 0b 40 13 97 50 c0
       -2.5882804 5.124257 2.1851344 -3.2592208
0003b0 e2 b6 18 c0 c3 09 aa 40 ce 52 fd 40 0d 1c 96 40
       -2.3861623 5.3136916 7.916358 4.690924
0003c0 6c c9 21 c1 b1 67 95 3f 67 1b 29 c1 de 40 e2 c0
       -10.111675 1.1672269 -10.56919 -7.0704184
0003d0 9e 91 cf 3f d4 3b c4 bf 63 01 c2 40 91 1f 41 41
       1.6216314 -1.5330758 6.0626693 12.070207
0003e0 22 cb 4b 41 1a 04 03 40 e0 96 02 40 36 de 10 40
       12.737093 2.0471253 2.0404587 2.2635627
0003f0 fa 06 62 c1 07 0d 41 41 be 30 ee c0 f6 6b 80 41
       -14.126703 12.0656805 -7.44345 16.052715

network.4.bias f4 [243]
000000 b3 c9 e5 bc 9b ce 35 3d a3 8d 53 3d e8 fb 56 3d
       -0.02805028 0.044386487 0.051648747 0.05248633
000010 75 f3 3f bd dc 28 73 bc 39 6f 49 bd 83 64 a5 bd
       -0.046863038 -0.014841285 -0.049178336 -0.08075812
000020 c8 d2 19 bd cc fe ca bc e9 5f 0c bc f8 22 87 3c
       -0.037554532 -0.0247797 -0.008567789 0.016496167
000030 f8 56 80 3d 4f c2 6f bd 74 66 07 bd eb f6 94 bd
       0.06266588 -0.058534916 -0.03305669 -0.07273658
000040 26 96 3e 3d 8a ca c7 bb b7 41 45 3c 1c 3f 64 3d
       0.04652991 -0.0060971426 0.012039593 0.05572425
000050 65 dc 9f bd a2 3c dc 3c 60 e6 9b bd f0 d6 19 3b
       -0.07805709 0.02688438 -0.076123 0.002347406
000060 97 cc 8d bd f2 52 64 3c 26 3f cb bb 36 c9 79 bc
       -0.06923788 0.013935791 -0.0062025962 -0.015245726
000070 06 2f ab 3c 87 9a d0 bc 86 d5 87 3b 2e 8d 3f bc
       0.020896446 -0.02546431 0.004145327 -0.011691375
000080 5e d7 e0 bc 0c 86 1d 3c 69 63 78 bd 42 10 4e 3d
       -0.027446445 0.009614479 -0.06064168 0.050308473
000090 ab 1a 64 bc fc b0 24 3c f0 e6 53 bd a8 15 32 3d
       -0.013922374 0.010051962 -0.05173391 0.043477684
0000a0 1f 8d 37 bd 21 ec 71 3d 74 48 7b bb d3 21 e8 3c
       -0.044812318 0.05906308 -0.0038342746 0.028336441
0000b0 7a 02 b2 bc 2c 6d 4e 3d dc 65 23 bc a9 1e 0e bc
       -0.021729697 0.050397083 -0.009973016 -0.008674302
0000c0 1a a4 29 bc 6d 36 b3 3c b6 4b 4e 3d 90 2b 5b 3d
       -0.010354066 0.021876538 0.050365172 0.05350834
0000d0 b8 b4 df 3b 49 bc 56 3d 04 44 38 3d f7 8a 78 3d
       0.0068269633 0.052425656 0.04498674 0.060679402
0000e0 e1 51 35 bb e4 93 01 3d 62 6c e0 bc 2a fb 69 3d
       -0.0027667212 0.03163518 -0.027395431 0.057124294
0000f0 56 f9 c6 3c dc 42 6f 3c ff f0 7c 3d 3f 15 21 bd
       0.024288815 0.014603343 0.06175327 -0.039326902
000100 4e b5 a0 bc 79 28 46 3d 8c d3 87 3c 7a e4 30 3c
       -0.019617703 0.04837844 0.016580366 0.010796661
000110 71 77 fb bc 83 79 83 bc fb ec af 3b 36 c1 80 3d
       -0.030696603 -0.016049152 0.0053688264 0.06286852
000120 f0 8c 57 3d ac 3d dd 3c 0b ad db 3c 08 06 dd 3c
       0.052624643 0.027006947 0.026815912 0.026980415
000130 fc 22 1d bd a2 aa 2d 3c 83 3a e1 3c c3 3f 88 3a
       -0.03836344 0.010599764 0.02749372 0.0010394979
000140 e9 ec 30 3d fd 89 b7 3c 81 75 43 3d 45 43 df bb
       0.043194685 0.022404665 0.047719482 -0.006813439
000150 0d 34 11 3d c2 c2 12 bd d2 f5 8e 3d c6 b6 1a bd
       0.03545003 -0.035830267 0.0698048 -0.037771963
000160 8f 7c 3a 3d f6 f8 08 3d a4 4c 37 bd f8 6f 19 3d
       0.045528945 0.033440553 -0.044750825 0.037460297
000170 8f a4 33 3c eb 9b 80 3d 5a e4 f8 bc 99 b1 32 bd
       0.010964527 0.06279739 -0.030382324 -0.0436264
000180 73 13 f5 bc b3 a8 1d bc f5 61 5e 3a 64 78 48 3d
       -0.0299165 -0.009622741 0.00084832247 0.04894294
000190 74 e4 e9 bc c8 a3 28 bd ee a8 bc bc d7 90 7e 3c
       -0.028551318 -0.04117182 -0.02302977 0.015537462
0001a0 03 a8 c2 3c cb fe 60 3d 67 28 76 39 87 4b fc bb
       0.023761755 0.05493049 0.00023475439 -0.0076994332
0001b0 22 6f 17 3c f5 fe 81 bd 9d 67 2b 3c 2f df 95 bd
       0.009242805 -0.06347457 0.010461715 -0.073179595
0001c0 6b e1 91 3d 6b 71 ae bc f5 11 35 bc 8f b4 35 3c
       0.07123073 -0.021294316 -0.011051645 0.011090412
0001d0 7d e8 5f 3d f6 23 89 bd 5a fb fa 3b af 79 8e 3c
       0.054665077 -0.06696312 0.007659358 0.017392008
0001e0 88 19 1f 3d bc 70 7f bc 0c 76 9e 3c 51 15 e0 3b
       0.038842708 -0.015590843 0.019343399 0.0068384786
0001f0 da 48 90 bd 16 b4 51 3c 65 52 1e bd 78 51 1b bd
       -0.07045145 0.0127992835 -0.038652796 -0.03791949
000200 d0 71 74 3d 5b af 67 3c 90 fa fc 3c bb 6c 6c 3d
       0.059678853 0.014140929 0.030881196 0.05772088
000210 7e 38 75 3d f3 24 2c 3d 8f d5 34 bd 38 9e 74 bd
       0.05986833 0.042027425 -0.044148978 -0.0597212
000220 ca 4d d7 bc b2 bf 26 bd 25 c0 86 3c bd 77 2e 3b
       -0.02628221 -0.04071016 0.016449044 0.0026621663
000230 47 53 57 bd 75 00 49 bd 42 ec 83 bc de 6a 03 bd
       -0.052569654 -0.0490727 -0.016103867 -0.03208434
000240 e7 9f 2d 3d c6 9b 87 3c 61 23 d1 bc d3 93 1a 3d
       0.042388823 0.01655377 -0.025529565 0.037738632
000250 d3 94 54 3d 0f 7b d9 3c e2 84 80 3c 89 c9 2a 3d
       0.051899742 0.026547937 0.015688363 0.041696105
000260 2b ed 0e 3a fa 41 65 bd 6a 5c 01 bd 42 b6 52 bd
       0.0005452211 -0.055971123 -0.031582274 -0.051443346
000270 96 5b 7c bd c5 da ac 3c 95 fb 39 ba 39 4b 86 bd
       -0.06161078 0.021100411 -0.00070946786 -0.06557316
000280 06 7f 57 3b b9 35 42 bd 18 77 9e bc ba c4 f4 bc
       0.0032882108 -0.047414515 -0.019343898 -0.029878963
000290 27 1b 2f bd fa e1 af bc f9 d2 1e bd 2b 18 ad bc
       -0.042750504 -0.021470059 -0.038775418 -0.021129688
0002a0 63 c5 8f bc 05 50 2f 3d 4b 62 88 bd 8d 49 4f 3d
       -0.017550176 0.042800922 -0.06659373 0.050607253
0002b0 85 7d 79 3d b0 56 98 bd c9 f3 30 bd 69 ad 44 3d
       0.06091072 -0.07438409 -0.04320124 0.04801694
0002c0 8f 0c a0 bd f7 6a 4c bd e0 85 73 bd 4c 44 96 bc
       -0.07814895 -0.049906697 -0.059453845 -0.018343113
0002d0 1e 3d 7f 3c a7 1f 92 3d 43 b6 54 bd ff ce 47 3d
       0.015578536 0.071349435 -0.05193163 0.04878139
0002e0 9d cd 23 3c c2 3d 3b bd 00 c3 bc 3c 6e 97 64 3d
       0.0099977525 -0.045713194 0.023042202 0.055808477
0002f0 1f 27 0b bb 33 0e 71 3d 02 5c b6 bc b7 86 96 bd
       -0.0021233035 0.058851432 -0.02226067 -0.073499136
000300 33 a1 8a bd 88 a1 8a 3d e5 5f 8c 3b 72 ff 85 3d
       -0.067690276 0.06769091 0.0042838925 0.06542863
000310 f5 4e ca 3c 7b 68 b0 bc 0f 6c 1d 3c 01 9b a6 bc
       0.024695853 -0.021534195 0.009608283 -0.020337583
000320 ae 47 99 bd d4 e1 f2 3c 98 ca 82 bd 87 bb ee 3b
       -0.07484375 0.029648699 -0.06386298 0.0072855386
000330 93 73 e3 3c f4 4d b6 3c 3c da 02 bd f6 83 e0 3c
       0.027765071 0.022253968 -0.031946406 0.027406674
000340 93 ad 3f 3d 7c 82 25 3d d7 47 2e bd 09 96 92 bd
       0.046796393 0.040407643 -0.04254898 -0.07157523
000350 41 3f 59 bd 9e 5e 06 3d e3 26 28 bd 40 76 52 3d
       -0.05303884 0.032805078 -0.04105271 0.051382303
000360 5f b5 09 bc 88 15 29 3d a5 54 64 3d ba 78 46 3d
       -0.008405059 0.0412803 0.055744786 0.048454978
000370 8c 17 0b bd 6d 5f 89 bd d4 e9 1c 3d 0c 70 1a 3d
       -0.033958003 -0.06707654 0.038308933 0.037704512
000380 9f 87 bd 3c 4f 85 bc 3b 8a 02 de bc cb 87 63 bd
       0.023135958 0.0057531963 -0.02710082 -0.055549424
000390 0e 47 da 3c 72 0f 07 3c 4f 2d 85 3d 0d 1c cf bc
       0.02664521 0.008243429 0.065027826 -0.02528193
0003a0 2b b1 85 bd 72 c9 37 3d cd 9c 52 bd 8c e3 3e 3c
       -0.06527933 0.044869848 -0.051419068 0.011650931
0003b0 15 45 a1 3d 90 56 93 bd cd bd f7 3c fc ec ed bc
       0.078745045 -0.07194245 0.030241871 -0.029043667
0003c0 50 40 b1 bd 2c b0 dc 3c 54 d1 ab b9
       -0.08654845 0.026939474 -0.00032771623
