best models/saved_models/architecture_2/best_model.pt (torch, 546210 bytes, 25 tensors)

network.0.weight f4 [241, 15]
00000000: 2955 533f 23bf b7bf 44a0 8e3f 4f6c 3b40
00000010: 02e4 7dc0 8316 1041 7898 55c0 ae49 58c0
00000020: c072 8740 f261 40c1 2244 6740 96c2 77c0
00000030: 4b43 6040 ba45 15c1 fe59 6840 b3ae 293e
00000040: 9e56 23bf 572c af3e 6f6c 8fbc ec40 65c0
00000050: 2ebb 25c1 e5dd ee3f e320 85bc 3f7f 9a40
00000060: 7742 5a3f 9983 1f41 ef9b 273f cf8d 1fc1
00000070: 66d6 9840 c17b a040 8f1e ff40 2971 99c0
00000080: 3529 d43e 7ec7 b0c0 cddb d140 b003 82c0
00000090: fa78 863f 23aa cc3e cb2f afbf 329e d9be
000000a0: c9d5 253f 1790 15c1 c647 1441 a97d c4c0
000000b0: d2b4 babe cac4 f8bf 83c4 01c1 9400 a3c0
000000c0: f984 ba40 1803 953f 1174 d040 cfe1 de3f
000000d0: ff48 8bbf 1f64 a9bf 4c01 033f d5cb 88bf
000000e0: 699a 1141 d273 a43f d9df 1b41 00c0 a640
000000f0: 20d5 2240 977e fcbf c630 bf3f f68f 96c0
00000100: 9265 2641 2d4e 31c1 9886 2b41 5cb3 163f
00000110: 8ea3 c4be 8120 9c3f 5fb4 46bf dce8 2640
00000120: 638c 90c0 9f37 7740 64b3 8ac0 54bb b63e
00000130: ac79 65bf 0be6 84bf 1a23 5941 3c22 1cbf
00000140: cb17 34be 5146 2a3e a8e2 7cbf 5a42 a83e
00000150: 6b4a 19bf 0c1d e03e 5407 9cc1 89f8 753f
00000160: a46d 713f f602 dbbf 358a d03f ff80 9d40
00000170: bda5 1840 9074 35c0 ed56 6abf 37d8 e540
00000180: 653a 1041 9f60 cebf 6566 e040 302d f040
00000190: 715e cdbf 127a 2ebe e77f fac0 5adb 8a40
000001a0: 53da adc0 0b84 a140 6e39 3ec0 877d d13f
000001b0: 6f17 6c40 1f70 e6c0 3355 4e40 2f2b e3bf
000001c0: cc94 0440 3b2e 79c0 d897 1140 be6a 93bf
000001d0: fd8b d4c0 8cb5 6141 30cb efc0 b170 4040
000001e0: 4306 5140 c66a 09c1 bb32 5fc0 4d0c 373f
000001f0: f4b6 7cbe 31d7 26bf a740 5c3e cc26 2fc1
00000200: 2942 8e40 8efd 1bc1 0465 81c0 90e7 60c0
00000210: 35d2 e43f 8385 33c0 5dbd cdbf b66a 8ac0
00000220: c001 1241 61d4 9f3f 9955 df40 f7e4 f93f
00000230: 2a92 bfc0 fd49 b2bf 0eb1 13c1 c9e0 85c0
00000240: 4aca eb40 62fe 2e40 06e0 123c b088 cd3e
00000250: f14c 1f3f 01ef eebf 7325 88bf f756 e33f
00000260: df73 54c0 be1f fdbf 5e35 84c0 3134 0041
00000270: ba9b 2ac1 31ed d93f c917 5740 287a a9c0
00000280: c0d1 e940 c9bc b4bf 7e94 31c0 f3e1 a240
00000290: 6012 0dc1 a316 863c 7585 05bf 6d9e 413f
000002a0: 14c0 26c1 7ccc 50bd 5f22 3fbf 87db babf
000002b0: 9d96 babf a50e d3be cd1a 4dbe ab07 f63e
000002c0: 0086 d2c1 f140 823e c900 a8bf da62 28be
000002d0: f04e c63f 5185 0541 2107 7b3e 0207 d4c0
000002e0: 28e9 c83f 1787 b040 9fd0 26bf 8b3e 3241
000002f0: 10ec 11c0 5a9f 0dc1 0e20 383f c5dd d2bf
00000300: 5036 9a3f ba8d c33f 0b9c 48bf 9ff0 cc3f
00000310: 7a80 80bf da35 6640 895b 1441 b54f 59bf
00000320: d0da 0a40 859e 93c0 c9b4 2041 f125 1fc0
00000330: 62ab a23e 17e6 9cc0 b017 2bc1 a85e 2540
00000340: dac7 69c0 4571 9b40 1ea4 c040 fe16 bf3f
00000350: aca6 11bf a215 9cbf 18dc 0b40 a249 1340
00000360: 9c97 83bf 48db 95c0 b6fe 6041 dff0 bb40
00000370: 91d8 d4bf 2c5c 73c0 75f8 1a41 9e10 7c40
00000380: f73b 3fc0 1532 a0bf 0e97 ebc0 1f61 c0c0
00000390: 97c9 fec0 3a37 14c0 bae5 2ac1 c45f f6c0
000003a0: a905 5ac0 583a 5bbe 87ec 9fc0 259d 52c0
000003b0: e6fb 7f3f 59df 1b3f 728c b63f 248e 1b40
000003c0: 0c6e 4240 b442 be40 7f2c f1bf 4202 0ec1
000003d0: 71b4 dd40 20db 4b41 8fa9 81c0 b467 64c0
000003e0: c9b1 f83f 4315 ae40 1f43 b0bf 5d35 0b40
000003f0: 89c6 1ebf 18a5 54c0 9289 f23f dfe8 4340
0.8255182 -1.4355205 1.1142659 2.9284856 -3.9670415 9.005496 -3.337431 -3.379497
4.2327576 -12.023912 3.6135335 -3.8712516 3.5041072 -9.329523 3.6304927 0.16570549
-0.6380404 0.34213516 -0.01750776 -3.5820875 -10.358198 1.8661467 -0.016251033 4.828033
0.8525767 9.969628 0.6547231 -9.972121 4.7761717 5.0151067 7.9724803 -4.7950635
0.41437688 -5.524352 6.558081 -4.06295 1.0505669 0.39973554 -1.368646 -0.42503506
0.64779335 -9.347678 9.267523 -6.1403394 -0.3646608 -1.9435055 -8.1104765 -5.0938206
5.828732 1.1641569 6.5141683 1.7412661 -1.0881652 -1.323368 0.51173854 -1.0687205
9.100198 1.2847846 9.74215 5.2109375 2.544258 -1.9726132 1.493676 -4.7050734
10.399797 -11.081586 10.72036 0.5886743 -0.38406032 1.219742 -0.77618974 2.6079626
-4.517137 3.8627698 -4.3343983 0.35689795 -0.8963878 -1.0382704 13.57107 -0.6098974
-0.17587201 0.16628386 -0.9878335 0.32863122 -0.5987918 0.4377216 -19.503578 0.9608236
0.94307923 -1.7110279 1.6292177 4.9219966 2.3851159 -2.8352394 -0.9153889 7.1826434
9.0142565 -1.6123236 7.0124993 7.505516 -1.6044446 -0.17038754 -7.828113 4.3392763
-5.432901 5.0473685 -2.9722552 1.6366433 3.6889303 -7.2011867 3.2239501 -1.7747554
2.0715818 -3.8934467 2.2748928 -1.151695 -6.6420884 14.106823 -7.493553 3.0068781
3.2660072 -8.588568 -3.4874713 0.71503145 -0.24679166 -0.65172106 0.21509038 -10.946972
4.445576 -9.749403 -4.043581 -3.5141335 1.787665 -2.805024 -1.6073414 -4.325526
9.125427 1.2486688 6.979199 1.9523 -5.9865923 -1.392883 -9.230726 -4.1836896
7.3684435 2.7342763 0.008964544 0.40143347 0.6222678 -1.8666688 -1.0636429 1.7760915
-3.3195722 -1.9775312 -4.1315145 8.012742 -10.663019 1.702551 3.3608267 -5.2961617
7.3068542 -1.4120113 -2.7746882 5.0900817 -8.816986 0.016368216 -0.52156764 0.75632364
-10.421894 -0.05097626 -0.7466182 -1.4598244 -1.4577214 -0.4122211 -0.20029755 0.48052725
-26.31543 0.2544017 -1.312524 -0.16443959 1.549284 8.345048 0.24514438 -6.6258554
1.5696154 5.5164905 -0.6516208 11.140269 -2.280033 -8.851404 0.7192391 -1.6473929
1.2047825 1.5277627 -0.783631 1.6010932 -1.0039208 3.5970368 9.272347 -0.8488725
2.1696053 -4.6131005 10.044137 -2.4866908 0.3177138 -4.903087 -10.693283 2.5839024
-3.652823 4.857577 6.020034 1.4928892 -0.56894946 -1.2194102 2.1853085 2.3013692
-1.0280643 -4.6830177 14.062185 5.873153 -1.6628591 -3.8025007 9.685658 3.9385142
-2.988035 -1.2515284 -7.3621893 -6.0118556 -7.962108 -2.3158708 -10.681086 -7.69919
-3.4065955 -0.21408975 -4.997623 -3.2908413 0.9999374 0.60887676 1.426161 2.4305506
3.0379667 5.9456425 -1.8841704 -8.875551 6.9282765 12.740997 -4.051948 -3.5688295
1.9429256 5.4400954 -1.3770484 2.175132 -0.6202169 -3.3225765 1.8948233 3.0610883

network.0.bias f4 [241]
00000000: 289a 5c3f c4aa 3940 b3d3 1140 56a1 563f
00000010: 3fcb a33f 8b5a bc3e 46a1 2640 2dd0 2840
00000020: 27fd 1040 0390 1f3f f1cf 8b3f a5ad b03f
00000030: e9b3 d7be c817 67be 1543 0d40 9b8f 1a40
00000040: ee63 2540 785f 2340 9218 1b40 12d0 1d40
00000050: b94e c53f 4d29 1a40 63e7 0b40 1992 1f40
00000060: 1006 0540 940a 9e3f db01 9c3f 0dbe 1940
00000070: 922a 2a40 aa60 a43f 4e65 9e3f 4538 e53f
00000080: e55e a440 7846 1d40 780b 1340 1d4e fd3f
00000090: db75 1540 5849 2140 8e50 1240 241d 1440
000000a0: dfe1 1640 63fb 2a40 f03f 723f aecc 1740
000000b0: 0d4e 1340 75d9 1640 3be8 2640 def6 1140
000000c0: c9a4 2340 b829 4e3f cea8 e73e d325 2340
000000d0: 7e45 1d40 cb59 2a40 e7e9 f53f 0f42 a43f
000000e0: fece 3440 91a4 b83e 4a3b 0840 7486 b93f
000000f0: d0e7 e83f 060a 2840 c738 1b40 aeba 943f
00000100: d6e7 f03e b543 1940 728d a23f 9238 ae40
00000110: f292 9540 057e 1e40 e43f 1b40 a96e 9e3f
00000120: 2151 0c40 376c 1640 bdcf 3640 2ce5 2440
00000130: 1efc 2040 f52c 1240 46a2 2d40 9825 1740
00000140: 42b1 2340 34dd 5e3f 2f8d 1b40 9b20 2540
00000150: 34a4 dd3e e250 603f ee88 823f f4e2 2040
00000160: c9f9 7b3f 89b4 0740 e55f 2a40 7fde 2b40
00000170: 7803 ff3f d478 1440 2783 3a40 a7e8 b23f
00000180: 6e5f 2c40 881e 9740 bbd4 1d40 8552 db3f
00000190: 94b2 0140 4305 df3f 931e 4940 a8bf 1140
000001a0: dff0 1d40 179d 413f 4441 2340 df81 b33f
000001b0: 0358 e73f 415e ac3f 56f7 1840 959d 923f
000001c0: 8545 1c40 4e96 eb3f 4d2a 2a40 5bab 2840
000001d0: 350d 1740 b274 143f 259e 9340 4546 2040
000001e0: 8057 1b40 23b4 bf3f 3ea8 1d40 03fa 1b40
000001f0: e851 813f 86e6 1a40 0080 5b3f 220a 7d3f
00000200: 9e8e 2540 3d81 2c40 864c 133f e569 1740
00000210: 9242 ca3f 32e8 093f d828 db3f badb 0e40
00000220: 70a2 1e40 1ab2 1140 5ee9 1740 5e8c 4d40
00000230: 0592 1c40 505d 4b3e 4b77 c63f 9952 1b40
00000240: e627 c73f 3002 1740 de04 0740 7e3a 1240
00000250: 1657 8c3f 3584 bb3f 3b3a 3840 d50b 1f40
00000260: c87a e53f 29fd 923f 995f 2840 82d8 1940
00000270: 24fc 1940 4624 173e 8891 1f40 a54c d03f
00000280: 35d0 1940 303e 2340 0846 1240 b1c7 803e
00000290: 2ffa 883f 0f79 f63f a0a8 0e40 7d68 0e40
000002a0: c30e 7c3f b317 1940 b66e b13f 0e2d 2640
000002b0: 2212 2c40 28f6 8c3f 1a9e 2140 1565 2240
000002c0: 4856 bc3f 0325 853f 74db 3140 9fef 2140
000002d0: b00d 1140 19f5 433f 49f9 1a40 1f5d 1840
000002e0: 9c30 1f40 8dbe 2c40 4609 3240 7aeb 0e40
000002f0: 7c9d ac40 2f8f 0340 e33c 1f40 d09a 2740
00000300: 55a8 8c3f baf8 c43f a187 ce3f f605 1c40
00000310: 3942 733f b107 0a40 69e7 833f 8cf7 3540
00000320: a72c f1bd 1004 1640 d940 3440 a3e5 2040
00000330: 1af8 1140 6834 3440 c5b7 2d40 6acc 1940
00000340: a143 2a40 ab3c 0e40 5da5 9a3f 6c25 1b40
00000350: c9b9 3e40 723c ae3f 839d 2440 d238 aa3e
00000360: 5ccb a040 ef93 1440 cadd 1f40 1498 2a40
00000370: 193b 0a40 d3c6 1540 83c2 3b3f be79 d03f
00000380: 27c5 7c3e ae3d a840 cc6f 1640 3f10 d23f
00000390: 2533 d0be 31d6 2740 95b7 a040 7de4 af3f
000003a0: 2ec4 2b40 1b8a 4d41 a85e a240 3334 1b40
000003b0: dde7 1240 4315 2e40 d327 1040 9961 7d3f
000003c0: a567 0b40
0.86172724 2.9010477 2.278546 0.8383993 1.2796401 0.3678783 2.6035933 2.637706
2.2654512 0.6232912 1.0922834 1.3802992 -0.42129448 -0.22567666 2.2072194 2.415015
2.5842242 2.552702 2.4233747 2.4658246 1.5414649 2.4087708 2.1859977 2.493292
2.078495 1.2346978 1.2188066 2.4022248 2.6588483 1.2842 1.2374666 1.7907797
5.136584 2.457426 2.297575 1.9789463 2.3353183 2.5201015 2.2861667 2.3142786
2.357536 2.6715934 0.9462881 2.3718677 2.3016388 2.3570225 2.6079242 2.2806926
2.5569327 0.8053241 0.45245975 2.5491836 2.4573665 2.6617305 1.9212006 1.283266
2.8251338 0.36063054 2.1286187 1.4494157 1.8195744 2.6256118 2.4253404 1.161947
0.47051877 2.3947575 1.2699416 5.4444056 4.6741877 2.4764416 2.4257746 1.2377521
2.1924517 2.350355 2.8564293 2.5764875 2.515388 2.283994 2.7130294 2.3616695
2.557694 0.8705628 2.4304922 2.580115 0.4328934 0.8762342 1.0198038 2.5138521
0.98428017 2.120394 2.662103 2.685455 1.9922934 2.3198748 2.914255 1.397725
2.6933246 4.722477 2.466109 1.7134558 2.0265245 1.7423481 3.142491 2.2773228
2.4678266 0.75630325 2.5508585 1.4024009 1.8073734 1.3466264 2.3900962 1.145434
2.4417431 1.8405244 2.6588318 2.6354587 2.360181 0.5799056 4.6130548 2.504289
2.4272156 1.4976848 2.4633937 2.4371345 1.0103121 2.42032 0.8574219 0.98843586
2.5868297 2.695388 0.5753864 2.3658383 1.5801566 0.53869927 1.712184 2.232161
2.4786644 2.2764955 2.3736186 3.2116923 2.4464123 0.19859815 1.5505155 2.4269164
1.5559051 2.3595085 2.109672 2.28482 1.0964077 1.4649721 2.878554 2.4850972
1.7928095 1.1483508 2.6308348 2.4038396 2.4060144 0.14759931 2.4932575 1.627339
2.403333 2.5506706 2.2855244 0.25152352 1.070135 1.9255694 2.229042 2.2251275
0.98460025 2.3920715 1.3861911 2.5965 2.6886067 1.1012621 2.5252748 2.5374196
1.4713831 1.040192 2.7790194 2.5302503 2.2664604 0.76545864 2.4214652 2.3806837
2.487342 2.6991303 2.781816 2.2331223 5.394224 2.0556142 2.4880912 2.618824
1.0988871 1.5388405 1.6135141 2.4378638 0.9502292 2.1567194 1.0304996 2.843234
-0.11776095 2.343998 2.816458 2.514016 2.280768 2.8156986 2.7143414 2.4031014
2.6603777 2.2224529 1.2081715 2.424159 2.9800894 1.3612196 2.5721138 0.33246475
5.024824 2.3215292 2.497912 2.665532 2.159857 2.3402603 0.73343676 1.6287153
0.24684583 5.2575293 2.3505735 1.6411208 -0.4066402 2.6224482 5.02241 1.3741604
2.6838489 12.846217 5.0740547 2.425061 2.2954018 2.7200477 2.2524307 0.9897705
2.178201

network.1.weight f4 [241]
00000000: 5d87 bb40 1a71 e140 6d35 f540 367d f340
00000010: 5d3c ac40 9794 d540 94a1 cd40 9166 e540
00000020: 386c e440 8943 e440 6274 ba40 270a dd40
00000030: 982f e740 46d0 b040 0854 b040 5a45 e940
00000040: fd14 e140 e830 e340 f4e9 c740 311d ca40
00000050: 59f3 0441 ee5c e240 d38b b040 31dd e040
00000060: adc1 db40 d73c d640 2b0c db40 7a51 d040
00000070: db5f bb40 35e1 ec40 0c11 ea40 b5a2 c140
00000080: e0c0 c940 84a2 da40 18a1 ca40 13a3 fa40
00000090: c73f d040 1ae2 c940 a0fe de40 9344 cd40
000000a0: 9196 e640 6912 ce40 334b e240 553c d940
000000b0: aefa ef40 bd18 d240 83ac d540 224e cd40
000000c0: 5d32 d240 d39b da40 142b f740 9113 c440
000000d0: 2d23 e040 fd90 d540 c792 bf40 2b2a ef40
000000e0: ef44 da40 871a ec40 e811 c640 dcf2 d540
000000f0: 4fb4 cc40 2446 b840 8c3b c940 c9da de40
00000100: 0cf9 eb40 c05b e340 0125 da40 06f6 c340
00000110: bf9c d040 6c18 dc40 7e4a c140 a29e fa40
00000120: ecd8 c140 7e6c df40 c82c c440 f945 bb40
00000130: cf9c e340 e4ce cd40 a93d f340 97a7 cf40
00000140: 0aa7 d840 4d12 ef40 4057 de40 2680 f540
00000150: 0f01 ee40 04bf e040 16c8 ec40 f0b0 db40
00000160: 4381 dc40 c57d e240 1219 d540 6ad8 d240
00000170: c086 d340 ddc5 de40 9542 c540 c71f e240
00000180: ff55 df40 b2e5 d140 818d d840 bf59 e840
00000190: 53a3 c240 212f f640 b184 c740 45b4 d340
000001a0: 287c ca40 94a6 df40 c86e b640 b303 dc40
000001b0: 131a e040 edf2 de40 58ab cd40 5ead e740
000001c0: 0ad0 bf40 26bb d840 8daa cf40 6638 c540
000001d0: 5646 d140 66e5 db40 1f4d f240 9bf5 dc40
000001e0: 6301 b240 e348 0341 eea3 f040 830f e140
000001f0: c97c e840 e8ed d740 cde8 dd40 b7a0 d940
00000200: 3e41 b140 8c70 b440 81a1 dc40 0c08 cf40
00000210: eb45 d240 007f b340 04b6 b640 67d3 d540
00000220: 5879 db40 d571 b240 468e d140 c614 cd40
00000230: e875 b840 5805 be40 6976 e340 ba3c c840
00000240: 83cb c340 c414 e440 b092 c240 9620 df40
00000250: 7561 cd40 3852 d440 d615 d940 043f b140
00000260: 3353 f740 a28b c940 fd64 d740 d188 d540
00000270: c264 dc40 93c2 d640 1024 b240 66aa f840
00000280: b82c f140 7c2e de40 db2d d040 5add c740
00000290: 28c6 e640 80ce df40 f3c7 be40 0682 b840
000002a0: f3fd b440 545c f040 91e2 e640 3513 e140
000002b0: deb3 c340 720e e640 cca0 e240 ec48 ea40
000002c0: 71fe e740 ec6c 0041 51b9 e640 5f56 d940
000002d0: 94aa cb40 1a3b ef40 249b de40 bd51 d140
000002e0: e76e d540 1c70 cd40 a833 df40 5e49 e140
000002f0: 2b84 d940 89b1 cf40 a22b e340 e299 f440
00000300: 67da df40 a1b2 c940 6bb1 0041 4912 e940
00000310: b067 e240 8080 d040 4ade ea40 2cd9 d440
00000320: f53e cd40 2db2 ee40 aca8 c240 f561 cb40
00000330: 79b3 cc40 fa56 b240 d858 c740 b620 f540
00000340: 0a74 da40 2f11 d340 bfd2 c340 a7d1 d040
00000350: 437b c240 752b a840 621a f540 1b08 e940
00000360: a68f b940 3d2c e040 10f5 ce40 e32b db40
00000370: e6e5 bb40 1577 de40 ba34 df40 1f5d d540
00000380: b3bf d240 a3bb b940 1b91 de40 6aa4 cf40
00000390: 09b3 bc40 12d4 d840 3e85 d340 1231 d840
000003a0: 8b2a d440 0cbb ea40 34b8 b840 9968 c940
000003b0: 0aaf d240 9e74 cf40 5e8c d540 07a1 df40
000003c0: b131 e140
5.860274 7.0450563 7.6627717 7.6090345 5.3823686 6.6743884 6.425974 7.1687703
7.1382103 7.133244 5.826707 6.9074893 7.22456 5.525424 5.5102577 7.289716
7.033812 7.09972 6.2473087 6.3160634 8.309411 7.073844 5.5170684 7.027001
6.867392 6.6949267 6.8452353 6.509946 5.855451 7.402491 7.314581 6.0511117
6.3047943 6.8323383 6.332165 7.8324065 6.5077853 6.3088503 6.968582 6.414621
7.2058797 6.4397473 7.0716796 6.7886147 7.4993505 6.56552 6.6773086 6.4157877
6.568648 6.8315215 7.7240086 6.1273885 7.004294 6.673949 5.986667 7.4738975
6.8209147 7.378238 6.189686 6.685896 6.3970103 5.758562 6.288519 6.964207
7.374151 7.10495 6.817017 6.123782 6.519134 6.877981 6.0403433 7.8318644
6.0577297 6.9819937 6.1304665 5.8522916 7.1128917 6.431505 7.601277 6.4892077
6.7703905 7.470984 6.9481506 7.671893 7.437629 7.0233173 7.3994246 6.865349
6.890779 7.0778527 6.6593103 6.5889177 6.610199 6.961653 6.1643777 7.066379
6.9792476 6.559289 6.7672734 7.2609553 6.082437 7.693253 6.2349477 6.6157556
6.327656 6.9890842 5.701023 6.8754516 7.003183 6.967154 6.427166 7.239913
5.9941454 6.7728453 6.489569 6.1631346 6.539836 6.8717527 7.571914 6.904981
5.5626693 8.205295 7.520011 7.0331435 7.2652326 6.7477913 6.934668 6.8008685
5.539214 5.6387386 6.894715 6.4697323 6.571035 5.609253 5.7097187 6.682056
6.8585625 5.5763955 6.5486174 6.408786 5.764393 5.9381523 7.1082044 6.257413
6.1185927 7.127535 6.080406 6.972728 6.4181466 6.6350365 6.7839155 5.5389423
7.728906 6.298295 6.7310777 6.672951 6.8872995 6.7112517 5.566902 7.7708006
7.536709 6.9431744 6.5055976 6.2457705 7.211689 6.9939575 5.961908 5.765872
5.6559997 7.5112705 7.215157 7.0335946 6.1157064 7.1892633 7.0821285 7.3214016
7.2498097 8.026592 7.2101216 6.7917933 6.3645725 7.4759645 6.956438 6.541228
6.669788 6.419935 6.9750557 7.040206 6.797384 6.490422 7.0990763 7.6437845
6.9954104 6.3030553 8.043315 7.283482 7.075157 6.515686 7.339635 6.6515102
6.413935 7.45925 6.08309 6.3557076 6.3969083 5.5731173 6.229595 7.660243
6.826665 6.5958476 6.119476 6.5255923 6.0775466 5.255305 7.6594706 7.2822394
5.798785 7.0054 6.467415 6.8491073 5.871814 6.9520364 6.9751863 6.6676173
6.585901 5.804155 6.955213 6.48882 5.896855 6.7758875 6.610015 6.75599
6.630193 7.335333 5.7724857 6.2940183 6.583867 6.4829855 6.6733847 6.9884067
7.037316

network.1.bias f4 [241]
00000000: dc47 f5bf 0292 7340 ad96 86c0 a2ff 65c0
00000010: 7f00 87bf f043 50c0 6e50 c93e 0bb7 33c0
00000020: 34fd 4bc0 305d 81c0 e45f 0abf db6e 3fc0
00000030: b20e 78c0 747c e3bf b6ff ccbf 7625 88c0
00000040: 5fa8 5dc0 8e5c 4ac0 31b0 10c0 dff4 1ec0
00000050: 8c10 c8c0 5252 50c0 8f09 7bbf 10b9 f6bf
00000060: d675 5fc0 66c3 3ec0 0945 70c0 f34e 28c0
00000070: 5713 4dbf b51f 82c0 f018 95c0 75a3 13bf
00000080: ed5b 5540 edc6 ac40 ec15 5dc0 df9a 89c0
00000090: e1ff 46c0 e2bb d4bf ad8c 35c0 4d2c 45c0
000000a0: e397 70c0 480c 4940 5eef 2fc0 8fb9 8ec0
000000b0: 8247 a7c0 1df8 1dc0 409c 21c0 d280 23c0
000000c0: 2164 2c40 6e74 32c0 f4e2 a1c0 6f30 adbf
000000d0: 34b9 58c0 c10d 3cc0 2e1a 45bf 9826 81c0
000000e0: 4521 bc40 b804 40c0 d242 3cc0 1b01 54c0
000000f0: 44d9 08c0 a1da 0fc0 37e7 edbf 6261 6cc0
00000100: 7e1e 82c0 4ad2 25c0 e560 81c0 1faa 8340
00000110: 1436 da40 6b12 eebf 8938 f9bf 9346 9dc0
00000120: d878 62c0 6ff8 6ec0 a52e 3240 7be5 bcbf
00000130: 6cff 3ac0 2acd 22c0 765e 7dc0 6adc 36c0
00000140: 2fbd 39c0 d760 8ac0 589a 2840 a4bf 9bc0
00000150: 893a 88c0 9801 85c0 91c8 72c0 bcdc 2ac0
00000160: 9e84 d5bf 774d 1dc0 2690 7640 ecd6 9f40
00000170: 205c 0fc0 4143 34c0 1705 7d40 e3a0 59c0
00000180: 0b3b 6ec0 7a7c 9e40 9a62 82c0 6b50 43c0
00000190: 4715 0bc0 46fa 9dc0 5acb 263f 8d58 e8bf
000001a0: ccfb 0bbf 6762 a9bf 06d1 aebf 0750 0ec0
000001b0: 0587 1ec0 533b 71c0 02db 5fc0 a049 6cc0
000001c0: 9db0 9cbf 9bb4 71c0 c4f1 31c0 df92 4fc0
000001d0: e707 2dc0 2c1d 86c0 993a 6140 d095 3ac0
000001e0: b7d9 8bbf d3c2 8fc0 341d a0c0 86ea 44c0
000001f0: 1a17 6bc0 3943 3fc0 90d1 4ec0 168c 64c0
00000200: 72e7 e4bf 1564 64bf 33ef 57c0 d40c 30c0
00000210: 3e6a f9bf 658d abc0 59de afbf 9a5b 53c0
00000220: fabf 15c0 80a3 9bbf 13e1 2cc0 f525 3b40
00000230: 5d34 b9bf ba08 0cc0 8b49 47c0 69e5 31c0
00000240: 4877 10c0 9387 7240 aa7c 9fbf 8556 5fc0
00000250: 497e 17c0 50b7 0dc0 39c5 a53f aafa fdbf
00000260: 0164 43c0 7212 c9be 7ecc 8fc0 b1f6 0ac0
00000270: 9240 be40 214d 55c0 8fd9 08bf 2fb9 7ec0
00000280: ca70 5ac0 a6e1 3ac0 1dce 48c0 823b 52c0
00000290: 07de 50c0 626d 61c0 f439 aabf a076 a2bf
000002a0: 8653 85c0 aedd 5fc0 f5dd 6ac0 8136 05c0
000002b0: 2e1c bd3f a000 57c0 3c55 91c0 95ea 3ac0
000002c0: 17b4 a8c0 6d57 b5c0 93db 09c0 4f65 57c0
000002d0: 45f5 77bf a8a8 92c0 a460 43c0 d7f7 2dc0
000002e0: b65d 9dbf 798e 9e40 9d2d 04c0 c41b 44c0
000002f0: f338 9140 4b6e 54c0 2965 6cc0 e6d1 77c0
00000300: 931b 1bc0 df09 dbbf 48dd 93c0 f601 67c0
00000310: 56b3 8cc0 ce08 4cc0 fff8 74c0 608a 63c0
00000320: 7c53 7bc0 a7a5 80c0 5f00 f5bf 7524 36c0
00000330: 3af3 2bc0 307e eb40 5832 2ec0 361a 53c0
00000340: 9c82 58c0 68c6 07c0 d76b f5bf 8447 05c0
00000350: 323e 8a40 8ede 73bf 90d0 1cc0 80f2 8cc0
00000360: 815c 0f40 7dfd 5fc0 84b2 8cbf 3c3a 9c40
00000370: 52b3 71bf 859a 8cc0 546f 35c0 e5e6 7dc0
00000380: e2a0 47c0 b272 5c40 2938 1ac0 199b 3fc0
00000390: 7362 ccbf bc03 67c0 e6d1 8f40 da43 52c0
000003a0: 8059 d5bf 8457 7c40 e5ab 8c40 3beb 75c0
000003b0: 919f 63c0 dcbd 0fc0 568b 40c0 0937 60c0
000003c0: 9d77 85c0
-1.9162555 3.8057866 -4.205893 -3.5937276 -1.0547026 -3.2541466 0.39319175 -2.808047
-3.1873293 -4.0426254 -0.5405257 -2.991141 -3.875897 -1.7772355 -1.6015537 -4.254573
-3.4634016 -3.161899 -2.2607539 -2.4836957 -6.25202 -3.2550244 -0.9806146 -1.9275227
-3.4915671 -2.9806762 -3.7542136 -2.6298187 -0.80107635 -4.0663705 -4.659294 -0.5767129
3.3337357 5.399283 -3.454463 -4.300155 -3.1093676 -1.6619837 -2.8367112 -3.080829
-3.7592704 3.1413746 -2.7489848 -4.460151 -5.227479 -2.4682686 -2.5251617 -2.5547376
2.6936114 -2.7883563 -5.0589542 -1.3530406 -3.386304 -2.9383395 -0.7699307 -4.035961
5.879061 -3.000288 -2.9415784 -3.3125675 -2.1382608 -2.247719 -1.8586186 -3.6934438
-4.066222 -2.59096 -4.043078 4.1145167 6.8191013 -1.8599371 -1.9470378 -4.914865
-3.5386257 -3.7339132 2.784097 -1.4757532 -2.9218397 -2.5437722 -3.9588904 -2.857203
-2.9021719 -4.3243213 2.6344204 -4.8671436 -4.2571454 -4.1564445 -3.7934916 -2.6697226
-1.6681097 -2.457853 3.8525481 4.9949856 -2.2399979 -2.8166049 3.9534357 -3.4004447
-3.7223537 4.952695 -4.0745363 -3.0517833 -2.1731737 -4.936801 0.6515404 -1.8152024
-0.54681087 -1.3233155 -1.3657539 -2.2236345 -2.476991 -3.7692459 -3.4977422 -3.6919937
-1.2241398 -3.7766483 -2.7803812 -3.2433393 -2.7036073 -4.191061 3.5192015 -2.9153938
-1.0925816 -4.4925323 -5.003565 -3.0768142 -3.673285 -2.988478 -3.2315407 -3.5710502
-1.7883132 -0.89215213 -3.3739746 -2.750783 -1.9485548 -5.36101 -1.373973 -3.302466
-2.3398423 -1.2159271 -2.7012374 2.9241917 -1.4469105 -2.1880326 -3.1138637 -2.779627
-2.2572803 3.7895248 -1.245992 -3.4896557 -2.3670828 -2.2143135 1.2950813 -1.9842122
-3.0529788 -0.39271885 -4.4937124 -2.1713068 5.945382 -3.3328326 -0.5345697 -3.9800527
-3.413134 -2.9200225 -3.1375802 -3.284882 -3.2635515 -3.5223012 -1.3298936 -1.2692451
-4.1664457 -3.4979053 -3.6697972 -2.0814517 1.4774225 -3.3594131 -4.5416546 -2.9205678
-5.2719836 -5.666922 -2.1540267 -3.3655584 -0.96858627 -4.583088 -3.0527735 -2.718252
-1.2294223 4.9548917 -2.065284 -3.0641947 4.538202 -3.3192317 -3.6936743 -3.8721862
-2.423558 -1.7112387 -4.620762 -3.6094947 -4.3968916 -3.1880374 -3.8276975 -3.5553207
-3.9269705 -4.020221 -1.9140738 -2.8459752 -2.6867204 7.3591537 -2.7218227 -3.2984748
-3.3829718 -2.1214848 -1.9173535 -2.08249 4.320092 -0.95261467 -2.4502296 -4.404602
2.240021 -3.4998467 -1.0991979 4.8821087 -0.94414246 -4.3938622 -2.83492 -3.9672177
-3.1191945 3.4445004 -2.4096777 -2.9938414 -1.5967544 -3.609603 4.4943724 -3.2853913
-1.6667938 3.9428415 4.395983 -3.8424823 -3.5566142 -2.245963 -3.0085044 -3.503359
-4.170851

network.1.running_mean f4 [241]
00000000: d3d6 643f b273 3a40 a9db 1040 2392 523f
00000010: 4343 9e3f 3be7 eb3e 2352 2840 90be 2940
00000020: 9201 1540 81de 263f 3f9c 903f ec23 b63f
00000030: 3327 fcbe 65af 5cbe 9f61 1040 afbf 1a40
00000040: f8be 2340 b42a 2640 9991 1b40 47d8 1d40
00000050: c2f8 c53f 98af 1840 0a11 0740 af94 1e40
00000060: 5794 0640 b7f1 973f af4a 9a3f c3aa 1a40
00000070: 5d01 2c40 10cb 9e3f a311 993f 9d66 df3f
00000080: 7a00 a440 915a 2140 b44c 1140 6c99 fd3f
00000090: 7b8f 1840 9c2f 2140 902e 0f40 f4fc 1540
000000a0: 204e 1340 e39e 2a40 cbdf 743f f4ad 1340
000000b0: a09f 1440 042f 1640 3161 2640 4566 1640
000000c0: 9ba4 2240 19e4 543f b7d2 db3e df12 2240
000000d0: 1a11 1b40 a5ff 2640 c25e f13f e278 a13f
000000e0: 8c08 3340 12c7 9e3e c24b 0740 1743 ae3f
000000f0: 10d9 e63f e1dd 2640 77a6 1b40 9cda 963f
00000100: 0eb9 f43e 2c2c 1b40 1702 b03f 2c76 ad40
00000110: 0db6 9540 0204 1d40 0a69 1840 1359 a23f
00000120: bc65 0c40 5ae8 1940 69f8 3740 bda7 2440
00000130: 4695 2340 95b7 1340 0da5 2d40 895b 1440
00000140: 8e39 2140 34b3 5d3f e3e8 1840 1672 2240
00000150: 2e89 c63e a0b5 573f 2c10 7b3f 19be 2240
00000160: 9a38 7e3f 5b17 0640 78cf 2a40 3948 2c40
00000170: c637 f83f 10b8 1240 3b16 3c40 f9ca b03f
00000180: 983c 3140 6b99 9840 448f 1d40 f06e d93f
00000190: 3ef7 ff3f d416 d73f c2c8 4c40 153e 1140
000001a0: 8207 1c40 0ff1 5c3f cdad 2040 0140 ba3f
000001b0: 950c e53f ba19 ac3f cab7 1c40 a912 933f
000001c0: ffb4 1c40 4f3a eb3f b5a3 2940 d108 2840
000001d0: 0613 1640 ff0f 213f 0bb6 9240 9632 2040
000001e0: 7562 1d40 08b9 c03f 5a87 1c40 32a8 1940
000001f0: 0ad3 5d3f 7f15 1b40 e4ea 6b3f 3f82 833f
00000200: a58f 2340 d590 2a40 2bdf 1d3f 52e9 1540
00000210: 25f0 cc3f a2d8 153f fd25 d93f 3806 0d40
00000220: ab53 1d40 449c 1040 12cb 1540 78d0 4d40
00000230: dd28 2140 af6a 733e 2722 c43f 705f 1f40
00000240: 3b78 ca3f 4ce5 1540 d9c0 0940 44c1 1040
00000250: 1cf6 953f 8f95 b93f 0cc1 3b40 499f 2240
00000260: fe3f e63f 70c1 8f3f a355 2440 2b0f 1b40
00000270: c661 1740 3f8b 103e cd00 1e40 917d d23f
00000280: 3e4c 1840 0894 2740 2cfa 1240 6a01 213e
00000290: dc27 8b3f ffe6 f43f e84d 0c40 cda0 0f40
000002a0: 930c 7b3f a6a8 1b40 7804 b73f d769 2740
000002b0: c630 2e40 1775 963f 3e6f 2340 3e21 2440
000002c0: 2b30 be3f 54d7 8c3f 1da2 3440 1bdb 2240
000002d0: 5670 1440 03e9 393f 0881 1840 f58b 1740
000002e0: 411d 2240 3847 2d40 f7fa 3240 e7cd 0b40
000002f0: e9ce ad40 e785 0040 55e6 2140 b28d 2740
00000300: 91d8 823f 5b50 c73f 6955 d33f 0fd2 1d40
00000310: 5ca5 713f 74a0 0b40 0c80 8c3f 9585 3640
00000320: 8135 1dbe 74bd 1740 6aab 3340 5a25 2540
00000330: be2f 1340 0ae8 3140 b2e6 2b40 4c65 1840
00000340: 3e29 2840 e942 1140 11e2 9a3f 22e0 1c40
00000350: ab1f 3c40 06d8 b73f 8839 2540 1e95 a73e
00000360: fcb8 a040 06f3 1340 cff7 1f40 7313 2a40
00000370: 6473 0b40 1fbc 1940 084f 3e3f 8f22 d43f
00000380: 1e77 493e 8087 a740 3a95 1740 f072 d33f
00000390: 5f29 c4be 445d 2840 48dd a040 5683 a73f
000003a0: 94ca 2a40 60de 4d41 06b0 a040 22a4 1a40
000003b0: ff48 1040 89e8 2e40 73fa 0c40 2d81 763f
000003c0: 00a1 0740
0.89390296 2.9133115 2.263407 0.82254237 1.2364277 0.46074852 2.6300132 2.652256
2.3282208 0.65183264 1.1297683 1.4229712 -0.49248657 -0.21551283 2.2559583 2.4179494
2.5585308 2.5963564 2.4307616 2.4663255 1.546654 2.3857174 2.110415 2.477825
2.102804 1.187064 1.2054042 2.4166725 2.6875832 1.240572 1.1958507 1.745319
5.125058 2.5211527 2.2703066 1.9812446 2.3837574 2.5185308 2.237217 2.343564
2.3016434 2.6659477 0.9565398 2.3074923 2.3222427 2.3466196 2.599682 2.349992
2.5412967 0.8316055 0.429342 2.5324018 2.4229188 2.6093533 1.8857043 1.2615016
2.7973967 0.31011254 2.113999 1.3614224 1.8034992 2.6072924 2.4320352 1.1785464
0.47797436 2.424571 1.3750638 5.4206753 4.678473 2.4533696 2.381411 1.2683433
2.1937094 2.4048066 2.8745368 2.572738 2.555986 2.30808 2.713199 2.3180869
2.5191379 0.8660157 2.3892143 2.5382133 0.38776535 0.8426151 0.9807155 2.5428526
0.9930512 2.0951755 2.668913 2.6919081 1.9392021 2.2924843 2.9388568 1.3811942
2.7693233 4.768728 2.4618692 1.698698 1.9997327 1.6803842 3.1997533 2.2694142
2.4379582 0.86305326 2.510608 1.4550782 1.7894465 1.3445351 2.4487176 1.149007
2.4485471 1.8377169 2.650617 2.625538 2.344911 0.62915033 4.584722 2.5030875
2.4591343 1.5056467 2.4457612 2.4008908 0.86650145 2.423187 0.9215529 1.0274123
2.5556424 2.6650898 0.6166865 2.3423657 1.6010786 0.5853368 1.6964718 2.2035046
2.4582317 2.2595377 2.3405194 3.215849 2.518119 0.23771165 1.5322922 2.4902
1.5817941 2.3421202 2.1523955 2.261796 1.1715732 1.4498767 2.9336576 2.540972
1.7988279 1.1230907 2.5677269 2.4228008 2.3653426 0.14115618 2.4687989 1.644457
2.3796535 2.61841 2.2965193 0.15723196 1.0871539 1.9132994 2.192255 2.2441895
0.9806606 2.4321685 1.4298239 2.615835 2.721727 1.1754483 2.5536647 2.564529
1.485845 1.1003213 2.8223946 2.5446231 2.3193564 0.7262117 2.3828754 2.3679173
2.5330355 2.7074718 2.7965677 2.1844423 5.4315076 2.0081728 2.5296834 2.6180234
1.0222341 1.5571398 1.651044 2.465946 0.94392943 2.1816683 1.0976577 2.8519032
-0.15352441 2.3709383 2.8073373 2.5804048 2.299789 2.7797875 2.6859555 2.3811827
2.6275172 2.2697089 1.210024 2.45118 2.9394329 1.43628 2.5816364 0.32730955
5.022581 2.311708 2.4995 2.657437 2.178918 2.402107 0.7433934 1.6573046
0.19674346 5.2352905 2.368483 1.6519451 -0.38312814 2.6306925 5.027012 1.3086956
2.6686144 12.866791 5.021487 2.4162679 2.2544553 2.7329428 2.2027862 0.96290857
2.1192017

network.1.running_var f4 [241]
00000000: bad5 1e40 a18c 0e40 cbac 0f40 7704 0540
00000010: 447b 2140 90a9 3440 36ee 1340 e738 2340
00000020: c40d 0740 cd56 0640 1f95 1940 5db6 7e40
00000030: 5c25 0740 1641 1040 8f46 2340 7fe5 0c40
00000040: 064e 1e40 2058 2140 73ab 3b40 bed1 1b40
00000050: 4115 0640 e8f6 1040 2509 1640 ea80 2240
00000060: 7574 1a40 2db3 4840 128e 0840 8eda 1940
00000070: 7bf5 3940 57d7 0940 c624 0840 37e1 4240
00000080: 703d 1b40 a684 1240 2a96 0a40 866b 1440
00000090: fdea 2140 12d0 0f40 5fc4 4f40 2048 1540
000000a0: 22ce 2a40 3d15 1340 b0ad 1140 2840 0f40
000000b0: 34b9 0540 c126 2240 0fff 3140 d792 1440
000000c0: 58f7 1040 f191 1940 44c8 fc3f 56b4 1b40
000000d0: cb3f 1740 c965 1340 c973 b340 32a1 0b40
000000e0: 062d 1740 ded3 0540 ca7d 1140 ab39 2240
000000f0: c4df 1b40 4007 2240 e74d 2f40 0d20 0f40
00000100: ab68 0240 702a 2f40 4709 2041 ad58 1840
00000110: 08fe 1340 b04a 2440 91b4 2d40 8f0b 0740
00000120: 98e1 1140 7412 1040 eae1 1140 7eaf 0a40
00000130: f363 0b40 6946 1640 7578 1240 8e5a 1240
00000140: e062 1240 e372 0840 e501 1540 5177 1440
00000150: d441 0a40 ac8b 0240 2e03 0c40 dda2 1d40
00000160: 4933 3640 4835 2040 de27 1640 29be 1140
00000170: c0a7 1440 45b2 1140 9c51 1140 ff3e 1340
00000180: 9bd6 0f40 5422 1040 62fe 1340 dc99 0d40
00000190: cf3e 2740 10ba 0140 09b4 1140 293f 2540
000001a0: c349 1040 1bb4 5340 78dc 1a40 0b83 2440
000001b0: 22d0 3840 7210 2b40 5df5 0e40 ab85 1340
000001c0: 107e 2340 e19b 0940 5183 1f40 e019 1a40
000001d0: d584 2e40 ef6e 3f40 c418 0d40 18e3 2140
000001e0: e470 1440 f8e3 0440 2c87 0340 691a 1040
000001f0: 2573 8f41 fa15 0b40 ee0a 1440 3e9c 0240
00000200: 9f7e 1e40 f339 1a40 d924 0240 60f9 2340
00000210: 461d 1940 9129 f73f d06d 3240 ee49 1d40
00000220: 7fd5 2a40 d347 4940 bf8a 3040 c19a 1840
00000230: 7d49 3440 93ba 0340 63a0 1a40 b247 2b40
00000240: 1028 0e40 0169 1340 caea 2e40 5090 1240
00000250: 9468 0a40 ebd3 2540 379c 0f40 e6cb 2a40
00000260: 6825 2140 0457 2540 3cd3 0940 9082 1d40
00000270: edcd 1940 7374 0a40 71a1 3740 51cf 0740
00000280: 552d 0b40 81ee 1b40 0358 1140 a4f2 2c40
00000290: ee98 1740 8652 1040 be1e 1940 77f6 1740
000002a0: 7dc4 0040 5420 0f40 270c f93f f788 5540
000002b0: f3d0 0f40 ca25 0940 9911 0e40 c581 2a40
000002c0: 3347 0140 ac16 e83f 7f3f 2440 ab64 0f40
000002d0: a98e 2f40 ba04 0b40 c2e3 0e40 5c19 3640
000002e0: 65b6 2940 6b1b 1740 1c62 3740 2af3 1c40
000002f0: 630c 1140 2d2b 1240 871d 1540 0a24 0f40
00000300: dcce 2740 167a 2b40 f21b 0740 e536 1640
00000310: fe6d 0d40 a492 1540 3e5f 0240 0518 0b40
00000320: 1ec0 8140 3358 1040 a73a 1840 9df0 0f40
00000330: 1bdd 2340 3aec 1540 9ef9 1040 33c2 1b40
00000340: 9845 1040 61f2 1f40 1cc3 3440 ca37 2940
00000350: 06b5 0e40 90e5 3d40 9f0b 2740 ec49 0440
00000360: 0c78 0f40 5969 2440 c96e 1940 0c1e 1840
00000370: b8e4 3940 0630 fe3f 29cd 0340 8a98 0d40
00000380: beb3 0240 99a8 1440 bbf2 0d40 be9d 0740
00000390: 1036 1140 e3bf 1040 5d27 0e40 aeba 1840
000003a0: ab58 2340 b676 1340 6703 1340 d68d 0a40
000003b0: 8f3c 1240 de17 3740 7ac9 1e40 d7bb 0b40
000003c0: bb9a 0d40
2.4817948 2.2273333 2.2449214 2.0783975 2.5231485 2.8228493 2.3114142 2.550348
2.1102152 2.099048 2.3997266 3.9798806 2.1116552 2.2539725 2.5511816 2.2015073
2.4735122 2.5210037 2.9323394 2.4346766 2.0950472 2.26507 2.3443081 2.5391183
2.413358 3.135936 2.1336713 2.4039645 2.905608 2.1537683 2.1272445 3.044996
2.4256248 2.2893462 2.1654153 2.3190627 2.5299675 2.2470746 3.2463605 2.3325272
2.6688313 2.2981713 2.276226 2.2382908 2.089429 2.5336154 2.7811925 2.3214624
2.2650967 2.3995326 1.9748616 2.4328818 2.3632686 2.3030875 5.607884 2.1817136
2.362123 2.0910563 2.2733026 2.5347698 2.4355326 2.5316925 2.7391298 2.2363312
2.0376384 2.7369652 10.002265 2.3804123 2.3123798 2.5670586 2.714146 2.1100805
2.2793941 2.2511263 2.2794137 2.1669612 2.1779754 2.3480475 2.288602 2.286777
2.2872849 2.1320121 2.3282406 2.3197825 2.1602678 2.039775 2.187694 2.4630654
2.8468802 2.503252 2.3461833 2.2772315 2.3227386 2.2765057 2.270606 2.30072
2.2474735 2.2520952 2.3124013 2.2125158 2.6132085 2.0269814 2.2766135 2.58198
2.254502 3.3078678 2.4197063 2.5704982 2.8877034 2.6728787 2.2337258 2.3050334
2.5545692 2.150139 2.49239 2.4078293 2.7268574 2.9911458 2.2046366 2.5294857
2.3193903 2.076414 2.0551252 2.251612 17.931223 2.1732163 2.313167 2.0407863
2.4764783 2.409787 2.033499 2.5620956 2.3924117 1.930956 2.7879524 2.4576373
2.6692808 3.1450088 2.7584684 2.3844454 2.8169854 2.0582626 2.4160392 2.676251
2.2211952 2.303284 2.7330804 2.2900581 2.162633 2.5910594 2.2439096 2.668695
2.517908 2.583436 2.1535177 2.461094 2.4031937 2.1633575 2.8692286 2.1220286
2.1746418 2.4364321 2.2709968 2.7023096 2.368709 2.2550368 2.3925014 2.374418
2.0119927 2.2363482 1.9456834 3.3364847 2.2471282 2.1429315 2.219824 2.6641705
2.0199707 1.8131919 2.5663755 2.2405193 2.7430823 2.1721635 2.2326512 2.8452978
2.6517575 2.3610485 2.8653631 2.4523416 2.266381 2.2838852 2.3299272 2.2365746
2.6220007 2.6793265 2.1110806 2.3471005 2.2098384 2.3370752 2.0370631 2.173341
4.054702 2.2553833 2.3785799 2.2490609 2.5603702 2.3425431 2.2652354 2.433728
2.2542477 2.4991686 2.8244085 2.64403 2.2297988 2.9671364 2.6100843 2.0670118
2.241702 2.56893 2.3973868 2.376834 2.904585 1.9858406 2.059397 2.2124352
2.0422206 2.3227904 2.21794 2.1190028 2.2689247 2.2617118 2.2211525 2.386394
2.5522869 2.3041205 2.2970827 2.164907 2.2849462 2.8608317 2.4810472 2.1833398
2.212569

network.4.weight f4 [246, 241]
00000000: 335d 1ec0 e36b f440 a8a5 73c0 5921 82c0
00000010: 7ce7 6940 7383 50c0 1be8 0e41 b525 1ac0
00000020: af05 dbc0 78fb 3dc0 2b81 a940 a4b3 8e40
00000030: 4b1b 2f41 198a b0c0 b932 163f daa5 3240
00000040: 77e9 b03f 6206 4040 31d7 bf40 c5ff a03f
00000050: 8ebf 54bf c77a 3bc0 23b3 4cc0 d05b d03f
00000060: f1a0 e340 21d7 f1c0 92ec 7abf 7821 2241
00000070: d702 d740 d56a e5c0 f86e 1641 e86e 89c0
00000080: 6057 0541 6b62 073f 71d9 0541 015e d840
00000090: 401c 643f 6ea9 5d40 a1e1 b3bf 673b 3a40
000000a0: 8e9b 31bf e3de 5741 ba15 6c40 84a9 c340
000000b0: 8179 a040 bd3a b5be d351 6a3f 3412 6c40
000000c0: 3e16 0e40 1c71 2840 ff08 883f 6977 8440
000000d0: 1c1b 303f 3b5c a7c0 ccef 8a40 a42d 2ac0
000000e0: b43c 0e41 4e6d 11c0 c622 c340 b283 dec0
000000f0: bb3f 8a3f 271d 8640 2ef5 1ac0 19dd 19c0
00000100: 9ded d7bd 32da 46bf 8d29 c5bf 1859 ab40
00000110: 1563 fa40 7368 4740 d739 b13f 7f53 b8c0
00000120: bd20 47bf 7dee 39c0 aac7 c940 a636 0840
00000130: 1c89 da40 c72c 8040 469d f23f 7917 bebf
00000140: a1e9 353f f383 973f 03a6 8f40 b32c 52be
00000150: 5de8 cbc0 72c0 61c1 ff55 dc3f 3082 5740
00000160: 5aa2 91bf 5287 19c0 04dc f740 d439 1a41
00000170: 8182 f63f 6b3d 0e41 14f8 3a41 6c47 6140
00000180: fa4c 02c0 f450 2341 f7dd ccbe 6f1d 73bf
00000190: 92ad 05c0 bcca 8ec1 8fe2 a6bf 63f4 92c0
000001a0: 3005 6f41 2980 2abf b8f5 dc3f 5268 a33f
000001b0: 7323 a840 3f25 94bf 2cbf 57c0 0fb0 85c0
000001c0: fcb9 15c0 5bbd f0c0 011e 4240 382e 28c0
000001d0: 07b9 21bf ac56 bac0 2edd 9940 d839 e7be
000001e0: 9f2e 6e40 2956 8cc0 57e9 99bf 3e59 983f
000001f0: c00d a240 56da 86bf 471f 643f 30e7 e2c0
00000200: d401 4a40 2f60 023e 6053 0940 ca01 123e
00000210: a6b2 da3f c000 5240 0890 ee40 64ea 8dc0
00000220: feeb 503f d9b8 af3f 0f8e fb3f 20f7 0cc0
00000230: 5897 acbf 6552 e83f 0131 c13f ec3e 70c0
00000240: 4e09 0dc0 750d c540 6b96 bc3f 39fa ad40
00000250: c5c2 7dc0 a005 1bbf a90a 3f40 d152 c140
00000260: f3f8 89bf 8f7d 2fbf d42e c9c0 676b 97c0
00000270: 510a 2d41 be16 44c0 f038 0041 cedf 16c1
00000280: 8669 1abe 3251 3bbf 55c2 25c1 6478 f53f
00000290: a490 0940 e67e 31c1 9e98 bd3f f3ca ce40
000002a0: 734a ef3f bc7c 3841 e434 8040 24bc 6abe
000002b0: e9b7 4241 fb5a a5c0 0af8 a140 1999 d440
000002c0: c61b 7840 aef7 683f 0612 a640 88b6 0740
000002d0: af10 933f 1623 0641 f65a 9f40 64a5 7e3f
000002e0: 7057 9abe ebfb 6540 c3d4 18c0 cdad cd40
000002f0: fe49 0e41 8819 c440 8a44 0040 a4a4 6140
00000300: 94b9 4840 0797 063f 2ba2 683e cdfe 61c0
00000310: ad78 9240 e275 0ac0 8172 7f3e 3226 8940
00000320: 99b8 c6bf 0f3f d740 4ccc 993f e47d 10c1
00000330: d6cc 6fc0 927d 1540 2962 d140 85be 02bf
00000340: 4a3e d240 f0c9 b240 2bc9 df3e af3b 4ebe
00000350: 7be7 e740 3b55 1740 50d0 943f c748 55c0
00000360: c68f b640 0e5a 7740 3ec4 b63f dc49 2c41
00000370: 8fb2 6b3f 1f89 0ac1 220f d340 4059 1dbf
00000380: 1e27 7dbf f5cb a340 ebfd 99be 4929 6a3f
00000390: c4d7 0641 2592 5440 708b 78be 9013 fac0
000003a0: 5cb9 81c0 aa44 1441 69b3 00bf 0213 0341
000003b0: 1754 51c0 936e b4bf 1483 a6c0 c8fb d23e
000003c0: 9c66 c4c0 1372 4440 9615 92bf 509f 6e3e
000003d0: 4385 e03e 0ff7 c940 3b67 cb40 55c0 22c0
000003e0: b228 cf3f a7f0 50c0 59c4 8cc0 021a 1541
000003f0: 285a 513d 8a5e abbf 7196 1240 cef6 ca40
-2.4744384 7.63817 -3.8069859 -4.0665708 3.6547537 -3.258023 8.931666 -2.4085515
-6.844444 -2.9684734 5.2970176 4.459429 10.944163 -5.5168576 0.58671147 2.7913728
1.3821248 3.0003896 5.9950185 1.2578055 -0.8310479 -2.9293687 -3.1984336 1.6278019
7.113396 -7.557511 -0.9801723 10.133171 6.7190967 -7.169291 9.402092 -4.2947884
8.333832 0.5288455 8.365586 6.761475 0.89105606 3.4634662 -1.4053231 2.9098756
-0.6937798 13.491916 3.688826 6.114443 5.014832 -0.35396376 0.91531104 3.688611
2.2201076 2.6319036 1.0627745 4.1395764 0.68791366 -5.2300086 4.341772 -2.6590357
8.88982 -2.2722964 6.097995 -6.953576 1.0800699 4.1910586 -2.4212146 -2.4041197
-0.10543368 -0.7767669 -1.5403305 5.3546257 7.824595 3.11575 1.3845776 -5.7601924
-0.7778433 -2.9051812 6.305623 2.1283355 6.829237 4.005466 1.8954246 -1.4850913
0.71059614 1.1837143 4.489015 -0.20524864 -6.3721147 -14.109484 1.7213744 3.367321
-1.1377671 -2.3988843 7.7456074 9.639118 1.9258577 8.889995 11.685566 3.5199842
-2.0359483 10.207264 -0.40013096 -0.9496679 -2.088719 -17.848991 -1.303789 -4.5923324
14.9387665 -0.66601807 1.7262487 1.2766211 5.2543273 -1.1573867 -3.3710432 -4.1777415
-2.3394766 -7.5231147 3.0330813 -2.627821 -0.63172954 -5.82308 4.8082495 -0.4516132
3.7215955 -4.3855176 -1.2024335 1.1902235 5.0641785 -1.0535381 0.89110225 -7.090721
3.1563616 0.12732004 2.1457138 0.14258495 1.7085769 3.2812958 7.455082 -4.434862
0.81610096 1.3728286 1.9652728 -2.2025833 -1.3483686 1.8150145 1.509308 -3.7538404
-2.203693 6.1578927 1.4733404 5.4367948 -3.9650128 -0.6055546 2.9850256 6.0413594
-1.0779098 -0.6855096 -6.2869663 -4.7318606 10.815019 -3.063888 8.013901 -9.42964
-0.15079316 -0.7317077 -10.359944 1.9177365 2.1494532 -11.093481 1.48122 6.462274
1.8694595 11.530453 4.0064564 -0.22923332 12.1699 -5.167356 5.061528 6.6436887
3.8766952 0.9100293 5.1897 2.1205158 1.1489466 8.383566 4.9798536 0.99471116
-0.30144835 3.5935009 -2.387986 6.427466 8.8930645 6.1281166 2.0041833 3.5256739
3.1363268 0.525742 0.22718112 -3.5311768 4.577231 -2.163445 0.24946024 4.2859125
-1.5525085 6.7264476 1.2015471 -9.030735 -3.7468772 2.3357892 6.5432324 -0.5107196
6.5701036 5.5871506 0.43708166 -0.20139955 7.247007 2.364577 1.1626072 -3.332567
5.7050505 3.8648715 1.4278638 10.768032 0.92069334 -8.658477 6.5955973 -0.6146431
-0.98887813 5.118647 -0.30076537 0.91469246 8.427677 3.32142 -0.24271941 -7.814888
-4.053877 9.266764 -0.5027376 8.192141 -3.2707574 -1.4096245 -5.2035007 0.4120772
-6.1375256 3.0694625 -1.1412838 0.2330296 0.4385167 6.3114085 6.3563514 -2.542989
1.6184294 -3.2646883 -4.398968 9.31885 0.05111137 -1.3388226 2.2904322 6.3426275

network.4.bias f4 [246]
00000000: a46a 1d3d 9caf 0b3d 6701 c0bc 0791 183d
00000010: 7a35 0dbc 4849 e83c f95e 0c3d 9461 14bd
00000020: b99b c5bb ad20 1dbd 542a 05bd 8527 1a3d
00000030: 0654 e73b d13a 6a3d abd5 3e3d eb4b 1e3d
00000040: a980 aabc c096 de3c 67e5 cb3c 8e3f 5fbc
00000050: ace7 ff3c 7ad1 6d3c 80f2 f93c e6f9 08bd
00000060: 83d6 3f3b 9c43 6e3d 699f 633d c890 063c
00000070: 30dd 89bd 2232 44bd 19ef 36bc 428a 62bd
00000080: 8db0 ce3c 9326 aabc 2036 093d 86a3 51bd
00000090: 2d83 1d3d 618f 293d c726 91bd 44a0 363d
000000a0: 8ccf f2bc 709a 3abd cca9 2f3d e40c 11bd
000000b0: f404 f2bc 94f7 4abd 6c08 003d fcc6 483c
000000c0: 91f4 78bd 12c1 2d3c a1ef 983c 21f0 b93c
000000d0: fff4 fabc d593 23bb dfd1 7a3c f377 b8bc
000000e0: 1d63 77bc b12d f93b 689d 97bb 76fd e2bc
000000f0: 6067 5ebd 1f47 9c3c 47f8 1f3d 1ad5 52bd
00000100: 6b9c 953c 41d8 083d 52b0 74bd 0a07 8bbd
00000110: be4b 7c3d 1453 663c d7c6 b13c 96f5 e7bc
00000120: c3de 2dbc 8b88 203d 17f3 163c c8c9 283d
00000130: bf16 a7bc c6e2 6c3d 820c 6d3d 0a36 fb3b
00000140: 3456 dfbb 3fe7 19bc bc98 5cbd e435 b13c
00000150: 20c7 acbd 95f7 1cbd dc0d 853b cd69 41bd
00000160: bae4 023d 7be6 f3bc 1f87 113d c1a7 3cbd
00000170: cfc4 86bd ea9c 213d cc51 54bc b1e9 c43c
00000180: fa48 abbd 7aac 0a3d a530 24bd 8fc1 8abc
00000190: 3ff6 23bd d3eb e03c 1976 71bb 016d 113a
000001a0: e63e 03bd 3709 103c 02b6 39bd 2322 313c
000001b0: 9fcb 5f3d 7e51 02bd 468f f5bc 3b85 d43c
000001c0: ed63 dc3c 8baf 9fbc 4ae6 983b 2380 033d
000001d0: 85b1 f43c 9675 f63c 14d0 323d 8e57 3f3d
000001e0: d9d1 49bd 5ac1 1d3d 878b 963c 7a74 7ebd
000001f0: f380 503d 872c 773d 789c 443b 92a7 75bd
00000200: acfb 30bd d9e5 50bd 040c 483d efce e53c
00000210: a75d b93b 4aba 5e3c 6593 1d3d e762 583d
00000220: 379b 993c d616 84bd 1cf6 4a3d 3c9f 123c
00000230: 22c4 8ebd 14dd 76bd 0d4b b2bb 6b24 fabc
00000240: 7ce4 ab3c 221c 3ebd 7658 413d 9a2e a13b
00000250: 3657 dfbc 1c03 f3bb e2d8 85bd 29f3 413c
00000260: 3437 973c 158a 303d eca5 6abd 8cce 203d
00000270: e2c9 9c3c a607 6a3d 321b 55bd 2db2 aabb
00000280: 7a6d 673c 6136 ef3c 2778 b23c 20af 65bb
00000290: 79b3 32bd fbe0 5e3d 1a83 53bd 89bd c2bc
000002a0: 2b53 0fbd fab7 cebc 1cae 633d eae8 7dbd
000002b0: 61f8 09bd 5dd9 093d c2d1 3b3d a439 423d
000002c0: e30f 22bd 50d3 bc3c e9b6 b83c 43c1 293d
000002d0: 2ad3 1bbd f4dd 5c3c 51d3 593d c7ca 91bc
000002e0: 098f 253d d0bd 44bc ce1e 6bbd 6232 77bd
000002f0: 10e8 3e3d adaf c4bc 8764 ef3b 0f8e 193d
00000300: ada9 193d 22ed 8fbc 5fbf d93c a746 8dbd
00000310: b772 c0bb 27c5 153c d9c6 8ebc 4424 193d
00000320: 914a 73bd c6d8 42bd c12c e5bc fcd8 a5bc
00000330: 9255 6cbd cf3c 8d3c 2a9d f7bc 805f 8d3c
00000340: e250 ee3c b330 4ebd 311d febc a561 6dbd
00000350: 1fb3 b13b 68b6 183d 4caf 153d 2e89 c73c
00000360: a022 f23c 3c40 8e3c 1f56 403d 7dcd 943c
00000370: 9017 efbc 4e9c 603d affc 75bd c5d9 2abd
00000380: 9e6c 063d 93d9 493d 087a 303d 2f0b 863d
00000390: 28af 56bd 2cff c13b 4e9e 42bc 5ed6 043d
000003a0: a13b 193b 0f40 303d d3b6 5d3c 8b8b aebb
000003b0: 913c 12bd bd82 123d 6032 48bd 282d fcbc
000003c0: 8e2a 633d bd24 403c e5fe f43a 9187 36bd
000003d0: 6a38 123c e184 42bd
0.03843178 0.03410302 -0.023438169 0.037247684 -0.008618707 0.028355256 0.03427026 -0.03622587
-0.0060305265 -0.03836124 -0.03251107 0.037635345 0.007059577 0.057184998 0.04659049 0.03864662
-0.020813303 0.027171493 0.024889661 -0.013625992 0.0312384 0.014515275 0.03051114 -0.033441447
0.0029272146 0.058169946 0.055571947 0.0082132295 -0.06731641 -0.047899373 -0.011165404 -0.055307634
0.02523067 -0.020770347 0.033498883 -0.05118134 0.038455177 0.041396502 -0.07087474 0.044586435
-0.029639982 -0.04555744 0.04288654 -0.035412684 -0.029543377 -0.049552515 0.03125803 0.012254473
-0.06078011 0.010605114 0.018668951 0.02269751 -0.030634401 -0.002495994 0.015308826 -0.022518134
-0.015099314 0.007604324 -0.0046269186 -0.02770875 -0.054297805 0.019076882 0.039055135 -0.05147276
0.018263062 0.03340936 -0.059738465 -0.06788452 0.06159567 0.014057893 0.02170126 -0.028315347
-0.010612193 0.039192718 0.009213231 0.04120806 -0.020396588 0.057833456 0.057873257 0.007666354
-0.006815696 -0.009393512 -0.053856596 0.021632142 -0.084364176 -0.03832205 0.00406049 -0.04722004
0.031956412 -0.029772988 0.035529252 -0.04605842 -0.06580507 0.039456286 -0.012958955 0.024037214
-0.083635285 0.033855893 -0.040085454 -0.016937999 -0.04002976 0.0274562 -0.0036844073 0.0005547554
-0.032042406 0.0087912595 -0.04533959 0.0108113615 0.054637548 -0.031816 -0.029975545 0.025942435
0.026903117 -0.019492885 0.0046661245 0.032104623 0.029869804 0.030085366 0.04365547 0.046714358
-0.049272392 0.038514473 0.018377079 -0.0621228 0.050904226 0.0603452 0.003000049 -0.05997426
-0.043208763 -0.05100045 0.048839584 0.028052775 0.005656916 0.013594219 0.038470645 0.052828696
0.01875077 -0.06449668 0.049551114 0.008949097 -0.06971003 -0.06026943 -0.0054410757 -0.030534944
0.020982973 -0.04641355 0.047203504 0.0049188854 -0.027263265 -0.007416142 -0.06535508 0.011837759
0.01845894 0.043100435 -0.05728714 0.03925948 0.019139234 0.0571362 -0.05202789 -0.0052092285
0.014125222 0.029200735 0.021785809 -0.003504701 -0.04362819 0.054413777 -0.0516387 -0.023772018
-0.034991425 -0.025234211 0.055585966 -0.061989702 -0.03368414 0.03365456 0.045854338 0.04741825
-0.039565932 0.02304998 0.022548156 0.041444074 -0.03804318 0.013480652 0.053180043 -0.017796887
0.040419612 -0.012008145 -0.057402425 -0.060350783 0.04660803 -0.02400955 0.007305685 0.037488993
0.03751533 -0.017569128 0.02658051 -0.068982415 -0.00587305 0.009141243 -0.017428802 0.0373881
-0.059397284 -0.047570013 -0.027975442 -0.020245068 -0.057698794 0.01724091 -0.030226309 0.017257452
0.029091302 -0.050339412 -0.031019779 -0.05795445 0.005422964 0.03728333 0.03654413 0.024357405
0.029557526 0.017364614 0.04695713 0.01816439 -0.02918604 0.054836564 -0.06005543 -0.041711587
0.03281843 0.04927976 0.043085128 0.06545102 -0.052413136 0.0059203114 -0.011878563 0.032431
0.002338149 0.04302984 0.013532358 -0.0053266934 -0.035702292 0.035769213 -0.048876166 -0.03078325
0.055460505 0.011727509 0.0018691687 -0.04456288 0.008924583 -0.047490004
