best models/saved_models/architecture_6/best_model.pt (torch, 472738 bytes, 25 tensors)

network.0.weight f4 [236, 15]
00000000: 92c6 8ac0 ef42 c9c0 05ec 9cbf dbaa d63f
00000010: 5089 983f eca4 fd3f 2e4d 1e40 458d 79c0
00000020: dad4 adc0 c0a4 aac0 0199 c1bf ad93 00c1
00000030: 9691 f5c0 3a55 3ec1 4fac 78bf 6e20 0f3f
00000040: a354 ea3f 563f 3941 0db2 e540 f69e c03e
00000050: d7ef eabf 0d2a 8ac1 d353 b03f de36 0dc0
00000060: 7c59 bcbf ac2a 13bf 2dbe 8ebe c94b 98bf
00000070: 71f1 0b40 0545 2ebf 6528 1c3f 40e8 a53e
00000080: 735c c93e 7597 7cbd a470 3fc0 56a5 a9bf
00000090: c3dc 27c1 cca1 41be fb4f 1141 e484 ca40
000000a0: c9d7 25c0 88ae 0cbf e0f8 d240 8efc 24c1
000000b0: ada6 76bf e1f4 e2c0 7eee 7ec0 c573 3940
000000c0: deb6 c4bf 0083 e0bf 0b6c b8bf 4d1f 0e40
000000d0: 890b ce40 5949 2541 4760 f140 935c cfc0
000000e0: 84ac 5d40 5229 a140 931a 9440 e0c7 1cc0
000000f0: 1faf 1c40 aebf cdc0 0d99 f93f f627 febf
00000100: 58f4 e53f de2e 25c0 e9b7 d43e 592d f8c0
00000110: 8fa3 7740 66ca 78c1 f65e 8f40 f5cb 4ac0
00000120: 438d 0040 bcd9 f2c0 7a41 1540 797a 1940
00000130: 102b 87c0 582f 8640 babb c2be c65e dd3e
00000140: 0e1f 74c0 b21d 7040 c309 093f cb48 b3be
00000150: 2c27 7fbe 5b1d f3bf 66e5 5dc0 25aa 0341
00000160: 8c4c 47c1 b429 4c41 5e1a d7c0 af2b 6240
00000170: 949e 3440 402c a73f 48e3 f13e 0053 fbbf
00000180: f502 77bf 120f 51c1 24ee 13c1 923a b640
00000190: 80a3 9440 e7b4 953e f801 e23e a5be 4d3f
000001a0: 4524 66bf faaa 25c0 add4 fa40 d98b b240
000001b0: 223c 3e40 df7c b340 4e7a 60c0 971b 25c0
000001c0: a439 7ac0 7a8d 47bf 58ce 1241 4f50 ea3f
000001d0: 4831 82c0 c2cb 3dbf 239d a340 69ae 1b41
000001e0: f770 1dbf 2654 5ec0 7e60 ee40 ab73 1441
000001f0: d063 e13f 2648 8f40 53d2 16c1 8044 ca40
00000200: af10 14bf b35d 1140 e07a cfc0 9e4e 8040
00000210: 9c83 893c cbe1 3440 adbc f1bf 2907 843f
00000220: 6250 1840 e634 3140 b59b 4ec0 638c 9740
00000230: f379 0241 4e56 f040 a52a 3240 4079 bcc0
00000240: 017d 9ec0 4966 acc0 1aab 15c0 6334 9040
00000250: 079d a940 e8e7 0f41 39bc b1c0 bd62 4ac0
00000260: cf1a abc0 fa0f 7440 2430 b640 9df4 8540
00000270: df26 ad40 9626 9140 272a e140 9e60 8a40
00000280: 743e be40 9cd9 7f40 593b b540 b238 a440
00000290: 605d a040 df35 e440 c23c 093f 7aa5 d440
000002a0: 142f 1c41 543a fec0 4145 a1bf de97 12c1
000002b0: 6d36 7d3f ecc3 a5bf 2083 45be e701 7dbf
000002c0: 02d6 7fc0 7a65 1f40 6b49 cb3f 11ea 6c40
000002d0: 7fca 883f 9041 b0bd 7cd0 5fbf a6c4 73be
000002e0: a643 7140 a875 49c0 eba3 03c1 a639 7cbd
000002f0: 6333 2cbe e5e2 bcbf 9fc3 e3bf 99e9 26bf
00000300: 5456 02c1 238d ed40 37e1 9541 b235 1ac0
00000310: 2bbd fa3e 6d00 17c0 beaf 3fbf b9b2 cbc0
00000320: abc3 8540 b8fb c0c0 82f8 01bf 9ed0 44c0
00000330: 713d d4bf 4492 b0bf 5007 d33f e05b 1a41
00000340: 3a34 8bc0 d618 8041 cfff fe40 bc6c b640
00000350: 90cd 6840 23a4 e4c0 1718 c640 5c3d d940
00000360: 6fc5 8b40 7c0b aec0 9bec b140 a9a2 8240
00000370: 9488 9a40 706e d6bf 3d95 dd3f 1159 7c3f
00000380: 149a 7bbe b037 6a40 9cc7 0bc1 a233 4640
00000390: 1d84 6fc0 8e98 6a40 2f30 dac0 0885 5340
000003a0: b5d3 9dc0 30e8 8440 b30a 13c1 e767 6e40
000003b0: 7144 6c40 2b59 fabf 01e6 ca40 6553 59c0
000003c0: e4b2 b23f 562e 65bf ca9f a3c0 74bc e3bf
000003d0: 5058 cb40 dbea 53c0 b342 23c1 cad3 edbf
000003e0: 47fe ff3f d878 72c0 b5a8 2ec1 8e7f 02c0
000003f0: 649c 8e40 35dd 233f 9f81 24c1 125f 55c0
-4.3367395 -6.2894206 -1.2259527 1.6770891 1.1916904 1.9815955 2.4734607 -3.8992474
-5.432233 -5.332611 -1.5124818 -8.036054 -7.6740217 -11.895807 -0.9713792 0.5590886
1.8307079 11.577963 7.1779847 0.37621278 -1.8354443 -17.270533 1.3775581 -2.2064738
-1.4714808 -0.5748699 -0.27879468 -1.1898128 2.1866114 -0.68074065 0.6099914 0.32403755
0.39328346 -0.06166788 -2.99125 -1.3253582 -10.491397 -0.18909377 9.0820265 6.328722
-2.5912955 -0.54953814 6.5928802 -10.311659 -0.9634808 -7.0923924 -3.9833064 2.897691
-1.5368307 -1.7539978 -1.4407972 2.2206604 6.438908 10.330407 7.5430026 -6.4800506
3.4636545 5.036294 4.628244 -2.4496994 2.4481885 -6.4296484 1.9499832 -1.9855945
1.7965193 -2.5809855 0.41546562 -7.7555356 3.8693578 -15.549414 4.480342 -3.1686985
2.008622 -7.589079 2.3321214 2.3981001 -4.2240067 4.1932793 -0.3803385 0.4323637
-3.8143954 3.7518125 0.5353052 -0.35016474 -0.24917287 -1.8993334 -3.4671264 8.229039
-12.456188 12.760181 -6.7219687 3.5339162 2.8221788 1.3060379 0.47243714 -1.9634705
-0.9648889 -13.066179 -9.24564 5.6946497 4.6449585 0.2923958 0.44142127 0.80369025
-0.8989909 -2.5885606 7.8384614 5.5795712 2.9724202 5.608993 -3.507465 -2.579809
-3.909768 -0.7795025 9.175377 1.8305758 -4.068516 -0.74139035 5.1129317 9.730081
-0.61500496 -3.473886 7.449279 9.278239 1.7608585 4.477557 -9.426349 6.320862
-0.5783796 2.271344 -6.4837494 4.009597 0.016786389 2.8262813 -1.8885704 1.0314685
2.3799062 2.7688537 -3.2282536 4.735887 8.154773 7.5105352 2.7838528 -5.889801
-4.9527593 -5.387486 -2.3385682 4.506395 5.3004184 8.994118 -5.5542264 -3.1622765
-5.3470225 3.8134751 5.6933765 4.18611 5.410995 4.53596 7.0363955 4.324294
5.9451237 3.9976568 5.6634946 5.131921 5.0113983 7.131576 0.53608334 6.6452
9.761494 -7.94462 -1.259926 -9.162077 0.9891117 -1.2950416 -0.19288301 -0.9883103
-3.997437 2.4905686 1.588178 3.7017863 1.0686797 -0.08606255 -0.87427497 -0.23805484
3.769754 -3.1478062 -8.227519 -0.061578415 -0.16816477 -1.4756743 -1.7794074 -0.6520019
-8.146076 7.4234786 18.734968 -2.4095273 0.4897245 -2.359401 -0.74877536 -6.3655667
4.1801353 -6.0307274 -0.5076982 -3.075233 -1.658125 -1.3794637 1.6486607 9.64743
-4.3501253 16.012127 7.9687266 5.7007732 3.6375465 -7.145036 6.1904407 6.78874
4.367851 -5.438902 5.5601325 4.082356 4.829172 -1.6752453 1.7311169 0.98573405
-0.24570495 3.659649 -8.736233 3.0969014 -3.7424386 3.6655612 -6.818382 3.3049946
-4.932093 4.153343 -9.190112 3.7250917 3.6916773 -1.9558462 6.3405766 -3.395715
1.3960843 -0.8952383 -5.1132555 -1.7791886 6.3545303 -3.3112094 -10.203784 -1.8580258
1.9999474 -3.7886257 -10.916188 -2.0390353 4.4565907 0.6400941 -10.281646 -3.3339276

network.0.bias f4 [236]
00000000: 9910 1240 9556 1440 b87b 2540 74e3 2440
00000010: e549 2140 67ed 0e40 6ebd 5b3f 395f 0d40
00000020: 4a2e a33e c5b4 1d40 00e1 2340 e599 bd3f
00000030: d676 2340 eefa 2a40 963f b93f 41d8 d63f
00000040: 74a6 2240 8e5d 0e40 7512 a240 9891 1f40
00000050: ff5a c33f bfd9 0e40 33a3 c83f a1b5 1640
00000060: 04e5 1e40 e9d3 3e40 a387 2140 c0d5 643f
00000070: 25a4 1640 2dcd 0340 f6d7 1140 2512 1e40
00000080: 5d52 fa3f 5c2f ac3f ee47 b53f f2b0 1440
00000090: 99d6 1b40 e3f8 1540 6baf 1640 5ce1 2340
000000a0: 4cbb f03f 9a5a 1440 f319 a040 058d 1040
000000b0: eb56 1440 1af8 1940 44b8 49be c5bf 2140
000000c0: 7caa 1840 dae2 1d40 0242 2040 2c05 a840
000000d0: 2e15 3240 e2d2 1f40 cbb0 1740 023e 1b40
000000e0: 9324 9840 6b93 1b40 d2b4 2b40 4a95 2040
000000f0: 8ed6 0b40 c30e c33e db52 1e40 566a 0f40
00000100: d0db 3440 e4f3 1b40 d15b 0d40 fb34 8b3f
00000110: 97dd 1740 0004 2d40 511f 873f a06b 1340
00000120: 2a89 2840 6db3 a440 ec87 0640 091f 1840
00000130: dce6 f13f ee58 a340 f0ba 2c40 7b85 3240
00000140: 0073 1d40 b6c4 9e40 dc39 123f 9da6 1440
00000150: 879f ee3f d374 9d40 59f8 0d40 1d9a 2b40
00000160: 5b47 0d40 7a52 1d40 22cc f13f 9870 1c40
00000170: dc03 1440 ec51 813f 1602 963f f524 2440
00000180: f660 1f40 ffb0 1740 b715 1140 87e0 2040
00000190: 0ec0 1c40 b8e0 843f 4bb5 ac3f 74e5 1740
000001a0: cd01 2740 c5b4 1a40 1f89 2040 92da 1f40
000001b0: d507 1540 83c8 433f 2295 1940 d05a 1840
000001c0: a594 c8be 1f5e 2940 f374 1540 0f05 1440
000001d0: 0dc0 4940 283e 3640 9d29 1c40 b19e 8d3f
000001e0: 3920 703f f687 1340 b502 2340 3260 1c40
000001f0: 7ba5 1d40 9b74 1240 3fe0 b03f 1b3c a440
00000200: ba7f 393f bb26 1940 7ee7 1c40 71e8 823f
00000210: 7272 1a40 f94f a740 32a0 3040 762b 1740
00000220: 2c81 1d40 f8d2 1540 5726 e53f 5fc4 1640
00000230: 944b 1a40 2801 1c40 80f9 1f40 0efe 1340
00000240: 5129 1940 ec1a a03f 2d3f fc3f 3c66 2840
00000250: cbad 1d40 21c1 7a3f 5444 953e 044d 0040
00000260: 8dbe 1f40 e7ba f83f 077b 2d40 5433 0f40
00000270: 17ea 1940 c505 893f 72db 1740 373f 1a40
00000280: eb4f 0740 aac2 813f 4985 933f 250a 1c40
00000290: d20b 0f3f a947 39bc 5a3f 1940 8f1f 203f
000002a0: 2e7b e33f 54dc aa3f 8b17 983f 9d5d 1a40
000002b0: 08b7 1f40 07d9 d13f 9ebc 1240 184a 1e40
000002c0: 105e 1f40 0d54 1740 bfd8 0d40 3e42 1940
000002d0: 34ff 1540 0608 2240 87c0 0240 240e 1340
000002e0: 1a40 1440 08fc 9c40 de3b 2340 b697 1940
000002f0: d04b 1a40 4815 1f40 a59e fb3f 04a0 3240
00000300: a6af 1e40 deae e63f f63d 97bd 8888 2e40
00000310: 6e71 0e3f 682b 1240 9319 1e40 097a 9d40
00000320: b88a 1240 107b 1340 7445 173f 9a13 2a40
00000330: df9f a93f a01d 993f 2cd7 c93f ffdd 2540
00000340: a4ac 1940 4de2 9840 a7fe 1d40 c61d 2a3f
00000350: 5a58 1840 8661 0140 ef43 1740 6d93 1b40
00000360: fdd6 1c40 579f 1b40 b197 b13f d58e 1540
00000370: b3f3 2140 0001 2040 e8a2 f53f b03a 1540
00000380: af39 313f 5c7b 1740 408b 1c40 dc43 4e3d
00000390: 1ac0 ca3f 9369 0d40 2b16 1f40 5883 1240
000003a0: 42f5 1540 8f14 1c40 7eb3 2140 1cca cf3f
2.282263 2.3177845 2.5856762 2.5763826 2.5201352 2.23324 0.8583592 2.208937
0.31871253 2.4641583 2.560608 1.481259 2.5541282 2.6715655 1.447253 1.6784745
2.5414095 2.2244601 5.064753 2.4932613 1.5262145 2.2320402 1.5674804 2.3548357
2.482728 2.981684 2.5239036 0.89388657 2.3537686 2.059398 2.2788062 2.4698575
1.9556385 1.3451953 1.4162576 2.3233 2.434973 2.3433158 2.3544567 2.5606298
1.8807158 2.3180299 5.0031676 2.2586071 2.317805 2.405768 -0.19699198 2.5273297
2.3854055 2.466971 2.5040288 5.2506313 2.7825427 2.4972463 2.3701656 2.4256597
4.7544646 2.4308727 2.6829114 2.509112 2.1849704 0.380972 2.473807 2.2408652
2.8259163 2.436761 2.208729 1.0875543 2.3728998 2.7033691 1.0556432 2.303444
2.6333718 5.1469026 2.102046 2.3768942 1.8898578 5.1046057 2.6989098 2.789397
2.460144 4.9615126 0.57119536 2.3226693 1.8642434 4.920511 2.218283 2.6812813
2.2074802 2.458159 1.8890421 2.4443722 2.3127356 1.0103126 1.1719387 2.5647557
2.490293 2.370178 2.2669504 2.513704 2.449222 1.0381079 1.3492826 2.3733797
2.609485 2.4172833 2.5083692 2.4977155 2.328603 0.7647783 2.3997273 2.3805428
-0.39175907 2.6463697 2.335263 2.3128088 3.1523468 2.8475437 2.4400399 1.1064054
0.9379917 2.3051734 2.5470402 2.4433713 2.4632251 2.288367 1.3818434 5.132337
0.7246052 2.392989 2.4516292 1.0227185 2.4132352 5.2285123 2.7597775 2.3620276
2.461009 2.3410015 1.7902325 2.3557355 2.410863 2.4375706 2.4996033 2.3123813
2.3931468 1.2508216 1.970678 2.63124 2.4637325 0.9795094 0.29153693 2.0047007
2.4960053 1.9432038 2.710634 2.2375078 2.4049127 1.0704886 2.3727689 2.4101083
2.1142528 1.0137532 1.152505 2.4381192 0.5587741 -0.011308589 2.3944917 0.62548155
1.7771966 1.3348489 1.1882185 2.4119637 2.4955463 1.6394356 2.2927623 2.4732723
2.4901161 2.364505 2.2163541 2.394668 2.3437014 2.5317397 2.043001 2.297738
2.3164124 4.9057655 2.550529 2.3998847 2.4108772 2.485674 1.965779 2.7910166
2.4794707 1.8022115 -0.07384865 2.7270832 0.5564183 2.2838993 2.470311 4.921147
2.2897167 2.3043861 0.5909035 2.6574464 1.3251914 1.1962166 1.576879 2.5916746
2.4011621 4.7776246 2.4686677 0.6645168 2.3803926 2.0215774 2.3635213 2.4308732
2.4506218 2.4316003 1.3874418 2.3368428 2.5304992 2.500061 1.919034 2.331707
0.69228643 2.3669043 2.4459991 0.050357684 1.5839875 2.2095687 2.485728 2.2892666
2.3430943 2.4387548 2.5265803 1.6233554

network.1.weight f4 [236]
00000000: 1f61 ec40 2b6e c940 451c c940 b46e ed40
00000010: c724 c840 1275 c040 1d02 e440 45b6 ca40
00000020: 1f73 e540 a266 c740 5a1d d940 55a8 f140
00000030: 63f2 b740 166b b240 30c0 ee40 d0c5 d640
00000040: a663 c140 7d6e ca40 1e99 f140 383f e340
00000050: 7f25 dc40 e29d f040 c723 ad40 7d4f da40
00000060: c704 d340 e2e3 e140 8de2 d340 c66c ed40
00000070: c1a6 ae40 f1e5 cb40 9331 f540 0e2b d140
00000080: 7678 d340 0095 dd40 e67b f440 fb9f e240
00000090: 7827 d740 88f0 f240 efbe eb40 790d c940
000000a0: a5e2 bd40 7fb6 bb40 0894 ca40 74d3 d240
000000b0: 0a0d be40 beff e840 0425 f740 f328 c340
000000c0: 65d7 dc40 9d93 db40 1671 e340 78b0 0441
000000d0: b6bb e740 4c0b e640 6d8b c140 384d f040
000000e0: 0a91 eb40 bb02 e840 344a e140 0e67 e540
000000f0: b9ee d640 104d d840 874f bf40 d501 bd40
00000100: 5a34 d040 aa78 e940 c995 da40 6e7b 0241
00000110: dbe3 d140 4ce5 fc40 1c8b fa40 796b c840
00000120: 52e4 c740 da26 e640 f196 cc40 1ca9 c040
00000130: ed39 0141 5db9 d740 2826 c040 6eb0 d940
00000140: 4a96 d340 0b0f c240 9dd4 f940 9a4e cc40
00000150: 1e4e de40 b759 ee40 6c15 0041 a93d b540
00000160: 7329 ca40 2ab9 d440 279d aa40 4874 b440
00000170: 399d c440 d5b0 0141 1d60 ef40 76ce e140
00000180: 4ef1 d740 7e44 e140 8127 e040 c94f de40
00000190: b03f d640 8e23 f540 51bc f340 59e2 cb40
000001a0: fb28 d240 9222 de40 0e83 e440 6801 e840
000001b0: 08e2 dc40 dbc7 c940 c889 c440 86c6 f640
000001c0: 7479 b740 1a85 df40 364f df40 5969 da40
000001d0: 8199 c440 3ee8 cf40 eb50 d540 5acf da40
000001e0: 2e38 d340 1c7b eb40 0987 de40 ec68 d140
000001f0: 49a1 dc40 8538 f040 7d39 e340 689b 0441
00000200: e4cf f140 e3aa cd40 e454 de40 0713 0641
00000210: f94e e140 7db0 be40 1a03 cc40 15b3 d840
00000220: a86d dc40 76f1 ec40 e118 ca40 6f8b b940
00000230: b330 c740 cc6e c740 42ab e840 aea0 d840
00000240: e77f e040 b1e5 f140 799a be40 0307 0041
00000250: a1fd c740 ef2f ca40 602a d540 77b9 ed40
00000260: e8a7 c440 131e c740 41a3 c340 fc38 de40
00000270: 263d d240 0beb b040 5c02 eb40 a9fd d840
00000280: 9549 bd40 b338 d940 49e7 eb40 174e e440
00000290: baee cb40 e006 d840 5201 e740 65f9 dd40
000002a0: 90e6 dc40 9042 f540 0a9b e540 dde5 d940
000002b0: 6ecf b740 89c8 d340 61b6 d140 dae9 e540
000002c0: 3f3e ae40 d101 d840 6075 eb40 83a3 ed40
000002d0: 1181 a740 8da6 c440 917d fc40 3beb e040
000002e0: 9701 e440 952a e140 e373 dc40 0a34 d440
000002f0: 4946 b440 4204 c440 535c d640 5472 cf40
00000300: 50eb e140 2d69 be40 5c4b d840 caca d240
00000310: 4788 f740 0d74 ee40 5fee e140 7c5c d240
00000320: 610d ca40 fe4e e940 dd51 d440 226c bc40
00000330: 5b37 fa40 babb dc40 4186 da40 b431 c640
00000340: c18f c540 e7b4 f840 2bd7 da40 ef5d e840
00000350: 2e2a e840 09a9 cc40 e384 de40 d6af db40
00000360: f211 d540 cb98 d540 da50 e940 868b f640
00000370: 76ba d140 eef1 d340 75b4 ef40 6b5e d740
00000380: 5d78 ce40 f000 d740 9041 d640 bda0 ef40
00000390: c16c e640 cc5f e540 6d6e e640 8ce9 dd40
000003a0: 4fc2 e940 1d04 c940 ac3b bc40 0c84 eb40
7.3868556 6.294698 6.284701 7.4197636 6.2544894 6.014291 7.125258 6.3347497
7.170303 6.2312784 6.784833 7.5517983 5.748338 5.575572 7.4609604 6.711647
6.043414 6.3259873 7.549941 7.101467 6.879577 7.519273 5.4106174 6.822203
6.594333 7.0590677 6.621405 7.419528 5.4578557 6.371819 7.6623015 6.5365057
6.6084547 6.9244385 7.6401243 7.082029 6.723568 7.5918617 7.3670573 6.2828946
5.9339166 5.8660274 6.33057 6.588312 5.9390917 7.2812185 7.7232685 6.0987487
6.9012933 6.861769 7.1075544 8.293083 7.241664 7.188879 6.0482697 7.509426
7.361455 7.2503333 7.040308 7.16883 6.716641 6.759407 5.978458 5.9064736
6.5063906 7.2959795 6.8307843 8.155134 6.5590644 7.9029903 7.829481 6.263119
6.246621 7.1922426 6.3934255 6.020643 8.076642 6.7413774 6.0046577 6.802787
6.612096 6.0643363 7.807204 6.384595 6.947036 7.4484515 8.00523 5.663777
6.3175597 6.647603 5.3316836 5.6391945 6.144192 8.105672 7.4804826 7.0564528
6.748206 7.039611 7.0048223 6.9472394 6.6952744 7.66059 7.616738 6.3713803
6.5675025 6.94172 7.140998 7.2501717 6.9025917 6.3056464 6.141819 7.711734
5.733576 6.9849977 6.9784193 6.82536 6.1437383 6.4971 6.6661277 6.8378115
6.600608 7.358778 6.953984 6.544058 6.894688 7.5068994 7.1007676 8.287941
7.5566273 6.42711 6.9478626 8.379645 7.04089 5.959044 6.3753786 6.7718606
6.888386 7.404475 6.315537 5.7982707 6.2246947 6.232275 7.2709055 6.769614
7.015613 7.5592885 5.9563565 8.001712 6.2497106 6.3183513 6.6614227 7.4288898
6.1454964 6.222421 6.1136785 6.944456 6.5699644 5.528692 7.344038 6.7809644
5.915232 6.7881713 7.371983 7.1345325 6.3728914 6.750839 7.218911 6.9366937
6.903145 7.6643753 7.1751757 6.8093095 5.744071 6.6182294 6.553513 7.1847963
5.4450984 6.7502217 7.358078 7.42621 5.234505 6.145331 7.890328 7.0287147
7.125194 7.036448 6.8891463 6.6313524 5.6335797 6.1255198 6.69877 6.482706
7.0599747 5.950339 6.759199 6.5872545 7.7353854 7.4516664 7.060348 6.5737896
6.314133 7.2908926 6.634993 5.8882 7.8192573 6.897916 6.8288884 6.1935673
6.173798 7.772083 6.8387656 7.2614665 7.255149 6.395634 6.9537215 6.8652143
6.6584406 6.6749015 7.2911196 7.7045317 6.5540113 6.6232824 7.4907784 6.7302756
6.452193 6.7188644 6.695503 7.4883714 7.2007756 7.167944 7.2009797 6.934759
7.3049693 6.281752 5.882284 7.359869

network.1.bias f4 [236]
00000000: fad3 72c0 d632 5fc0 bda7 7c40 b525 39c0
00000010: 557d e7bf 39c1 04bf bd09 12c0 51a1 38c0
00000020: bb4b 4dc0 0d22 ffbf 4864 60c0 8854 a8c0
00000030: e800 9bbf f98b 1fbf 502c 9ac0 5467 66c0
00000040: a9c0 81bf 49b7 e9bf 2016 9b40 b7ba 2bc0
00000050: 5a8f 78c0 003c 81c0 efc9 36bf 357a 45c0
00000060: d383 33c0 df03 6d40 bcf7 0bc0 9e2a 99c0
00000070: 4721 e0bf 72ab e9bf 2d4b 95c0 7415 08c0
00000080: 79a3 7dc0 a567 91c0 24b5 bcc0 201b 4bc0
00000090: a6a7 6ec0 244d 8dc0 488f 57c0 2c53 40bf
000000a0: ec05 14bf 3a7f 50c0 0899 1240 3e80 2bc0
000000b0: f54d fdbf b534 5ac0 4c86 91c0 4004 67bf
000000c0: 22e2 11c0 0634 b1bf 100a fcbf 6a3b a740
000000d0: a157 9240 6f94 25c0 0808 e7bf 3791 6ac0
000000e0: 2c57 c340 1ba1 4fc0 e15e 27c0 c66b 45c0
000000f0: 75b5 21c0 efb9 45c0 027d 00c0 7d80 1cc0
00000100: 30ca 4a40 bd29 49c0 2933 5fc0 aaa8 9dc0
00000110: 6e06 3fc0 beac c640 8570 6cc0 e19f 28c0
00000120: 2d82 9640 433a bf40 c81e afbf 66d4 dabf
00000130: 85a8 8ac0 0248 8540 32bc 8440 e9a5 d1bf
00000140: 7d37 ebbf c34d 8f40 7f64 8cc0 f795 14c0
00000150: 9e25 7dc0 8713 5340 6b0c 9ac0 1ace 133f
00000160: 5aee 9fbf af3b 7cc0 b8b7 0cbe 6309 99bf
00000170: ce61 bcbf e117 adc0 2e06 9fc0 ccf6 11c0
00000180: 2785 0ac0 b1bd 8640 2f0a 89c0 9a30 5fc0
00000190: 8fb7 21c0 9034 a7c0 d9c0 6cc0 6c22 e3bf
000001a0: b5e2 04c0 1314 32c0 edc3 9cc0 7f99 10c0
000001b0: bf53 35c0 ec9a dfbf d70a debf c305 7cc0
000001c0: 7be3 6dc0 cf6e 8f40 8302 0bc0 3eb6 4cc0
000001d0: ff96 b83f 322e 87bf 8bec 51c0 3fbc 93c0
000001e0: 882d 2bc0 b6b9 55c0 9ccd 7ec0 400f efbf
000001f0: cd42 2fc0 10c9 8ac0 f706 9fc0 544a 8540
00000200: 2662 97c0 942b e3bf 04c2 3fc0 269f a1c0
00000210: 2afb 49c0 86a7 7940 dce5 3540 2a6f ccbf
00000220: e6cf bcbf 0ab9 2cc0 d69b 05c0 0709 1dc0
00000230: 0d0c cfbf 5c0e 07c0 75ca 7cc0 690e 1cc0
00000240: 7fd5 14c0 ed27 86c0 14c7 a9bf c565 ae40
00000250: 5291 36c0 8435 6dc0 9e18 2fc0 ea10 88c0
00000260: fb61 5f3f 3546 3ac0 3c34 853f 24bc 6ac0
00000270: 316f 1bc0 a9e3 1cc0 75ef 3fc0 6c7e c840
00000280: a42c 66c0 c960 47c0 8d72 83c0 4141 30c0
00000290: dcc9 45c0 c31d 54c0 0b10 44c0 214f 86c0
000002a0: 9038 73c0 3d3f b1c0 cf0e 9ec0 1cbd 39c0
000002b0: d3d8 8b40 a591 29c0 2b4b c9bf 4f06 47c0
000002c0: 25d2 54bf 3a8b 22c0 5e60 86c0 000e 4fc0
000002d0: 3a09 6cbf 8d5f 07c0 f100 8bc0 c072 3dc0
000002e0: 922b 05c0 58ff 6f40 ecee 23c0 1a60 8f40
000002f0: 82e2 91be aec7 37bf 7a01 39c0 bc93 0b40
00000300: faac 34c0 e5ec 76bf 39db 61c0 9fa5 01c0
00000310: 6979 94c0 5ac1 71c0 5978 7ac0 066a 4f40
00000320: f318 0ac0 6ecd 71c0 3821 6bc0 e283 12bd
00000330: 8f9d 9ac0 982f 25c0 f0ec 58c0 4bd4 c4bf
00000340: 294f 36bf 1a98 b740 3921 54c0 0396 8cc0
00000350: 7700 5ec0 9c12 95bf b22f 2bc0 870e 08c0
00000360: 6420 05c0 8176 11c0 de19 74c0 0080 88c0
00000370: 4388 f8bf b906 26c0 cba2 92c0 897b fcbf
00000380: 5069 41c0 675a 82c0 ac74 24c0 f869 8fc0
00000390: 82c1 8cc0 8226 5bc0 9a5d 50c0 58da 44c0
000003a0: 7e23 51c0 04c5 28c0 93c0 83bf 3d53 82c0
-3.794188 -3.4874778 3.947738 -2.8929265 -1.8085123 -0.51857334 -2.2818444 -2.884846
-3.2077472 -1.9932266 -3.5061207 -5.2603188 -1.2109652 -0.62322956 -4.8179092 -3.6000566
-1.013692 -1.8259059 4.846451 -2.6832712 -3.8837495 -4.038574 -0.71401876 -3.085584
-2.804921 3.7033613 -2.1869955 -4.7864523 -1.7510155 -1.8255446 -4.6654267 -2.1263094
-3.9631026 -4.543902 -5.897112 -3.1735306 -3.7289824 -4.4156666 -3.3681202 -0.7512691
-0.57821536 -3.2577653 2.2905903 -2.6797023 -1.9789416 -3.409467 -4.5476437 -0.9024086
-2.279427 -1.3844001 -1.9690571 5.2260027 4.573197 -2.5871847 -1.8049326 -3.6651132
6.104391 -3.244208 -2.615166 -3.084703 -2.5267003 -3.0894735 -2.0076299 -2.4453423
3.1685905 -3.1431725 -3.4874976 -4.926839 -2.9847674 6.2085867 -3.6943676 -2.6347582
4.7033906 5.975862 -1.3681269 -1.7096069 -4.333071 4.16504 4.147973 -1.6378757
-1.8376309 4.4782424 -4.3872676 -2.3216531 -3.955421 3.2980669 -4.814016 0.5773636
-1.2494614 -3.9411428 -0.13741958 -1.195599 -1.4717348 -5.409165 -4.9695044 -2.2806883
-2.164377 4.2106557 -4.282493 -3.4873414 -2.5268285 -5.2251663 -3.6992705 -1.774488
-2.076337 -2.7824752 -4.8989167 -2.2593687 -2.8332365 -1.7469153 -1.7347058 -3.9378517
-3.7170093 4.4822764 -2.1720283 -3.1986232 1.442108 -1.0560973 -3.2800624 -4.6167293
-2.674654 -3.33946 -3.9812994 -1.8676529 -2.7384522 -4.337044 -4.9696 4.1653233
-4.730731 -1.7747674 -2.9962168 -5.0506773 -3.1559548 3.9008498 2.8421545 -1.5971425
-1.4750946 -2.698794 -2.0876365 -2.453676 -1.6175553 -2.1102514 -3.949857 -2.4383795
-2.3255308 -4.1923738 -1.3263879 5.449923 -2.8526196 -3.7063913 -2.7358775 -4.2520647
0.8725888 -2.910535 1.0406566 -3.6677332 -2.4286616 -2.4513953 -2.9989903 6.2654324
-3.5964746 -3.1152823 -4.1077332 -2.7539828 -3.0904455 -3.3143165 -3.0634792 -4.1971593
-3.8003273 -5.5389695 -4.9393077 -2.9021673 4.370218 -2.6495144 -1.5726064 -3.10976
-0.83133155 -2.5397477 -4.1992636 -3.2352295 -0.9220158 -2.115207 -4.343865 -2.9601288
-2.0807843 3.74996 -2.5614576 4.480481 -0.28493124 -0.7178906 -2.8907151 2.180892
-2.8230577 -0.9645522 -3.5290053 -2.0257337 -4.6398206 -3.7774262 -3.9135954 3.2408462
-2.1577728 -3.7781634 -3.6739025 -0.035770305 -4.831733 -2.58103 -3.3894615 -1.5377287
-0.7121454 5.737317 -3.3145278 -4.393312 -3.4687784 -1.1646304 -2.674786 -2.1258867
-2.080102 -2.272858 -3.8140788 -4.265625 -1.9416584 -2.5941603 -4.582372 -1.97252
-3.0220528 -4.0735354 -2.569621 -4.4816856 -4.3986216 -3.4242253 -3.255713 -3.0758266
-3.2677913 -2.6370249 -1.0293144 -4.072661

network.1.running_mean f4 [236]
00000000: 9efc 1140 199d 1240 9558 2640 2c19 2640
00000010: 9893 2240 766e 0b40 497e 553f b3ae 0b40
00000020: e697 923e 65e3 1d40 2e66 2540 835a b93f
00000030: 960a 2240 2dc7 2b40 7e72 b93f 2b27 d43f
00000040: 988f 2440 57e1 0c40 3430 a440 237f 2040
00000050: edb9 be3f 6d8f 0b40 72be d43f 6302 1340
00000060: 2137 1c40 e531 3f40 6601 1e40 58d3 723f
00000070: 9266 1840 2ff3 0240 d60a 1140 7627 1e40
00000080: 07d8 fc3f ce7b ab3f ce1d b13f e06e 1440
00000090: 2e0c 2140 75bf 1b40 81a9 1740 7752 1f40
000000a0: 006a e93f 023c 1240 643a 9e40 41ce 1440
000000b0: 0fff 1340 2d19 1f40 5067 41be fef8 2440
000000c0: 699d 1740 9452 1c40 6797 2140 a928 a640
000000d0: 0ce7 2f40 4f22 2240 3093 1740 7f8b 1b40
000000e0: 9fd7 9840 b20d 1c40 0b0f 3040 84fb 2240
000000f0: 47f9 0740 cd32 a53e dd5e 2440 1b57 0f40
00000100: f54e 3640 0d91 1b40 d609 0b40 6fcc 8a3f
00000110: d348 1a40 202c 2e40 11da 7a3f 4246 1840
00000120: a84d 2640 1426 a540 1d05 0940 2ec0 1c40
00000130: 616a ee3f 7b8d a540 423f 2c40 3dd8 3140
00000140: 0d37 1e40 a4e5 9d40 fcc3 0a3f 6f1a 1240
00000150: b87b f03f 96c3 9b40 3134 0c40 4c2e 2a40
00000160: 4546 0c40 74dd 1d40 4ed7 f53f 5514 1c40
00000170: 887b 1340 9158 7d3f 20be 993f 8d03 2540
00000180: 362d 2140 4c7b 1940 b9a6 1140 e0a1 2340
00000190: 4162 1d40 b613 823f 2ac3 b13f c1fa 1740
000001a0: f75b 2540 e9af 1b40 d4f0 1a40 f4a9 2340
000001b0: 396e 1540 6ff5 4b3f d37e 1540 880a 1b40
000001c0: df5d bcbe 27cd 2a40 0283 1740 bfa7 1340
000001d0: 5934 4b40 ec74 3640 8bbc 1b40 e7bc 8a3f
000001e0: 0cdd 703f c090 1240 b449 2040 b969 1940
000001f0: 1660 2240 6a89 1240 2d9c b33f 8572 a440
00000200: 66f4 3a3f 6ca4 1a40 e141 1c40 5733 823f
00000210: dbdb 1b40 541f a840 4216 3140 9e5a 1640
00000220: ba4f 1d40 2bb5 1340 97c1 df3f e071 1a40
00000230: 71fa 1840 7a8f 1a40 8861 2240 f410 1440
00000240: bde1 1840 1791 973f dbd6 fa3f 9097 2740
00000250: 5aad 1e40 a76a 7e3f a096 9b3e 058d 0140
00000260: 1642 1e40 49d2 f73f 3eac 2b40 6455 0e40
00000270: 225d 1940 006c 823f 7971 1640 c75d 1840
00000280: 2b3f 0a40 7646 853f e2bc 943f 047e 1b40
00000290: b139 0d3f 4466 babc 8c8a 1b40 041d 1f3f
000002a0: 32eb dd3f 5b04 aa3f 8520 8e3f 0524 1a40
000002b0: 1c9a 2240 fabd d23f 8b24 1240 5656 1a40
000002c0: 70b2 2340 9137 1740 4736 0c40 a082 1a40
000002d0: 651b 1540 cb79 2040 6f4c 0740 27e1 1140
000002e0: 6ff6 1440 fb2c 9b40 6f29 2340 77f2 1c40
000002f0: c0a1 1840 ec55 2040 1162 f53f 1dc1 2e40
00000300: d0ab 1b40 1b09 e53f f24e b4bd 755f 2f40
00000310: 3eb1 f73e 3568 1440 4a1f 1e40 e6c5 9e40
00000320: 154d 1440 48a9 1740 76d1 1a3f 3dc5 2b40
00000330: d2a1 ac3f 758e 973f 12f0 cd3f 2c64 2440
00000340: 8a6a 1a40 d2d1 9840 6145 1e40 eb38 303f
00000350: 872f 1940 d98a 0040 be93 1840 d264 1e40
00000360: fd92 1c40 2988 1840 9b99 b03f f967 1140
00000370: a949 1d40 1202 2140 e8f8 f53f 9c47 1d40
00000380: f564 323f fcb1 1640 7fa8 1c40 55a7 e03d
00000390: 7089 d33f 0383 0640 8fd8 1f40 8ba2 0d40
000003a0: 4b5b 1740 a8c1 1940 9f59 1e40 7c9f cd3f
2.2810435 2.2908385 2.5991566 2.5952864 2.5402584 2.178617 0.8339582 2.1825378
0.28631514 2.467004 2.5843616 1.4480747 2.531896 2.6840317 1.4488065 1.6574453
2.5712643 2.2012537 5.130884 2.5077598 1.490049 2.180629 1.6620619 2.2970207
2.4408648 2.9874203 2.4688354 0.94853735 2.3812604 2.0460927 2.2662864 2.4711585
1.9753426 1.3397157 1.3837221 2.3192673 2.5163684 2.4335606 2.3697207 2.4894083
1.8235474 2.2849126 4.944628 2.3250887 2.3124425 2.4859116 -0.18887067 2.5776973
2.3689826 2.4425402 2.5248659 5.1924634 2.748477 2.533344 2.3683586 2.4303892
4.776321 2.438336 2.7509181 2.5466013 2.1245897 0.3226532 2.56829 2.2396915
2.8485692 2.4307282 2.1724753 1.0843638 2.4106948 2.7214432 0.9798899 2.3792882
2.5984898 5.160898 2.140937 2.4492297 1.8626214 5.1735206 2.691361 2.7788231
2.47211 4.9342823 0.542053 2.2828634 1.8787756 4.867625 2.1906855 2.6590757
2.191789 2.4666414 1.9206331 2.438741 2.3044147 0.98963267 1.2011147 2.5783417
2.5183845 2.3981504 2.275801 2.556755 2.459122 1.0162265 1.3887684 2.3746798
2.583738 2.4326117 2.420949 2.557248 2.3348525 0.79671377 2.3358657 2.4225178
-0.36790368 2.6687715 2.367371 2.3071134 3.17507 2.8508863 2.4333827 1.0838898
0.9408729 2.2900848 2.5044985 2.3970778 2.5371146 2.289637 1.4032036 5.1389794
0.7302917 2.4162855 2.441521 1.0171918 2.435294 5.253824 2.7669835 2.3492808
2.4579911 2.3079326 1.7480954 2.4132004 2.3902857 2.415007 2.5372028 2.3135347
2.388778 1.1841153 1.9596819 2.6186256 2.4793305 0.9938149 0.30388355 2.0242321
2.4727836 1.9361049 2.6823878 2.2239618 2.3963094 1.0189209 2.3506758 2.3807237
2.1601055 1.0412128 1.1620142 2.4295664 0.55166155 -0.022753842 2.4303312 0.6215365
1.7337401 1.3282579 1.1103674 2.4084485 2.540656 1.6464226 2.2834804 2.4115195
2.557766 2.3627665 2.1908128 2.4142227 2.329797 2.5074337 2.1140401 2.2793672
2.327541 4.849241 2.549404 2.4522989 2.3848724 2.5052443 1.9170552 2.7305367
2.4323616 1.7893404 -0.0880412 2.7402012 0.48377413 2.3188603 2.4706597 4.9616575
2.3172047 2.369707 0.6047586 2.6839135 1.3486884 1.184035 1.6088889 2.568614
2.4127526 4.775613 2.4729846 0.6883685 2.3935258 2.0084746 2.3840175 2.4749036
2.4464715 2.3833106 1.3796877 2.271971 2.4576209 2.5157514 1.9216585 2.4574957
0.696853 2.3546133 2.4477842 0.10969416 1.6526318 2.1017463 2.4975927 2.2130458
2.364947 2.4024448 2.47422 1.6064296

network.1.running_var f4 [236]
00000000: 2887 1d40 2f7a 3940 1b35 1640 d0fe 1440
00000010: 1937 3c40 2a48 2a40 0ac8 0340 e95b 1440
00000020: be7f 0e40 7366 1340 b611 0440 a19b 0740
00000030: 7d83 4640 100f 2140 9253 0a40 46ad 1240
00000040: efdd 2440 77b9 2d40 5a17 0b40 1255 2340
00000050: 9e39 8f40 9e4e 0940 c375 8e40 6f04 1e40
00000060: aac1 1d40 44ca 1540 58c8 4740 4127 f43f
00000070: 440b 1440 21c5 1340 2362 0e40 3551 2540
00000080: ca4f 0840 a123 0a40 a8bb ff3f ed67 1440
00000090: fbb8 0b40 a998 0540 f079 1440 861f 3840
000000a0: c47f 1a40 39b1 1a40 f0ce 1a40 7242 2440
000000b0: 4453 1c40 cdc2 1140 be2c 0540 0137 0d40
000000c0: 3706 1340 da9f 3940 d53c 2e40 7c9b 1340
000000d0: 0461 1f40 456d 0c40 3018 1a40 d71d 1440
000000e0: 62df 1940 24af 1940 9857 2340 2691 0e40
000000f0: 9d0c 1d40 9a1a 0e40 8b25 1b40 d6f4 1e40
00000100: 134c 1940 afb7 1440 5135 1540 9c80 0340
00000110: ae84 0540 3cd3 1a40 bdd0 0540 9afa 1240
00000120: 3628 1940 5c66 1340 6bfd 0340 4cfe 3140
00000130: f6cd 0b40 d4d8 0d40 fc0c 1540 e332 1540
00000140: ce1d 2640 3f53 1e40 f41f 0b40 6ae2 4340
00000150: fbb6 1240 e4b9 1240 8f65 0d40 6641 1d40
00000160: 95f4 1b40 68c2 0f40 cf24 4740 b4e4 1d40
00000170: c6e4 1d40 30c0 0740 ad8f 0240 9b9d 3340
00000180: 5607 0840 00aa 1c40 6d1b 0740 ffb7 0940
00000190: 4a81 4e40 05a1 fd3f 6842 1840 b90f 1b40
000001a0: bb14 1b40 e782 1240 7482 1040 2e4f 0340
000001b0: ecc7 1440 a465 2140 6f6c 2940 2fa2 0540
000001c0: fa99 1640 ba8a 0b40 b681 1940 64d7 1540
000001d0: bb5e 1240 ec10 3241 435a 0d40 3c40 fd3f
000001e0: fa91 0d40 bed1 1c40 7122 2040 c77c 2f40
000001f0: ed0c 0b40 3b81 1a40 25af fa3f 63c0 1940
00000200: d371 fa3f 85e3 5e40 9216 0e40 5d3d 0a40
00000210: 76e7 3540 ba61 1440 b673 1940 7498 1940
00000220: cadf 0f40 e70b 1340 ccdd 1940 fa35 1b40
00000230: f42b 1740 7364 1940 593d 0640 7eed 2440
00000240: 91d7 1840 98d1 1440 4918 2f40 0845 1540
00000250: 0abd 0e40 0b59 1c40 dade 2c40 470d 0640
00000260: 813b 1640 3d6b 0f40 58cf 1940 781b 0d40
00000270: 5c5b 1f40 1c60 1b40 11cb 0c40 faa1 2340
00000280: b155 0940 f342 8240 975b 0a40 ef41 2f40
00000290: 067c 3740 bd21 1b41 6337 2f40 64fb 2b41
000002a0: 1af3 1e40 c6f5 0440 0c03 0540 fd98 1140
000002b0: c318 1340 5041 0f40 936a 1c40 05d8 4a40
000002c0: eecb 2b40 932f 3740 4893 1240 9941 1340
000002d0: 6716 e640 e830 3f40 929b 0640 ecb4 1e40
000002e0: 3e54 2b40 e594 1440 a55f 3d40 e8c0 0d40
000002f0: a79b 2540 e2dc 6e40 55cb 1b40 d4fc 0f40
00000300: ce73 0f40 a52a 1c40 10f6 8440 8f06 1c40
00000310: 959a 0940 e8a5 0d40 7750 2240 0bbf 1040
00000320: 9ba2 1040 1f5c 1040 fc44 4740 16f5 a840
00000330: 057a 0640 fa69 0d40 e9ef 1740 b136 2b40
00000340: 05da 1640 5179 1640 99f1 1140 c6b3 0540
00000350: d12f 0a40 bae7 2040 1944 1340 5c1a 1040
00000360: 7214 1c40 5c44 1a40 986e 0640 d0d4 1640
00000370: 40e8 2640 03d0 0c40 4306 0340 7ccb 1a40
00000380: 3627 3b40 f93d 0d40 ce51 1740 5bfd 0240
00000390: 70dd ff3f d41f 1640 9311 2a40 f2dd 0f40
000003a0: 7d96 2940 743f 1540 23fb 1540 4a17 0c40
2.4613743 2.8980825 2.3469913 2.3280525 2.940863 2.6606545 2.0590844 2.3181098
2.2265468 2.303128 2.063581 2.1188738 3.1017754 2.5165443 2.1613507 2.2918258
2.5760458 2.7144449 2.1733003 2.5520673 4.4757833 2.1454234 4.451875 2.4690206
2.4649453 2.3404703 3.121603 1.9074479 2.3131876 2.3089068 2.2247398 2.5830815
2.12987 2.1584246 1.9979143 2.3188431 2.1831653 2.0874426 2.3199425 2.876924
2.4140482 2.4170668 2.4188805 2.5665555 2.4425821 2.2775147 2.0808558 2.2064822
2.2972543 2.9003816 2.722463 2.306365 2.4902964 2.1941693 2.4077263 2.3143213
2.4042592 2.4013147 2.5522213 2.2276092 2.4538949 2.2203736 2.4241664 2.4836936
2.3952682 2.3237112 2.3313792 2.0547247 2.0862231 2.4191427 2.0908654 2.2965455
2.3930793 2.3031225 2.0623424 2.781146 2.1844459 2.2163591 2.3289175 2.3312309
2.5955691 2.473831 2.1738253 3.0606942 2.2924182 2.2925959 2.2093236 2.4571166
2.436803 2.2462406 3.1116216 2.467084 2.4670882 2.1211052 2.0400193 2.8064945
2.1254478 2.447876 2.111049 2.1518552 3.2266412 1.9814764 2.379053 2.4228346
2.4231403 2.2892396 2.2579622 2.0517077 2.3247023 2.5218287 2.6472433 2.088024
2.353148 2.1803422 2.398542 2.3412714 2.287032 11.129131 2.2086341 1.9785228
2.2120347 2.4503016 2.5021021 2.7419908 2.172664 2.4141376 1.95847 2.4023674
1.9565986 3.4826367 2.2201276 2.1599953 2.8422523 2.3184648 2.3976874 2.39993
2.248034 2.2976015 2.4041624 2.4251695 2.3620577 2.396756 2.0974944 2.5769954
2.3881571 2.3252926 2.7358572 2.3323383 2.230288 2.4429348 2.7011018 2.0945604
2.3473818 2.2409203 2.4032803 2.2048016 2.4899511 2.427741 2.1998942 2.5567613
2.1458552 4.0706725 2.1618402 2.7383993 2.8669448 9.695737 2.7377555 10.748875
2.4835877 2.0775008 2.078311 2.2749627 2.2983863 2.2383614 2.4440048 3.1694348
2.6843219 2.8622787 2.2902393 2.3008788 7.1902347 2.98736 2.1032453 2.4797926
2.6770167 2.3215878 2.9589627 2.214899 2.5876253 3.7322316 2.4342854 2.2498064
2.2414432 2.4401028 4.155037 2.4379003 2.15006 2.213251 2.5361612 2.2616603
2.2599247 2.2556226 3.1135855 5.2799177 2.1011975 2.2095933 2.374018 2.675213
2.3570569 2.3511546 2.280371 2.0890975 2.1591685 2.5141435 2.3010314 2.2516088
2.438748 2.4104223 2.1005 2.356739 2.6079254 2.200196 2.0472572 2.4186697
2.9242682 2.2069075 2.364368 2.0467136 1.9989452 2.3456926 2.6573226 2.2479215
2.64981 2.3319979 2.3434532 2.1889215

network.4.weight f4 [238, 236]
00000000: 6b9f fa40 29a6 4541 e6d0 cec0 d876 aa3e
00000010: 0925 c640 9a9a babf 8451 4640 d908 17c0
00000020: 6bc9 d540 e855 0cc0 9642 eb40 07f5 9cc0
00000030: 3185 79c0 5962 d43f 6929 b43d 80c5 1ac1
00000040: abfc bfc0 c761 773f d449 823e 98d2 f4c0
00000050: 3086 1740 7227 0e40 206d 0f41 0bcc 12c1
00000060: fa66 f040 8c85 c93f d1ae dcbf 2a1b fd40
00000070: 424f b3bf 2b85 ba3f f7e5 1e41 6156 0341
00000080: d858 fabf 5325 c340 e1db ad40 8efd a23e
00000090: 3412 7140 1289 bdbf bab5 b3bf 80a8 a440
000000a0: e770 f2bf 944a cac0 84fc 013f 5a75 2d40
000000b0: 8e9a 62c0 d39c cc3f 4dda 15c0 53da 83c0
000000c0: 2dbe 13c1 55d1 b0bf 0c49 eec0 1595 5d40
000000d0: 16bd c1c0 fa0d 823e 696a 63c0 b0fc 5ac0
000000e0: 1ab0 81c0 d2bf 5dbf d55d 4fc0 c7a4 9d3f
000000f0: da60 61c0 9a9f f5c0 2043 8dbf 8a2e 513e
00000100: 2757 94be d0bb 8441 1f80 0041 1c28 eec0
00000110: 5da1 7440 c808 18bf 8bec aec0 dfc5 a340
00000120: 8e4d 6fc0 9ccf 04c0 7e7f 8fc0 db15 15c0
00000130: 61da ef3f acd3 1a41 0ef3 4fc0 a040 28c0
00000140: 7b38 64c0 583f 3d40 c738 58c0 de47 65c0
00000150: dbbc 6b40 1039 8540 6a27 18c1 0b26 643e
00000160: 9074 4dc0 efa3 0140 98c0 1740 795d 5140
00000170: 8666 81c0 22c6 78bf 0954 9ec0 49b5 19c0
00000180: 980f 2740 a999 e4bf 2121 d0c0 9c6e f3bf
00000190: 7144 cdbf ed3c ecbf b219 9840 816b d6c0
000001a0: e5a0 3641 f9c5 8340 1762 bac0 f4dc ccbe
000001b0: ae21 7e40 cf2d fe40 9f8e 0340 15c7 b7be
000001c0: acc1 93c0 c7b0 d2be 75c8 a73f 80ba 0341
000001d0: 931e b63f 75c9 d9bf c3fa 1941 b892 0cc0
000001e0: 7b10 1740 3f23 833f 90b3 6cbf 2b45 a740
000001f0: b28d 59bf 11c2 2040 2d9b a240 70d6 a040
00000200: f735 4241 79cf 6ec0 41ac 96c0 7b74 4141
00000210: 6844 5ac1 d32c 46c0 2296 98c0 cc3d c640
00000220: 91f0 9bbc ff77 38c0 9fb8 cfbf 3217 d3c0
00000230: 8609 8bbd 33db ee40 c822 5bc0 30f4 7e40
00000240: 84ca 1a41 7263 2abf 57be f840 eeba aabf
00000250: fdb9 0bc0 4c78 4540 6ec1 35c0 ee1c 2bc0
00000260: c728 4ec0 ebab 2140 3f07 00c0 d296 3fc0
00000270: 5bae 0e3d 9656 23c0 ea42 0ac1 5ddf 073f
00000280: 82d0 7cc0 38fc 3740 02a2 083f 8e63 6240
00000290: b27b 5e40 e997 c2c0 ead5 e03c caaf bb40
000002a0: 2117 2741 887e 41c1 1a91 82be 7a86 84bf
000002b0: 62e9 b140 c7b3 3e40 ef8a ee3d 5c58 e03d
000002c0: a8b0 82c0 68c0 d540 c9a1 50bf 9362 f43f
000002d0: 872c c040 0ead 0341 b03d 85c1 a861 62c0
000002e0: c52e a73f 99fe 1c40 d15a d640 3ff4 9140
000002f0: 4ae7 1140 6179 0841 8ce9 6fc0 2d2f 0840
00000300: 7efd c540 378a 4fc0 2c69 2e41 5ac5 c8c0
00000310: ab78 0440 38d1 5dc1 ee3d 0141 48f1 c63f
00000320: 58bc edbf 60db 2c40 6e96 94bf f993 a2c0
00000330: b6b7 0b41 3e99 b03f 8039 9940 0b3d a540
00000340: 46ed 4fc0 7d28 0040 5150 ae40 1fb1 5ac0
00000350: 86d6 34bf 4fc5 43c0 fca9 d0c0 6802 1a3f
00000360: c4e5 713e 64d4 3ec1 1a94 9f40 1651 12bf
00000370: 2b23 3f3f 1786 63bf fa23 c640 3e89 14c0
00000380: 45d5 09c0 68a3 0640 391f 01c1 de65 22bf
00000390: 87f7 2abe 9225 8940 c998 d240 02f7 00bf
000003a0: 0f32 d53f 1296 1840 6a36 1741 ae2d 9ac0
000003b0: d00a 95c0 6351 693d 77a4 80c0 9ad1 ab3e
000003c0: 006d d1be a23d 2440 8656 61c1 7d6d f5be
000003d0: a8b1 1dc1 38f4 9240 5bc8 02c1 a148 adc0
000003e0: 81c9 1341 3eb1 4ac0 a821 19c1 9c9b 963f
000003f0: 5004 2941 2034 083f ead4 a1bd 32a0 efbf
7.83196 12.353066 -6.4630003 0.33293796 6.192021 -1.4578431 3.0987253 -2.359915
6.680837 -2.1927433 7.351878 -4.9049106 -3.8987544 1.6592513 0.08796961 -9.673218
-5.9995933 0.9663357 0.2544695 -7.6507072 2.3675652 2.2211576 8.964142 -9.174815
7.5125704 1.574388 -1.724085 7.909566 -1.4008563 1.457189 9.931144 8.208589
-1.9558363 6.098306 5.4330907 0.31834072 3.766736 -1.4807456 -1.4039834 5.145569
-1.8940705 -6.321604 0.50775933 2.7102876 -3.5406833 1.5985359 -2.341449 -4.120401
-9.23393 -1.3813883 -7.446417 3.4622242 -6.054332 0.25401288 -3.5533698 -3.4216728
-4.052747 -0.8662082 -3.240102 1.2315911 -3.5215364 -7.6757326 -1.103611 0.2042791
-0.28972742 16.591705 8.03128 -7.442396 3.8223488 -0.593884 -5.466375 5.117904
-3.7391086 -2.0751715 -4.484313 -2.329459 1.8738519 9.676678 -3.24921 -2.6289444
-3.5659473 2.9569912 -3.3784654 -3.5825114 3.6834018 4.1632156 -9.509623 0.22280137
-3.2102394 2.0256307 2.37113 3.27133 -4.043765 -0.97177327 -4.947758 -2.4016898
2.6103268 -1.7859393 -6.504044 -1.901813 -1.6036512 -1.8456093 4.7531366 -6.700623
11.414281 4.1179166 -5.824474 -0.40012324 3.9708056 7.943092 2.05558 -0.35894075
-4.6173916 -0.41150495 1.310805 8.233032 1.422808 -1.7014605 9.623721 -2.196455
2.360381 1.0245131 -0.9246149 5.2271934 -0.84981835 2.5118449 5.0814424 5.0261765
12.138175 -3.7314131 -4.708527 12.090938 -13.641701 -3.0964859 -4.7683268 6.1950436
-0.01903561 -2.882324 -1.6228217 -6.5965815 -0.06788926 7.4642577 -3.4239979 3.983654
9.674442 -0.6655799 7.773235 -1.3338296 -2.1832268 3.0854673 -2.839931 -2.6736407
-3.2212389 2.526118 -2.0004423 -2.9935803 0.034834247 -2.5521598 -8.641336 0.530752
-3.9502263 2.8747692 0.53372204 3.5373263 3.4762998 -6.0810437 0.027445752 5.8652086
10.443147 -12.093391 -0.2550133 -1.0353539 5.559739 2.9797227 0.11647593 0.10954353
-4.0840645 6.679737 -0.81496865 1.9092582 6.0054355 8.22975 -16.65512 -3.5372105
1.3061148 2.4530394 6.698586 4.561065 2.2797418 8.5296335 -3.7486296 2.1278794
6.187194 -3.242811 10.900677 -6.274091 2.069865 -13.863579 8.07762 1.5542383
-1.8573103 2.7008896 -1.1608407 -5.080563 8.732351 1.3796766 4.788269 5.1637015
-3.248857 2.0024712 5.4473042 -3.4170606 -0.70639837 -3.0589178 -6.52075 0.6015992
0.23622805 -11.926853 4.986829 -0.5715498 0.7466304 -0.8887648 6.1918917 -2.3208766
-2.153642 2.1037235 -8.070123 -0.63436687 -0.16695987 4.285836 6.5811505 -0.50376904
1.6655902 2.3841596 9.450785 -4.818076 -4.65757 0.056962382 -4.0200763 0.3355835
-0.40903473 2.5662618 -14.083624 -0.47935095 -9.855873 4.592312 -8.173915 -5.415116
9.236695 -3.167068 -9.570717 1.1766238 10.563553 0.53204536 -0.07901938 -1.8720763

network.4.bias f4 [238]
00000000: ee0a 9b3c 1409 2abd dfad abbb 1b3b 4e3d
00000010: 55ec 0f3d e096 433d 3b66 da3c ee01 983d
00000020: e25e 413c 367e 6bbd 976f a4bd 9961 753c
00000030: 15af 1d3d 7f20 9ebd 1a4d cf3c a107 803c
00000040: a3d7 d03c 6a8f 1abd b78b 403d bcfd 343c
00000050: 1bff 6d3d f1fd 1cbc a9f5 74bd 23ac f13b
00000060: 9da1 a53c bbaa 48bc 5012 393d b0e4 053d
00000070: e7a4 ef3c 313c 5a3d b8a5 48bd a772 8dbc
00000080: d3c4 023c d1d8 313d f883 23bd 7162 05bc
00000090: de24 203d 8cc7 edb9 f7c8 873b 1c6e 66bd
000000a0: da5d af3c 2035 c1bc b67b 59bc a4c8 82bd
000000b0: 1aa1 8c3d 9161 823d 9df8 d93b 863b 063d
000000c0: f2d8 343d f46e 69bb 6185 89bd 2b79 1dbd
000000d0: 5f5d 2e3d 6469 f7bc 1dbe 71bd 75e5 2abc
000000e0: dcdc 58bd 526b e7bc b0e1 1a3d fa54 54bb
000000f0: ecac 76bb 6cb9 7b3d b217 5abd f240 6dbd
00000100: 6faf f7bc 72d8 c73b 8392 64bd 5c11 503c
00000110: 76a5 32bc 2372 143d 148f 11bd c8af 26bd
00000120: 74de 223c 46d5 32bd 4c38 3bbd d69a 013d
00000130: 649a 1fbd 177d f7bc 087a 29bc ed8b 21bd
00000140: e9e0 c1bc 5db8 6cbb 7dfa 2a3d a16d 9cbc
00000150: 8873 07bd 1daf 8ebb 3905 20bd f8f6 00bd
00000160: 6f21 543d e5f6 853d ad46 ef3b 7f35 773d
00000170: fcfd 96bd a453 38bd eeb0 30bb f798 8bbd
00000180: c852 1b3d 2e39 39bd f5bf 6cbd 0fd2 ed3c
00000190: bed0 a13c cce6 20bc c100 053d d58f 193d
000001a0: 2c97 e23b 842f 0c3d 2959 cdbc 034e 823d
000001b0: 5b7f dd3c 07ec 55bd d51c 5bbd 1e8c 1e3d
000001c0: e5f1 243d f438 583a e992 5bbb d8c7 333d
000001d0: 2e72 123b fd0d 953c b27f 61bc 7869 23bc
000001e0: 795b 2a3d 331a 2339 e13a 27bd 9922 87bd
000001f0: c0af 78bd e5f7 503c 5604 313d a8dc 163d
00000200: a455 823c 87b0 6bbd a772 b23c 6928 bdbd
00000210: 6684 053d 68eb 91bb 95b7 f3bb 703e 893c
00000220: 9705 d3bc 8a39 53bd 3d37 713d a436 6bbc
00000230: 125d 233d db21 133d 9808 883d 76b2 113d
00000240: 5a2f 58bd 7cdf 93bc 3436 973c b0fb a9bd
00000250: 44ef 073d cacc 5d3c 6021 55bd 40a2 e4bb
00000260: 6ec1 ad3a 931c cb3b 421d 5c3d 6e8b bf3c
00000270: cb36 77bd 65d9 02bc 6bd2 80bc 7b70 50bd
00000280: 5aa6 64bd c938 df3c e5df 7bbc 394d 4cbd
00000290: f6f2 0a3b d283 bb3c 07c7 a03b 2e1b ff3c
000002a0: d51d 953d 6f0e 6f3d 6049 863d b6e9 97bb
000002b0: 08cc 2e3c 0f40 d93c ad69 93bd c7a5 bcbc
000002c0: 51fd 723b 3692 363d c6e5 0a3d c75b 81bc
000002d0: 5cc7 9dbd 09fc d5bc 022d 0cbd 9147 6e3d
000002e0: ef9a b1bb ab8e 9ebc f645 f4bc a578 4dbc
000002f0: 4790 03bd e6fa d6bc d0b4 4e3d 1c59 d0bc
00000300: 8c47 1e3c ca16 4abd 5cb8 02bb fb28 57bd
00000310: 91f2 91bd a0ea 463d 11fd fabc 76d1 70bd
00000320: ec9f 563c dca0 843b 2d62 1a3d 40ec 9fba
00000330: 1b00 0fbc a2f5 423c d635 d73c 4a71 713d
00000340: 1029 22bd 16cc ae3c 3c7a d33c ebf1 31bd
00000350: 26ba 423d dd47 ce3c 4223 9d3a 68ad eabc
00000360: 051a a93c 9641 ef3c 2cbf 22bd 03bc 3ebd
00000370: 1502 40bd 46ef da3c 93f0 f13c ade0 53bc
00000380: fec7 52bc 2881 eebc 5888 9bbd 0483 3fbd
00000390: 38e6 b43c 534c 35bc f571 84bd 0e91 e03c
000003a0: 1db9 403d a5f3 413d 0b5d 143c 814a 5dbd
000003b0: 1222 dcbc 8168 c93c
0.01892611 -0.041512564 -0.005239233 0.050349336 0.035137493 0.047751307 0.026660075 0.07422243
0.011802407 -0.05749341 -0.080290966 0.014976882 0.03849705 -0.07721042 0.02530532 0.015628638
0.025493449 -0.037734427 0.047008242 0.011046823 0.058104616 -0.009582029 -0.059804592 0.0073752566
0.020218665 -0.012247737 0.04518348 0.032688797 0.029253436 0.05328006 -0.048986167 -0.017266585
0.007981497 0.043419663 -0.039920777 -0.008141146 0.03909766 -0.00045352837 0.00414383 -0.056257352
0.021407057 -0.023584902 -0.013274124 -0.063859254 0.06866665 0.063662656 0.0066519515 0.03277161
0.044152208 -0.0035619112 -0.06714893 -0.038445633 0.042569514 -0.030201621 -0.059019197 -0.010430683
-0.052945003 -0.028249417 0.03781289 -0.0032399283 -0.003763969 0.06145613 -0.053245254 -0.057923265
-0.03023502 0.0060988003 -0.055803787 0.012699451 -0.010903707 0.03624166 -0.03553684 -0.04069498
0.009940732 -0.043660425 -0.045707986 0.031641804 -0.038965598 -0.030211015 -0.010344036 -0.039440084
-0.023666816 -0.0036120631 0.04174279 -0.019095244 -0.033069164 -0.004354371 -0.03906748 -0.031485528
0.051789697 0.06541232 0.0073021264 0.060353752 -0.073726624 -0.04500164 -0.0026960927 -0.06816285
0.037920743 -0.045220546 -0.057800252 0.029030828 0.019752856 -0.009820651 0.032471422 0.037490685
0.0069149937 0.034225002 -0.025066929 0.06362536 0.027038267 -0.052227046 -0.053494293 0.038707845
0.04026975 0.0008248233 -0.0033504313 0.043891758 0.0022345888 0.018195147 -0.013763355 -0.009973876
0.04159114 0.00015554651 -0.040827636 -0.06598396 -0.060714483 0.012754415 0.043217026 0.036831528
0.015909977 -0.057541396 0.021783186 -0.09236223 0.032596968 -0.0044531114 -0.007437656 0.016753405
-0.025759501 -0.051568545 0.05889057 -0.014356289 0.03988368 0.03592096 0.06642264 0.035570584
-0.052779533 -0.018050902 0.018458463 -0.08299959 0.033187166 0.013537595 -0.052033782 -0.0069773495
0.0013256499 0.0061984747 0.05373884 0.023381915 -0.06035499 -0.007986401 -0.015725335 -0.05088852
-0.055822708 0.027248757 -0.015373205 -0.049878333 0.0021201945 0.022890005 0.0049065384 0.03114089
0.07281081 0.058363374 0.06556964 -0.004636015 0.010668762 0.026519803 -0.071978904 -0.023028268
0.0037077258 0.04457303 0.033910535 -0.015790833 -0.077040404 -0.026121156 -0.03422261 0.05817372
-0.005420081 -0.019355139 -0.029818516 -0.012540971 -0.032120015 -0.026242685 0.050465405 -0.025433116
0.009660613 -0.04933814 -0.0019946313 -0.052529316 -0.07126344 0.0485636 -0.03063825 -0.058793508
0.013099652 0.0040474962 0.037691284 -0.0012201145 -0.0087280525 0.011899384 0.026270788 0.05894593
-0.03958994 0.02133755 0.025815122 -0.0434436 0.047540806 0.025180751 0.0011988657 -0.02864714
0.02064229 0.029206078 -0.039733097 -0.04656602 -0.046876986 0.026725423 0.02953366 -0.012931985
-0.012865065 -0.02911432 -0.07594365 -0.046755806 0.022082433 -0.01106556 -0.06467048 0.027412917
0.047051538 0.0473515 0.009055386 -0.05402613 -0.026871715 0.024585964

network.5.weight f4 [238]
00000000: 149f 8940 42b5 db40 beeb af40 5635 8540
00000010: 1c61 a240 e83d 9d40 34f2 8640 08c8 7940
00000020: 8d20 9240 9c38 c040 df59 ae40 d5af b640
00000030: 2032 9a40 4822 c340 898b 8140 e3ba bb40
00000040: 75cc 9f40 17e5 c140 cb2d b740 19e4 8340
00000050: 7c17 9b40 8902 8540 3748 0141 4c95 8840
00000060: df95 6f40 f525 9140 a5ff a440 8ee6 d240
00000070: a525 8140 3c12 8440 0e74 b840 7f2d 9040
00000080: 1f4f 9b40 b85e 8540 fda2 a540 7280 b240
00000090: 463b 8b40 32dc 9740 09ce d040 0382 9540
000000a0: ec54 9a40 eb78 ee40 4a6e ba40 ad2f d340
000000b0: b91c 9440 c6fd b940 ea71 bd40 184c c740
000000c0: 333d ae40 1037 8a40 7f00 b140 7649 8340
000000d0: ac69 b340 1126 a140 aba2 a740 ba10 be40
000000e0: 24da c540 f820 9e40 bda7 bd40 8360 a040
000000f0: 91a8 9040 59d6 8140 2c41 aa40 40c4 b140
00000100: 2a21 8b40 b840 8340 e90a 8340 1b3f 9940
00000110: 3183 9940 99bc c040 4f78 ad40 c355 a340
00000120: b089 a040 9064 9d40 1004 b940 45cd 8a40
00000130: 689f 8140 614e 8440 0349 bb40 9bed 9e40
00000140: 6d12 8e40 e459 a840 882f ae40 7fec ab40
00000150: d4ff b440 119d 8740 dd1a cd40 3c99 a140
00000160: 7812 a040 d66f 9c40 1827 8340 7f51 b040
00000170: 8570 bb40 1e19 aa40 1917 8540 88d0 be40
00000180: 39d4 7840 ade1 b440 c57f 8140 ec91 9840
00000190: 7b6c 9640 e270 7840 4e66 cd40 d8a4 b640
000001a0: 42d2 8b40 9664 8840 065b a640 467d 8440
000001b0: ebc2 ab40 93aa c240 3357 8540 4de0 7640
000001c0: 01bc a140 64c8 b140 1ca7 b040 2d4a c540
000001d0: a107 d240 9ccb d040 6fbc 8140 1cc1 a740
000001e0: 8d0d ab40 a515 cf40 b85e a940 707e c540
000001f0: 2760 8440 7a6e 8640 ac31 c040 ce55 8540
00000200: bc38 b140 0118 aa40 0492 a340 af01 ca40
00000210: 5afb a740 10d3 9140 bfbd d140 3307 cd40
00000220: 5d49 b340 e6b7 9940 cc3b 8b40 a1aa bb40
00000230: e7cc c840 c730 8540 9c6c c740 57c3 8840
00000240: b4d7 8140 5003 9540 a4c8 d140 eaf4 c340
00000250: 3025 8140 2c80 a940 39d3 8640 5a16 af40
00000260: d4ee b240 9443 a040 0852 8040 943d 8540
00000270: 7bff 9240 1807 8d40 00ed ad40 6e7b ad40
00000280: 07f2 a340 f78e a240 5a8e 8140 6e0b 8d40
00000290: 8982 ab40 ae20 cd40 9a1d b240 bc40 aa40
000002a0: 076d 8440 c52b b140 fa43 c340 fe7c 8d40
000002b0: 3cf0 a140 0d2f 273e 717e d240 1b4e c240
000002c0: 8357 b840 0577 a140 b06f 9040 22fe 9f40
000002d0: 9e40 a040 e91a bb40 38b9 8b40 312a 8940
000002e0: 6a95 7240 fd64 8540 dfb0 a940 913e b940
000002f0: 3875 ae40 55f4 ae40 2f7f 8440 b70a a440
00000300: 13f0 8240 b42c 7540 5d14 b040 340d c840
00000310: 9ff4 ad40 3491 9540 8729 9840 9789 9940
00000320: a89f 7c40 0886 8b40 805e 9840 0d40 9640
00000330: bdbe 8d40 26cf cb40 1b83 b240 5395 d040
00000340: 8f7d 8340 c887 8340 13ba 9640 4ba0 9340
00000350: 7978 af40 29e3 b240 e6ea 9340 9b37 ae40
00000360: 3791 8240 0ed6 d440 9fc7 c440 de4d d340
00000370: d52a 8e40 3787 aa40 3287 a340 a294 c640
00000380: f082 9540 b784 8440 ca64 7340 74e5 af40
00000390: 8312 a840 d209 8840 e779 8040 9704 aa40
000003a0: ba44 c640 fc4d b140 0ffc 8b40 ca06 373e
000003b0: b3b6 9c40 b8dd 9a40
4.3006687 6.865876 5.497527 4.1627607 5.074354 4.913807 4.217066 3.902834
4.5664735 6.0069103 5.4484706 5.708964 4.818619 6.0979347 4.048283 5.8665633
4.993708 6.059215 5.72434 4.121594 4.8466167 4.1565595 8.080131 4.2682247
3.7435224 4.5358834 5.1562066 6.590644 4.0358453 4.127226 5.764167 4.5055537
4.8534083 4.1678123 5.176146 5.5781794 4.3509855 4.7456293 6.525151 4.6721206
4.8228664 7.4522605 5.825963 6.59957 4.628506 5.812228 5.9201555 6.228039
5.4449706 4.3192215 5.5313106 4.1027174 5.6066494 5.035897 5.238607 5.939542
6.1828785 4.9415245 5.926726 5.011781 4.520577 4.0574155 5.3204556 5.5552063
4.3477983 4.10165 4.095082 4.7889533 4.7972646 6.023022 5.420936 5.104219
5.0168076 4.9185257 5.781746 4.3375573 4.050709 4.1345677 5.8526626 4.9665046
4.4397492 5.260973 5.443302 5.372619 5.656229 4.237923 6.409529 5.0499554
5.0022545 4.888652 4.098522 5.5099483 5.8574853 5.315566 4.1590695 5.9629555
3.887953 5.6525483 4.046847 4.7678127 4.7007422 3.8818898 6.4187384 5.7076225
4.369416 4.2622786 5.1986113 4.140292 5.3675437 6.083322 4.1668944 3.8574402
5.0541997 5.5557117 5.520399 6.1653047 6.5634313 6.5248547 4.054252 5.242323
5.345404 6.471392 5.2928123 6.1716843 4.1367373 4.200986 6.0060635 4.166724
5.5381756 5.31543 5.111574 6.3127055 5.2494326 4.5570145 6.5544124 6.407129
5.6027055 4.8036985 4.3510494 5.8645787 6.2750125 4.1622043 6.232008 4.273845
4.057581 4.6566544 6.5557423 6.1236467 4.0357895 5.296896 4.213284 5.4714785
5.591654 5.0082493 4.0100136 4.163767 4.5936866 4.407116 5.4351807 5.421317
5.1232944 5.079952 4.048627 4.407645 5.3596845 6.410239 5.5661135 5.320402
4.138309 5.536593 6.102048 4.421508 5.0605755 0.16326542 6.5779347 6.0720344
5.7606826 5.0457788 4.5136337 4.999772 5.007888 5.847035 4.3663597 4.2864003
3.7903695 4.1685777 5.3028407 5.7888875 5.451809 5.4673257 4.1405253 5.126308
4.091806 3.8308535 5.5024858 6.2516117 5.436111 4.673975 4.7550693 4.7980456
3.9472446 4.360111 4.7615356 4.6953187 4.4295335 6.3690367 5.578504 6.518228
4.109077 4.110325 4.710214 4.613317 5.483456 5.5902295 4.622424 5.444288
4.0802264 6.6511297 6.149368 6.6032553 4.4427285 5.3290057 5.1102533 6.2056437
4.6722336 4.1412005 3.8030267 5.4967594 5.2522597 4.251199 4.0148807 5.3130603
6.1958895 5.5407696 4.374519 0.17873684 4.897302 4.8395653
