best models/saved_models/architecture_5/best_model.pt (torch, 422946 bytes, 25 tensors)

network.0.weight f4 [226, 15]
00000000: c69f b33e e99d 3fbe 37dc 983e 0750 ebbe
00000010: d83f 12bf 4a54 30c1 da23 04c0 ed31 de3e
00000020: 7d2f 2dc1 b82d a33f 6f40 71c0 5013 2bbc
00000030: f5be 8f40 e8ec ed3f 191f 38c1 2554 193f
00000040: 4bdf 0b3e 7997 6fbe 90df 71bd 24e6 b640
00000050: f4b0 4ac0 a9d8 16c1 6c41 c9bc bdc9 9fc0
00000060: 7cf6 14c1 c2d5 a33f 0e2f 1f3f a910 1ec1
00000070: 3660 7640 a447 dfc0 c3b9 18bf b9bc 8c3e
00000080: c1b3 663f 5c68 2bbf 4977 74c0 d762 2c41
00000090: e57f 81be 3e30 2cbf 6ad8 e3c0 0a3b 02c0
000000a0: b6dd 09c1 be1a ee3d 419d 0ac1 b9d4 38c0
000000b0: 6928 f740 10f6 ba3f d6ed dcbf 7549 0ac0
000000c0: 0366 393f 55cd 483f f99c 26be dc36 3841
000000d0: 24dd ccbf 5697 08c0 282e 2dc1 43d6 e5be
000000e0: e76f 26c0 441b 3641 135f d8bf 5b66 a0bf
000000f0: 13f1 8fc0 8edd 7ac0 4f82 6040 8fef c040
00000100: 7b7d 0b41 146e 1241 6287 fec0 9198 c63f
00000110: e11a fa3f 01b3 0340 bf06 cdbf d8cc 6940
00000120: b11b 7f40 c005 9d40 62e2 bec0 6d93 913e
00000130: a4c2 0cc1 8ee3 e3bf e1e3 2340 740a 4d3e
00000140: 9a4b 9040 04e9 30c0 62d1 3a40 6c97 3ec0
00000150: 18c2 8640 9e7d 02be aab0 1441 eba6 06c0
00000160: 2c31 6b41 7a88 fd3f 9340 89bf 4fbb 28c0
00000170: 3552 2e40 53d7 a9bf b8fa 2540 4eee 12c1
00000180: 76a6 9abf aeac f03f 8dad 0841 e045 0641
00000190: ada2 59c0 2e1f 13c0 7405 b63f 557e 9cc0
000001a0: 4418 3141 6e1c 0c3f f199 51c0 1e15 7940
000001b0: 3045 ffbf 0482 95bf a268 e8c0 0c6c a640
000001c0: a2ff ffbf 6873 64be ed96 a8c0 a77f ce40
000001d0: a42c 8840 66d3 01bf 2739 3c41 8fb8 1ec1
000001e0: ee2e d4c0 62cd 963f 5ad0 0c41 7fd5 5340
000001f0: 0836 dc3f 824f 57be 7258 91c0 adf1 ce40
00000200: 6ab9 c040 93d7 eabf eecb dfc0 ac44 bcc0
00000210: f330 9ec0 9e87 b73d 8f99 cb40 d073 8340
00000220: af8d 5dc0 ce9e 99be e77a 61c0 1cc3 df40
00000230: d8f8 b8c0 4759 24be a770 9940 67a0 03c1
00000240: 60fd 0741 f0e0 02bf 17fb 8fc0 02d1 e840
00000250: 1f88 cec0 446c a53f fc39 0340 04ab cbbe
00000260: 92c5 a4c0 c8e6 8fbf 9301 1440 82aa e6bf
00000270: d7cc 6940 6b05 73c0 a051 3340 9317 13bf
00000280: a739 e0c1 d816 e6be 6e18 f03f 4d3d dd3f
00000290: 9e88 05c1 0cf1 c4c0 6dfd 7440 4dcd b9bf
000002a0: 3e4e 56c0 002c a7c0 d051 2740 4d7d d1be
000002b0: b3bd cd40 3b31 1041 a695 cfc0 dc81 b33f
000002c0: b46d cac0 6d55 01c1 4c50 ac40 5f98 173e
000002d0: 8ff7 0540 88cb 7ebf cbcd 24c1 4970 1fc1
000002e0: 5fc5 3740 ef15 91bf b58a 3ac1 ebd6 72c0
000002f0: 9d62 383f a20b 39be ac3c 50c0 c6ee 3a40
00000300: 8551 afbf 7617 a83f 516b 2b40 3b03 6e3f
00000310: 1a0e 73bf bc94 f13e 5e63 8abf 7564 b33f
00000320: 1555 11c1 8a81 f340 a5fb 3b3f 7f8d 8e3f
00000330: 9a1e e440 d88b 0641 fce1 443f 2539 2dc1
00000340: 9755 e73d 567a 3840 0d39 9b40 37d8 30c0
00000350: 60fc c2c0 3189 9bc0 ee6c 0341 54f7 60c0
00000360: a3bf 24c1 fb41 94bf 4c39 1e40 41e3 cebf
00000370: fd90 1ec0 56bd 7dc0 c4e4 b940 4705 75c0
00000380: 6be5 eac0 4f3d d7be 574b b2bf a85f 68bf
00000390: 66e1 9a3f 698a efc0 b21e 0541 920f a13f
000003a0: 8bea b1be bf41 d140 d410 e940 ee23 96c0
000003b0: 1fd4 94bf 71f1 94c0 32dd 2ec0 02fc 35c1
000003c0: 897a 5340 3da2 6b40 117c 6ec0 9ca0 8c40
000003d0: bd8d b8c0 7d2a edc0 d22e cf40 6778 68bf
000003e0: 902d 18be 809b ee3f 5567 03c0 6442 bc40
000003f0: 6428 dec0 9ef3 12c1 0f48 cc40 d83d 9640
0.35082835 -0.18712582 0.2985551 -0.45959494 -0.5712867 -11.020578 -2.0646882 0.43397465
-10.824094 1.2748327 -3.7695577 -0.010441616 4.49206 1.8587923 -11.507592 0.5989402
0.13659398 -0.23397626 -0.059051096 5.7155933 -3.1670504 -9.427896 -0.024567328 -4.9933763
-9.310177 1.2799609 0.62181175 -9.879067 3.8496222 -6.977495 -0.5965845 0.27487734
0.9011803 -0.66956115 -3.8197806 10.774131 -0.25292888 -0.6726111 -7.1201677 -2.0348535
-8.616629 0.116261944 -8.663392 -2.8879836 7.723683 1.4606342 -1.7260082 -2.1607335
0.7242128 0.7843831 -0.16270818 11.513393 -1.6004987 -2.1342368 -10.823769 -0.4489003
-2.60058 11.381657 -1.6904014 -1.2531236 -4.498178 -3.9197726 3.5079534 6.029243
8.718135 9.151875 -7.954026 1.551531 1.9539453 2.0578005 -1.6017684 3.6531277
3.9860651 4.906952 -5.9651346 0.2843279 -8.79752 -1.7803819 2.5607836 0.20023519
4.5092287 -2.7642221 2.9190297 -2.977992 4.211193 -0.12743232 9.293131 -2.1039379
14.699505 1.9807274 -1.0722831 -2.6364324 2.7237675 -1.3268837 2.5934277 -9.18318
-1.208205 1.8802698 8.542371 8.392059 -3.400554 -2.298778 1.4220414 -4.8904214
11.068424 0.5473088 -3.2750208 3.891914 -1.9942989 -1.1680303 -7.2627726 5.2006893
-1.9999888 -0.22309649 -5.2684236 6.4530826 4.2554493 -0.50713193 11.763953 -9.920058
-6.6307287 1.1781428 8.800867 3.3099058 1.7203989 -0.21026424 -4.5420465 6.4670014
6.0226336 -1.8347038 -6.9936438 -5.883383 -4.9434752 0.08961414 6.362495 4.1078873
-3.4617727 -0.3000397 -3.5231264 6.992567 -5.7803764 -0.16049682 4.7950015 -8.226661
8.499359 -0.5112448 -4.4994006 7.2755136 -6.4541163 1.2923665 2.050414 -0.39778912
-5.1491175 -1.1242304 2.312596 -1.8020785 3.6531274 -3.7972057 2.801857 -0.57457846
-28.02815 -0.44939303 1.8757455 1.7284333 -8.345854 -6.1544247 3.827968 -1.4515778
-3.3485255 -5.224121 2.6143684 -0.4091591 6.4294066 9.012019 -6.4870176 1.4024005
-6.3258915 -8.083356 5.384802 0.14804219 2.0932348 -0.99529314 -10.300242 -9.964913
2.8714216 -1.1334819 -11.658864 -3.7943676 0.7202547 -0.18070844 -3.253703 2.9208236
-1.3696753 1.313216 2.678425 0.9297368 -0.9494339 0.47183788 -1.0811574 1.4015032
-9.083272 7.609563 0.73430854 1.1136931 7.1287355 8.409142 0.76907325 -10.826451
0.11295622 2.8824668 4.850714 -2.7631967 -6.0933075 -4.860497 8.214094 -3.5150957
-10.296786 -1.1582636 2.4722471 -1.6163102 -2.4775994 -3.9646811 5.8091755 -3.828447
-7.340505 -0.42038962 -1.3929242 -0.9077096 1.2100036 -7.485646 8.319994 1.2582877
-0.34749255 6.5392756 7.283304 -4.691886 -1.1627234 -4.654473 -2.7322507 -11.374025
3.304354 3.6817772 -3.7263224 4.3946056 -5.767302 -7.4114366 6.4744654 -0.9080872
-0.1486113 1.8641205 -2.053182 5.8831043 -6.9424305 -9.184477 6.383796 4.6950493

network.0.bias f4 [226]
00000000: 27b1 2840 37ed a740 3d59 3a40 37b5 3040
00000010: 8c73 1040 414b 1840 03bf 3240 a829 1f40
00000020: 9f88 cb3f 3511 b63f 1653 2e40 71c0 1c40
00000030: ca1f c83f ae1f 2140 2873 2340 cea9 2540
00000040: e5c7 1140 fd17 ef3f cb78 a940 6475 2640
00000050: 7b9d 1b40 910f 1640 68e6 763f 6a8d 2040
00000060: db04 1740 312a 1340 2520 1e40 dfd5 2740
00000070: 1f7b 893f 7e3c 1040 4492 2f40 926b 1840
00000080: 2c0c 0440 34d3 c13f 3219 1040 764e 1b40
00000090: 13ff 0640 3ad4 1840 06e5 1540 fada 1840
000000a0: 487e fd3f 2b9c a740 65e8 1d40 aa9a 1940
000000b0: 62a2 1940 f367 2140 cd4c 2c40 35c2 1640
000000c0: 052d 1c40 98b4 1640 0246 0240 bb7b 0940
000000d0: 64ef 703f 1eeb 1340 e343 2140 064c a23f
000000e0: 38c0 1240 0e84 2940 6fd1 c43f 7b77 1840
000000f0: 911e 1040 ff83 0e40 0c77 2040 53ef 1f3f
00000100: 9629 2140 b7fc 1840 40b8 0d40 6c1a bbbd
00000110: e131 1540 f778 b43f 4055 1b40 27ff 0b40
00000120: 264d df3f 6297 2c40 4f26 62be 0488 cb3f
00000130: 30a4 1240 291a 2f3f 7bd4 cd3f 7c03 2040
00000140: c24a 553f 4b1e b73f d656 af3f 963c 463f
00000150: 4712 1740 6486 1940 86b5 2240 294f 2340
00000160: 730f 1440 3381 1e40 18f9 593b 0025 1740
00000170: d658 1a40 5ea6 2b40 356d 1d40 6383 9e3f
00000180: d731 963e efc9 1140 141e 9c3f 180f 2f3e
00000190: 157d 2340 10b9 3b40 f44c 1d40 3360 7e3f
000001a0: 03b2 d93f d90a 1840 3131 3040 f05d 0d40
000001b0: 02e1 1440 a4d8 a240 134e e63f 23ce ca3f
000001c0: 82f2 1440 3310 1440 230b 1640 c301 9f40
000001d0: 1a99 1840 dc7a 1c40 238c 873f 0a7d 1f40
000001e0: 4689 843f 41ac 2540 319a a73f 33fd 1e40
000001f0: 72e1 0b3f 41b2 1d40 1e98 eb3f a5b4 1b40
00000200: a6a3 c43f 0ff1 1b40 0b40 1840 009a 7c3f
00000210: 5c62 0e40 4a1d b13f dda4 3440 c2b8 0440
00000220: f73f 1440 339f d33f f6c3 1640 d8c5 2140
00000230: 80ed 0940 e3eb f13e 7abf 0940 9361 9b40
00000240: f571 cb3f fc52 1a40 3b5a eb3f c7c0 1140
00000250: ab8e 7f3f adc8 3240 9bfb 1640 6bf0 0e40
00000260: d7c2 a83f 52df 0040 4bb2 af3f 1f78 cd3f
00000270: 8440 a140 b423 e53f 8ffc 1140 bcb3 1340
00000280: 783c 2240 9c85 1a40 7ab8 1540 77cd 1f40
00000290: 5c65 0d40 1bf1 9e40 eb68 0d40 85de a13f
000002a0: d4aa 2040 bbec 943f c595 1540 57a7 703f
000002b0: 1a96 ec3f c6f4 0a40 82c8 1e40 b013 1940
000002c0: 123b 1c40 eded 1440 7c7b 8ebe 1089 1340
000002d0: 8cd0 1c40 321a d13f a77b c23f d8ba 1d40
000002e0: e7e2 473f ae71 2640 bd2f 1040 181c 1c40
000002f0: 4ea4 9e3f f1da 3340 e95e 1540 c542 1b40
00000300: ed45 2540 358b 1b40 2ee9 1b40 410a 1340
00000310: 9301 1d40 7fc7 1940 c31f 5d41 0917 a73f
00000320: c5c1 8c3f 988c a140 44c7 3e40 987a 0240
00000330: f7e1 1f40 ce6a f83e 7613 ca3f 210a 943f
00000340: 1758 da3f 4b10 0e40 1265 953f 9ddc 1d40
00000350: d3c7 1f40 c501 ae3f dd4c 0c40 2fd5 1240
00000360: a4c5 1140 dada 1c40 b847 2040 0238 d03f
00000370: dd28 1d40 11ee 2840 e18f 1740 63f4 1240
00000380: 8616 1840 a0a8 1f40
2.6358125 5.247707 2.9116967 2.7610605 2.2570524 2.3795931 2.7929084 2.4869175
1.5901068 1.4224001 2.7238212 2.4492457 1.5634701 2.5175586 2.5539036 2.588489
2.2778256 1.8679196 5.295995 2.600915 2.4314868 2.3447 0.9644532 2.5086312
2.3596714 2.2994502 2.470712 2.6224287 1.0740699 2.2536922 2.7433023 2.3815656
2.063243 1.5142579 2.2515378 2.4266639 2.1093185 2.3879533 2.3421035 2.3883653
1.9804163 5.2378135 2.4673092 2.400065 2.400536 2.5219696 2.6921875 2.3556035
2.4402478 2.3547726 2.035523 2.148177 0.9411528 2.3112254 2.5197685 1.267945
2.292982 2.648685 1.5376414 2.3822925 2.2518656 2.2268064 2.507266 0.62474555
2.5181632 2.3904245 2.2143707 -0.09135899 2.3311694 1.4099416 2.4270782 2.1874483
1.7445419 2.6967397 -0.22084926 1.5900884 2.2912712 0.6839929 1.6080469 2.5002127
0.83317196 1.430612 1.3698375 0.77436197 2.3604906 2.3988276 2.5423293 2.5517066
2.313443 2.4766357 0.0033260044 2.3616333 2.411672 2.6820292 2.4597905 1.2383846
0.293349 2.27795 1.2196679 0.17095602 2.5545094 2.9331703 2.4578218 0.9936554
1.700745 2.375662 2.7530024 2.2088585 2.3262334 5.0889454 1.7992576 1.5844158
2.3273015 2.3134887 2.3444297 4.968965 2.3843446 2.4449987 1.0589641 2.4920068
1.0354393 2.5886385 1.309393 2.484204 0.5464088 2.4640048 1.8405797 2.4329007
1.5362442 2.436588 2.3789089 0.98672485 2.2247534 1.3837063 2.8225625 2.0737767
2.316404 1.6532959 2.3557105 2.5277004 2.1551208 0.4725028 2.1523118 4.855661
1.5894152 2.411315 1.8386911 2.2773912 0.9982707 2.7934983 2.3591068 2.233424
1.318446 2.0136304 1.3726286 1.6052283 5.0391254 1.7901521 2.28104 2.307845
2.5349407 2.4144049 2.3393846 2.4969156 2.2093115 4.966932 2.2095287 1.2646033
2.5104265 1.1634744 2.3372662 0.9400534 1.8483307 2.1711898 2.480988 2.3918266
2.4411054 2.3270218 -0.27828586 2.3052406 2.4502287 1.6336119 1.5193986 2.464529
0.780806 2.6006885 2.2529137 2.4392147 1.2393892 2.8102381 2.3339179 2.4259503
2.582393 2.4303715 2.4361072 2.2975008 2.453221 2.4028013 13.820254 1.3053905
1.0996634 5.0484123 2.9809122 2.0387325 2.4981668 0.48518986 1.5787189 1.1565591
1.7058133 2.2197444 1.1671469 2.4665902 2.4965713 1.359429 2.1921914 2.2942617
2.277688 2.4508576 2.5043774 1.6267092 2.455619 2.6395304 2.3681567 2.2961662
2.3763747 2.494667

network.1.weight f4 [226]
00000000: 525a e840 ab40 cc40 e85c d440 f040 b740
00000010: 8b6a c940 402c e340 61b9 bc40 2a28 ce40
00000020: 1c82 f640 4630 c640 6f15 ae40 215e fb40
00000030: 9e5b 0641 61ff d340 3952 d640 4e57 bd40
00000040: cf65 bb40 eedd e240 cae4 c440 3214 bc40
00000050: 0f9f ce40 65cf b440 fbfe af40 d873 cd40
00000060: f684 dd40 dc4d de40 f4a4 dd40 193b c340
00000070: eaca f740 e487 c840 69aa d340 218e c440
00000080: f7e7 ee40 7209 e340 4ad6 ef40 8a2c eb40
00000090: c2e2 cc40 f504 e640 2292 e140 af83 ad40
000000a0: f336 d040 d77f e440 ef21 c340 fa5c d140
000000b0: 5038 a940 c1f8 b840 f69a d140 ad5c f540
000000c0: 9035 cf40 3ae3 db40 3c42 9440 a9f2 b340
000000d0: c682 d040 f370 d240 f87c dd40 6799 b540
000000e0: 5eb8 ca40 7e2a c440 fd37 dd40 349c d840
000000f0: 3414 e640 6324 da40 0214 ab40 8374 df40
00000100: bab4 d640 96fd a740 549e e840 6e58 a440
00000110: 0f75 e440 cdf8 e940 2c90 be40 915e df40
00000120: 9acf c740 d53c ef40 84a7 d740 6b28 d940
00000130: 8572 d840 2784 cb40 2434 dc40 f4ed c840
00000140: 8060 cf40 b08e db40 79bf b240 e130 fb40
00000150: 5537 d140 c73e f640 7c8b de40 2d36 bd40
00000160: f458 c740 f763 de40 6d9e a340 ce6a d840
00000170: d097 b240 5676 b840 0752 c940 92a4 e240
00000180: 226c f340 2789 e040 903b f740 0d3b f440
00000190: 348c c840 c4c8 d140 bf33 cc40 467d d040
000001a0: f6a4 a040 b137 e540 edc6 d240 6e83 d540
000001b0: 3ac4 c240 d470 d640 0bf8 0141 c2fe f240
000001c0: 2725 cf40 818b ea40 1605 d640 7468 ce40
000001d0: 1933 d940 de69 e340 b4cc e440 6373 c040
000001e0: 9820 f640 1edb be40 4ce4 ac40 0a79 d840
000001f0: 7b9e ca40 d3ed f340 66f8 d640 0e5a e040
00000200: 096e c840 9f99 d640 3adc c540 a7b5 0041
00000210: 0d5b e440 da9c f340 59ff c540 a80a eb40
00000220: 6231 f440 453d bb40 9856 ca40 3ad3 e240
00000230: 4931 d440 7176 bd40 01d0 ec40 47f2 c440
00000240: 86a1 d840 7342 df40 82f5 de40 550a d240
00000250: ef2a db40 43d1 cf40 0cf6 ed40 810b db40
00000260: c8e7 db40 abf6 c640 c38d ff40 df74 d440
00000270: 0966 d640 74c1 db40 4ba3 bc40 4fcd fc40
00000280: 1e78 cb40 bd34 e440 f8a0 e840 73c0 d540
00000290: 8194 e740 8566 ca40 423c ee40 62a5 c040
000002a0: f374 cc40 76c1 da40 1921 b940 a286 dc40
000002b0: 4ecb ea40 9831 cf40 b3fb ce40 05f3 b240
000002c0: cabd c540 df74 d340 b897 ab40 0cc0 d040
000002d0: 01a1 d640 786f c640 3c89 e640 64a7 e540
000002e0: 37c6 cb40 48d6 d440 0472 0341 1677 d940
000002f0: a83f ed40 8c9c b540 ed0b df40 fe47 f940
00000300: 4a82 d140 803e eb40 e2f5 f640 48b9 e440
00000310: bb45 ce40 afcc ca40 f8eb e440 6963 e140
00000320: 0c5c f940 887b ae40 79b7 cc40 24b3 f340
00000330: 6f8b e340 c75e dc40 b124 d840 4e64 aa40
00000340: 67e5 cf40 d953 d440 6f6b ec40 314f c440
00000350: 7dde cd40 06b0 ec40 86b9 cd40 9cb3 fe40
00000360: 75b1 db40 aea4 e740 3447 e940 f1e1 b440
00000370: b6d9 e540 a2b2 d540 1012 f240 e31f d640
00000380: 9963 e040 d3c7 f840
7.2610254 6.382894 6.636341 5.726677 6.2942557 7.0991516 5.8976293 6.442403
7.7033825 6.1933928 5.4401164 7.8552403 8.3973675 6.624924 6.697537 5.9169073
5.856178 7.089591 6.1529284 5.8774652 6.4569163 5.6503167 5.4998755 6.420391
6.9224806 6.9470043 6.926386 6.100964 7.74352 6.266588 6.614552 6.1423497
7.465816 7.094903 7.4949083 7.349187 6.4026804 7.188105 7.0490885 5.4223247
6.5067077 7.1406054 6.0978923 6.5425997 5.288124 5.7803655 6.550166 7.667563
6.4752884 6.8714876 4.6330853 5.6233716 6.5159636 6.5762877 6.921505 5.674976
6.3350058 6.130187 6.9130845 6.769068 7.189966 6.8169417 5.3461924 6.9829726
6.7095613 5.2497053 7.269327 5.1357946 7.1392894 7.311621 5.955099 6.9802938
6.244092 7.476176 6.7391987 6.786184 6.7639794 6.359882 6.881365 6.279047
6.48053 6.861168 5.585873 7.8497167 6.5380044 7.6951632 6.954527 5.9128633
6.2296085 6.9497027 5.113089 6.7630377 5.581032 5.7644453 6.291263 7.082589
7.60695 7.016742 7.726021 7.6322083 6.2671146 6.5557575 6.3813167 6.515292
5.020137 7.1630483 6.586783 6.6722937 6.0864534 6.701273 8.123057 7.5935984
6.473285 7.3295293 6.688121 6.4502506 6.7874875 7.1066732 7.149988 6.0140853
7.6914787 5.9642477 5.4028683 6.7647753 6.3318458 7.6227813 6.717822 7.010993
6.263432 6.7062526 6.183133 8.044349 7.1361146 7.612897 6.1874204 7.345051
7.631028 5.851229 6.3230705 7.0882845 6.6310163 5.920708 7.400391 6.154575
6.769717 6.9768615 6.967469 6.563761 6.848991 6.4942946 7.436285 6.8451543
6.8720436 6.217611 7.986055 6.6392665 6.6999555 6.867365 5.894933 7.900062
6.3584127 7.131438 7.2696495 6.6797423 7.236878 6.3250146 7.4448557 6.0201883
6.389276 6.836116 5.7852902 6.8914347 7.3373175 6.474804 6.468225 5.5921655
6.1794176 6.6080165 5.3622704 6.523443 6.707154 6.201107 7.2042522 7.1766834
6.367946 6.6511574 8.215336 6.795787 7.4140205 5.6753597 6.970206 7.790038
6.5471544 7.3513794 7.717515 7.1476173 6.446012 6.337486 7.153805 7.043385
7.792486 5.4525795 6.3973966 7.6156178 7.1107707 6.8865695 6.754479 5.324744
6.496753 6.6352353 7.3881145 6.134667 6.433409 7.396487 6.428897 7.959425
6.865412 7.2388525 7.289942 5.6525807 7.182826 6.678056 7.564705 6.6913924
7.012158 7.7743926

network.1.bias f4 [226]
00000000: 2626 8040 7448 9040 e55c 9140 9629 0e40
00000010: 8765 27c0 a1d0 76c0 cb34 a13f 6c33 acbf
00000020: 4338 9cc0 549f 04c0 b8e9 aabf cda3 7dc0
00000030: 012d a2c0 8bee 4540 0d0e 37c0 4e05 3c40
00000040: bdd0 38c0 fd13 03c0 6209 a540 3bee 673e
00000050: 350e 1fc0 b168 e0be 1734 0abf af25 25c0
00000060: dd96 84c0 c192 29c0 f52d 5cc0 2948 5240
00000070: 0f50 a6c0 07ab 4cc0 bb6e a940 bc4d 0fc0
00000080: b283 48c0 9990 5cc0 5b0d dc40 b43c 77c0
00000090: fdc7 55c0 c2e1 54c0 b87d 2cc0 ea2e d9bf
000000a0: 9b3b cbbf b818 5f40 1741 7940 411c 25c0
000000b0: 1e82 b5bf 71ad 19bf 3ae7 40c0 1138 5ec0
000000c0: 5ca9 57c0 3e84 1fc0 e55c b73f 82a6 82bf
000000d0: 22ae 7cc0 e001 1cc0 1415 61c0 e56a 6fc0
000000e0: 7a9b 13c0 6ff5 bdbf 5c65 1ec0 7ce8 7bc0
000000f0: f4e7 78c0 2fa7 37c0 3001 9fbf 871b 7fc0
00000100: 152f febf 21f2 cdbe dec2 2dc0 6c10 44bf
00000110: 6b45 38c0 7d63 88c0 b348 91bf b52e 4ec0
00000120: 20d3 05c0 f5e4 af40 c188 67c0 32ad 5cc0
00000130: c6c3 edbf 2388 52c0 dc4c 65c0 b61b e7bf
00000140: d260 52c0 c7ab 30c0 a352 0bbf 91fe a0c0
00000150: 8823 2ec0 cb0e ac41 7654 3ac0 0284 3cc0
00000160: 6d52 aabf b539 27c0 8763 39c0 ba3e 36c0
00000170: 705d b2bf 0d63 80bf 9c44 16c0 cd86 51c0
00000180: 2429 92c0 ff9b 27c0 0718 acc0 b821 b5c0
00000190: e501 99bf 8dc6 6740 a6c2 dcbf d7c8 29c0
000001a0: e8e9 d8be e518 42c0 6aaa 6040 df60 1cc0
000001b0: 4883 c7bf 2e94 3440 5420 90c0 41fe 83c0
000001c0: 5698 94c0 ea2f 59c0 7a94 4cc0 0a46 8840
000001d0: 1059 0cc0 da46 41c0 a72d 83c0 53b8 35c0
000001e0: 5657 7cc0 2855 c7bf 9f02 0fbf 390f 53c0
000001f0: 8710 61c0 d638 85c0 7582 16c0 c780 26c0
00000200: 3e04 a8bf e532 2ec0 cbe5 5cbf 00b8 a0c0
00000210: 0a01 54c0 5cf2 70c0 965f 4840 cd54 28c0
00000220: 0ad1 76c0 c10f 56c0 08c2 30c0 d9c8 6ec0
00000230: 82dc 82c0 1bd8 7cc0 4522 63c0 ef42 d140
00000240: a730 0dc0 2640 52c0 f128 5fc0 116c efbf
00000250: 6848 5dc0 0b1c a840 d0ff 88c0 24ae 1fc0
00000260: a8e4 82c0 787f 30c0 f7b4 9ec0 2b6d 7ac0
00000270: 8d9b 7640 ac72 6ac0 331d 16bf 8147 88c0
00000280: 6fa6 31c0 a2e3 37c0 7821 77c0 bd5f 00c0
00000290: 4443 6ec0 1e14 5a40 1607 63c0 3298 49c0
000002a0: d002 1dc0 1cfb 5dc0 670e a5bf 49e3 8dc0
000002b0: a9a5 35c0 cb74 37c0 c6b9 c0bf b4fb 1cbe
000002c0: c5c3 fbbf c09c d5bf 593a 0ac0 213c b4bf
000002d0: 268b 64c0 b670 33c0 43fe 6fc0 26a1 81c0
000002e0: c4df 5dc0 8da0 48c0 5bc7 82c0 ec56 19c0
000002f0: 6a64 7fc0 1c30 dd3e d318 74c0 df7b 9d40
00000300: c33d 79bf 3c2f 46c0 f6b3 94c0 44a6 7cc0
00000310: a1b3 c5bf 0e3e 63c0 29fb 3040 49f6 71c0
00000320: 9f0a 94c0 a6b5 3d40 ced4 4c40 e06c bac0
00000330: 7b17 15c0 7549 5cc0 54e3 33c0 97da 67bf
00000340: a5ae 39c0 a31d 4fc0 1f9f a9c0 6c6d f4bf
00000350: 8c1f bbbf 1dac 47c0 727f debf 6ff8 95c0
00000360: 00d1 50c0 5db3 ccbf fbb4 3dc0 72c0 35c0
00000370: 5235 83c0 bd1d c9bf 8215 5ac0 da6c 15c0
00000380: 4502 19c0 66ba 88c0
4.004657 4.5088444 4.5425897 2.2212882 -2.6155717 -3.8564837 1.2594236 -1.3453193
-4.881868 -2.0722246 -1.3352575 -3.9631226 -5.0679936 3.0926845 -2.8602326 2.9378238
-2.8877404 -2.048095 5.1573954 0.22649471 -2.4852421 -0.43829873 -0.5398573 -2.580425
-4.143416 -2.6495821 -3.440305 3.2856543 -5.197273 -3.1979387 5.294767 -2.2391195
-3.133038 -3.4463255 6.8766303 -3.86308 -3.3403313 -3.3262792 -2.6951733 -1.6967442
-1.5877565 3.4858837 3.8945978 -2.5798495 -1.4180334 -0.60030276 -3.014113 -3.472172
-3.3697119 -2.4924464 1.4325224 -1.0207064 -3.9481282 -2.4376144 -3.5169115 -3.7408993
-2.3063645 -1.4840525 -2.4749365 -3.9360647 -3.8891573 -2.869579 -1.2422237 -3.9860551
-1.9858118 -0.40223792 -2.7150187 -0.7658756 -2.879237 -4.2621446 -1.1350311 -3.2216008
-2.091011 5.496699 -3.6177218 -3.448071 -1.857537 -3.2895591 -3.5828161 -1.8055332
-3.2871594 -2.7604845 -0.5442297 -5.031075 -2.7209187 21.507223 -2.911405 -2.945557
-1.3306404 -2.6128972 -2.8966997 -2.8475785 -1.3934765 -1.0030228 -2.3479376 -3.2738526
-4.567522 -2.6188962 -5.377933 -5.660366 -1.1953703 3.6214936 -1.7246902 -2.6528833
-0.42365956 -3.0327694 3.5104012 -2.4434125 -1.5586939 2.8215442 -4.5039463 -4.124787
-4.6435957 -3.3935494 -3.1965623 4.2585497 -2.192936 -3.0199494 -4.099323 -2.8393753
-3.9428306 -1.5572863 -0.55863374 -3.297804 -3.5166337 -4.163188 -2.3517125 -2.60161
-1.3126295 -2.7218564 -0.86288136 -5.022461 -3.3125634 -3.7647924 3.130834 -2.6301758
-3.8565087 -3.3447115 -2.7618427 -3.7310088 -4.0894175 -3.95069 -3.5489666 6.5394206
-2.2060945 -3.2851653 -3.4868739 -1.8704854 -3.4575443 5.253423 -4.281227 -2.4950037
-4.090412 -2.75778 -4.9595904 -3.912913 3.853244 -3.663249 -0.58638304 -4.2587285
-2.7757833 -2.8732686 -3.8614178 -2.0058434 -3.7228556 3.4074779 -3.5473075 -3.1499143
-2.4532967 -3.4684515 -1.289502 -4.433995 -2.838236 -2.8665035 -1.5056694 -0.15330392
-1.9669119 -1.6688461 -2.1598113 -1.408085 -3.570993 -2.8037543 -3.749894 -4.0509214
-3.4667826 -3.1347992 -4.0868354 -2.3959303 -3.9905038 0.43200767 -3.8140152 4.921371
-0.97359866 -3.096633 -4.646968 -3.947648 -1.5445443 -3.5506625 2.7653296 -3.780657
-4.6262965 2.964212 3.2004886 -5.8257904 -2.3295581 -3.4419835 -2.81075 -0.90567917
-2.9012845 -3.236184 -5.300674 -1.9095893 -1.4619002 -3.11988 -1.7382643 -4.6865764
-3.2627563 -1.5992237 -2.9641712 -2.839871 -4.100259 -1.57122 -3.4075627 -2.3347688
-2.3907635 -4.2727537

network.1.running_mean f4 [226]
00000000: 040e 2940 845c a740 c46a 3740 7f9d 2f40
00000010: 2ce2 0f40 794f 1740 ea5d 3240 c373 2040
00000020: 32a9 c43f 40f4 b83f 23bc 2a40 fef6 1b40
00000030: 88db c93f 5615 2340 b40d 2540 6900 2740
00000040: 4943 0f40 e3a1 f13f 9aa7 a840 bca7 2840
00000050: 2e88 1e40 7004 1540 d81e 783f 512b 2140
00000060: a055 1440 2bba 1340 4e5f 1d40 4622 2640
00000070: ea52 883f 0415 0e40 e08f 2d40 abbb 1940
00000080: 7179 0640 7c98 c33f 9d06 1340 9a68 1b40
00000090: 2969 0a40 4425 1540 9c28 1140 2cb6 1440
000000a0: 3e48 0240 0a00 a940 6a7e 1d40 59ef 1640
000000b0: 425f 1640 b05a 2540 dd72 2a40 63ce 1440
000000c0: 5a52 1c40 62de 1540 cac9 fc3f cc6e 0c40
000000d0: 4194 6f3f 11e0 1040 f167 2140 2b78 9f3f
000000e0: 5edc 1240 bb2a 2b40 9bfe c63f c7ab 1740
000000f0: 0386 1040 126a 0e40 9e46 1e40 0c70 0d3f
00000100: bd10 2340 467b 1b40 590b 0c40 643d 93bd
00000110: e31f 1740 a1da b53f d9d2 1940 9604 0940
00000120: c218 d33f 56e8 2a40 af99 21be 6fb5 cf3f
00000130: 896b 1640 0b1d 413f 1600 d23f b6ba 2040
00000140: 9c74 4f3f 5269 b83f 43ad ac3f 3298 583f
00000150: 4e72 1640 ee13 1640 227b 2240 eb68 2240
00000160: cdeb 1140 3c4c 2240 246e 343d 3bf6 1940
00000170: 8532 1c40 5ba9 2940 b306 1e40 293c 9f3f
00000180: b16c 9c3e c6e6 1740 385d 983f 41e8 5c3e
00000190: f011 2140 33c6 3a40 1021 1b40 108f 893f
000001a0: 7e51 dc3f c8ae 1840 a9c1 2f40 585b 1140
000001b0: ace8 1540 129d a340 6806 eb3f 36d0 ce3f
000001c0: b1f1 1040 ab73 1240 b89d 1640 699b 9e40
000001d0: 312e 1940 5e8a 1b40 df6f 863f ef98 1c40
000001e0: f38f 843f bb17 2b40 60ca a13f c8bf 1e40
000001f0: a986 133f d293 1e40 53c1 e73f d171 1f40
00000200: 60a2 c53f e8e3 1940 3cf4 1940 58ed 7d3f
00000210: 028d 0d40 22ed ad3f 9220 3640 f047 0240
00000220: 68a6 1440 d1e0 d13f 81d8 1640 c514 2240
00000230: f27b 0b40 746d c83e aa3b 0740 f53f 9b40
00000240: f3a1 cd3f 9db9 1540 7031 e73f b540 1040
00000250: ebf4 8c3f 5fdd 3140 52ab 1640 f7bd 0d40
00000260: 9bd9 a43f 601e 0540 8596 ad3f 8a56 d33f
00000270: 9743 a240 1d6e e23f c642 0e40 a998 1340
00000280: cebc 2040 8ea8 1a40 e326 1640 44fa 2040
00000290: d069 0c40 c707 a040 d114 0e40 1ef1 a03f
000002a0: c5eb 1e40 9742 943f d1f7 1640 7cef 733f
000002b0: 97e1 e83f 1411 0e40 190c 1f40 8d90 1940
000002c0: 95bc 1e40 5e60 1540 8b04 77be 30b3 1440
000002d0: 27b0 1d40 4a39 d13f c011 b93f 6fe0 1f40
000002e0: dd61 2f3f c784 2740 c8f8 1140 c91b 1a40
000002f0: aee8 a43f 3bc2 3340 aeea 1440 f65d 1b40
00000300: 0dd0 2740 9c1a 1d40 5e0a 1d40 4ab7 1140
00000310: 77eb 1e40 dc67 1a40 43dc 5c41 c01f a83f
00000320: b198 893f 3d48 a340 d2ab 3f40 f8d8 fe3f
00000330: 3f56 2440 81d0 023f 22c1 c63f efab 8e3f
00000340: 611e df3f 73ce 0f40 b094 973f 076e 1a40
00000350: 2e38 2140 b683 af3f 2e87 0f40 55f2 0f40
00000360: 3c18 1140 11af 1f40 1541 2140 d573 d53f
00000370: 16a6 1c40 da1f 2740 4919 1640 eb0d 1240
00000380: 8a0f 1a40 941d 2040
2.6414804 5.2300434 2.8658915 2.7439878 2.2481794 2.3642256 2.786982 2.5070655
1.5364134 1.4449539 2.667733 2.4369502 1.5770121 2.5481772 2.5789614 2.6094
2.2384818 1.8877529 5.270459 2.6352377 2.4770617 2.3283958 0.96922064 2.5182688
2.3177261 2.3082378 2.458942 2.595842 1.0650303 2.2200327 2.7119064 2.4020793
2.1011622 1.528091 2.2972786 2.4282594 2.1626685 2.3303995 2.2681036 2.323619
2.0356593 5.281255 2.4608407 2.3583586 2.349564 2.5836601 2.6632607 2.3250968
2.4425263 2.3416982 1.9749081 2.1942625 0.9358559 2.263676 2.521969 1.2458547
2.2947001 2.674483 1.554645 2.3698595 2.2581794 2.225224 2.4730601 0.55249095
2.5478966 2.429399 2.1881926 -0.07189444 2.3613212 1.4207345 2.4034941 2.140905
1.649193 2.6704307 -0.15781282 1.6227244 2.3503134 0.7543494 1.6406276 2.511396
0.81037307 1.4407141 1.3490375 0.8460723 2.3507266 2.3449664 2.5387654 2.5376537
2.2800171 2.535903 0.04405035 2.4056537 2.4405835 2.6509616 2.469159 1.2440234
0.30551675 2.3734603 1.1903448 0.21572973 2.5167198 2.9183471 2.423893 1.0746784
1.721237 2.3856678 2.746195 2.2712002 2.3423262 5.1129236 1.836133 1.6157291
2.2647517 2.2883098 2.3533764 4.956471 2.3934443 2.4303203 1.050289 2.4468343
1.035643 2.6733234 1.2639885 2.4804554 0.5762735 2.4777722 1.8105873 2.4913218
1.5440178 2.4045353 2.405532 0.9919028 2.2117314 1.3587992 2.845738 2.0356407
2.3226566 1.6396734 2.3569643 2.5325177 2.17944 0.39146006 2.1130166 4.8515573
1.6065048 2.339454 1.8061962 2.2539494 1.1012243 2.7791364 2.3542066 2.2147195
1.2878908 2.079979 1.356156 1.6510785 5.0707507 1.7689854 2.2228255 2.3061926
2.5115237 2.4165378 2.3461235 2.515275 2.1939583 5.0009494 2.2200205 1.2573583
2.4831402 1.1582822 2.3588755 0.952873 1.8193845 2.2197924 2.4851134 2.3994477
2.4802601 2.3340068 -0.24122827 2.3234367 2.4638765 1.6345608 1.4458542 2.4980733
0.685087 2.617479 2.2808094 2.4079459 1.2883508 2.80873 2.3268237 2.42761
2.6220734 2.454749 2.4537578 2.276812 2.4831216 2.412589 13.803775 1.3134689
1.0749723 5.102568 2.994862 1.9909964 2.567764 0.510994 1.552769 1.114622
1.7431146 2.2469757 1.1842251 2.4129655 2.519054 1.371207 2.2426257 2.2491658
2.2671041 2.4950602 2.5195973 1.6675974 2.447637 2.611319 2.3452933 2.2820995
2.4071984 2.5018053

network.1.running_var f4 [226]
00000000: bd06 1840 bcf1 1d40 5d13 1040 2e23 1740
00000010: 43fc 1540 e3bd 1d40 a875 1540 75e0 1d40
00000020: 0488 0140 fec1 1540 3cd9 ab40 341b 1040
00000030: 3c82 0a40 3d96 0f40 3fe6 0a40 a53c 0f40
00000040: c30b 1340 2d7b 0e40 62d3 1340 230f 1240
00000050: 0381 2d40 e927 1b40 cf3c 1341 a8b0 1940
00000060: f940 1640 b6ca 1e40 6592 2940 a2b0 1640
00000070: 573e 0e40 e1e7 1340 471b 1940 9b42 1940
00000080: 0370 0f40 6bc6 0c40 2579 1340 f449 1a40
00000090: b704 0b40 2482 2540 0cd7 1040 3522 2040
000000a0: 6c1a 1740 a163 0b40 795c 1040 ff47 2c40
000000b0: 8122 1a40 7dd4 4440 3a73 1040 851f 0c40
000000c0: 412e 1740 8c2d 2140 7dd9 1740 054c 4140
000000d0: 1316 0d40 edf7 2740 e2b0 1640 b804 1a40
000000e0: f0de 1640 ec48 2e40 f8b3 0f40 08c7 2540
000000f0: 98fb 1e40 ac28 0f40 3503 2540 ee84 4d40
00000100: c04d 1540 3aa9 e140 7577 1740 077b 2840
00000110: 94fa 2940 f166 0340 0713 3140 a10b 1940
00000120: fc60 2240 f39c 1340 36c4 5840 5460 0840
00000130: 7cfa 1540 7d1b f63f 5584 0c40 7866 3240
00000140: e077 4d40 a869 1240 abb6 2c40 2181 0440
00000150: f054 1440 d405 1940 91be 1540 d572 2940
00000160: 0f46 4a40 3216 2540 5e64 2540 f961 0840
00000170: d276 0f40 7df2 2a40 b190 0d40 b3d3 1240
00000180: 162a 0640 f52f 3f40 d5ff 0b40 936c 0040
00000190: dfd0 0f40 a95f 1c40 7077 1b40 f261 3640
000001a0: b349 5c40 47b6 0b40 a8c1 0d40 707e 1b40
000001b0: 6a50 2c40 d9d1 0840 00d8 0240 8078 0640
000001c0: 7c14 1840 cc70 1340 06d1 1540 cf0d 0e40
000001d0: a549 1140 4a4c 1240 22f7 0740 d734 2040
000001e0: e375 0440 c275 0e40 7e2e 1b40 a0ea 0b40
000001f0: d59a 5240 234a 0e40 1b9d 1c40 db6f 1540
00000200: f194 1740 57c3 1c40 05c5 1e40 51cf 0a40
00000210: ab32 1540 7b3f 0c40 fd1c 1c40 2977 2b40
00000220: 101f 1640 0ccc 1140 8c26 1240 af23 1440
00000230: ed80 0b40 1051 4440 4239 0c40 e2ad 1540
00000240: 9ce4 2040 6948 1f40 4c6b 0b40 0688 1c40
00000250: 9cc1 ab40 ea48 1740 48e0 0540 f37d 2440
00000260: 8f2e 0340 b439 2c40 25b2 0940 5777 0840
00000270: 53fc 0a40 1413 1540 922f 4340 444a 0d40
00000280: ff4a 1140 5f0a 1940 4919 1a40 877a 2240
00000290: 793e 2040 3843 1140 8550 1640 12c8 5540
000002a0: 3354 1e40 efb0 4d40 767f 1540 78c0 0040
000002b0: 951c 1240 f658 1640 7337 2740 c68b 5040
000002c0: 657d 2540 b1f0 2640 c775 0e40 b310 1440
000002d0: 4d7b 1340 6c6c 3340 0045 0740 b5ee 0640
000002e0: 63ff 8540 4a87 1440 7263 0a40 86c9 1140
000002f0: 855c 0d40 3298 0e40 d3d4 1540 417a 1040
00000300: 72b7 2840 599c 1740 5f58 0640 28df 0e40
00000310: 542e 2240 1f18 1140 e2b2 1040 adc1 0740
00000320: f21d 0940 8cc5 1240 c428 0b40 52c7 0540
00000330: 068c 1a40 60c3 0540 bd68 1540 e53b 5e40
00000340: 4405 1e40 98bf 1240 ea37 0240 e19b 1440
00000350: 2de6 3940 5c42 1440 7a41 1240 7935 1540
00000360: 36f0 1340 aad3 1f40 7381 1140 bef4 1640
00000370: 8af3 0f40 e681 1a40 bba9 2e40 7762 1940
00000380: bce6 1e40 a2a6 1240
2.3754113 2.4678793 2.2511818 2.3615222 2.3435218 2.4647148 2.3353062 2.4668248
2.0239267 2.3399653 5.370268 2.2516603 2.1641989 2.2435448 2.170303 2.2380764
2.2975929 2.226268 2.3097768 2.2821739 2.7109993 2.424311 9.202346 2.4014072
2.3477156 2.4811225 2.6495602 2.3545308 2.222555 2.3110278 2.3922899 2.3946903
2.2412117 2.1996105 2.304269 2.4107637 2.1721628 2.5860682 2.2631254 2.5020878
2.3609877 2.1779559 2.255644 2.6918943 2.408356 3.0754693 2.2570329 2.1894238
2.362198 2.518405 2.3726494 3.0202649 2.2044723 2.6245072 2.354546 2.406538
2.357357 2.7232008 2.2453594 2.590273 2.484106 2.2368574 2.5783207 3.2112384
2.3328705 7.0519075 2.366666 2.632509 2.655919 2.053158 2.7667863 2.3913348
2.5371695 2.3064544 3.3869758 2.1308794 2.3434134 1.9227139 2.195577 2.7875042
3.2104416 2.2876987 2.6986492 2.0703814 2.3176842 2.3909807 2.3397563 2.6476338
3.160526 2.5794797 2.584251 2.1309798 2.2416272 2.6710503 2.2119563 2.294171
2.0963187 2.987302 2.1874897 2.0066268 2.2471235 2.4433386 2.429165 2.849728
3.4419982 2.1830003 2.2149448 2.4295921 2.692408 2.137808 2.0444336 2.1011047
2.3762503 2.3037596 2.3408828 2.2195928 2.27012 2.2859063 2.1244588 2.503225
2.0696952 2.2259374 2.4247127 2.1861954 3.2907002 2.223275 2.447089 2.334952
2.3684657 2.4494226 2.480775 2.1689036 2.3312175 2.1913745 2.4392693 2.679148
2.345646 2.278079 2.2836027 2.314678 2.179744 3.0674477 2.1909947 2.338738
2.5139532 2.4887946 2.178424 2.4458022 5.367384 2.3638253 2.091814 2.5701873
2.0497167 2.691022 2.151498 2.132284 2.1716506 2.3292894 3.0497785 2.2076578
2.2702024 2.391258 2.4077933 2.5387285 2.503813 2.2697277 2.3486645 3.3403363
2.473889 3.2139242 2.3359046 2.0117474 2.2829945 2.3491797 2.6127594 3.258531
2.5857785 2.6084406 2.2259386 2.3135192 2.3044007 2.8034925 2.1135864 2.1083195
4.187425 2.3207574 2.1623197 2.277925 2.208772 2.2280393 2.3411148 2.2574618
2.6361966 2.3689177 2.0991437 2.2323704 2.5340776 2.2670972 2.2609181 2.121196
2.1424527 2.2933073 2.1743631 2.0902905 2.4147964 2.0900497 2.3345177 3.4724057
2.4690714 2.292944 2.0346627 2.322014 2.9046738 2.3165503 2.2852464 2.3313887
2.3115363 2.497294 2.273526 2.3586879 2.2492394 2.4141784 2.7291095 2.3966348
2.482833 2.2914205

network.4.weight f4 [252, 226]
00000000: 90b7 5340 dfdd 1441 d482 fd40 857d 3340
00000010: 8575 5f40 e98e 4041 bfc9 9bbf 61d0 6941
00000020: c040 a0c0 0dcd 4e40 f5c1 163f 8429 3ec1
00000030: affd b9bf 387c b740 e13a 0341 bbd5 e7bf
00000040: eac3 463f 7b79 0341 4eb7 dabf 4ffa 9cc0
00000050: 2fdc 1a40 0936 cabf b970 f7bf 9d93 f340
00000060: 1db5 493f a073 9c40 6a00 60c1 bb34 753f
00000070: 8af1 ce3f 86b2 a53f 91e5 08c0 d8a7 48c0
00000080: b102 9fc0 b26f 2a3e cf65 7abf 6eac 34c0
00000090: 2f90 cb3e 54ce 77c0 4ccd 6bc0 3b69 57c0
000000a0: e6b9 65c0 773e bbc0 a709 cdbe ae5b d73f
000000b0: 2c80 0140 d66c 3340 eaee 8d40 23d2 fb3f
000000c0: 74c9 773f 284e f13f 4f8c ec3f 83f9 a140
000000d0: 3dfb 4140 3593 8440 73ec 1bc1 a771 e740
000000e0: 2b54 afc0 e4ce 8dc0 5d63 1b41 e4c1 8e40
000000f0: 6ba0 d840 db5b 9bbf 43e6 6abf fd20 f23f
00000100: 9ad5 bc3e 2301 a940 8b2b 3240 7e8f 7440
00000110: 3489 a6bf 3e73 bf40 7c46 703e dd87 45c0
00000120: 49a6 7ec0 ff50 cfc0 46a1 d9c0 0d3c ca3f
00000130: dbb9 e9bf be42 1f3f b9db 6b40 1aae 38c0
00000140: c108 20bf d872 c940 752b e640 78eb ab40
00000150: dc37 fb3f b9f2 d43f 1560 e740 66c1 bd40
00000160: 7d83 8c40 0a0b b13e 05ca 9540 6aa1 d9c0
00000170: 8b34 29c0 7eab a140 6039 03c0 db08 f4c0
00000180: 5385 fac0 2edb 3640 2d04 acbe ebb0 2241
00000190: a9fe 1b41 36a3 ec3f 1e5e c9bf 71e1 2d40
000001a0: 7805 cec0 a708 323f ab0a b63f cf1a e93e
000001b0: ad2b 473f 3a2d b8c0 6b2d 9340 56b9 fb3f
000001c0: 8613 8ec0 a550 e0c0 f90c 23c1 b94a ed3f
000001d0: 8269 5ec0 2e37 c4c0 95d6 a340 e2f2 c540
000001e0: 7920 af40 4f06 6bc0 1033 edc0 c9b2 cbbc
000001f0: c18b a440 14b9 44c0 07e3 bb3e 7316 3840
00000200: 3657 9140 3156 1740 92a5 5e40 15be 63c1
00000210: 6490 1440 d78f 9140 7067 53c0 c7d9 d540
00000220: d281 f040 5c0a 3241 c4fa 6e40 65a8 9e40
00000230: 110f ee40 abff fbc0 14b4 09c1 f963 4c40
00000240: f2d4 9ec0 8944 8d40 7cae c53d 17d1 fc3e
00000250: 59ae dc3f e053 8a40 e55f 2a40 4d5a a1c0
00000260: 4549 8940 69fe 07c0 dbc7 be3f b500 6840
00000270: e3c2 3cbe 6528 0d40 5593 02bf b630 4e41
00000280: 452a 1841 0b70 2ac1 ed49 8bc0 40e0 0341
00000290: 3909 f23e 535f 2e40 27f5 9040 2aca f2bf
000002a0: b1bf 20c0 00f7 4e40 774d 2e41 0384 1cc0
000002b0: 1af2 0ebf 5f85 8640 a171 3140 5f5b ca40
000002c0: 29bd cf40 af88 39c0 08f1 2240 2eb7 5140
000002d0: d536 ef40 e428 e4bf d54e 9ac0 afa7 03c1
000002e0: 9779 3a40 7006 e140 24de 06c1 25c1 e03c
000002f0: 4d05 4dc1 d89b 60c0 ecea 34bf 8d23 cfc0
00000300: ff43 65bf 2e43 c63f cc30 69c0 115f 41bf
00000310: 934f 9c3e 3ef1 9e40 2bc5 0bc0 884d edbe
00000320: 517c 1541 f2e7 7f40 4746 4f40 cd3c 7bc0
00000330: fdbc a040 5741 02c1 7898 4d3f 68fd 21bf
00000340: 8e11 1541 6891 c1c0 3798 bbbf 73dc ecc0
00000350: 62b3 0b3e 46d1 00c1 af16 19c1 18fb 67c0
00000360: 1f84 8e3f d5b2 e83f 7dec 6ec0 91a0 32c1
00000370: a118 3940 fbe2 dac0 5bcc a7c0 5276 043f
00000380: 0651 7340 34f7 a4c0 0c27 36bd 7d8c a3be
00000390: 0425 8040 964b 2a41 05e9 aebe 1133 6f40
000003a0: e779 3f40 6bd3 c9bf 183d 8ec0 78cf cb40
000003b0: 4ea7 d240 3649 2b41 131c a2bd f9ff b8c0
000003c0: 93e1 2a41 9d11 ca40 5593 c2c0 ddc7 fabf
000003d0: b835 a6c0 6ff5 5dc1 2e39 bfc0 ca60 883f
000003e0: 4e7f 523e 06be f9c0 3051 3a3d 9877 243f
000003f0: 6687 d540 8d8f 363f 8353 eac0 ff55 0541
3.3080788 9.304168 7.92222 2.804536 3.4915478 12.03489 -1.2170943 14.613374
-5.007904 3.2312653 0.58889705 -11.885136 -1.4530543 5.7339134 8.201875 -1.81121
0.7764269 8.217158 -1.708719 -4.9055552 2.419689 -1.579774 -1.9331275 7.611769
0.7879198 4.8891144 -14.000101 0.95783585 1.6167462 1.2945106 -2.1390116 -3.1352444
-4.9690785 0.16644171 -0.978116 -2.8230243 0.3975844 -3.8719683 -3.6844053 -3.3657978
-3.5894713 -5.851375 -0.40046427 1.6824853 2.023448 2.8035178 4.4354143 1.9673504
0.9679177 1.8851976 1.8480319 5.061708 3.0309594 4.1429696 -9.745227 7.2326236
-5.4790244 -4.431505 9.711759 4.4611683 6.7695823 -1.2137407 -0.917576 1.8916317
0.36881715 5.2813888 2.7839077 3.821258 -1.3010621 5.9828176 0.23464388 -3.0864174
-3.9788992 -6.478637 -6.8009367 1.5799576 -1.8259844 0.62211215 3.6852858 -2.8856263
-0.6251336 6.295269 7.192805 5.3724937 1.9626422 1.6636573 7.230479 5.929858
4.391051 0.34578735 4.6809106 -6.800954 -2.643832 5.052184 -2.050377 -7.626081
-7.828775 2.8571277 -0.33596936 10.168193 9.749673 1.8487308 -1.5731847 2.7168849
-6.4381676 0.6954445 1.4222006 0.45528266 0.7780102 -5.755521 4.599294 1.9665935
-4.439883 -7.0098443 -10.190667 1.8538429 -3.4751897 -6.131736 5.119944 6.185899
5.472714 -3.67226 -7.412483 -0.024865525 5.14206 -3.0737963 0.36696646 2.8763702
4.541896 2.3646357 3.4788556 -14.233907 2.321313 4.5488086 -3.3031883 6.682834
7.515847 11.127529 3.7340555 4.958056 7.439339 -7.8749595 -8.606464 3.1936018
-4.9634943 4.414616 0.09652421 0.49378273 1.7240707 4.3227386 2.662103 -5.042273
4.290194 -2.124903 1.4904741 3.6250432 -0.18433718 2.2055905 -0.5100606 12.886892
9.51032 -10.652354 -4.352774 8.242249 0.4727266 2.7245681 4.529926 -1.8967946
-2.5117 3.2338257 10.893912 -2.4455574 -0.5583817 4.2037807 2.7725604 6.3236537
6.491841 -2.8989675 2.5459614 3.2768054 7.4754434 -1.7824979 -4.822123 -8.228438
2.9136713 7.032036 -8.429234 0.027435848 -12.813794 -3.509512 -0.7067096 -6.4730897
-0.8955688 1.5489252 -3.6436033 -0.75535685 0.3052946 4.9669485 -2.1839092 -0.46348214
9.342851 3.9985318 3.2386644 -3.925586 5.02307 -8.140952 0.80310774 -0.6327729
9.316786 -6.049 -1.4655827 -7.4019103 0.13642648 -8.051092 -9.568038 -3.6247005
1.113407 1.8179575 -3.733184 -11.164201 2.8921282 -6.8402076 -5.2436957 0.5174304
3.8018203 -5.155176 -0.04447083 -0.31943122 4.0045185 10.643454 -0.34162155 3.7374918
2.9918153 -1.5767645 -4.4449577 6.369076 6.582923 10.705374 -0.07915511 -5.7812467
10.680072 6.31465 -6.080485 -1.9592243 -5.1940575 -13.87242 -5.97573 1.0654538
0.20556375 -7.804446 0.045487583 0.64244986 6.672778 0.7131279 -7.3226943 8.333495

network.4.bias f4 [252]
00000000: 3d31 e73b de30 2d3d 6785 5bbd a113 093d
00000010: ba1f 0b3c fe20 213d be74 c1bd 8a19 aabc
00000020: 0d06 8f3b 63fe 6d3c f629 e83a a2ab 86bd
00000030: 5b77 303d 7157 603d 3d07 3bbc 91a5 643d
00000040: 8d3a 643c 3258 473c b317 b83c 60ee 13bb
00000050: 2d97 593d 4533 80bd 5ede 2fbd 5e90 c0bc
00000060: 4617 0ebd 9dc6 463d 7345 8839 4f96 09bd
00000070: 3ed2 873d 46cc 99bc 514e 84bc a793 febb
00000080: 131a 0c3d 97e3 d43c 0be4 25bd f7c8 42bd
00000090: 00f7 b0bb c4ef 8bbd 5609 9cbd e65b bbbc
000000a0: 132e 03bd 2d46 233d 80d8 043d b59e 53bd
000000b0: 79c2 b53c 2d1e 1c3d 77e9 3fbd c1fd 603d
000000c0: 935b 2abd 972c d439 943e 3a3d 3b4b 7fbd
000000d0: 819e 8d3c c0fc 053d 9bf8 cabc 69c5 203d
000000e0: 5b6d 83bd c2fc c8bc 9171 ccbc 9b4a 143d
000000f0: d9db b4bc 8f72 9ebc 758d 713b 4fab 033d
00000100: fc51 a5bc e76d 4ebd 9ff3 333b 203e 27bd
00000110: 2c44 3a3c 1fca e13c 524a 84bd e65e 84bd
00000120: cf5d 583d 6a70 26bd a8b7 2d3d 5a28 04bd
00000130: eaa8 c7b9 9871 3d3c c2bd 84bd c43b 91bc
00000140: 5768 68bd 28ef 86bc 5a67 4b3d 7b30 5fbd
00000150: bef7 fbbc 3b37 353d 7738 c3bc 076b 7d3b
00000160: 31a6 61bd 34a1 5abc 35a7 10bd 032d 663d
00000170: 65e2 cf3c 4ffa 8d3d 93aa 7dbb 4cb8 193d
00000180: 7e8e 1ebd b110 e03c ef78 143d fa88 acbc
00000190: 4cc9 f43b 59dd 80bd 6397 023d 0504 2e3d
000001a0: 03d7 6cbd 3aab 683d d5ba 313c 6a40 743d
000001b0: a146 82bd 67d0 3ebd 1a32 fbba d53b 6bbc
000001c0: 9071 f8bc 48fb dbbc 5152 0a3d 2ca3 37bd
000001d0: 2a4d 3abd 029b 27bd 52ee 953c be3f b93c
000001e0: 7f0b 0f3d 754b e43c 4689 6a39 9942 af3c
000001f0: a651 883c d608 6bbc 587c 8b3d 955a 8dbd
00000200: f4ab abb9 acdd 81bd f33a 03bd 8e32 1d3d
00000210: 2a6a 1abd 4e5c 4e3c 611d 0c3d 24d4 7e3d
00000220: 8ad9 d7bc 7b52 463d f7c6 633d dd9f 0d3d
00000230: 8485 5d3c bcbd ff3c ad9c 81bc 497f 4d3d
00000240: 4b5e 4fbd 11df ec39 606a 2c3b c488 40bc
00000250: 0472 283d d751 06bd d48c d33c 876e 2ebd
00000260: a69e 39bd da9a f0bc 6f58 b1bc 042b 34bd
00000270: 9266 df3c e339 19bd efad d2bc 1892 5f3d
00000280: 691a 4d3d 67c7 9e3d a0bf ae3c c5a8 ad3c
00000290: 0638 10bd b4fc dfbc 9dc9 2b3c 2b19 2b3d
000002a0: 3414 64bc 7a9e 84bb eac7 003d 077d 8ab9
000002b0: 5af9 7a3d 3fc0 72bd 968d c53c dc47 113d
000002c0: 4ca2 023b efa9 57bc 7008 b1bc 75d7 163d
000002d0: e7d4 70bd bb97 5ebd 0587 873d f352 78bc
000002e0: b64f 01bd 1a47 9ebd 5d99 083d d603 60bc
000002f0: 6204 d5bc eeb4 1a3d 4bc4 5a3d 51d2 3e3d
00000300: 6a7c 23bd f366 1fbd 270f 42bd aa27 1bbd
00000310: ba07 47bb 9288 943d 28d3 51bd 676e 7ebd
00000320: dd32 8539 f4f3 443c 7dd7 4ebc 87a7 633d
00000330: 3f04 c3bc de22 233d df1f 89bd 6235 1d3d
00000340: 5856 603d 31b9 883d a22a 433d ae52 27bc
00000350: 4dbe 7f3a d13b 053b c538 2d3d 5897 cc3c
00000360: 3c8b 4d3d b6b6 09bd b6c1 043d dc2a 3fba
00000370: 3daa 123d 746b 213d f045 eb3a 1cfe 05bd
00000380: 9786 e1bc ff88 58bd b0fa 1dbc 7a86 b13a
00000390: 4495 c33c 516d a9bc 3ec8 9fbc b26f f4bb
000003a0: c6f8 4fbc 67aa 6e3c 2e96 0f3d c319 15bc
000003b0: 4602 5b3d 1041 a03c a8ea 1f3d e381 8d3d
000003c0: e569 463d f781 ef3b 8b9e 34bd 9531 a5bc
000003d0: 24c1 f8bc ab12 993d 89b6 73bd bb2e 0d3c
000003e0: c1be 8c3c 0902 393d d47a 3c3c f1b8 5d3d
0.00705543 0.04228293 -0.05359402 0.033465985 0.008491451 0.039338104 -0.09446095 -0.020764131
0.004364735 0.014525983 0.0017712701 -0.06575705 0.043082576 0.05477089 -0.0114153 0.05582196
0.013929975 0.0121670235 0.022472238 -0.0022572502 0.053122688 -0.06259779 -0.042936675 -0.02350634
-0.034690164 0.048529256 0.00025991685 -0.03359061 0.066318974 -0.018774163 -0.016150625 -0.0077690664
0.034204554 0.02598743 -0.04050068 -0.047554936 -0.0054005384 -0.06832841 -0.07618968 -0.022870969
-0.03202636 0.039861847 0.032433033 -0.051665027 0.022187458 0.038114715 -0.04685351 0.0549295
-0.04159124 0.00040469013 0.045469835 -0.062327605 0.017287495 0.032711744 -0.024776747 0.039250765
-0.06417342 -0.024534587 -0.024956496 0.03620396 -0.022077488 -0.019341735 0.0036857997 0.032145794
-0.020180695 -0.05039778 0.0027458442 -0.04083073 0.0113687925 0.0275622 -0.06459488 -0.06463413
0.052823838 -0.04063455 0.042411476 -0.032265045 -0.0003808209 0.011562727 -0.06481506 -0.017728694
-0.05674013 -0.01647146 0.04965911 -0.054489594 -0.030757781 0.044242125 -0.023830635 0.003866853
-0.055090133 -0.013344098 -0.03531571 0.05619527 0.025376508 0.06932508 -0.0038706406 0.037529275
-0.03871011 0.02735171 0.036248144 -0.02106141 0.0074702855 -0.06292219 0.031882655 0.042484302
-0.05782224 0.05680392 0.010847767 0.059631743 -0.06361128 -0.046585467 -0.0019164712 -0.014357527
-0.030327588 -0.026853219 0.03376991 -0.044833347 -0.045483746 -0.04091931 0.018302117 0.022613402
0.034923073 0.027868012 0.00022367117 0.02139406 0.016640496 -0.014345368 0.06810826 -0.06902043
-0.00032743777 -0.06341109 -0.03203864 0.03837829 -0.037698902 0.012595249 0.034207705 0.06221403
-0.026348848 0.048418503 0.05560967 0.034576286 0.013520602 0.031218402 -0.01582178 0.050170217
-0.050627034 0.00045179625 0.0026308522 -0.0117513575 0.04112436 -0.032792892 0.025823988 -0.042585876
-0.045317315 -0.029370714 -0.021648614 -0.043986335 0.027270589 -0.03740872 -0.025717704 0.054582685
0.050074015 0.07752877 0.021331608 0.02119864 -0.035209678 -0.027342178 0.01048508 0.04177205
-0.013920832 -0.004047212 0.031440653 -0.00026414564 0.061272956 -0.05926537 0.024115365 0.03546892
0.0019933162 -0.013163074 -0.021610469 0.03682657 -0.05879679 -0.05434392 0.0661755 -0.015156495
-0.03157016 -0.07728405 0.033349384 -0.01367279 -0.026003066 0.037770204 0.053409856 0.046587292
-0.039913572 -0.03891654 -0.04737773 -0.037879623 -0.0030369596 0.07252611 -0.051226765 -0.062117007
0.00025405633 0.012021054 -0.012624619 0.05557969 -0.023805736 0.039828174 -0.06695532 0.038380988
0.054769844 0.066759475 0.04764808 -0.0102125835 0.0009755835 0.0020329843 0.042290468 0.02497451
0.050181612 -0.033621512 0.0324113 -0.00072924583 0.035806883 0.039409116 0.001794992 -0.03271304
-0.027529998 -0.052865025 -0.009642288 0.0013544105 0.023874886 -0.020682009 -0.019504663 -0.007459604
-0.01269359 0.014566994 0.035055332 -0.00910038 0.053468965 0.019562274 0.039042145 0.069095396
0.048440833 0.007309194 -0.04409651 -0.020165244 -0.030365534 0.07474264 -0.05950025 0.008617098
0.017180802 0.045167957 0.011503894 0.054131452

network.5.weight f4 [252]
00000000: f039 8440 9da7 8c40 9c7a b740 4098 c040
00000010: 1757 c240 a69e 9c40 7a79 c140 4b24 8240
00000020: a679 c540 dffd 6a40 46dd 9c40 0a70 8440
00000030: ed88 8340 600b ab40 3920 a740 f244 9a40
00000040: a8fd 9140 bd72 8340 520a ba40 0d77 c540
00000050: 9464 b340 b2bf c040 9a2e db40 a5ff cf40
00000060: 9e5a 8340 143b d740 eeb3 8540 fe0e 9640
00000070: dbdb b940 3252 b140 9fce 7440 3dd7 a140
00000080: eb64 7e40 0086 b740 c386 f240 2045 7e40
00000090: 3183 9a40 661d eb40 25b4 bb40 852e 8840
000000a0: 5cc3 8240 6e2c 7b40 54ce 8740 607a bd40
000000b0: 99d9 7940 685b 7c40 8c72 c640 cd20 9240
000000c0: e74b 7f40 6495 8840 5901 9e40 ab69 b740
000000d0: 0256 8a40 8b1d ad40 0c11 9740 8aa0 9a40
000000e0: 7c4b c940 447f ca40 a30e 7c40 ee9d b640
000000f0: 4103 8440 cfe6 6440 9ecb a140 8136 a140
00000100: 7fc4 b840 3a32 ab40 a0a3 943d aa50 a240
00000110: 82c5 9f40 f042 ac40 8768 8b40 9fa4 9640
00000120: 6a6d a240 b2cf 8240 5a31 a740 9b62 c340
00000130: a6aa a640 725a c340 0fd1 b840 6b7a a240
00000140: e19b 9d40 8c0f 8040 39ad 9f40 04a9 7940
00000150: 8eec 9340 a558 cc40 6c50 6c40 00db cc40
00000160: c32c b940 ea28 7140 119b a640 1609 af40
00000170: 7485 8540 1da2 7340 401e 9f40 2d7f a840
00000180: 22f3 9440 576c ba40 c873 9840 6280 8440
00000190: fc7c a240 4aa1 b540 1ca2 af40 fc1c 8540
000001a0: 128f b940 8971 8d40 539a bf40 0003 9740
000001b0: 322b 8b40 aa84 a640 52c7 b040 2bf3 8140
000001c0: ece0 8740 f1ab ae40 87b4 a140 9bc8 c940
000001d0: b04f b540 a617 bd40 2db4 8540 a47a 8340
000001e0: f522 9440 e5da a040 b514 7940 5286 9840
000001f0: 1a5d c540 c11b 8040 55eb b940 f5c0 6d40
00000200: 6b95 d340 59cb b040 6180 9b40 a1dd 7a40
00000210: 3215 9e40 abfc ae40 c69a b340 b90e 8040
00000220: 6545 9140 7d7e a840 d469 9e40 6ab0 7b40
00000230: 16b3 a340 bfed b540 538f 7740 21db 9840
00000240: 9fa2 d740 e857 6740 3d96 a640 9427 c240
00000250: 4d95 8640 be75 8040 8a54 8840 d84f cf40
00000260: fd1b 9e40 afe3 d240 fb6e a540 802b 9e40
00000270: 4f27 aa40 16ac 903c 1b46 9d40 8590 7840
00000280: 082c c940 783c b740 12ec b040 40c0 7b40
00000290: 5a57 d240 3eb7 9440 880f a940 4080 c640
000002a0: 2a20 a840 1b07 9440 23ad 7a40 fcd0 7f40
000002b0: 022d bf40 1cf2 7340 c871 b740 4159 ba40
000002c0: e0de 9640 c762 b040 e8ba 9740 9634 a540
000002d0: a4a7 8140 ae94 d140 61a0 af40 136b 9940
000002e0: 95ff 8640 66f0 a340 cc25 d340 b71a c440
000002f0: 7061 c140 eae5 9b40 8438 b140 c119 ba40
00000300: 4439 a840 1c8d b840 0aeb d940 b062 9440
00000310: 9ca4 ac40 52a6 b940 8025 9c40 e43d b140
00000320: b298 a240 bd82 c640 1745 b140 8dfc 8040
00000330: d2f2 a740 f240 b740 8805 9740 e371 ab40
00000340: 84e0 b540 817f 7840 3095 d640 ef0d ac40
00000350: cb00 8b40 94f6 e240 f104 9840 da7b 7e40
00000360: 33d0 8340 c694 d540 6c96 a140 66d6 a240
00000370: 2789 ae40 0ebf 9640 8115 be40 f254 8840
00000380: 00b2 a040 fc9b bd40 4cf1 7e40 2be7 9c40
00000390: bffe 9340 cbfc 9640 88fc ab40 e5cd 7840
000003a0: 4f64 233d bf0c d140 78b0 c040 822a 8040
000003b0: ff21 b640 7bbd 8f40 8336 8240 89c6 a840
000003c0: 7d04 8d40 3dd5 b640 442d a240 52af 6e40
000003d0: 5d74 7540 72ad ae40 2cb8 b140 ad33 9e40
000003e0: ad21 8640 3a39 8340 0457 8140 8924 8a40
4.1320724 4.3954606 5.733717 6.018585 6.073131 4.8943663 6.0460787 4.0669303
6.1710997 3.671745 4.902011 4.1386766 4.1104646 5.3451385 5.2226834 4.820916
4.562214 4.107756 5.81376 6.1707826 5.6060276 6.0234003 6.8494387 6.4999566
4.1048117 6.7259617 4.178214 4.68933 5.808088 5.5412836 3.8251112 5.057524
3.9749095 5.7351074 7.5789504 3.972969 4.8285146 7.3473387 5.8657403 4.2556787
4.0863476 3.9245868 4.2439365 5.9211884 3.903906 3.943079 6.201483 4.566504
3.9890077 4.268236 4.9376645 5.731649 4.322999 5.4098563 4.720831 4.832097
6.2904644 6.3280354 3.9383934 5.7067785 4.125397 3.5765874 5.0561056 5.0379033
5.7739863 5.349881 0.072577715 5.0723467 4.99286 5.383171 4.3565097 4.7075953
5.075856 4.0878534 5.2247744 6.105787 5.208331 6.1047907 5.77552 5.0774436
4.925278 4.001898 4.9898953 3.900941 4.6226263 6.385821 3.6924086 6.4017334
5.786714 3.7681222 5.206429 5.469859 4.1725407 3.8067696 4.9724426 5.2655244
4.6546793 5.825725 4.7641335 4.1406717 5.077757 5.6759386 5.4885387 4.159788
5.7987146 4.4201093 5.9875884 4.719116 4.349023 5.2036943 5.524331 4.0609336
4.2462063 5.458489 5.053287 6.305738 5.6659775 5.909137 4.178244 4.108721
4.629267 5.0267205 3.8918889 4.7663965 6.167615 4.003388 5.809977 3.7149022
6.6119895 5.5248227 4.8594213 3.9197772 4.9400873 5.4683433 5.6126432 4.001797
4.539721 5.2654405 4.9504185 3.9326425 5.115611 5.6852717 3.8681228 4.776749
6.738601 3.6147404 5.2058396 6.0673313 4.205725 4.014373 4.2603197 6.4784966
4.9409165 6.5902934 5.1697974 4.94281 5.3172984 0.017660182 4.914808 3.8838208
6.286625 5.7261314 5.528817 3.933609 6.573163 4.6473684 5.283146 6.2031555
5.2539263 4.6258674 3.9168174 3.9971304 5.974244 3.8116522 5.7326393 5.8233953
4.7147064 5.512058 4.7415657 5.162669 4.051714 6.5493994 5.4883275 4.7943206
4.218699 5.1230955 6.598364 6.128261 6.043144 4.8718157 5.538149 5.815644
5.2569904 5.7672253 6.8099413 4.637047 5.395094 5.801553 4.8795776 5.538805
5.0811396 6.2034593 5.539684 4.030829 5.248391 5.726678 4.719425 5.357652
5.6836567 3.8827822 6.7057114 5.376701 4.343847 7.0926 4.750603 3.9763093
4.119165 6.674411 5.049612 5.0886717 5.454242 4.710822 5.940125 4.2603693
5.0217285 5.925291 3.9834776 4.9032187 4.624847 4.7183585 5.3745766 3.8875668
0.039890584 6.532806 6.0215416 4.005189 5.69165 4.49188 4.0691543 5.2742352
4.406798 5.71353 5.0680256 3.7294507 3.8352273 5.4586725 5.553732 4.943808
4.191611 4.1007357 4.041872 4.31696
