best models/saved_models/architecture_8/best_model.pt (torch, 424482 bytes, 25 tensors)

network.0.weight f4 [244, 15]
-3.6819465 -3.63011 -4.8496222 2.0437222 3.1673877 5.043297 4.763311 3.3730423
5.446643 5.750996 7.7230363 4.2374973 8.4709835 10.671025 10.808901 1.0442199
-4.603356 6.7709966 -3.1696424 1.4151425 -5.1964507 5.7920127 2.971223 -1.0933374
4.9891353 -7.1721864 7.424455 0.12735753 10.788758 -15.2254305 -8.9845495 2.06443
-0.45609498 7.0219254 16.17823 -3.9267404 0.554962 -3.1339898 -6.170352 2.498562
0.038400065 -5.581002 -10.637076 3.2382076 -0.07943826 2.145108 1.6867286 -5.5161643
2.3637242 -1.6653622 -1.4033456 5.7105246 -8.706662 7.0677314 2.1273022 -21.872194
3.1502337 -1.3674301 -0.6219537 7.762982 -0.47883368 -0.08080192 7.418496 8.058096
7.383275 2.4389265 -22.3765 -0.2943762 -0.7717746 0.4141941 1.8306894 -2.940148
-2.5870242 -0.65743905 10.3267765 -0.9096985 0.8979221 0.5153285 -1.3297291 2.877703
13.171216 -0.33392552 -1.0148642 -8.092829 1.1392056 -10.437603 -0.6387425 -10.362779
3.70718 8.304948 7.711697 -2.0114202 -3.9000916 0.1940018 0.53954613 -0.95052195
-1.1563346 5.4326377 -9.414606 2.749744 4.3391933 -8.176099 14.687459 -3.5835693
-8.66512 0.07015741 -1.0321343 -1.1500083 2.2435224 0.050720382 1.3028194 0.2451034
-45.83138 0.15227729 0.9482194 2.9391456 9.271904 -0.85347116 -1.7670681 -0.3764883
-0.89601475 -1.2874763 -1.7965602 3.834548 9.314477 12.325742 19.12171 0.31694284
2.8040345 2.0554934 5.978901 0.38665327 2.1044679 1.5253136 1.7455304 -7.6162696
-5.9081335 3.7527115 -6.5921087 -6.854818 -7.4376626 2.6140873 -3.9433222 -4.757835
-3.8124866 2.8022094 -9.3237 -8.250474 -6.615401 3.1918976 -3.232554 2.5677297
-3.5013802 -4.582163 -7.9491167 7.3431582 -10.500479 -4.6409063 -8.198448 9.75309
-9.611016 0.07724301 1.6315972 0.22851796 0.3635484 -0.5117454 0.6238137 1.3244925
0.8328628 4.2412477 -2.3765035 -12.150538 0.6962236 11.673228 -5.5862064 4.5212994
-0.58936363 -5.1200027 -12.102585 0.79610634 7.379165 -5.198544 -1.6607919 -2.7124588
4.0529885 -4.1482635 -0.14341699 9.263492 -13.002853 10.691033 4.301167 -3.8073955
3.656059 -4.866866 -1.7960081 -0.42334265 -0.9471426 -5.0571117 -2.381852 -0.11980326
-3.0050468 -8.909073 -4.9041357 -1.0419182 -4.9653325 -15.381045 -4.0574384 -0.61021465
-3.989882 -16.002117 7.603045 10.058589 -1.348078 11.281369 -7.092376 -9.163885
1.9122902 -4.0323477 0.7476485 3.4109433 -0.8400309 -4.695898 3.167488 3.6594298
-0.2698747 8.8113 -1.2107472 -1.0218171 2.395695 -7.561889 1.4657081 4.0047646
-3.25885 6.103067 -3.020128 1.0752406 -8.406465 21.301817 -0.8981496 -3.4892614
-8.368473 -2.05696 -4.2426314 -0.6749446 -1.7737594 0.9802968 -3.2667558 5.3072395
8.643497 -0.8051413 3.385532 -8.24007 -14.261105 -3.4626446 -8.605114 1.9988576
00000000: 03a5 6bc0 b953 68c0 1b30 9bc0 58cc 0240
00000010: 7bb6 4a40 b062 a140 0b6d 9840 eddf 5740
00000020: e64a ae40 2908 b840 1d23 f740 9499 8740
00000030: 2689 0741 85bc 2a41 42f1 2c41 ffa8 853f
00000040: b14e 93c0 01ac d840 6cdb 4ac0 6423 b53f
00000050: 5349 a6c0 2b58 b940 8528 3e40 7bf2 8bbf
00000060: ffa6 9f40 8d82 e5c0 2395 ed40 036a 023e
00000070: c19e 2c41 5d9b 73c1 b7c0 0fc1 9f1f 0440
00000080: 4885 e9be 9db3 e040 046d 8141 b74f 7bc0
00000090: fd11 0e3f 4a93 48c0 8673 c5c0 71e8 1f40
000000a0: 6349 1d3d 9297 b2c0 7731 2ac1 cb3e 4f40
000000b0: 87b0 a2bd 7349 0940 b9e6 d73f 6b84 b0c0
000000c0: 4247 1740 972a d5bf d4a0 b3bf 9ebc b640
000000d0: 7d4e 0bc1 db2a e240 b825 0840 41fa aec1
000000e0: 6e9d 4940 f307 afbf 5c38 1fbf 596a f840
000000f0: b029 f5be 7a7b a5bd 5264 ed40 f6ed 0041
00000100: ca43 ec40 5f17 1c40 1203 b3c1 7ab8 96be
00000110: 0593 45bf 4011 d43e 0854 ea3f 632b 3cc0
00000120: ce91 25c0 ed4d 28bf 7a3a 2541 00e2 68bf
00000130: 39de 653f 92ec 033f 9034 aabf 492c 3840
00000140: 4dbd 5241 49f8 aabe 12e7 81bf 3a7c 01c1
00000150: 7dd1 913f 6c00 27c1 a184 23bf f1cd 25c1
00000160: 7042 6d40 11e1 0441 39c6 f640 1cbb 00c0
00000170: 1a9b 79c0 68a8 463e b21f 0a3f 6855 73bf
00000180: c602 94bf 2bd8 ad40 3aa2 16c1 cefb 2f40
00000190: acda 8a40 4dd1 02c1 d5ff 6a41 3359 65c0
000001a0: 55a4 0ac1 b0ae 8f3d fa1c 84bf 7933 93bf
000001b0: df95 0f40 2dc0 4f3d c9c2 a63f 63fc 7a3e
000001c0: 5553 37c2 94ee 1b3e 82be 723f f61a 3c40
000001d0: b859 1441 167d 5abf 4a2f e2bf 13c3 c0be
000001e0: 3961 65bf 06cc a4bf aff5 e5bf 3c69 7540
000001f0: 1908 1541 3d36 4541 43f9 9841 5546 a23e
00000200: 4d75 3340 348d 0340 2853 bf40 6bf7 c53e
00000210: 9aaf 0640 7a3d c33f 8a6d df3f 7bb8 f3c0
00000220: 6e0f bdc0 6d2c 7040 8ef2 d2c0 ab5a dbc0
00000230: 5501 eec0 354d 2740 645f 7cc0 2f40 98c0
00000240: c8ff 73c0 6657 3340 e02d 15c1 f101 04c1
00000250: 5db1 d3c0 0d48 4c40 2ae2 4ec0 af55 2440
00000260: 9d16 60c0 14a1 92c0 2a5f fec0 27fb ea40
00000270: f601 28c1 4e82 94c0 d82c 03c1 a80c 1c41
00000280: b9c6 19c1 9531 9e3d 2dd8 d03f 9d00 6a3e
00000290: 0423 ba3e bf01 03bf 41b2 1f3f f888 a93f
000002a0: 7f36 553f 4db8 8740 a218 18c0 9b68 42c1
000002b0: b63b 323f 8bc5 3a41 34c2 b2c0 7cae 9040
000002c0: 89e0 16bf 10d7 a3c0 30a4 41c1 a0cd 4b3f
000002d0: 1f22 ec40 795a a6c0 d494 d4bf ed98 2dc0
000002e0: 15b2 8140 93be 84c0 e7db 12be 4337 1441
000002f0: b00b 50c1 790e 2b41 29a3 8940 5eac 73c0
00000300: dffc 6940 5ebd 9bc0 98e3 e5bf 5ec0 d8be
00000310: f077 72bf dcd3 a1c0 4370 18c0 695b f5bd
00000320: b052 40c0 908b 0ec1 aeee 9cc0 935d 85bf
00000330: 01e4 9ec0 c318 76c1 89d6 81c0 0737 1cbf
00000340: 3a5a 7fc0 5604 80c1 254c f340 fbef 2041
00000350: d28d acbf 7d80 3441 bff4 e2c0 469f 12c1
00000360: edc5 f43f fe08 81c0 e465 3f3f e54c 5a40
00000370: 440c 57bf cc44 96c0 20b8 4a40 1934 6a40
00000380: 042d 8abe 16fb 0c41 c4f9 9abf e7ca 82bf
00000390: 1153 1940 fffa f1c0 539c bb3f 0827 8040
000003a0: 0091 50c0 534c c340 c749 41c0 7ca1 893f
000003b0: e180 06c1 1f6a aa41 22ed 65bf 0f50 5fc0
000003c0: 44e5 05c1 3ca5 03c0 a3c3 87c0 2bc9 2cbf
000003d0: 8c0a e3bf bbf4 7a3f 8712 51c0 e8d4 a940
000003e0: c44b 0a41 be1d 4ebf 8eac 5840 54d7 03c1
000003f0: 7c2d 64c1 f89b 5dc0 8cae 09c1 91da ff3f

network.0.bias f4 [244]
2.454409 2.3434875 2.3185732 1.8617201 2.1217892 5.225406 2.0719547 0.7611057
2.4307497 1.9623777 2.4186072 5.0524735 1.9766032 2.3537712 0.3444132 2.4470668
2.3351135 1.7762233 2.5378726 2.3512719 5.0473948 1.7031682 2.5272923 2.0811703
2.5155675 2.6077487 2.418513 2.2849858 1.5333744 2.1734948 2.385321 2.3971088
2.4437318 2.4629202 0.5312065 2.503979 5.138786 2.6556165 2.480534 2.3431942
2.5876358 2.4922097 5.1524734 5.18127 2.5157068 3.0345175 2.3824644 2.4735162
2.5124664 1.478884 0.7465294 2.3426433 2.417655 2.49434 2.3817887 2.4617956
1.9929616 2.1295974 1.0358001 2.401706 1.912394 2.5111747 2.2925134 1.0657284
2.5021417 2.4241328 2.6361701 2.4259622 2.4218915 2.102363 1.0452615 1.54327
2.3621283 2.504669 2.4020412 2.4463863 2.7607152 2.435248 2.1626928 1.0822073
0.35105258 2.4006639 1.2582382 1.1266118 1.4594929 1.9248658 2.3441017 2.2696602
2.5550067 2.393919 2.2345667 2.415119 2.3510652 2.5975473 3.1181517 2.5252159
2.5215673 3.0248487 2.7438877 2.3259306 2.5946205 3.0699909 2.328467 2.3205476
2.359105 2.541483 2.4267395 2.482119 2.463864 2.5832672 2.631723 2.17717
0.59066147 2.5540698 2.2887197 2.5770628 0.9428649 2.4293394 2.5361245 2.6731894
1.1253532 0.67980236 2.6355941 1.7153887 2.4928548 2.4467938 2.2917724 2.5160704
2.3335238 2.6122193 2.3202376 2.2333179 2.6189687 0.80307925 0.6815668 2.4034572
0.69776237 2.4753716 2.6715624 2.3787768 2.2003748 2.900642 2.66182 2.348418
2.4055173 2.4851239 2.5371358 2.578144 2.4051218 2.3095694 0.25171152 2.2163434
0.6314075 2.4113948 2.521836 2.5169625 2.3675454 2.3723269 2.549805 1.0179265
-0.12228824 1.6120995 2.653386 2.2806933 2.4318113 2.5420947 1.4591099 2.5147178
2.7039824 5.2533917 2.4977193 0.014121675 2.4167197 2.513793 2.574689 2.9128306
2.4899342 2.4496367 2.3891747 2.2701585 2.3842301 2.8164988 2.3935456 2.2689717
2.5991645 2.370336 2.5019991 2.5900857 4.735805 2.2216167 2.4211633 2.3580692
2.4588027 2.4211588 2.5899074 2.5518453 2.5569582 2.3822737 2.5526984 2.6733553
2.4855125 5.2803087 -0.17992765 2.5554678 0.85087687 2.700526 0.9674186 2.2181575
0.8198952 2.40638 2.1693313 2.9351978 2.6095395 2.6259985 2.1637886 2.5073416
2.4214942 0.55477893 2.452143 1.7174348 2.1711247 2.5856056 2.4965706 2.4725206
1.7470905 1.6429842 0.28320423 0.2301226 2.8824034 2.2824607 2.3738818 2.0331752
2.4181092 2.4006479 2.3630674 2.3427854 -0.18488827 1.4587917 2.9824305 2.4603457
2.5161114 2.3212602 2.7085125 2.4055607
00000000: 0915 1d40 b3fb 1540 8163 1440 d84c ee3f
00000010: 65cb 0740 8736 a740 e89a 0440 d3d7 423f
00000020: 6791 1b40 312f fb3f 76ca 1a40 ddad a140
00000030: 5501 fd3f 30a4 1640 ed56 b03e be9c 1c40
00000040: 8072 1540 495b e33f 816c 2240 3d7b 1640
00000050: 4284 a140 6a01 da3f 28bf 2140 e531 0540
00000060: 0fff 2040 5be5 2640 ebc8 1a40 353d 1240
00000070: 9d45 c43f 8a1a 0b40 19a9 1840 3b6a 1940
00000080: 1a66 1c40 7ca0 1d40 26fd 073f 3141 2040
00000090: ef70 a440 9ff5 2940 12c1 1e40 e5f6 1540
000000a0: d39b 2540 5d80 1f40 10e1 a440 f7cc a540
000000b0: 5701 2140 8935 4240 4c7a 1840 174e 1e40
000000c0: 40cc 2040 124c bd3f 8d1c 3f3f deed 1540
000000d0: dcba 1a40 44a3 1f40 3a6f 1840 0f8e 1d40
000000e0: 5e19 ff3f 534b 0840 1995 843f 8db5 1940
000000f0: 54c9 f43f 16b7 2040 8ab8 1240 ca69 883f
00000100: 1723 2040 fe24 1b40 03b7 2840 f742 1b40
00000110: 4500 1b40 1e8d 0640 21cb 853f df89 c53f
00000120: 1c2d 1740 7f4c 2040 0bbb 1940 9891 1c40
00000130: 8faf 3040 1adb 1b40 8f69 0a40 c585 8a3f
00000140: 2abd b33e 7aa4 1940 f30d a13f d134 903f
00000150: aad0 ba3f 0162 f63f c305 1640 1d42 1140
00000160: 3b85 2340 f835 1940 2403 0f40 4f91 1a40
00000170: da77 1640 373e 2640 cc8f 4740 239d 2140
00000180: 5c61 2140 1f97 4140 db9b 2f40 0cdc 1440
00000190: 430e 2640 bb7a 4440 9a05 1540 da83 1440
000001a0: 94fb 1640 a8a7 2240 b34f 1b40 0adb 1e40
000001b0: f3af 1d40 4054 2540 266e 2840 c156 0b40
000001c0: 9735 173f e175 2340 627a 1240 99ee 2440
000001d0: 985f 713f 4c7a 1b40 dd4f 2240 8915 2b40
000001e0: 930b 903f 8707 2e3f 93ad 2840 db91 db3f
000001f0: ef8a 1f40 4598 1c40 66ac 1240 4c07 2140
00000200: 7458 1540 9a2e 2740 c67e 1440 aeee 0e40
00000210: 2f9d 2740 9a96 4d3f 297b 2e3f 3ed2 1940
00000220: 8ea0 323f 7d6c 1e40 e1fa 2a40 e13d 1840
00000230: f1d2 0c40 1ea4 3940 425b 2a40 7b4c 1640
00000240: fff3 1940 450c 1f40 6f60 2240 5000 2540
00000250: 84ed 1940 fccf 1340 55e0 803e 92d8 0d40
00000260: eca3 213f 4b54 1a40 c365 2140 ea15 2140
00000270: dd85 1740 34d4 1740 0130 2340 6a4b 823f
00000280: 4272 fabd 4759 ce3f 14d1 2940 e1f6 1140
00000290: cca2 1b40 aeb1 2240 1dc4 ba3f 23f1 2040
000002a0: 0c0e 2d40 c91b a840 a2da 1f40 995e 673c
000002b0: 89ab 1a40 fce1 2040 b4c7 2440 d16b 3a40
000002c0: 155b 1f40 d9c6 1c40 3de8 1840 474a 1140
000002d0: 3a97 1840 8441 3440 da2f 1940 d536 1140
000002e0: b658 2640 96b3 1740 c120 2040 f7c3 2540
000002f0: b78b 9740 f82e 0e40 57f4 1a40 9bea 1640
00000300: 065d 1d40 44f4 1a40 0bc1 2540 6f51 2340
00000310: 34a5 2340 2c77 1840 695f 2340 4118 2b40
00000320: a312 1f40 4af8 a840 f43e 38be c98c 2340
00000330: 11d3 593f 6bd5 2c40 bfa8 773f 4bf6 0d40
00000340: a7e4 513f 2102 1a40 53d6 0a40 48da 3b40
00000350: b202 2740 5c10 2840 837b 0a40 4978 2040
00000360: c3f9 1a40 fe05 0e3f e9ef 1c40 e7d4 db3f
00000370: b5f3 0a40 907a 2540 d0c7 1f40 c73d 1e40
00000380: a9a0 df3f 4e4d d23f 2500 913e 42a5 6b3e
00000390: 4c79 3840 d613 1240 aeed 1740 8b1f 0240
000003a0: 4dc2 1a40 37a4 1940 7f3c 1740 32f0 1540
000003b0: 5a53 3dbe b0b9 ba3f 24e0 3e40 4e76 1d40
000003c0: f807 2140 878f 1440 4558 2d40 b5f4 1940

network.1.weight f4 [244]
7.871551 7.9830785 7.951736 7.9804196 7.1397676 11.353183 7.9442277 7.6226807
6.8515973 9.385968 7.2987638 10.866784 8.113617 7.7823477 8.896851 8.210697
7.7655106 8.440495 8.346684 7.039934 7.3532085 7.650123 7.952303 7.9347434
7.27719 8.230846 8.212154 7.673018 8.591449 8.0427475 8.650482 7.07532
6.862596 7.493268 7.00687 8.984578 9.184416 7.8354597 8.091645 7.346899
8.162925 8.330076 8.856101 11.37783 7.6899147 9.204243 8.186988 8.030914
8.590877 8.816026 9.013902 8.56129 8.106408 7.719063 7.5687523 8.295768
8.003464 8.203378 8.434114 8.106333 8.382954 6.7757864 8.440592 8.791071
7.7482824 8.198242 8.473427 8.027889 7.351699 7.7757897 7.7252364 7.753325
8.01688 8.741052 8.660523 8.112034 6.7142973 7.940701 8.568042 8.763028
6.476995 7.241048 8.371188 8.316805 8.263564 7.70053 8.820144 8.294403
7.3160286 8.136103 7.7525268 7.9683776 8.615093 7.585801 7.560754 7.6952076
7.7139726 9.377891 7.0389643 7.587603 7.208892 8.562552 8.1298065 7.4895554
8.364031 6.519046 8.4315 7.9684124 7.9862113 8.170976 9.084238 8.320542
7.076604 6.9045544 8.732224 8.746041 9.967372 7.4443955 8.62794 8.226311
7.1664114 8.926652 7.840278 8.275181 8.344079 7.1233397 8.314726 8.258981
7.072229 8.1232395 6.863948 6.9875765 7.960729 7.258261 7.9065237 7.9229903
9.147997 7.520058 7.9903054 7.512511 7.838829 7.327553 8.3224125 8.439026
8.020449 8.441306 8.96467 8.041811 7.5525665 7.8903728 7.0988564 7.96231
7.473611 8.338494 8.292641 8.11246 7.307876 8.174567 7.3209486 6.766726
7.124246 7.257946 7.4664044 7.757215 8.368557 8.277184 8.975981 7.4257674
7.667935 9.5073 7.7641196 9.361524 8.363975 7.424867 7.5538025 7.991271
9.289144 6.921883 7.933761 8.499643 8.099857 7.63162 8.470995 8.288483
9.678226 7.871302 8.37726 7.655484 8.369704 8.497929 8.828362 8.179186
8.103119 8.548539 8.097363 6.6239376 8.235382 7.651017 8.927253 8.926075
7.679914 9.373235 5.542837 7.8684926 9.682312 7.985598 6.7643714 6.739996
8.269831 7.926985 8.666243 7.870721 8.409565 7.8588033 7.833586 10.273533
8.862567 9.131016 7.8531437 8.139636 8.125221 6.93262 8.902842 8.758427
8.707275 6.9522505 6.75152 8.489315 7.823751 7.7597775 7.8391895 8.755066
8.174182 7.557904 7.960368 9.895607 8.293199 9.219725 8.723924 8.195795
8.187703 7.4314957 9.133635 8.640705
00000000: bfe3 fb40 6175 ff40 9f74 fe40 995f ff40
00000010: fa78 e440 a3a6 3541 1d37 fe40 00ed f340
00000020: 4940 db40 ed2c 1641 798f e940 59de 2d41
00000030: 60d1 0141 fe08 f940 8059 0e41 045f 0341
00000040: 107f f840 440c 0741 058c 0541 2447 e140
00000050: 7c4d eb40 cfcd f440 4479 fe40 6be9 fd40
00000060: bede e840 8cb1 0341 fc64 0341 5d89 f540
00000070: 9376 0941 18af 0041 6068 0a41 0569 e240
00000080: 639a db40 dac8 ef40 4738 e040 d5c0 0f41
00000090: 5ef3 1241 16bc fa40 6177 0141 cc19 eb40
000000a0: 579b 0241 fe47 0541 97b2 0d41 970b 3641
000000b0: c813 f640 9444 1341 e7fd 0241 a07e 0041
000000c0: 3b74 0941 710e 0d41 f138 1041 0bfb 0841
000000d0: d9b3 0141 9002 f740 3833 f240 77bb 0441
000000e0: 300e 0041 0941 0341 22f2 0641 8ab3 0141
000000f0: 9420 0641 3ed3 d840 aa0c 0741 3aa8 0c41
00000100: eef1 f740 002c 0341 2893 0741 3c72 0041
00000110: 1e41 eb40 45d3 f840 2335 f740 3d1b f840
00000120: 2445 0041 59db 0b41 8191 0a41 e4ca 0141
00000130: 86db d640 391a fe40 b316 0941 5d35 0c41
00000140: 8b43 cf40 aab6 e740 63f0 0541 a211 0541
00000150: 8f37 0441 be6a f640 4f1f 0d41 e0b5 0441
00000160: e81c ea40 7a2d 0241 b314 f840 f3fc fe40
00000170: 6cd7 0941 e2be f240 b2f1 f140 243f f640
00000180: ddd8 f640 d70b 1641 323f e140 a5cd f240
00000190: 3eaf e640 3700 0941 b013 0241 70aa ef40
000001a0: 12d3 0541 069c d040 6de7 0641 3cfd fe40
000001b0: 0b8f ff40 51bc 0241 0a59 1141 f120 0541
000001c0: 8a73 e240 1cf2 dc40 31b7 0b41 c9ef 0b41
000001d0: 5b7a 1f41 7d38 ee40 0b0c 0a41 f89e 0341
000001e0: 3e53 e540 91d3 0e41 8fe3 fa40 2467 0441
000001f0: 5981 0541 66f2 e340 1e09 0541 c924 0441
00000200: b34f e240 caf8 0141 76a5 db40 3a9a df40
00000210: 4bbe fe40 ad43 e840 3e02 fd40 2389 fd40
00000220: 325e 1241 51a4 f040 95b0 ff40 7d66 f040
00000230: b0d7 fa40 507b ea40 9a28 0541 4006 0741
00000240: c253 0041 970f 0741 4a6f 0f41 42ab 0041
00000250: a0ae f140 ef7d fc40 d529 e340 3ecb fe40
00000260: d227 ef40 796a 0541 a8ae 0441 a3cc 0141
00000270: 1fda e940 07cb 0241 3645 ea40 0589 d840
00000280: d3f9 e340 1841 e840 c9ec ee40 1b3b f840
00000290: 9ce5 0541 586f 0441 9e9d 0f41 e39f ed40
000002a0: b95f f540 e71d 1841 ab73 f840 cdc8 1541
000002b0: d7d2 0541 8398 ed40 c0b8 f140 7eb8 ff40
000002c0: 55a0 1441 1180 dd40 5fe1 fd40 8afe 0741
000002d0: 0499 0141 3b36 f440 3289 0741 a09d 0441
000002e0: 04da 1a41 b5e1 fb40 4209 0641 baf9 f440
000002f0: 4fea 0541 84f7 0741 f940 0d41 f2dd 0241
00000300: 60a6 0141 d1c6 0841 cd8e 0141 4cf7 d340
00000310: 20c4 0341 22d5 f440 07d6 0e41 34d1 0e41
00000320: dbc1 f540 c5f8 1541 ec5e b140 b1ca fb40
00000330: c0ea 1a41 058a ff40 bb75 d840 0cae d740
00000340: 3a51 0441 dca9 fd40 eea8 0a41 f2dc fb40
00000350: 948d 0641 517b fb40 bdac fa40 6460 2441
00000360: 13cd 0d41 a418 1241 f44c fb40 f33b 0241
00000370: e800 0241 06d8 dd40 0a72 0e41 8422 0c41
00000380: 0051 0b41 d678 de40 740c d840 3cd4 0741
00000390: 2b5c fa40 1950 f840 a4da fa40 c014 0c41
000003a0: 73c9 0241 59da f140 56bb fe40 6854 1e41
000003b0: f1b0 0441 fe83 1341 3195 0b41 fa21 0341
000003c0: d500 0341 d0ce ed40 5e23 1241 5440 0a41

network.1.bias f4 [244]
-3.1544545 -3.6312954 -3.5646136 -2.7107368 -2.2790804 3.049423 -3.9025602 -3.4000216
-1.7530982 -5.4788694 -2.2606678 2.230642 -4.8796268 -1.8653017 -6.0153847 -3.610378
-4.74566 -4.556129 -4.459526 -3.4728606 0.38524744 -2.3598123 -3.9646425 -4.1369915
-1.8231735 -4.4863276 -2.800276 -4.0999045 -5.4678764 -3.9137626 -4.5874367 -1.7050221
-1.8876559 -3.6719468 -3.26013 -5.060764 0.40526602 -3.777606 -3.4077952 -3.8204446
-2.9067783 -4.116065 0.7007486 4.0973315 -4.834229 3.8261762 -4.111385 -4.1968694
-4.3047886 -6.4468293 -5.307967 -4.2144876 -3.6662886 -2.6000292 -2.9495316 -3.7351532
-3.5269864 -4.676144 -5.950675 -3.8650634 -5.592038 -1.4284678 -4.6582704 -5.35816
-3.646625 -5.0788307 -4.2879934 -3.3500197 -4.523145 -3.5750551 -4.289941 -4.1309233
-3.053879 -5.3846006 -5.3012443 -4.2040215 -0.72538435 -3.8514874 -4.3721867 -5.2569914
-4.2211866 -3.133437 -5.6318398 -4.000008 -5.4894156 -4.096066 -4.210415 -3.544646
-1.8717766 -3.2456381 -4.329779 -4.203846 -4.4789686 -2.9100804 -0.94097173 -3.6282415
-3.8494089 3.4482512 -1.4939574 -3.7220294 -2.4231937 -0.18013616 -3.5474994 -3.4842043
-4.6684875 -1.4210039 -4.2126384 -4.821259 -2.324051 -4.873778 -4.965608 -4.4626884
-4.1146307 -2.737936 -5.486806 -5.005767 -5.4549813 -1.8600793 -4.1364017 -1.3971053
-4.773551 -5.7063937 -3.0117662 -4.066639 -3.2078798 -2.3080456 -2.9198666 -3.7468717
-1.5202967 -3.5090406 -1.8413726 -1.1713995 -4.172029 -3.8109257 -4.729551 -3.6127462
-6.766631 -3.5787742 0.37290627 -3.135275 -3.6674764 -0.8977159 -3.7311761 -5.373364
-3.7420568 -4.2466316 -4.286702 -3.9711754 -1.8557974 -2.909857 -4.3338737 -3.8469672
-4.3555064 -4.851155 -3.5578756 -3.5503912 -3.4900794 -4.611938 -2.7871323 -4.329979
-4.0123224 -4.440773 -3.8263292 -4.115371 -4.7911835 -2.8709526 -5.9108095 -2.6387713
-3.721572 1.2786349 -4.167036 -6.3459573 -3.1215832 -2.4585898 -3.1022594 -0.18318477
-5.8200855 -2.3553772 -2.9712217 -3.3119943 -3.7159672 -2.764442 -4.0309486 -3.862039
2.1858559 -4.165373 -5.3683486 -3.115742 0.88897336 -4.503629 -4.131487 -3.870483
-4.264772 -4.7799625 -3.596044 -1.3764215 -4.769064 -3.4079597 -4.6238503 1.0764832
-2.7182477 1.1853464 -2.648607 -2.6257882 -7.115042 -2.8942292 -3.6884558 -1.6055187
-3.9145966 -2.794278 -5.1646833 -1.4879915 -4.256641 -3.5098395 -4.922291 3.0837836
-4.9473877 -5.960788 -4.117159 -3.3857083 -3.0118034 -1.26733 -3.51572 -4.757609
-5.2940536 -3.0725243 -4.4115415 -5.095806 -0.39500478 -3.388555 -2.4785194 -5.7873707
-4.9454794 -4.5021715 -3.6717484 -6.1187673 -4.884491 -5.9947357 1.8978832 -2.424898
-1.2460045 -3.911343 0.76931715 -4.326761
00000000: 95e2 49c0 2567 68c0 a122 64c0 b67c 2dc0
00000010: 74dc 11c0 bf29 4340 8cc3 79c0 f499 59c0
00000020: 8665 e0bf e652 afc0 c8ae 10c0 d7c2 0e40
00000030: e725 9cc0 35c2 eebf 087e c0c0 6f10 67c0
00000040: 72dc 97c0 cfcb 91c0 70b4 8ec0 5943 5ec0
00000050: 273f c53e 2a07 17c0 b4bc 7dc0 3c62 84c0
00000060: c05d e9bf ff8f 8fc0 b937 33c0 6b32 83c0
00000070: d8f8 aec0 167b 7ac0 48cc 92c0 2a3e dabf
00000080: b59e f1bf 2d01 6bc0 f8a5 50c0 c7f1 a1c0
00000090: 077f cf3e 4cc4 71c0 5119 5ac0 2a82 74c0
000000a0: a808 3ac0 ceb6 83c0 4364 333f 571d 8340
000000b0: 01b2 9ac0 12e0 7440 7790 83c0 c14c 86c0
000000c0: d4c0 89c0 6d4c cec0 deda a9c0 15dd 86c0
000000d0: 79a4 6ac0 e166 26c0 20c5 3cc0 c00c 6fc0
000000e0: 25ba 61c0 f9a2 95c0 ee6b bec0 335d 77c0
000000f0: faf1 b2c0 08d8 b6bf 8d10 95c0 0c76 abc0
00000100: 4e62 69c0 c885 a2c0 3e37 89c0 b966 56c0
00000110: 9bbd 90c0 b4cd 64c0 3247 89c0 8630 84c0
00000120: c172 43c0 a64e acc0 cba3 a9c0 5887 86c0
00000130: cab2 39bf c57e 76c0 f4e8 8bc0 4639 a8c0
00000140: f613 87c0 3b8a 48c0 0838 b4c0 1100 80c0
00000150: 4ba9 afc0 f912 83c0 b8bb 86c0 7bdb 62c0
00000160: 6096 efbf 89b8 4fc0 8d8d 8ac0 e885 86c0
00000170: b653 8fc0 c23e 3ac0 86e3 70bf 1c35 68c0
00000180: b75c 76c0 26b0 5c40 ff39 bfbf bb35 6ec0
00000190: 9b15 1bc0 9d75 38be 3b0a 63c0 34fd 5ec0
000001a0: 4064 95c0 75e3 b5bf efcd 86c0 c147 9ac0
000001b0: 40bd 14c0 fdf5 9bc0 43e6 9ec0 58ce 8ec0
000001c0: 0eab 83c0 583a 2fc0 ea93 afc0 3e2f a0c0
000001d0: 358f aec0 1417 eebf 675d 84c0 59d4 b2bf
000001e0: eec0 98c0 c79a b6c0 c7c0 40c0 e821 82c0
000001f0: e74d 4dc0 05b7 13c0 18df 3ac0 bfcc 6fc0
00000200: 1599 c2bf 1f94 60c0 19b2 ebbf 6bf0 95bf
00000210: 4381 85c0 35e6 73c0 7b58 97c0 3c37 67c0
00000220: 3e88 d8c0 a30a 65c0 92ed be3e 58a8 48c0
00000230: efb7 6ac0 b6d0 65bf 97cb 6ec0 99f2 abc0
00000240: dc7d 6fc0 68e4 87c0 aa2c 89c0 bd27 7ec0
00000250: c58a edbf 193b 3ac0 18af 8ac0 b634 76c0
00000260: 4f60 8bc0 a93c 9bc0 3cb4 63c0 9c39 63c0
00000270: 765d 5fc0 ff94 93c0 6060 32c0 308f 8ac0
00000280: f264 80c0 d01a 8ec0 94e2 74c0 1fb1 83c0
00000290: 6051 99c0 b0bd 37c0 5a25 bdc0 a1e1 28c0
000002a0: 3c2e 6ec0 4faa a33f 5c58 85c0 1512 cbc0
000002b0: 05c8 47c0 8959 1dc0 6b8b 46c0 ca94 3bbe
000002c0: 243e bac0 80be 16c0 7f28 3ec0 b7f7 53c0
000002d0: 68d2 6dc0 9eec 30c0 88fd 80c0 a62b 77c0
000002e0: 10e5 0b40 bc4a 85c0 83c9 abc0 5168 47c0
000002f0: c293 633f bb1d 90c0 2435 84c0 feb5 77c0
00000300: 0379 88c0 74f5 98c0 9625 66c0 942e b0bf
00000310: 2c9c 98c0 031c 5ac0 95f6 93c0 34ca 893f
00000320: c5f7 2dc0 6eb9 973f c782 29c0 ea0c 28c0
00000330: 6dae e3c0 0d3b 39c0 a90f 6cc0 a381 cdbf
00000340: c088 7ac0 73d5 32c0 1645 a5c0 8176 bebf
00000350: 6736 88c0 36a1 60c0 6883 9dc0 b65c 4540
00000360: 0051 9ec0 c6be bec0 c4bf 83c0 72af 58c0
00000370: 63c1 40c0 df37 a2bf 8e01 61c0 553e 98c0
00000380: e368 a9c0 3da4 44c0 592b 8dc0 d810 a3c0
00000390: 113e cabe 16de 58c0 10a0 1ec0 2432 b9c0
000003a0: 5e41 9ec0 ca11 90c0 edfd 6ac0 f1cc c3c0
000003b0: c04d 9cc0 e0d4 bfc0 d6ed f23f 8731 1bc0
000003c0: 137d 9fbf 7253 7ac0 f8f1 443f d374 8ac0

network.1.running_mean f4 [244]
2.4179938 2.344117 2.333244 1.9071616 2.0852454 5.179739 2.0936074 0.7515852
2.3947563 1.951946 2.4159954 5.0672126 1.9128039 2.476546 0.3819568 2.5026622
2.3867714 1.7853031 2.5785666 2.3383732 5.082542 1.7452971 2.567946 2.1430025
2.4964616 2.5736926 2.4337544 2.3078182 1.5880452 2.096944 2.3901155 2.3702598
2.4712815 2.3937378 0.5671144 2.4602408 5.0482554 2.5499654 2.4645002 2.2691054
2.5397408 2.5626092 5.2114854 5.213739 2.589488 3.0153437 2.4696724 2.4833145
2.5336664 1.5020533 0.79299587 2.3153052 2.4527187 2.516125 2.3534253 2.5688682
2.0145981 2.1394207 1.0019848 2.3485653 1.8740479 2.5363996 2.261903 1.025346
2.4630249 2.4319563 2.5581288 2.4372904 2.4688926 2.1206589 1.0975788 1.6026485
2.3727343 2.4606006 2.478858 2.40944 2.790522 2.4258945 2.1216516 1.058727
0.30952823 2.3805957 1.2408684 1.043747 1.4416754 1.9313353 2.3689783 2.2460773
2.530075 2.4316716 2.250345 2.418644 2.308275 2.5335302 3.173029 2.5273898
2.5912473 2.9789753 2.797293 2.3305917 2.5832691 3.1350603 2.257479 2.404157
2.3499804 2.5775435 2.464547 2.467485 2.5109677 2.5682917 2.6147609 2.2317822
0.6548137 2.5174615 2.377717 2.516192 0.9311244 2.465157 2.5146918 2.6957862
1.1118014 0.69621354 2.5356178 1.704222 2.4907193 2.438352 2.2096393 2.5290189
2.31914 2.5872622 2.2915137 2.2100399 2.6138973 0.7358248 0.6923457 2.3253593
0.6554943 2.4567804 2.679385 2.3495839 2.1849747 2.8387136 2.6089587 2.3784683
2.4189234 2.5382519 2.5197 2.5208688 2.4685042 2.3279176 0.25432834 2.301753
0.7303283 2.3697572 2.448209 2.5143192 2.3888185 2.3231173 2.6310117 0.9646729
-0.04243696 1.6241307 2.7150433 2.225178 2.437642 2.6054459 1.5282693 2.5464594
2.6778746 5.3098354 2.440683 0.07687238 2.4676232 2.5326052 2.4747055 2.9443462
2.4818933 2.502711 2.4014144 2.2500575 2.3624892 2.8110542 2.3588395 2.349057
2.588847 2.4167175 2.4500408 2.5372417 4.722132 2.2976618 2.358405 2.4245834
2.4228745 2.462099 2.5428655 2.5423563 2.5615067 2.3564825 2.596597 2.726306
2.5361292 5.324529 -0.2479897 2.4653988 0.77671653 2.7385294 0.9647603 2.1832137
0.8403792 2.3889046 2.1345963 2.9320965 2.5719733 2.6445754 2.146456 2.4861617
2.4626782 0.5745535 2.405835 1.6542124 2.199359 2.5393388 2.402636 2.4844742
1.8413212 1.7058657 0.2069732 0.24711375 2.8474677 2.2987168 2.4048343 1.9957255
2.4022546 2.457674 2.3125498 2.3146288 -0.17457631 1.4325098 3.0072255 2.5163937
2.4737084 2.2523427 2.7104192 2.4407809
00000000: 69c0 1a40 0306 1640 df53 1540 df1d f43f
00000010: a974 0540 6cc0 a540 aafd 0540 e367 403f
00000020: b043 1940 5ed9 f93f ab9f 1a40 9b26 a240
00000030: c2d6 f43f bb7f 1e40 d78f c33e 9e2b 2040
00000040: ddc0 1840 d084 e43f 3c07 2540 e8a7 1540
00000050: 2fa4 a240 e565 df3f 3a59 2440 f426 0940
00000060: 07c6 1f40 61b7 2440 a2c2 1b40 4bb3 1340
00000070: 1145 cb3f 5534 0640 a7f7 1840 56b2 1740
00000080: 7a29 1e40 0033 1940 692e 113f 9674 1d40
00000090: 4f8b a140 a232 2340 5fba 1d40 0639 1140
000000a0: 1d8b 2240 ca01 2440 7dc4 a640 f3d6 a640
000000b0: 2cba 2540 64fb 4040 1d0f 1e40 a0ee 1e40
000000c0: 9727 2240 4843 c03f c701 4b3f f62d 1440
000000d0: 58f9 1c40 3108 2140 859e 1640 5668 2440
000000e0: 2def 0040 45ec 0840 0a41 803f e54e 1640
000000f0: cde0 ef3f 5f54 2240 05c3 1040 8a3e 833f
00000100: 33a2 1d40 2ca5 1b40 62b8 2340 91fc 1b40
00000110: 5602 1e40 e0b8 0740 767d 8c3f 9623 cd3f
00000120: e1da 1740 7b7a 1d40 9ca5 1e40 4434 1a40
00000130: ea97 3240 db41 1b40 24c9 0740 5e84 873f
00000140: 7c7a 9e3e ae5b 1840 c7d4 9e3f 8099 853f
00000150: d288 b83f ff35 f73f 579d 1740 bbbf 0f40
00000160: c0ec 2140 82a0 1b40 a705 1040 10cb 1a40
00000170: c7ba 1340 5c25 2240 e812 4b40 c1c0 2140
00000180: ffd6 2540 88a7 3e40 d906 3340 6a28 1540
00000190: 4854 2540 d4a4 4840 897a 1040 b5dd 1940
000001a0: 1466 1640 79f6 2440 23bb 1d40 46eb 1d40
000001b0: b2b3 2040 e45e 2440 3e58 2740 85d5 0e40
000001c0: dfa1 273f 171e 2140 842c 1840 4a09 2140
000001d0: 2b5e 6e3f 22c5 1d40 b6f0 2040 c387 2c40
000001e0: 824f 8e3f 0d3b 323f 9047 2240 f223 da3f
000001f0: f267 1f40 f60d 1c40 bb6a 0d40 72db 2140
00000200: ca6c 1440 b495 2540 29a8 1240 4b71 0d40
00000210: 184a 2740 045f 3c3f 913d 313f b0d2 1440
00000220: 79ce 273f e43b 1d40 0b7b 2b40 955f 1640
00000230: a0d6 0b40 7cad 3540 2ef9 2640 d338 1840
00000240: a4cf 1a40 b872 2240 c442 2140 ea55 2140
00000250: f9fb 1d40 9afc 1440 5337 823e ec4f 1340
00000260: ccf6 3a3f 1aaa 1740 75af 1c40 9bea 2040
00000270: 67e2 1840 f4ad 1440 7f62 2840 cef4 763f
00000280: 61d2 2dbd 84e3 cf3f 45c3 2d40 5169 0e40
00000290: 5402 1c40 a0bf 2640 549e c33f 31f9 2240
000002a0: 4c62 2b40 2cea a940 2634 1c40 446f 9d3d
000002b0: 8aed 1d40 3416 2240 9361 1e40 2b70 3c40
000002c0: 57d7 1e40 6b2c 2040 c6b0 1940 f100 1040
000002d0: 0633 1740 50e8 3340 3af7 1640 f356 1640
000002e0: abaf 2540 80ab 1a40 78cd 1c40 2b62 2240
000002f0: b51b 9740 e40c 1340 1cf0 1640 602c 1b40
00000300: 6010 1b40 0893 1d40 4fbe 2240 f7b5 2240
00000310: baef 2340 9cd0 1640 a52e 2640 cc7b 2e40
00000320: f14f 2240 8b62 aa40 03f1 7dbe 18c9 1d40
00000330: e5d6 463f 1144 2f40 88fa 763f c6b9 0b40
00000340: 1723 573f d0e3 1840 3a9d 0840 78a7 3b40
00000350: 369b 2440 b940 2940 895f 0940 461d 1f40
00000360: 859c 1d40 f015 133f 33f9 1940 3bbd d33f
00000370: 4cc2 0c40 8784 2240 cac4 1940 a001 1f40
00000380: 6ab0 eb3f cf59 da3f c8f0 533e 630b 7d3e
00000390: e93c 3640 2d1e 1340 cee8 1940 ef73 ff3f
000003a0: 8abe 1940 884a 1d40 d100 1440 e122 1440
000003b0: 22c4 32be 7b5c b73f 6276 4040 980c 2140
000003c0: 3d51 1e40 6226 1040 8277 2d40 c135 1c40

network.1.running_var f4 [244]
3.2183125 3.46107 3.527281 4.4527802 4.6744113 3.3108163 3.1867428 12.170862
4.1818986 3.044119 3.346608 3.125717 3.3569336 3.765191 2.9659295 4.2664433
3.2519827 3.6180487 3.4367702 3.2763596 3.320956 3.634296 3.6302357 3.0634892
4.4445195 3.1723742 3.4045036 3.0706303 2.8700395 3.7583776 3.5635967 3.9824798
3.607957 3.728428 3.9973125 3.3895154 3.4191103 3.5986857 4.90175 3.3088648
3.2796812 3.111622 3.1059682 3.1411037 2.9369416 3.312008 3.181714 3.070765
3.2315824 2.8648338 2.7382035 3.2155416 3.6646686 5.4234 3.657861 3.4094388
3.6068192 3.643097 2.8202386 3.067299 2.9320247 3.3320026 3.3028011 2.8237462
3.0717695 3.133502 3.1448574 4.0291615 3.202682 4.5864058 3.5635235 3.361593
5.105931 3.1663263 2.8368251 3.282186 4.1320605 3.7300644 3.560988 2.9334111
3.7911131 3.4485352 2.8637528 2.9927511 3.0225027 3.2511518 3.2170844 3.4034743
4.0361667 3.2614064 4.0661693 3.7299924 3.1216998 3.4269087 3.1459627 3.1036954
4.364101 3.2151084 5.123008 3.2259521 3.1907928 3.5463538 4.123418 3.3937988
3.2930875 3.4667926 3.3267457 3.348361 3.4202886 3.5015564 3.2989624 3.4803038
12.561099 4.0738945 3.3010662 3.3634355 3.2552917 5.2948174 3.5664446 3.5411525
3.5404232 3.1755366 3.677296 3.2328649 3.4280171 3.6531005 3.596084 3.5440185
3.1250067 4.6652856 4.1556 4.316148 3.2862363 13.021467 2.9741337 3.3792498
2.886834 3.094366 3.2211819 3.1223867 3.267431 3.349654 3.2468553 3.0136843
3.844553 3.120449 3.233728 3.7604938 4.6677704 4.594835 3.5611382 3.6905181
2.8852587 3.435742 4.226295 3.6199427 3.259227 3.6417482 3.263423 3.8376472
5.7156887 8.4930105 3.2933161 3.6026928 3.5300038 3.8191257 2.875651 4.5067863
3.810194 3.1299834 3.2332983 2.8227983 3.917336 3.9075332 5.056214 3.377292
3.0434072 3.5191164 3.538427 3.4471338 3.12862 4.277018 3.9161432 3.2414033
3.1978061 3.4753482 3.176297 3.4093497 3.304125 3.306801 3.413664 3.2095842
3.438303 3.4476433 3.9663005 4.5365767 3.291744 3.276867 4.0999775 3.3290699
3.4609065 3.2065637 3.7598274 3.21317 2.8582125 3.2949376 3.552099 4.118953
2.773374 4.042246 3.274752 3.5879061 3.7602649 3.4946768 3.1412203 3.2440321
3.102097 3.0378516 3.2496724 4.520862 3.448152 3.8190951 3.564131 3.2355688
2.6637797 3.645388 8.305233 2.8042245 3.3207114 3.260926 3.9713042 3.0549142
3.1095011 3.9666533 3.4285917 2.9528036 2.9643836 3.0512922 3.165037 3.1708395
3.5423398 3.5708857 3.2382324 3.027871
00000000: d5f8 4d40 2c82 5d40 f9be 6140 2d7d 8e40
00000010: c794 9540 6ae4 5340 98f3 4b40 dabb 4241
00000020: 1dd2 8540 d8d2 4240 d32e 5640 bf0b 4840
00000030: 00d8 5640 e4f8 7040 cad1 3d40 b486 8840
00000040: 7c20 5040 1c8e 6740 0bf4 5b40 e0af 5140
00000050: 8b8a 5440 4e98 6840 c855 6840 3510 4440
00000060: 8139 8e40 2e08 4b40 63e3 5940 3585 4440
00000070: baae 3740 4289 7040 f811 6440 f3e0 7e40
00000080: c4e8 6640 909e 6e40 f8d3 7f40 d2ed 5840
00000090: b4d2 5a40 de50 6640 23db 9c40 71c4 5340
000000a0: 4ce6 5140 d124 4740 2fc8 4640 d807 4940
000000b0: daf6 3b40 f0f7 5340 34a1 4b40 6a87 4440
000000c0: 3fd2 4e40 7059 3740 ba3e 2f40 6fcb 4d40
000000d0: ee89 6a40 7e8c ad40 651a 6a40 3f34 5a40
000000e0: 20d6 6640 8028 6940 ca7e 3440 a04e 4440
000000f0: 4ba6 3b40 883f 5540 1861 5340 42b8 3440
00000100: df97 4440 4c8b 4840 5845 4940 e4ee 8040
00000110: bef8 4c40 d6c3 9240 c510 6440 5724 5740
00000120: c963 a340 17a5 4a40 8b8e 3540 560f 5240
00000130: d739 8440 60b9 6e40 3ae7 6340 02bd 3b40
00000140: 99a1 7240 cdb4 5c40 ba47 3740 3c89 3f40
00000150: af70 4140 df12 5040 b6e4 4d40 86d2 5940
00000160: 4728 8140 e2ba 5040 0f1e 8240 32b8 6e40
00000170: eec9 4740 7952 5b40 7457 4940 f2a2 4640
00000180: b7a6 8b40 56c4 4d40 aeef a340 0076 4e40
00000190: f335 4c40 76f7 6240 0af3 8340 0034 5940
000001a0: f2c1 5240 eedf 5d40 67e9 5440 8c4b 5640
000001b0: 02e6 5a40 8019 6040 3322 5340 4cbd 5e40
000001c0: 43fa 4841 585d 8240 ab44 5340 8742 5740
000001d0: b356 5040 256f a940 a140 6440 3ea2 6240
000001e0: 4b96 6240 fe3b 4b40 d158 6b40 42e7 4e40
000001f0: a264 5b40 66cc 6940 3e26 6640 33d1 6240
00000200: 1c00 4840 054a 9540 adfa 8440 e21d 8a40
00000210: b251 5240 ee57 5041 3558 3e40 a145 5840
00000220: e3c1 3840 180a 4640 d827 4e40 2fd5 4740
00000230: 971d 5140 bb60 5640 7acc 4f40 34e0 4040
00000240: 280d 7640 70b5 4740 66f5 4e40 eeab 7040
00000250: 605e 9540 e308 9340 b0e9 6340 7331 6c40
00000260: 14a8 3840 32e3 5b40 cf3d 8740 24ad 6740
00000270: 2d97 5040 6712 6940 ecdb 5040 039c 7540
00000280: ece6 b640 5fe3 0741 b1c5 5240 8592 6640
00000290: 95eb 6140 8e6c 7440 aa0a 3840 9837 9040
000002a0: 38da 7340 a651 4840 5cee 4e40 baa8 3440
000002b0: a2b5 7a40 0615 7a40 81cc a140 8d25 5840
000002c0: 2fc7 4240 3439 6140 9775 6240 d79d 5c40
000002d0: 4f3b 4840 55dd 8840 17a2 7a40 2773 4f40
000002e0: dba8 4c40 1b6c 5e40 7348 4b40 c932 5a40
000002f0: c976 5340 a1a2 5340 7979 5a40 d469 4d40
00000300: 280d 5c40 30a6 5c40 ded7 7d40 a32b 9140
00000310: efab 5240 30b8 5140 0433 8340 7b0f 5540
00000320: 7e7f 5d40 5738 4d40 03a1 7040 94a4 4d40
00000330: f4ec 3640 42e0 5240 9755 6340 77ce 8340
00000340: f67e 3140 145a 8140 8995 5140 41a0 6540
00000350: 2ea8 7040 c9a8 5f40 c109 4940 399e 4f40
00000360: c288 4640 296c 4240 a2fa 4f40 e7aa 9040
00000370: 86ae 5c40 0e6c 7440 b91a 6440 8f13 4f40
00000380: 5e7b 2a40 094e 6940 3ce2 0441 6a78 3340
00000390: 8986 5440 03b3 5040 d929 7e40 b783 4340
000003a0: 1102 4740 a6dd 7d40 0c6e 5b40 bcfa 3c40
000003b0: 76b8 3d40 5f48 4340 f78f 4a40 09ef 4a40
000003c0: b2b5 6240 6489 6440 333f 4f40 a3c8 4140

network.4.weight f4 [247, 244]
-9.378261 1.8943805 -10.796364 0.33453175 4.857133 1.4963129 2.283232 5.173769
1.3949137 -0.11630147 2.6177526 2.1936207 -1.5075852 -1.1913967 -0.40306124 -3.358361
-14.534512 5.0364666 0.9485339 -8.235451 -3.674013 -7.814593 -14.535196 1.9150589
-8.582206 -8.416431 6.3053794 -8.807156 5.137356 -0.17597318 -6.2717514 2.9262984
6.1574054 4.7326517 6.306194 -2.7519336 2.7160118 0.57553756 -9.566113 1.3032953
2.251632 -8.7422495 -5.7280154 -3.606287 -1.56437 -2.70982 1.3302088 -12.497586
-3.1659245 -1.5621479 0.4882815 5.6734605 -19.4365 0.79585236 6.30898 -2.4001095
3.1783156 -9.49763 -3.154788 -2.288584 5.003139 1.2021515 -4.810195 -4.2523446
-0.6610678 -15.611657 -14.430414 3.3284097 1.9983075 8.014865 2.0246534 1.3538033
5.678361 -9.597568 3.5533416 2.0029957 4.407098 -0.050086103 -6.258869 -4.543922
5.7970285 -6.876576 -0.52611506 -7.3461637 1.7967482 -3.6444936 -12.891855 6.81789
-1.1486946 -26.194386 -13.818506 -8.305973 5.5417433 4.1866546 2.5470788 -0.6638142
-14.657329 2.092917 7.5807204 1.7938038 1.5115023 0.06429878 0.30598062 -2.6868558
-13.997562 -4.425193 -7.3449154 -4.5274553 5.9931207 -9.659696 -2.1349742 2.4439492
9.230493 -15.251376 5.4644513 11.160604 1.5487914 5.044913 -16.289976 -6.975275
0.43645284 -4.7608438 0.811125 -4.468533 -9.030438 -12.460485 5.9022446 -17.363604
-7.798954 1.4622282 1.2893258 -39.436817 0.38435975 1.5586561 0.63687974 2.3843718
-0.1236305 4.5826087 -2.4781802 -7.5257015 -12.954316 -6.0000353 -2.801674 -5.184777
1.6165032 3.5085704 -0.396012 -0.45340028 2.1901975 -33.403786 2.2157204 -0.36077937
0.16714135 -1.4099824 7.119994 -5.1775208 3.5423408 -6.786643 4.8014135 1.6660712
-4.8602133 0.30573913 3.4001205 -2.1325936 -4.1511874 5.1929617 -1.0960968 -9.830152
-11.609727 -5.5937986 3.7332587 0.70479804 7.1055465 -0.28946018 -15.056437 -0.018983787
10.593396 3.1447394 -3.646354 -12.482625 -2.5176775 -7.353979 -4.6566677 10.396888
2.1856887 -4.5557632 -21.312548 5.3511496 -0.31825498 3.4278326 1.6401751 -11.891584
7.163322 -0.74779475 -13.229109 7.669317 -15.924096 4.47954 -15.234298 -6.8525343
7.8374352 1.263294 1.5918107 7.232461 2.811505 4.5745482 -4.677448 -1.9033552
0.4604412 4.832437 4.058128 -2.904128 4.233269 -1.8837035 1.1853105 -0.38301715
-20.283596 -8.505898 -18.720835 4.5573096 7.5438943 3.3308835 -7.1859837 -7.4966683
1.8506997 -4.4557333 5.4674544 5.8147902 -1.2874948 -13.213517 -2.1127167 4.230109
-0.75722027 2.310804 -4.002772 4.9843674 -1.751374 -1.533097 4.2451286 -0.5961498
6.493128 0.82429653 -6.3702736 0.90519506 -2.7694688 8.734552 -0.9175998 -0.49463353
8.909905 -6.1682053 -1.1432346 -0.95606947 -1.0584009 4.0389156 4.4224396 8.128548
00000000: 5b0d 16c1 0f7b f23f e8bd 2cc1 bf47 ab3e
00000010: a26d 9b40 2e87 bf3f 7920 1240 848f a540
00000020: 888c b23f 772f eebd 4289 2740 4864 0c40
00000030: 8df8 c0bf b07f 98bf 0b5e cebe 63ef 56c0
00000040: 5c8d 68c1 bc2a a140 1ed3 723f 68c4 03c1
00000050: 0723 6bc0 2511 fac0 2a90 68c1 a620 f53f
00000060: b750 09c1 b4a9 06c1 abc5 c940 1cea 0cc1
00000070: 3865 a440 5032 34be 30b2 c8c0 7948 3b40
00000080: 7709 c540 e271 9740 57cc c940 ae1f 30c0
00000090: 23d3 2d40 6e56 133f cd0e 19c1 61d2 a63f
000000a0: bd1a 1040 41e0 0bc1 e74b b7c0 68cd 66c0
000000b0: 473d c8bf b16d 2dc0 4844 aa3f 1df6 47c1
000000c0: 829e 4ac0 76f4 c7bf 0800 fa3e fd8c b540
000000d0: f47d 9bc1 fbbc 4b3f 2ae3 c940 659b 19c0
000000e0: 8669 4b40 4bf6 17c1 0ce8 49c0 2978 12c0
000000f0: b719 a040 1ae0 993f 1eed 99c0 3513 88c0
00000100: bd3b 29bf 59c9 79c1 fae2 66c1 aa04 5540
00000110: 8ac8 ff3f e33c 0041 ec93 0140 6d49 ad3f
00000120: 22b5 b540 a38f 19c1 f369 6340 1531 0040
00000130: f206 8d40 1627 4dbd a848 c8c0 cf67 91c0
00000140: 4281 b940 e90c dcc0 7aaf 06bf c613 ebc0
00000150: d8fb e53f 623f 69c0 0a45 4ec1 282c da40
00000160: 6d08 93bf 1a8e d1c1 9a18 5dc1 44e5 04c1
00000170: f655 b140 13f9 8540 5703 2340 baef 29bf
00000180: 6b84 6ac1 5af2 0540 4395 f240 5d9b e53f
00000190: e878 c13f 14af 833d 7ea9 9c3e 72f5 2bc0
000001a0: 04f6 5fc1 2e9b 8dc0 8c09 ebc0 eae0 90c0
000001b0: a5c7 bf40 1d8e 1ac1 6ba3 08c0 aa69 1c40
000001c0: 19b0 1341 a305 74c1 c9dc ae40 d591 3241
000001d0: cc3e c63f ed6f a140 df51 82c1 7435 dfc0
000001e0: bf76 df3e d558 98c0 e3a5 4f3f 39fe 8ec0
000001f0: ad7c 10c1 265e 47c1 30df bc40 a9e8 8ac1
00000200: 0891 f9c0 4b2a bb3f a108 a53f 4dbf 1dc2
00000210: cdca c43e 0b82 c73f 8d0a 233f 8c99 1840
00000220: fd31 fdbd bba4 9240 819a 1ec0 8cd2 f0c0
00000230: e144 4fc1 4a00 c0c0 a04e 33c0 b1e9 a5c0
00000240: 94e9 ce3f 6b8c 6040 16c2 cabe 1524 e8be
00000250: 322c 0c40 7a9d 05c2 5dce 0d40 13b8 b8be
00000260: 1a27 2b3e 4e7a b4bf fed6 e340 40ae a5c0
00000270: b6b5 6240 2e2c d9c0 2ea5 9940 d241 d53f
00000280: de86 9bc0 d789 9c3e 939b 5940 6a7c 08c0
00000290: 87d6 84c0 be2c a640 e64c 8cbf 4d48 1dc1
000002a0: 71c1 39c1 6600 b3c0 b6ed 6e40 a56d 343f
000002b0: a360 e340 2034 94be 2ae7 70c1 e383 9bbc
000002c0: 8d7e 2941 6943 4940 dd5d 69c0 d5b8 47c1
000002d0: a121 21c0 cc53 ebc0 6c03 95c0 a759 2641
000002e0: 53e2 0b40 d0c8 91c0 1980 aac1 9e3c ab40
000002f0: 51f2 a2be 9c61 5b40 42f1 d13f ee43 3ec1
00000300: ef39 e540 7a6f 3fbf 6eaa 53c1 0b6b f540
00000310: 19c9 7ec1 6458 8f40 afbf 73c1 f647 dbc0
00000320: 45cc fa40 9eb3 a13f 74c0 cb3f 5270 e740
00000330: b3ef 3340 b362 9240 a7ad 95c0 25a1 f3bf
00000340: f3be eb3e 53a3 9a40 2fdc 8140 3cdd 39c0
00000350: f176 8740 321d f1bf 41b8 973f d31a c4be
00000360: ce44 a2c1 2918 08c1 45c4 95c1 7bd5 9140
00000370: 9567 f140 322d 5540 94f3 e5c0 b5e4 efc0
00000380: bae3 ec3f 5e95 8ec0 63f5 ae40 c312 ba40
00000390: a1cc a4bf 916a 53c1 c036 07c0 0e5d 8740
000003a0: 30d9 41bf 36e4 1340 b516 80c0 f07f 9f40
000003b0: 062d e0bf 863c c4bf 18d8 8740 469d 18bf
000003c0: b4c7 cf40 1905 533f 48d9 cbc0 ddba 673f
000003d0: fa3e 31c0 bac0 0b41 d2e7 6abf 9b40 fdbe
000003e0: f98e 0e41 f061 c5c0 8355 92bf f8c0 74bf
000003f0: ae79 87bf cc3e 8140 a084 8d40 880e 0241

network.4.bias f4 [247]
-0.0673887 -0.023896715 -0.03577366 0.0391777 -0.002440785 0.019401975 0.028260242 -0.01242923
0.013349929 0.03859723 -0.062077183 0.03142121 0.0065905657 -0.06707791 0.03886971 -0.056221962
0.02238471 0.019633876 0.059901062 0.004773004 0.06557745 0.030150918 -0.03851399 -0.022865662
0.00062426884 0.007983116 -0.05516498 -0.07104613 -0.029285934 0.03233735 -0.067186624 0.007210703
-0.06459346 -0.061357256 0.012450075 -0.03190466 0.015033135 0.033745237 -0.010025993 0.0017418445
0.04358965 0.052871913 -0.014595697 0.022628173 0.04313204 -0.015495464 0.052949905 0.04253745
-0.09947018 0.02677862 -0.057964012 0.0072444626 0.005188141 -0.021194093 -0.037539702 -0.038218595
0.016457407 0.012819304 0.03175524 0.014218971 0.03250453 -0.012907611 -0.018654048 -0.0343436
-0.0064297034 0.01816991 -0.015193337 0.051836777 0.006313844 0.035576828 0.020338899 -0.027358398
0.042527553 -0.020482963 -0.05789429 -0.060535073 0.033707608 0.0071645 -0.0588947 -0.013169104
-0.057742104 -0.05306796 0.028117018 -0.03388194 -0.03018152 -0.03835605 -0.05570146 -0.06894244
0.0046281284 -0.0704189 -0.0024485097 0.028195009 -0.026108643 0.0443304 0.00808308 0.053060163
-0.056349795 0.03141953 -0.013182229 0.01983881 -0.021691382 0.031836383 -0.050304595 0.035624545
0.05208094 -0.016404208 -0.00032838673 0.057192497 0.00047314126 -0.027477037 -0.055540886 0.0056034485
-0.010805701 0.02216258 -0.012274301 -0.0654374 0.011449965 0.0021378663 0.029200176 0.018699706
0.06307966 0.044396672 0.014532962 -0.04436933 -0.0040755975 0.041465275 -0.04939977 -0.06373747
0.03999274 -0.030002987 0.01719451 0.00973281 0.026143305 -0.019793589 -0.010918316 -0.048925627
-0.0074987244 0.018292263 -0.030916288 -0.030970711 -0.035225783 -0.042524558 0.010046165 0.007024187
0.0028064635 -0.06016765 -0.033581886 0.028135844 -0.014891106 -0.010027274 -0.054450084 -0.07026164
0.0005373832 -0.061707493 0.040235706 0.019292656 0.0031547933 -0.009412614 -0.0536408 -0.0020650278
0.0130857695 0.006638407 -0.05384297 -0.058870632 -0.04285912 0.025772214 0.012349408 -0.018795578
-0.0060737436 0.024535587 0.02951268 -0.043701977 0.018762136 0.009209262 -0.042291686 -0.05272998
0.020004045 -0.015665138 0.042636506 -0.009693076 0.016839247 0.055743147 -0.032453015 0.010439767
-0.066091806 0.05776599 -0.03116219 -0.036055356 0.010942483 -0.032076415 0.043791216 -0.01604767
-0.040202115 0.03777542 -0.009961911 0.0009153677 0.023325883 0.008950936 0.029767318 0.025017353
0.019971801 -0.053813677 0.00061811454 -0.006381562 0.051963016 0.01632412 -0.024031399 0.02767889
-0.0062528388 0.044040382 -0.00062245526 -0.00027126953 -0.025114123 0.021110484 -0.059857447 0.044005677
-0.0442136 0.026439633 0.048197296 -0.04503001 0.0416779 0.023461455 -0.022242337 0.024165364
0.008741178 -0.0025987152 -0.036888238 -0.019275932 0.0038527336 -0.017902141 0.043180592 0.050155193
0.064915605 -0.06422058 0.04919111 0.030697608 -0.004648512 0.01120618 0.027428038 0.04123493
-0.03672771 -0.0121650975 0.0156712 -0.013829318 0.0549195 -0.020735266 0.045766953
00000000: 1603 8abd 0bc3 c3bc 6787 12bd cc78 203d
00000010: 94f5 1fbb e4f0 9e3c 0682 e73c f8a3 4bbc
00000020: a9b9 5a3c 2118 1e3d a544 7ebd 87b3 003d
00000030: acf5 d73b 2560 89bd d835 1f3d 0049 66bd
00000040: 2460 b73c 39d7 a03c d15a 753d dc66 9c3b
00000050: 784d 863d 0fff f63c d8c0 1dbd c550 bbbc
00000060: f9a5 233a 9ecb 023c adf4 61bd a280 91bd
00000070: 0ee9 efbc 2b74 043d 2499 89bd c347 ec3b
00000080: 9349 84bd bf51 7bbd 66fb 4b3c 76ae 02bd
00000090: 8a4d 763c 7238 0a3d 1044 24bc 9a4e e43a
000000a0: 108b 323d 3890 583d ca22 6fbc b85e b93c
000000b0: 39ab 303d b0e0 7dbc 00e2 583d c03b 2e3d
000000c0: 06b7 cbbd d65e db3c ac6b 6dbd f562 ed3b
000000d0: 4801 aa3b 3c9f adbc 3bc3 19bd 1a8b 1cbd
000000e0: afd1 863c 0f08 523c c811 023d b0f6 683c
000000f0: 7823 053d 727a 53bc 60d0 98bc e0ab 0cbd
00000100: 43b0 d2bb 10d9 943c 79ed 78bc cd52 543d
00000110: 5de4 ce3b 02b9 113d c39d a63c b81e e0bc
00000120: 5f31 2e3d e3cb a7bc 9022 6dbd a0f3 77bd
00000130: fd10 0a3d 2fc4 ea3b 923b 71bd 3ac3 57bc
00000140: fc82 6cbd ca5d 59bd a955 e63c cac7 0abd
00000150: 3c3f f7bc 3c1b 1dbd 3727 64bd b231 8dbd
00000160: 8ea7 973b c937 90bd 2d77 20bb 38f9 e63c
00000170: cbe1 d5bc cb93 353d e56e 043c 9d55 593d
00000180: 0bcf 66bd c4b1 003d 47fa 57bc 0085 a23c
00000190: 20b2 b1bc de66 023d 310c 4ebd 0beb 113d
000001a0: d352 553d 1e62 86bc 522b acb9 ae42 6a3d
000001b0: f20f f839 8617 e1bc d77e 63bd 229d b73b
000001c0: 650a 31bc 4d8e b53c 261a 49bc 0b04 86bd
000001d0: a298 3b3c 721b 0c3b 3535 ef3c 2030 993c
000001e0: e92f 813d 49d9 353d a91b 6e3c 9dbc 35bd
000001f0: 978c 85bb 7ed7 293d 6a57 4abd ca88 82bd
00000200: 6dcf 233d d3c8 f5bc 80db 8c3c 5d76 1f3c
00000210: 7c2a d63c 2a26 a2bc bde2 32bc 3d66 48bd
00000220: dcb7 f5bb a8d9 953c 2844 fdbc 4ab6 fdbc
00000230: e948 10bd 3b2e 2ebd ac98 243c 272b e63b
00000240: a5ec 373b 5b72 76bd 298d 09bd 247d e63c
00000250: d3f9 73bc 6f49 24bc 0d07 5fbd 56e5 8fbd
00000260: 2ddf 0c3a ffc0 7cbd 32ce 243d a20b 9e3c
00000270: a6c0 4e3b 5d37 1abc 75b6 5bbd 6b55 07bb
00000280: b265 563c fe86 d93b 728a 5cbd 5522 71bd
00000290: 0b8d 2fbd 4020 d33c 2c55 4a3c 2ff9 99bc
000002a0: 4106 c7bb dbfe c83c 93c4 f13c d800 33bd
000002b0: 0db3 993c 72e2 163c 0c3a 2dbd 64fb 57bd
000002c0: 86df a33c 2d54 80bc 9ea3 2e3d b5cf 1ebc
000002d0: 76f2 893c ed52 643d 74ed 04bd 8e0b 2b3c
000002e0: 245b 87bd 089c 6c3d d947 ffbc c8ae 13bd
000002f0: 1a48 333c 8f62 03bd 6b5e 333d 6776 83bc
00000300: f9aa 24bd 66ba 1a3d 4837 23bc 49f5 6f3a
00000310: ec15 bf3c f2a6 123c 97da f33c 31f1 cc3c
00000320: e79b a33c bb6b 5cbd f708 223a 6c1c d1bb
00000330: 2cd7 543d 29ba 853c 7fdd c4bc d7be e23c
00000340: 9de4 ccbb b063 343d 442c 23ba 2e39 8eb9
00000350: 22bc cdbc e5ef ac3c 152d 75bd 4c3f 343d
00000360: 5219 35bd ee97 d83c 876a 453d 6371 38bd
00000370: 72b6 2a3d 3d32 c03c 9035 b6bc 71f6 c53c
00000380: 2837 0f3c 354f 2abb 1f18 17bd 8fe8 9dbc
00000390: 257e 7c3b 83a7 92bc 22de 303d 886f 4d3d
000003a0: 79f2 843d 1486 83bd 9e7c 493d 8d79 fb3c
000003b0: 8c52 98bb 209a 373c c4b0 e03c f5e5 283d
000003c0: cc6f 16bd 1e50 47bc e360 803c 5d94 62bc
000003d0: 45f3 603d 01dd a9bc 2176 3b3d
