best models/saved_models/architecture_1/fold_2/best_model.pt (torch, 485538 bytes, 25 tensors)

network.0.weight f4 [234, 15]
6.0102057 -9.521532 0.105425544 -5.9464436 7.3067775 -9.277962 2.5036201 0.8018142
-1.8130939 -2.2123697 0.7219431 -11.516937 12.69808 -16.65856 -0.33983117 -1.5255845
-0.8845543 -5.9621725 -6.559808 -3.9032545 -0.46448874 -17.690565 -9.478961 -5.996417
0.364018 -22.436335 3.063025 3.2894378 1.1839122 4.376858 -6.0413165 7.5373483
-2.8448305 -0.33766237 6.2005873 4.72109 -5.0701213 -8.830015 -7.972283 17.034235
-1.870808 7.2716193 7.3555617 -5.415148 9.582526 1.2843676 2.3516138 -5.792112
5.546961 -2.448576 -7.0124955 19.097363 3.4510832 -0.4860894 -7.7551556 7.1782694
4.01788 3.2946227 -6.896538 18.1966 1.519335 -5.882473 -7.921068 -13.870103
4.832808 -11.907425 -17.534498 1.5425556 1.703247 0.79998124 2.1996083 5.7204885
-0.8449993 3.1038835 9.8388195 5.1720514 -5.745508 6.4422054 9.88842 -14.288141
15.891359 -14.552442 1.402596 -3.7377298 -0.3954827 -1.2164159 -1.4251472 1.380538
-0.25785664 5.402054 4.7158813 8.5117855 2.3966358 4.0822053 0.1525871 -10.327067
0.62112355 6.9744143 -4.5491977 -11.398166 -5.8022275 -10.98489 9.881299 13.291819
1.3986127 0.4370765 1.141515 0.3091253 -0.88571954 2.2646651 10.562889 -3.1343763
-0.5953254 0.27141637 -1.1583828 0.90532863 1.5312008 -5.680786 -39.614902 13.051611
-8.643703 -10.620994 -7.592044 -10.991641 -4.5399475 -10.439175 -3.7821898 10.174271
5.748392 8.172666 7.2422423 -0.43964124 -3.8279088 -0.34912044 1.3660387 1.7165087
1.8454815 0.8400801 0.19457604 -1.8270758 12.43328 -10.488213 -1.7306912 14.355151
7.7967644 7.370538 0.64277464 8.326996 -8.511586 -11.607388 7.5699134 -11.814797
-1.4197935 7.809868 -6.8175592 13.523446 2.3545089 8.862258 -9.548508 13.004694
1.549864 2.6327755 -2.7437537 2.4796376 1.7252994 8.459296 3.3245633 5.72506
-5.1361856 7.3861175 2.6819358 5.813152 7.0954027 -12.228373 -4.205806 -7.6786156
-8.320909 13.268766 4.143448 9.15904 -9.2983885 3.464572 -4.416111 -4.437944
-3.731995 7.129162 -9.675301 -6.6281047 -13.704006 -1.0424705 -4.890238 -7.096392
-11.116321 10.623298 2.5335371 5.894855 -9.72799 -4.274282 -7.834642 9.280692
-12.887213 -4.920529 6.963998 -8.274405 12.850364 5.8621483 -2.8435667 2.72631
-5.061771 -1.9419767 9.641849 -0.9900455 -1.751545 -1.4787182 2.8489475 -0.9702569
3.119723 -10.244259 21.969248 -2.140118 -5.8941984 5.495083 -12.292819 5.5484743
3.8984406 -4.4043164 -4.215454 -5.529038 -1.084881 0.7333602 0.66350245 -0.39766786
-9.567865 -13.24387 -11.485963 -14.517811 -4.931159 -7.577782 -7.007828 -9.195373
-2.2657275 0.89299244 -0.9021556 4.42121 0.97833025 0.7054202 -0.24398313 -15.702566
-1.7985579 -0.18694809 0.29526976 35.689484 2.4611082 0.5214606 1.4932021 -12.493628
00000000: 9b53 c040 3258 18c1 59e9 d73d 4449 bec0
00000010: 1fd1 e940 8872 14c1 503b 2040 b243 4d3f
00000020: 7613 e8bf 7797 0dc0 43d1 383f 6045 38c1
00000030: 562b 4b41 bb44 85c1 5afe adbe 5a46 c3bf
00000040: 2772 62bf 1eca bec0 f2e9 d1c0 ecce 79c0
00000050: 78d1 edbe 4786 8dc1 d3a9 17c1 a6e2 bfc0
00000060: 9160 ba3e 9d7d b3c1 9a08 4440 2686 5240
00000070: 6f8a 973f 390f 8c40 7752 c1c0 f531 f140
00000080: b411 36c0 15e2 acbe 366b c640 2b13 9740
00000090: 6f3e a2c0 be47 0dc1 f11c ffc0 1d46 8841
000000a0: a376 efbf 1bb1 e840 c360 eb40 e448 adc0
000000b0: 0752 1941 2866 a43f d780 1640 fb58 b9c0
000000c0: b480 b140 78b5 1cc0 5d66 e0c0 66c7 9841
000000d0: 8cde 5c40 b6e0 f8be 3c2a f8c0 62b4 e540
000000e0: 7992 8040 19db 5240 70b0 dcc0 a392 9141
000000f0: 9279 c23f 383d bcc0 6479 fdc0 f1eb 5dc1
00000100: 5da6 9a40 d084 3ec1 a746 8cc1 7672 c53f
00000110: ff03 da3f 92cb 4c3f 62c6 0c40 3e0e b740
00000120: e051 58bf 07a6 4640 ce6b 1d41 7281 a540
00000130: 34db b7c0 8c26 ce40 f836 1e41 3a9c 64c1
00000140: 0243 7e41 cdd6 68c1 4488 b33f f736 6fc0
00000150: b57c cabe 84b3 9bbf 396b b6bf 78b5 b03f
00000160: c905 84be a0dd ac40 80e8 9640 4630 0841
00000170: 7b62 1940 6da1 8240 cb3f 1c3e ab3b 25c1
00000180: f401 1f3f 672e df40 0793 91c0 e35e 36c1
00000190: d9ab b9c0 1cc2 2fc1 cd19 1e41 4aab 5441
000001a0: be05 b33f 7ec8 df3e 2a1d 923f ac45 9e3e
000001b0: 84be 62bf 46f0 1040 9801 2941 9f99 48c0
000001c0: 3f67 18bf 16f7 8a3e e345 94bf 9ec3 673f
000001d0: 63fe c33f 00c9 b5c0 a975 1ec2 66d3 5041
000001e0: 9c4c 0ac1 97ef 29c1 06f2 f2c0 c3dd 2fc1
000001f0: 4047 91c0 dc06 27c1 660f 72c0 d0c9 2241
00000200: d4f2 b740 3dc3 0241 73c0 e740 a818 e1be
00000210: 75fc 74c0 eabf b2be 5bda ae3f 8fb6 db3f
00000220: bd38 ec3f 7d0f 573f f13e 473e 9fdd e9bf
00000230: b7ee 4641 b8cf 27c1 4a87 ddbf b3ae 6541
00000240: 187f f940 73db eb40 e18c 243f 603b 0541
00000250: 752f 08c1 dcb7 39c1 bb3c f240 6909 3dc1
00000260: cbbb b5bf 70ea f940 7229 dac0 0960 5841
00000270: 46b0 1640 cfcb 0d41 b0c6 18c1 3a13 5041
00000280: f261 c63f 657f 2840 a999 2fc0 62b2 1e40
00000290: 9cd6 dc3f 4759 0741 a5c5 5440 b133 b740
000002a0: a25b a4c0 135b ec40 d6a4 2b40 5705 ba40
000002b0: 8a0d e340 6aa7 43c1 f695 86c0 38b7 f5c0
000002c0: 7122 05c1 de4c 5441 2097 8440 6e8b 1241
000002d0: 33c6 14c1 8cbb 5d40 c850 8dc0 a303 8ec0
000002e0: 02d9 6ec0 1822 e440 08ce 1ac1 6f19 d4c0
000002f0: 9c43 5bc1 ac6f 85bf d47c 9cc0 a515 e3c0
00000300: 73dc 31c1 07f9 2941 7925 2240 a7a2 bc40
00000310: d9a5 1bc1 ebc6 88c0 63b5 fac0 b77d 1441
00000320: 0632 4ec1 f974 9dc0 12d9 de40 f663 04c1
00000330: 179b 4d41 b896 bb40 fffc 35c0 dd7b 2e40
00000340: 07fa a1c0 b192 f8bf 0345 1a41 9f73 7dbf
00000350: a032 e0bf a346 bdbf 2855 3640 c262 78bf
00000360: 8ba9 4740 7ce8 23c1 05c1 af41 b1f7 08c0
00000370: 469d bcc0 b8d7 af40 63af 44c1 1a8d b140
00000380: 0d80 7940 29f0 8cc0 00e5 86c0 e1ed b0c0
00000390: 61dd 8abf 7ebd 3b3f 4cdb 293f 1f9b cbbe
000003a0: fa15 19c1 e4e6 53c1 81c6 37c1 f448 68c1
000003b0: 0ecc 9dc0 317d f2c0 2140 e0c0 3f20 13c1
000003c0: ae01 11c0 279b 643f abf3 66bf 8d7a 8d40
000003d0: da73 7a3f 6b96 343f b7d6 79be b63d 7bc1
000003e0: 2537 e6bf 526f 3fbe 992d 973e 08c2 0e42
000003f0: cc82 1d40 717e 053f 3f21 bf3f e6e5 47c1

network.0.bias f4 [234]
2.5659099 2.9067318 2.691221 3.0559237 2.5942187 2.7115207 2.9150586 2.7193449
2.3652256 5.0748267 2.5828393 2.5564992 2.7683818 2.3865006 2.4641585 2.501859
1.4521227 2.491469 2.3941948 2.5385332 2.3158996 2.0902493 2.3003109 4.8971963
2.3674676 5.474434 2.96477 2.4504979 2.3258843 2.6812758 2.7788296 2.6855078
5.4294796 2.1681287 2.3611915 2.7784343 2.4523005 2.6295507 2.4389193 3.4103944
2.2978592 2.8455732 2.5586562 1.9691314 5.344246 2.7052164 2.90467 2.8388107
2.3373077 2.5196338 0.9485773 2.2119658 2.3279152 2.3295407 2.367574 2.533225
5.005581 2.44209 2.53599 2.6886785 1.419374 5.0639577 2.4920664 2.6069942
1.5183251 3.1526766 0.7056556 2.3954818 1.2313088 0.061991706 5.182004 2.7178938
2.7384882 4.305217 2.5814464 2.3208494 2.468043 2.6950712 2.5117729 2.5352433
2.5889542 2.5561867 2.540958 0.9251113 1.3500644 2.520505 2.84309 2.277701
2.5978725 0.85259724 2.313191 5.1220007 2.659056 2.377757 5.348613 2.5415843
5.1884756 2.664912 0.8293041 2.0976233 2.5526743 1.549799 2.3059785 1.5604445
4.9555907 3.0748768 2.25845 5.2101054 2.6730652 3.059269 2.3977182 1.1047332
2.4880302 2.5320153 3.3689337 5.15076 2.6640708 2.7087786 2.568669 2.716449
2.5846074 2.4326687 2.4407215 2.379269 1.2845144 2.631789 2.4157429 5.1847024
3.7851138 0.30571613 0.33285782 2.4806938 1.6172936 2.4351099 2.6068573 2.8603034
3.948152 3.7136934 2.6319475 0.8840289 5.1721296 2.4656658 2.804579 2.4650567
2.5573423 2.3331132 1.8036168 2.512536 2.4547038 2.6348011 2.4701216 5.5621676
2.5796418 2.3834686 2.4047859 2.2146783 2.6280978 5.111248 2.6166086 2.6469061
2.7381911 2.4702501 3.2204232 2.7915998 2.8903928 2.3350585 2.7700226 2.4753878
2.6712034 1.5701193 2.0055528 2.3332326 2.7716923 2.497818 2.861001 2.3944767
2.6782167 5.069312 2.7653496 2.9875014 2.6675506 2.5381174 2.4960282 2.6947486
2.681134 2.462419 0.6263324 2.6140108 2.2820995 3.3574717 2.8664236 2.6125734
2.3646033 -0.17935544 4.272492 2.4232688 2.6515355 4.1015673 4.778993 2.7849638
2.7559536 4.3372993 2.4729 2.3887656 2.5106437 2.2665277 2.6510859 0.9294505
2.3314738 2.60497 2.149047 2.3678916 3.970154 2.6528876 3.0411398 2.4425187
2.4297872 0.76066107 2.5370855 2.1954474 1.5867531 2.167367 3.489539 2.523998
3.7171593 3.050396 4.984656 2.6290295 2.8660655 1.3046601 2.3788514 1.2866576
2.1663625 2.5801873
00000000: de37 2440 e507 3a40 f73c 2c40 4194 4340
00000010: ae07 2640 8e89 2d40 5290 3a40 bf09 2e40
00000020: db5f 1740 fb64 a240 3d4d 2540 af9d 2340
00000030: 2b2d 3140 6dbc 1840 c6b4 1d40 751e 2040
00000040: 28df b93f 3a74 1f40 7d3a 1940 5477 2240
00000050: b337 1440 a5c6 0540 4b38 1340 d5b5 9c40
00000060: 9784 1740 902e af40 cbbe 3d40 f5d4 1c40
00000070: 4adb 1440 069a 2b40 58d8 3140 5cdf 2b40
00000080: 4cbe ad40 9fc2 0a40 c31d 1740 ded1 3140
00000090: 7ef2 1c40 8f4a 2840 4117 1c40 e743 5a40
000000a0: 2010 1340 df1d 3640 06c1 2340 7f0c fc3f
000000b0: 1004 ab40 4422 2d40 1de6 3940 13af 3540
000000c0: 7396 1540 ae41 2140 f6d5 723f d990 0d40
000000d0: 90fc 1440 3217 1540 5586 1740 5c20 2240
000000e0: b82d a040 344b 1c40 a94d 2240 4f13 2c40
000000f0: 0cae b53f f10b a240 047e 1f40 fed8 2640
00000100: 7a58 c23f 74c5 4940 d8a5 343f 934f 1940
00000110: 879b 9d3f 04eb 7d3d fad2 a540 f9f1 2d40
00000120: 6443 2f40 56c4 8940 6b36 2540 cc88 1440
00000130: 6bf4 1d40 0c7c 2c40 e3c0 2040 6d41 2240
00000140: 6db1 2540 9098 2340 0e9f 2240 18d4 6c3f
00000150: e9ce ac3f f44f 2140 30f5 3540 dac5 1140
00000160: 8b43 2640 d043 5a3f 520b 1440 6ee7 a340
00000170: f92d 2a40 2c2d 1840 d627 ab40 51a9 2240
00000180: fe07 a640 eb8d 2a40 464d 543f 763f 0640
00000190: 045f 2340 d05f c63f 2795 1340 a5bc c73f
000001a0: 3394 9e40 c8ca 4440 728a 1040 2fb9 a640
000001b0: 8013 2b40 10cb 4340 3774 1940 e667 8d3f
000001c0: e33b 1f40 8a0c 2240 9c9c 5740 07d3 a440
000001d0: 2380 2a40 a15c 2d40 1365 2440 4dda 2d40
000001e0: 356a 2540 d8b0 1b40 c834 1c40 f145 1840
000001f0: f86a a43f 3b6f 2840 889b 1a40 15e9 a540
00000200: 4e3f 7240 d386 9c3e 576c aa3e b0c3 1e40
00000210: 7a03 cf3f d7d8 1b40 c0d6 2640 360f 3740
00000220: 86ae 7c40 27ad 6d40 d471 2840 b84f 623f
00000230: 1682 a540 78cd 1d40 397e 3340 7dc3 1d40
00000240: 7fab 2340 ba51 1540 eadc e63f 64cd 2040
00000250: de19 1d40 95a0 2840 7916 1e40 47fd b140
00000260: da18 2540 c08a 1840 03e8 1940 4abd 0d40
00000270: c132 2840 588f a340 8476 2740 e966 2940
00000280: 863e 2f40 9418 1e40 6a1b 4e40 92a9 3240
00000290: 32fc 3840 9971 1540 0d48 3140 c16c 1e40
000002a0: fff4 2a40 abf9 c83f fa5a 0040 af53 1540
000002b0: 6863 3140 40dc 1f40 a41a 3740 1b3f 1940
000002c0: e767 2b40 ce37 a240 7dfb 3040 3933 3f40
000002d0: 26b9 2a40 8470 2240 edbe 1f40 c376 2c40
000002e0: b397 2b40 4698 1d40 5257 203f f44b 2740
000002f0: eb0d 1240 d1e0 5640 7c73 3740 6734 2740
00000300: a955 1740 f4a8 37be 41b8 8840 d616 1b40
00000310: c2b2 2940 0a40 8340 83ed 9840 d93c 3240
00000320: 8b61 3040 28cb 8a40 fe43 1e40 89e1 1840
00000330: 63ae 2040 ca0e 1140 64ab 2940 78f0 6d3f
00000340: de36 1540 d4b7 2640 fc89 0940 898b 1740
00000350: 0117 7e40 e9c8 2940 09a2 4240 3a52 1c40
00000360: a281 1b40 afba 423f 9c5f 2240 3682 0c40
00000370: ba1a cb3f 24b6 0a40 9b54 5f40 2f89 2140
00000380: f0e5 6d40 b039 4340 4d82 9f40 0542 2840
00000390: 9e6d 3740 1aff a63f 1a3f 1840 32b1 a43f
000003a0: afa5 0a40 ca21 2540

network.1.weight f4 [234]
10.741354 9.412019 10.206334 9.007545 10.362444 9.857208 8.896325 9.32034
10.628105 9.660071 11.512386 9.794232 10.1534815 9.747583 9.2480135 9.652156
9.028166 10.590164 10.288582 11.642313 11.4362 11.610262 10.227304 9.064299
10.401534 10.813134 9.657193 10.002532 9.481182 8.713003 10.386412 9.145718
10.830917 10.830383 8.703834 10.615673 8.869277 9.362421 9.129689 9.780158
10.177527 9.735681 11.279093 10.851735 10.686529 8.537957 9.127959 9.37608
9.31136 9.320803 10.589605 11.594139 10.93023 10.991231 9.570994 11.449049
9.911684 9.13877 9.678089 10.382898 11.54198 10.36293 9.994762 10.474011
9.941668 8.346903 10.8928385 10.276217 11.137031 10.863113 9.700819 8.802538
8.883831 9.0084915 9.863188 8.062267 11.334546 8.514525 10.457647 9.302295
10.55269 10.654854 8.955624 10.048582 11.653125 9.93 10.177916 9.655051
10.397289 10.060721 9.20252 11.65782 8.99071 10.1924925 11.434322 8.659141
10.563552 8.818242 11.030084 10.669477 10.168576 9.449167 10.0246935 10.076861
10.987972 10.171477 11.954531 11.565019 8.408178 8.307628 9.480983 9.174755
12.222998 10.483781 7.9465356 9.369204 9.680037 8.547953 10.604287 9.945294
9.464417 9.372245 10.431084 9.470944 10.770857 9.67788 9.745024 10.579131
9.854061 10.699642 10.743018 8.161289 10.985587 9.852118 10.818251 8.549018
9.145311 8.459987 9.971065 9.9818125 10.935107 9.89225 9.663509 11.044124
10.007182 11.32279 10.7178135 10.657053 9.085355 9.945392 9.731628 11.839715
10.271893 9.530372 11.64975 10.1531515 10.801242 9.355548 9.719409 9.503369
8.812131 8.686344 8.339595 9.426021 9.83789 9.478904 10.56266 9.82677
9.206681 10.846329 10.64684 9.993951 10.334471 10.214389 9.065712 10.333569
9.779708 10.935925 9.714331 9.510431 10.868794 8.474634 9.829593 10.309398
9.848223 9.918675 9.817938 9.267627 10.483295 9.373378 10.312342 9.123371
11.214513 7.5409408 8.655182 9.297298 9.481237 10.249686 10.5686035 9.865827
10.548187 9.331566 10.579266 10.427312 9.324699 9.608308 8.885817 10.617634
9.740175 10.498408 10.745391 10.2682085 9.668577 10.133075 9.791449 10.169795
10.032711 11.415749 7.905065 10.892578 10.600339 8.991372 8.335046 10.232377
9.060749 8.943427 10.800108 9.911791 9.570691 11.220157 10.132627 9.657728
11.29709 10.302803
00000000: 96dc 2b41 a197 1641 254d 2341 e81e 1041
00000010: 92cc 2541 20b7 1d41 5957 0e41 1d20 1541
00000020: b80c 2a41 a78f 1a41 bc32 3841 2db5 1c41
00000030: a974 2241 1af6 1b41 ddf7 1341 3b6f 1a41
00000040: 5e73 1041 5071 2941 089e 2441 ea46 3a41
00000050: adfa 3641 a2c3 3941 0aa3 2341 5e07 1141
00000060: af6c 2641 9902 2d41 dd83 1a41 5f0a 2041
00000070: ecb2 1741 7668 0b41 be2e 2641 dc54 1241
00000080: 704b 2d41 4049 2d41 e742 0b41 ccd9 2941
00000090: 8fe8 0d41 7acc 1541 3513 1241 877b 1c41
000000a0: 27d7 2241 59c5 1b41 2a77 3441 b5a0 2d41
000000b0: 06fc 2a41 799b 0841 1f0c 1241 6c04 1641
000000c0: 55fb 1441 0222 1541 066f 2941 9881 3941
000000d0: 39e2 2e41 15dc 2f41 cb22 1941 4e2f 3741
000000e0: 4296 1e41 6738 1241 74d9 1a41 5a20 2641
000000f0: f3ab 3841 90ce 2541 8cea 1f41 8d95 2741
00000100: 1211 1f41 ea8c 0541 1149 2e41 636b 2441
00000110: 4731 3241 50cf 2d41 8e36 1b41 32d7 0c41
00000120: 2c24 0e41 c822 1041 9ecf 1d41 0cff 0041
00000130: 4d5a 3541 7f3b 0841 8652 2741 33d6 1441
00000140: d1d7 2841 487a 2a41 3c4a 0f41 fec6 2041
00000150: 3373 3a41 48e1 1e41 bed8 2241 177b 1a41
00000160: 4c5b 2641 b7f8 2041 863d 1341 6e86 3a41
00000170: f3d9 0f41 7314 2341 fcf2 3641 d78b 0a41
00000180: 4f04 2941 8517 0d41 397b 3041 2eb6 2a41
00000190: 7db2 2241 ca2f 1741 2565 2041 d33a 2141
000001a0: bcce 2f41 5fbe 2241 c245 3f41 510a 3941
000001b0: e687 0641 0bec 0441 1bb2 1741 cccb 1241
000001c0: 6691 4341 91bd 2741 054a fe40 42e8 1541
000001d0: 6ee1 1a41 6ac4 0841 29ab 2941 ed1f 1f41
000001e0: 416e 1741 b7f4 1541 b8e5 2641 fd88 1741
000001f0: 6e55 2c41 99d8 1a41 9eeb 1b41 1f44 2941
00000200: 3caa 1d41 bc31 2b41 67e3 2b41 a494 0241
00000210: f7c4 2f41 46a2 1d41 8e17 2d41 c7c8 0841
00000220: 3253 1241 1b5c 0741 7b89 1f41 81b5 1f41
00000230: 33f6 2e41 a846 1e41 bc9d 1a41 bbb4 3041
00000240: 6b1d 2041 262a 3541 2a7c 2b41 4a83 2a41
00000250: 9d5d 1141 5320 1f41 c0b4 1b41 796f 3d41
00000260: ac59 2441 677c 1841 6065 3a41 4f73 2241
00000270: e3d1 2c41 53b0 1541 b382 1b41 cd0d 1841
00000280: 7dfe 0c41 44fb 0a41 fb6e 0541 fbd0 1641
00000290: ff67 1d41 97a9 1741 a800 2941 733a 1d41
000002a0: 914e 1341 908a 2d41 7559 2a41 39e7 1f41
000002b0: fe59 2541 236e 2341 280d 1141 4c56 2541
000002c0: af79 1c41 8cf9 2e41 e66d 1b41 ba2a 1841
000002d0: 95e6 2d41 1a98 0741 0346 1d41 4bf3 2441
000002e0: 5292 1d41 e5b2 1e41 4616 1d41 3348 1441
000002f0: 94bb 2741 5bf9 1541 5aff 2441 54f9 1141
00000300: a56e 3341 634f f140 a07b 0a41 bcc1 1441
00000310: 26b3 1741 b7fe 2341 0019 2941 6dda 1d41
00000320: 60c5 2841 184e 1541 ac44 2941 45d6 2641
00000330: f831 1541 a1bb 1941 4e2c 0e41 d4e1 2941
00000340: c2d7 1b41 7bf9 2741 1fed 2b41 954a 2441
00000350: 7eb2 1a41 1321 2241 c6a9 1c41 7bb7 2241
00000360: fc85 2041 e8a6 3641 4bf6 fc40 0048 2e41
00000370: fd9a 2941 a9dc 0f41 595c 0541 d1b7 2341
00000380: d4f8 1041 4718 0f41 3ecd 2c41 b296 1e41
00000390: 8d21 1941 c385 3341 3d1f 2241 0e86 1a41
000003a0: e1c0 3441 48d8 2441

network.1.bias f4 [234]
-5.3064833 -2.7953088 -4.3107963 -1.8966975 -4.7631984 -3.818499 -4.4077916 -1.0666147
-6.6272535 5.1695905 -5.6954713 -4.4790916 -2.8979619 -5.120842 -3.3361275 -3.4869504
-4.885408 -4.850144 -2.4980578 -7.005946 -6.295532 -6.690836 -4.7250385 1.889363
-5.9970727 5.592275 -2.8735912 -5.326818 -3.5602272 -2.8577375 -4.4992704 -3.1041183
9.249277 -6.3656883 -2.6775696 -4.583101 -4.5354023 -3.5520058 -2.2894454 -1.4384843
-5.367911 -2.135859 -5.98074 -6.0914164 6.4808745 -1.6994348 -1.7293847 -3.7970843
-4.1860747 -2.891463 -9.849193 -8.391649 -7.31719 -6.7277207 -3.6747007 -7.9897985
9.886578 -3.842097 -3.7334497 -4.3290815 -7.712422 9.573517 -5.422123 -5.448132
-5.200416 -0.6050798 -8.067255 -4.5963907 -6.528492 -6.0140457 8.246521 -2.9567108
-2.4589353 -0.9576329 -3.4882638 -0.6093623 -6.5438566 -2.3640654 -5.69304 -2.9673915
-4.1348314 -4.300776 -3.1720357 -4.7772036 -7.179796 -4.459647 -3.6814544 -4.387532
-5.248331 -6.072142 -2.7787726 9.903554 -3.6674 -2.8412373 9.033815 -1.8223735
7.7765555 -2.9535365 -7.1115856 -6.087768 -6.579126 -5.444224 -4.1875925 -7.154787
6.7342763 -3.2949653 -9.472942 4.1641483 -0.23175998 0.4347188 -4.243556 -4.9456067
-7.9041777 -4.1601806 -1.6046581 1.0333552 -3.2869792 -4.4190373 -4.1252713 -6.7753
-3.3288465 -2.0857148 -6.7052135 -3.0774388 -7.5667815 -4.81933 -4.806872 5.2435417
-2.0365884 -7.6961913 -5.99985 -0.91079515 -5.5374155 -5.151525 -3.437791 -2.2434068
-3.2865713 -2.4707975 -2.9511368 -5.486722 3.594881 -1.7889787 -3.0049303 -4.4718595
-3.8450565 -7.458728 -5.604502 -3.850722 -4.153623 -3.1163256 -3.9955506 6.5844455
-4.360039 -4.087035 -6.875435 -5.432878 -5.9605412 0.10140083 -5.0575743 -3.1161559
-2.3383093 -0.9991247 -1.4704785 -2.95163 -4.0953937 -6.405593 -4.385978 -3.7387607
-1.9033501 -5.3700066 -7.1342635 -4.4265175 -4.974379 -5.9394903 -4.3398604 -4.7250037
-4.1556726 7.519449 -4.2101083 -3.2483573 -4.349091 -2.8167439 -6.519202 -4.578136
-2.7099717 -5.1422896 -4.4646688 -2.5629845 -5.3881726 -3.4113903 -4.4941316 -3.7117906
-6.0400352 -1.4335544 -1.6700754 -3.502775 -2.1735394 -3.2905948 5.648487 -4.442207
-3.2997484 -1.5863769 -7.9175534 -4.456993 -4.0646515 -4.644885 -2.688696 -5.1558747
-5.6256485 -3.5339766 -4.7557054 -3.052761 -3.7917616 6.5092225 -4.888201 -3.7462783
-4.8015685 -5.8173537 -0.19283217 -5.0032587 -5.3196087 -4.709453 -1.9398546 -3.8503563
-1.2754889 -2.0167577 8.080888 -3.8745224 -3.8761747 -6.544135 -4.776414 -5.0394325
-6.8215795 -6.07884
00000000: b6ce a9c0 57e6 32c0 0bf2 89c0 fcc6 f2bf
00000010: 1f6c 98c0 4a62 74c0 a10c 8dc0 d586 88bf
00000020: 7612 d4c0 496d a540 4d41 b6c0 b854 8fc0
00000030: 3578 39c0 f0dd a3c0 1d83 55c0 322a 5fc0
00000040: 4355 9cc0 6134 9bc0 2ee0 1fc0 b630 e0c0
00000050: 0075 c9c0 541b d6c0 8433 97c0 a6d6 f13f
00000060: 05e8 bfc0 ebf3 b240 ebe8 37c0 4b75 aac0
00000070: c3da 63c0 2ce5 36c0 06fa 8fc0 e0a9 46c0
00000080: 0afd 1341 b8b3 cbc0 4d5d 2bc0 c3a8 92c0
00000090: 0422 91c0 1054 63c0 4686 12c0 4120 b8bf
000000a0: edc5 abc0 eab1 08c0 3962 bfc0 e2ec c2c0
000000b0: 5363 cf40 1487 d9bf 7a5c ddbf 6e03 73c0
000000c0: 53f4 85c0 bb0d 39c0 4b96 1dc1 3244 06c1
000000d0: 6c26 eac0 7d49 d7c0 4c2e 6bc0 6eac ffc0
000000e0: 6c2f 1e41 ebe4 75c0 d7f0 6ec0 d687 8ac0
000000f0: 29cc f6c0 202d 1941 0882 adc0 1957 aec0
00000100: cf69 a6c0 83e6 1abf 7a13 01c1 a215 93c0
00000110: 68e9 d0c0 1073 c0c0 c0f1 0341 c03a 3dc0
00000120: 325f 1dc0 6e27 75bf b73f 5fc0 2bff 1bbf
00000130: 4667 d1c0 d94c 17c0 622d b6c0 bee9 3dc0
00000140: 8a50 84c0 f59f 89c0 a202 4bc0 dade 98c0
00000150: e4c0 e5c0 6eb5 8ec0 f39c 6bc0 aa66 8cc0
00000160: 54f2 a7c0 fd4e c2c0 69d7 31c0 f574 1e41
00000170: aeb6 6ac0 d5d6 35c0 828a 1041 8943 e9bf
00000180: 8bd9 f840 be06 3dc0 1c92 e3c0 ffce c2c0
00000190: 3388 d2c0 1537 aec0 c200 86c0 04f4 e4c0
000001a0: 317f d740 b6e0 52c0 2c91 17c1 b440 8540
000001b0: 7d52 6dbe 7693 de3e 36cb 87c0 6942 9ec0
000001c0: 06ef fcc0 3320 85c0 7065 cdbf fc44 843f
000001d0: de5d 52c0 c168 8dc0 3902 84c0 42cf d8c0
000001e0: d20b 55c0 5a7c 05c0 1c91 d6c0 c2f4 44c0
000001f0: 1323 f2c0 f437 9ac0 e5d1 99c0 18cb a740
00000200: 7757 02c0 3347 f6c0 c5fe bfc0 df29 69bf
00000210: 8232 b1c0 4bd9 a4c0 c504 5cc0 fa93 0fc0
00000220: 2f57 52c0 8c21 1ec0 6ddf 3cc0 3a93 afc0
00000230: 8812 6640 41fd e4bf c750 40c0 7919 8fc0
00000240: 6815 76c0 e6ad eec0 1558 b3c0 3b72 76c0
00000250: 7bea 84c0 e171 47c0 1ab7 7fc0 c7b3 d240
00000260: 7185 8bc0 fec8 82c0 9003 dcc0 23da adc0
00000270: c1bc bec0 3dab cf3d a6d7 a1c0 196f 47c0
00000280: dca6 15c0 a3c6 7fbf a438 bcbf 82e7 3cc0
00000290: 770d 83c0 9efa ccc0 ef59 8cc0 db47 6fc0
000002a0: faa0 f3bf 18d7 abc0 e34b e4c0 08a6 8dc0
000002b0: 1d2e 9fc0 4e10 bec0 23e0 8ac0 3b33 97c0
000002c0: 45fb 84c0 549f f040 35b9 86c0 16e5 4fc0
000002d0: c12b 8bc0 8845 34c0 4e9d d0c0 1780 92c0
000002e0: 2d70 2dc0 a38d a4c0 91de 8ec0 f007 24c0
000002f0: e96b acc0 3854 5ac0 edcf 8fc0 fa8d 6dc0
00000300: f847 c1c0 b67e b7bf 08c5 d5bf 772d 60c0
00000310: 451b 0bc0 1b99 52c0 68c0 b440 8f26 8ec0
00000320: 142f 53c0 660e cbbf 995c fdc0 b09f 8ec0
00000330: a011 82c0 e6a2 94c0 9813 2cc0 edfc a4c0
00000340: 5005 b4c0 ac2c 62c0 bd2e 98c0 7060 43c0
00000350: 39ac 72c0 8d4b d040 256c 9cc0 06c3 6fc0
00000360: 73a6 99c0 c327 bac0 cc75 45be b21a a0c0
00000370: 3c3a aac0 d7b3 96c0 284d f8bf 3d6c 76c0
00000380: 3843 a3bf 8f12 01c0 514b 0141 2df8 77c0
00000390: 3f13 78c0 8e69 d1c0 62d8 98c0 0843 a1c0
000003a0: 614a dac0 db85 c2c0

network.1.running_mean f4 [234]
2.614744 2.920905 2.6943512 3.0199208 2.599831 2.7363462 2.9200742 2.7389104
2.453195 5.116866 2.6092997 2.5647533 2.8801084 2.4285135 2.3320756 2.5503953
1.2460736 2.4328327 2.3205621 2.5566344 2.2391589 2.1507518 2.3489723 4.904411
2.3283238 5.4446416 2.9717553 2.3301103 2.4603689 2.6470191 2.6742237 2.6339452
5.4362507 2.2867234 2.375338 2.8484483 2.4163094 2.6775308 2.3913486 3.5067778
2.3277931 2.7965176 2.6258404 2.0833094 5.340351 2.7308671 2.9282012 2.8049202
2.3312483 2.5807962 0.90732884 2.2504773 2.2326028 2.349337 2.3677533 2.5548506
5.0821505 2.4282305 2.5768802 2.611368 1.3679192 4.9916463 2.5319178 2.7452948
1.6334717 3.2148337 0.7482755 2.3540812 1.234884 0.23870255 5.234844 2.71267
2.700291 4.2724195 2.5513642 2.4275103 2.4145079 2.6906726 2.5565882 2.5594432
2.6048281 2.6574583 2.4789007 0.98949975 1.234945 2.4274843 2.7782867 2.1844401
2.628849 0.9454743 2.4397945 5.0531116 2.6835544 2.3334928 5.3202825 2.5333762
5.247475 2.759222 0.7243021 2.1623878 2.5148532 1.3749857 2.4469118 1.5326972
4.958611 3.0208998 2.2105727 5.2582307 2.6551225 2.9832337 2.3192022 1.057638
2.4682806 2.4970045 3.2733207 5.107679 2.7638063 2.6951196 2.6424248 2.714959
2.5016465 2.3848789 2.348291 2.3947003 1.3816161 2.6860638 2.392044 5.172085
3.8555639 0.28957435 0.24123576 2.5940404 1.5992278 2.385887 2.5815988 2.907691
3.875279 3.662976 2.5886238 0.995807 5.2114797 2.4915 2.8045077 2.5006773
2.4915879 2.4105961 1.9006801 2.5788193 2.4860592 2.5616612 2.540855 5.550063
2.5546362 2.3965232 2.3672383 2.1988776 2.5717695 5.0756335 2.5820918 2.6426103
2.7433417 2.4834816 3.2663975 2.9250836 2.8368104 2.2302654 2.7698548 2.4687455
2.6580791 1.4770179 1.9845743 2.377211 2.7091432 2.5317492 2.7884705 2.306343
2.59041 4.983852 2.8419223 3.0000405 2.7500014 2.5356529 2.4726124 2.638936
2.7514007 2.5139647 0.5009367 2.624593 2.427908 3.2993605 2.7748334 2.5560775
2.3303208 -0.24037214 4.3224287 2.400423 2.72 4.144245 4.785127 2.7486563
2.7273316 4.248715 2.427265 2.3442378 2.6333811 2.224827 2.7728343 1.0802438
2.4495552 2.530776 2.161279 2.3384619 3.9571986 2.6448545 3.033016 2.3983698
2.4405525 0.6651865 2.5796618 2.2172077 1.4814247 2.23491 3.5835721 2.4685776
3.7978845 2.9328868 5.0012045 2.570337 2.9307692 1.2802298 2.319288 1.509876
2.2021673 2.5826747
00000000: f757 2740 1cf0 3a40 4070 2c40 6246 4140
00000010: a263 2640 4c20 2f40 7fe2 3a40 4f4a 2f40
00000020: 2601 1d40 5ebd a340 c4fe 2640 eb24 2440
00000030: b253 3840 c46c 1b40 ba40 1540 ad39 2340
00000040: 577f 9f3f 88b3 1b40 1784 1440 e69f 2340
00000050: 614e 0f40 eba5 0940 9055 1640 eff0 9c40
00000060: 4203 1540 813a ae40 3d31 3e40 8720 1540
00000070: af76 1d40 c368 2940 7b26 2b40 8f92 2840
00000080: c4f5 ad40 ad59 1240 8a05 1840 fa4c 3640
00000090: d0a4 1a40 aa5c 2b40 db0b 1940 0c6f 6040
000000a0: 90fa 1440 25fa 3240 c50d 2840 f154 0540
000000b0: 28e4 aa40 87c6 2e40 a667 3b40 d083 3340
000000c0: 2c33 1540 c42b 2540 b446 683f d207 1040
000000d0: f7e2 0e40 8a5b 1640 4589 1740 ac82 2340
000000e0: faa0 a240 2168 1b40 9beb 2440 a720 2740
000000f0: fa17 af3f 91bb 9f40 f10a 2240 e9b2 2f40
00000100: 9a15 d13f d6bf 4d40 fc8e 3f3f 44a9 1640
00000110: ae10 9e3f 716e 743e d883 a740 639c 2d40
00000120: 91d1 2c40 a9b7 8840 8d49 2340 545c 1b40
00000130: 4c87 1a40 fb33 2c40 249f 2340 ebcd 2340
00000140: 81b5 2640 cc13 2a40 4fa6 1e40 db4f 7d3f
00000150: ae12 9e3f e75b 1b40 73cf 3140 decd 0b40
00000160: 103f 2840 9b0a 723f 9825 1c40 17b3 a140
00000170: 5bbf 2b40 f257 1540 c13f aa40 d622 2240
00000180: 51eb a740 1897 3040 dd6b 393f 9064 0a40
00000190: 5bf3 2040 88ff af3f 349a 1c40 6c2f c43f
000001a0: f1ac 9e40 6c56 4140 067a 0d40 6d43 a840
000001b0: 87ed 2940 4ded 3e40 cf6d 1440 af60 873f
000001c0: 4ff8 1d40 ecce 1f40 167e 5140 1b72 a340
000001d0: 34e2 3040 d77c 2c40 7d1d 2940 e3c1 2d40
000001e0: fa1a 2040 dba1 1840 664a 1640 c542 1940
000001f0: ccd8 b03f 78e8 2b40 4017 1940 b881 a540
00000200: 8fc1 7640 1743 943e 8206 773e c204 2640
00000210: 7fb3 cc3f 5fb2 1840 ea38 2540 9c17 3a40
00000220: 9204 7840 336e 6a40 03ac 2540 35ed 7e3f
00000230: 71c4 a640 bc74 1f40 0e7d 3340 190b 2040
00000240: 2d76 1f40 3547 1a40 7c49 f33f 600b 2540
00000250: 981b 1f40 42f2 2340 5e9d 2240 1e9a b140
00000260: 297f 2340 a360 1940 d580 1740 69ba 0c40
00000270: df97 2440 976b a240 fe40 2540 8720 2940
00000280: e992 2f40 5df1 1e40 a80c 5140 9234 3b40
00000290: 4d8e 3540 abbc 0e40 4d45 3140 edff 1d40
000002a0: f81d 2a40 ec0e bd3f 8806 fe3f 3a24 1840
000002b0: 9a62 2d40 2e08 2240 4d76 3240 209b 1340
000002c0: 47c9 2540 b77b 9f40 0ee2 3540 aa00 4040
000002d0: 0600 3040 2348 2240 483f 1e40 54e4 2840
000002e0: f316 3040 cce4 2040 633d 003f 55f9 2740
000002f0: d862 1b40 b928 5340 df96 3140 c696 2340
00000300: fa23 1540 1d24 76be 5651 8a40 88a0 1940
00000310: 7b14 2e40 a89d 8440 c31f 9940 fce9 2f40
00000320: 9a8c 2e40 79f5 8740 4f58 1b40 fe07 1640
00000330: 5189 2840 9163 0e40 1e76 3140 6e45 8a3f
00000340: 83c5 1c40 3cf8 2140 6552 0a40 5ca9 1540
00000350: be42 7d40 4c45 2940 ef1c 4240 e47e 1940
00000360: 0332 1c40 aa49 2a3f 2e19 2540 bbe6 0d40
00000370: 539f bd3f c408 0f40 3f59 6540 2dfd 1d40
00000380: 8a10 7340 6bb4 3b40 de09 a040 6780 2440
00000390: b991 3b40 92de a33f 376f 1440 9e43 c13f
000003a0: 4ff0 0c40 8b4a 2540

network.1.running_var f4 [234]
5.0838733 6.063881 4.7384133 5.718071 5.073888 5.365288 4.8321295 10.576028
4.2167587 5.0310383 4.889703 4.8106675 4.6810117 4.8211064 5.8472075 4.934922
7.2395597 5.0896583 5.4348555 4.317871 4.574365 4.472894 4.7500925 4.976397
4.7637334 4.896262 5.7164364 4.821854 4.7729077 5.4724436 5.7029886 5.082856
4.933368 3.9629216 4.9655304 4.7687707 5.481998 4.7278504 5.305845 5.694189
4.5842185 4.7853994 4.760892 4.3224883 5.0011964 6.8177013 6.2139664 4.8511143
4.602154 4.8325686 4.1481843 4.3711095 4.9211655 4.712262 5.027516 4.361087
4.819809 5.510649 4.8112245 4.7691617 4.4602766 5.1465535 4.3975945 4.7383413
6.407356 5.9730353 4.139984 5.244922 4.4236383 3.9800823 5.0234056 4.895461
6.1497536 6.208779 5.013345 5.589625 4.305487 5.909915 4.6998878 4.827847
4.5645337 5.678723 5.1872234 5.7743773 4.554167 5.801088 5.2018228 5.25719
5.2351437 27.740799 4.9683323 4.9767284 5.882933 5.1249895 4.9972343 5.3876505
4.820149 5.2694025 4.751223 4.57528 5.0422626 7.1039367 4.536956 4.1039963
4.9586205 5.4960337 4.5239773 4.657596 5.7443805 6.297003 4.96988 6.2066646
4.6015644 4.7853107 5.607346 5.0433455 4.8195467 4.615407 4.6848435 4.710256
5.597639 7.6432843 5.0392146 5.22569 3.9396312 4.096634 4.885406 4.8178763
5.054285 4.4306 4.610218 5.4486876 4.4058566 4.7322617 5.1073675 4.896622
6.665594 5.672142 5.2996693 6.70943 4.6667786 4.9833426 4.6580963 5.454675
4.858075 4.3261967 4.4329896 4.7042 7.0664473 5.1858954 5.8614087 4.8182163
4.5239506 5.0355363 4.4714046 4.8533382 6.420555 5.312736 4.9783072 5.3289795
5.1834598 9.712664 5.537523 5.009784 4.9951315 5.110861 4.904021 5.5343304
6.334668 24.46539 4.491165 5.703388 4.950021 4.782471 4.725601 4.8416266
5.534772 5.2217736 4.616334 5.0919666 5.1315775 4.8635287 4.682388 4.8718505
6.0519 4.8399243 6.6504855 5.4234138 4.4969635 5.166212 4.90616 5.1540794
4.3713183 4.9507303 4.7170205 6.3817167 5.552808 5.0742564 4.801493 4.5521436
5.4975634 6.548541 4.2481313 5.3750944 4.869976 4.9672604 5.028036 6.195164
4.765528 4.7045712 5.2235 5.306559 7.1671143 5.0833273 5.5395284 5.304682
4.6266904 6.4602976 5.04504 4.342575 4.651937 5.172611 7.6928835 5.0963364
16.15744 6.6386333 5.016854 5.358093 4.9104323 4.6188297 5.310683 7.5957465
4.7045794 5.5598607
00000000: 17af a240 500b c240 15a1 9740 70fa b640
00000010: 4a5d a240 70b0 ab40 cea0 9a40 6937 2941
00000020: b0ef 8640 44fe a040 7278 9c40 fdf0 9940
00000030: d9ca 9540 8146 9a40 531c bb40 e2ea 9d40
00000040: 79aa e740 7bde a240 56ea ad40 002c 8a40
00000050: 3361 9240 f321 8f40 c200 9840 a53e 9f40
00000060: 8170 9840 2eae 9c40 0ced b640 a14c 9a40
00000070: a9bb 9840 421e af40 e27e b640 c2a6 a240
00000080: 27de 9d40 82a0 7d40 a0e5 9e40 c599 9840
00000090: 876c af40 8d4a 9740 7bc9 a940 cc36 b640
000000a0: ebb1 9240 fe21 9940 3a59 9840 d351 8a40
000000b0: cd09 a040 9c2a da40 d0d8 c640 543c 9b40
000000c0: d844 9340 67a4 9a40 edbd 8440 21e0 8b40
000000d0: 307a 9d40 daca 9640 69e1 a040 068e 8b40
000000e0: e03b 9a40 3d57 b040 8df5 9940 f99c 9840
000000f0: 96ba 8e40 91b0 a440 18b9 8c40 7ea0 9740
00000100: 0f09 cd40 1b23 bf40 c07a 8440 67d6 a740
00000110: 728e 8d40 abb9 7e40 bdbf a040 9ea7 9c40
00000120: c8ca c440 51ae c640 526d a040 35de b240
00000130: 8dc6 8940 061e bd40 7b65 9640 b97d 9a40
00000140: a910 9240 19b8 b540 bcfd a540 b3c7 b840
00000150: bcbb 9140 83a2 b940 5575 a640 e73a a840
00000160: 4c86 a740 28ed dd41 94fc 9e40 5c41 9f40
00000170: fd40 bc40 eaff a340 58e9 9f40 a267 ac40
00000180: a93e 9a40 f29e a840 050a 9840 b268 9240
00000190: 375a a140 7353 e340 be2e 9140 f053 8340
000001a0: 05ad 9e40 82df af40 6cc4 9040 070b 9540
000001b0: f7d1 b740 0c81 c940 4209 9f40 ff9c c640
000001c0: 0440 9340 4421 9940 616f b340 1663 a140
000001d0: ba39 9a40 6ab1 9340 3dea 9540 6bba 9640
000001e0: dc1f b340 c995 f440 3f41 a140 da38 a740
000001f0: eb22 7c40 a017 8340 3f55 9c40 0b2c 9a40
00000200: b4bc a140 7ac7 8d40 e886 9340 a65b ae40
00000210: c7fc 8c40 b06e 9740 8e6f a340 21b1 9c40
00000220: 8c4c d540 3082 b540 e496 a940 a7b3 d640
00000230: 4056 9540 8b77 9f40 200f 9540 b38c ae40
00000240: 5a75 9b40 3470 8a40 0ddb 8d40 ce88 9640
00000250: 5620 e240 dbf2 a540 a990 bb40 d42e 9a40
00000260: 34c4 9040 1d23 a140 bf15 8f40 8c4e 9b40
00000270: 3075 cd40 ef01 aa40 4b4e 9f40 0087 aa40
00000280: e7de a540 1267 1b41 6333 b140 2750 a040
00000290: 1ed8 9f40 2c8c a340 bded 9c40 3c19 b140
000002a0: 9ab5 ca40 1eb9 c341 a0b7 8f40 2882 b640
000002b0: 9266 9e40 010a 9940 2038 9740 9bee 9a40
000002c0: da1c b140 c518 a740 02b9 9340 64f1 a240
000002d0: e235 a440 07a2 9b40 1fd6 9540 33e6 9b40
000002e0: 2aa9 c140 a9e0 9a40 c7d0 d440 9b8c ad40
000002f0: 20e7 8f40 9c51 a540 43ff 9c40 38ee a440
00000300: d7e1 8b40 626c 9e40 d5f1 9640 0637 cc40
00000310: 9ab0 b140 4f60 a240 d5a5 9940 29ab 9140
00000320: 0aec af40 a68d d140 b1f0 8740 c600 ac40
00000330: d8d6 9b40 ccf3 9e40 ace5 a040 c93e c640
00000340: 357f 9840 d98b 9640 e926 a740 55cf a940
00000350: 0059 e540 9eaa a240 d143 b140 f4bf a940
00000360: d90d 9440 c2ba ce40 f870 a140 60f6 8a40
00000370: abdc 9440 0886 a540 1a2c f640 3015 a340
00000380: 7042 8141 af6f d440 118a a040 7f75 ab40
00000390: 4322 9d40 74cd 9340 1df1 a940 5b10 f340
000003a0: ea8b 9640 61ea b140

network.4.weight f4 [243, 234]
-6.904005 -2.6322484 -4.164182 12.209143 3.6158783 -12.746609 -8.54119 -4.6303205
6.3459506 -8.292498 -10.869508 2.7007248 15.002923 7.566189 -5.40516 16.008808
1.6056796 0.49411651 -11.985402 -0.034719903 4.334068 6.6643167 -9.978443 -16.363846
-16.59714 -4.969472 4.6776814 -2.0507462 4.951453 -19.164288 -4.902917 12.6118965
-4.9026384 4.533368 -15.619368 0.033661615 -16.398674 -2.2873824 0.5337719 0.81901807
2.083637 -1.8735436 -0.9628424 14.483593 -0.6280028 -13.223623 -3.351056 -5.840828
8.192515 -12.712207 -7.0369716 -11.222253 4.4881806 1.7804801 10.27025 -7.294942
8.520902 -3.0677643 11.3106985 7.140469 -5.897691 4.3113008 -12.107693 10.433035
1.005863 3.985639 7.4151607 0.13431403 9.803204 -0.56246644 2.6822479 -9.214198
-3.190645 -4.746522 8.208694 -5.0149674 -12.344484 -1.129966 10.761277 -2.3011293
-4.674941 0.9391718 1.8077731 3.636964 -0.29477087 -3.4626298 -0.7944706 -13.722069
4.1834526 1.0255253 26.08502 4.6760283 4.8047132 5.034553 -0.9892479 -12.703619
4.3362246 -4.824165 -5.7563767 -3.9074361 5.5925746 3.7054603 5.31497 -13.754165
-7.2464275 -4.416373 5.590536 8.5033455 -3.9959776 8.210785 3.0383756 7.497898
-1.1025859 4.852408 3.1190693 13.505781 5.794529 3.3692784 4.2317924 -4.7018085
3.5644524 -0.70371336 4.6683984 3.518389 2.3535266 9.768793 -6.549493 3.12487
10.209888 3.9073687 -11.074314 1.9759436 2.484577 -4.7976713 6.9712768 8.3405695
-14.246337 -4.091607 -6.266915 4.5135975 1.8522662 13.259276 1.0845635 5.2810745
5.343857 0.29042664 -6.4493957 19.91342 -0.73855627 -7.917166 12.803457 -5.4607325
12.499259 -4.4649606 -11.635345 -4.7033243 9.884904 -15.175667 2.6243246 -16.137827
-4.2383943 -4.4524193 14.418407 -4.9218593 8.713884 10.018563 -0.10716964 -1.3524162
2.6430173 -6.144638 9.588843 -4.345371 -11.71922 15.098988 3.9226701 -15.344455
-0.1234841 -3.675372 11.781528 4.7043557 10.944641 -0.8451099 -5.083503 3.2761624
3.1120665 -7.793495 0.4292629 -2.869704 9.432308 3.3199446 6.7344384 -7.7784348
11.982532 -1.5517328 -1.2970365 13.116745 -0.089916736 -1.2243724 0.6421378 -6.3560157
-6.0504813 2.5896275 0.73567593 -8.92344 9.837655 5.183637 13.307305 -0.5438117
-3.276196 -2.5399876 -13.378579 9.683673 -5.0779214 10.022303 2.4849095 4.3564553
1.705951 -1.524292 -5.8729553 4.4230494 8.242206 12.5380535 0.1747897 3.9658065
-6.2326293 3.999882 -4.2734036 -3.5502331 1.1583999 13.250878 2.1319573 -2.7398205
-9.4089985 9.440168 -5.363117 0.39098772 -8.68225 -1.1314175 -4.74553 -6.4357667
-3.5015626 5.142271 -15.106441 -7.770447 -9.302552 -8.0941515 -5.234498 -1.1925826
-3.1631887 -4.452726 0.9496779 -11.909237 -8.434832 -17.62951 -13.253736 -13.631272
00000000: 9ced dcc0 c276 28c0 fb40 85c0 a658 4341
00000010: 8d6a 6740 1cf2 4bc1 b7a8 08c1 962b 94c0
00000020: 0712 cb40 12ae 04c1 81e9 2dc1 add8 2c40
00000030: f90b 7041 381e f240 12f7 acc0 0a12 8041
00000040: e986 cd3f d7fc fc3e 35c4 3fc1 7536 0ebd
00000050: afb0 8a40 1542 d540 b4a7 1fc1 28e9 82c1
00000060: f1c6 84c1 ea05 9fc0 91af 9540 6d3f 03c0
00000070: 4e72 9e40 7650 99c1 b2e4 9cc0 54ca 4941
00000080: 6ae2 9cc0 5a11 9140 eee8 79c1 c3e0 093d
00000090: 7c30 83c1 7964 12c0 46a5 083f 2bab 513f
000000a0: 4f5a 0540 47d0 efbf d77c 76bf ccbc 6741
000000b0: cbc4 20bf f693 53c1 b477 56c0 10e8 bac0
000000c0: 8b14 0341 3365 4bc1 df2e e1c0 598e 33c1
000000d0: 2d9f 8f40 c6e6 e33f f252 2441 2a70 e9c0
000000e0: 9d55 0841 4056 44c0 9ff8 3441 b97e e440
000000f0: e2b9 bcc0 2df6 8940 1cb9 41c1 b6ed 2641
00000100: 1ec0 803f b614 7f40 ff48 ed40 9e89 093e
00000110: ecd9 1c41 cdfd 0fbf f3a9 2b40 5b6d 13c1
00000120: 8733 4cc0 82e3 97c0 d056 0341 9d7a a0c0
00000130: 0283 45c1 baa2 90bf 312e 2c41 b445 13c0
00000140: 1e99 95c0 906d 703f 1c65 e73f 05c4 6840
00000150: 35ec 96be ba9b 5dc0 6d62 4bbf 988d 5bc1
00000160: d8de 8540 6a44 833f 1fae d041 06a2 9540
00000170: 36c0 9940 0f1b a140 5a3f 7dbf 0642 4bc1
00000180: 5ac2 8a40 8f5f 9ac0 3d34 b8c0 6f13 7ac0
00000190: 5ff6 b240 4326 6d40 3c14 aa40 0f11 5cc1
000001a0: bce2 e7c0 ed52 8dc0 ace5 b240 b40d 0841
000001b0: 19be 7fc0 605f 0341 bf74 4240 c8ee ef40
000001c0: 8921 8dbf ed46 9b40 d59e 4740 ae17 5841
000001d0: c86c b940 42a2 5740 d86a 8740 3775 96c0
000001e0: fd1f 6440 8f26 34bf 8563 9540 492d 6140
000001f0: 2ea0 1640 fa4c 1c41 7295 d1c0 dffd 4740
00000200: b45b 2341 5412 7a40 6430 31c1 b8eb fc3f
00000210: 4f03 1f40 8686 99c0 b314 df40 f972 0541
00000220: fff0 63c1 72ee 82c0 918a c8c0 646f 9040
00000230: 0f17 ed3f ff25 5441 fad2 8a3f 90fe a840
00000240: e000 ab40 cdb2 943e 7361 cec0 af4e 9f41
00000250: 0612 3dbf 6d59 fdc0 f6da 4c41 52be aec0
00000260: f7fc 4741 f5e0 8ec0 602a 3ac1 a281 96c0
00000270: 9128 1e41 88cf 72c1 eff4 2740 451a 81c1
00000280: eda0 87c0 387a 8ec0 ccb1 6641 df7f 9dc0
00000290: 126c 0b41 094c 2041 c27b dbbd f91b adbf
000002a0: 3227 2940 e0a0 c4c0 e76b 1941 470d 8bc0
000002b0: ed81 3bc1 7495 7141 070d 7b40 e382 75c1
000002c0: 3be5 fcbd 4b39 6bc0 2481 3c41 158a 9640
000002d0: 401d 2f41 1f59 58bf 0eac a2c0 a5ac 5140
000002e0: 192c 4740 5064 f9c0 59c8 db3e 3ba9 37c0
000002f0: bcea 1641 f979 5440 8580 d740 f0e8 f8c0
00000300: 73b8 3f41 2e9f c6bf 4b05 a6bf 30de 5141
00000310: 4426 b8bd 3cb8 9cbf 2563 243f 7b64 cbc0
00000320: 8b9d c1c0 75bc 2540 4255 3c3f 69c6 0ec1
00000330: 0967 1d41 5be0 a540 b9ea 5441 3e37 0bbf
00000340: 32ad 51c0 288f 22c0 a90e 56c1 53f0 1a41
00000350: 557e a2c0 5a5b 2041 c208 1f40 1568 8b40
00000360: 9a5c da3f 001c c3bf 40ef bbc0 9f89 8d40
00000370: 13e0 0341 de9b 4841 12fc 323e c6cf 7d40
00000380: b371 c7c0 11fe 7f40 b9bf 88c0 0537 63c0
00000390: 7346 943f 9903 5441 fd71 0840 3859 2fc0
000003a0: 428b 16c1 ee0a 1741 a89e abc0 8b2f c83e
000003b0: 7fea 0ac1 4ad2 90bf 62db 97c0 cdf1 cdc0
000003c0: 9a19 60c0 7c8d a440 fbb3 71c1 80a7 f8c0
000003d0: 41d7 14c1 a581 01c1 0281 a7c0 8ca6 98bf
000003e0: af71 4ac0 bb7c 8ec0 171e 733f 3c8c 3ec1
000003f0: 12f5 06c1 3d09 8dc1 4d0f 54c1 b119 5ac1

network.4.bias f4 [243]
0.030720154 -0.045904852 -0.019287517 -0.0206957 0.009044379 -0.021642106 -0.037743084 -0.00800897
0.061200675 0.02010943 0.018803205 -0.038900584 0.026635336 -0.03747581 0.0038508268 -0.009167768
-0.040796563 -0.03243435 0.045169737 -0.032303866 -0.049934063 -0.0044279005 -0.048083324 -0.03969159
-0.060530208 -0.05938258 -0.0037109556 -0.03286512 0.04357277 0.05607749 -0.030419612 -0.059080727
-0.029048458 -0.07820022 -0.029776545 0.05164635 -0.05131162 -0.11312111 0.023024179 -0.016590731
-0.06322136 0.014257244 -0.05455526 0.07023278 -0.02639385 0.042741384 -0.054120313 0.05434821
0.05589508 0.019807687 -0.006172609 -0.0017214493 -0.042093765 0.021584224 -0.048097216 -0.03466516
0.010982301 0.035707537 -0.0017757323 0.017633518 -0.040282857 0.0048801987 -0.019752434 -0.005307471
0.05376449 0.022094363 -0.032994848 0.043809094 -0.04247901 0.026962282 -0.01469383 0.00039566014
0.027148437 0.08361136 -0.015458331 -0.009235143 -0.037130337 -0.0008509295 -0.04507108 0.034253076
0.0062755803 -0.050788 0.042564813 -0.03407397 0.003912392 0.044310026 0.0028760547 -0.05909526
-0.041243747 -0.0761521 -0.07098688 -0.006991403 0.047518194 -0.06134208 0.004785896 0.0037487817
-0.056371376 0.011041023 0.0057119764 -0.0001259844 0.04524981 -0.052244127 0.023066666 -0.054653354
-0.017608672 0.037698153 0.05067093 -0.053959977 -0.013789823 0.065227434 -0.016849173 0.013570263
0.014613233 -0.028228499 0.046219144 -0.058422122 -0.06537296 0.06671806 -0.028782148 0.10037101
0.022881918 -0.01623162 -0.04665526 -0.01121905 -0.019522728 -0.064929605 -0.056110688 -0.080855824
0.014915271 0.002266762 -0.060337175 0.027423829 0.043751683 0.018717572 0.02751019 -0.03507414
0.026815737 0.050914753 -0.025290895 -0.021877758 -0.0070662326 -0.044581283 -0.020585043 0.05755329
-0.020958383 -0.02795567 0.009360244 0.025625696 0.022011967 0.026570275 0.025974305 0.024341129
-0.009658537 0.007345989 -0.063610435 0.04544903 -0.06085433 -0.050953366 0.037324347 -0.035219364
-0.0328944 -0.048380833 0.050815444 0.048622716 -0.06553859 0.03138153 0.032607652 -0.05579631
0.0139432 0.012688249 -0.026788821 -0.00027759196 -0.014382367 -0.025113124 -0.033286367 0.0383383
0.013549931 0.06753164 0.0138564585 -0.026319904 -0.060244627 0.048424114 -0.051171217 -0.026807738
-0.06369618 -0.0392796 0.008594287 0.026675412 0.049450014 -0.043563392 0.03247215 -0.06489594
0.020727275 0.026032275 -0.03594157 0.005955913 -0.04722287 -0.040275916 0.034972146 0.03557485
0.06144114 -0.031829946 0.060910083 0.037125748 0.012945737 0.06498682 -0.0710715 -0.06390291
-0.030932888 -0.025705855 -0.03888772 -0.06443027 -0.013045802 0.04119637 0.057155114 -0.048742805
-0.011516642 -0.063668676 0.019356765 0.038228635 -0.017267825 0.056764267 -0.045399804 0.055215348
-0.013539631 0.059603855 -0.02146035 0.036735296 -0.03438099 0.01537126 -0.018279675 0.01840053
-0.0025878265 0.04342541 -0.049942322 -0.011474479 -0.0046715764 -0.03594964 0.0060882736 -0.046045568
-0.060758654 -0.001765046 -0.028316423
00000000: d5a8 fb3c ba06 3cbd db00 9ebc 078a a9bc
00000010: e02e 143c c94a b1bc 7e98 1abd 0e38 03bc
00000020: 8fad 7a3d 88bc a43c 2e09 9a3c 3856 1fbd
00000030: 5932 da3c 3c80 19bd 275e 7c3b 6834 16bc
00000040: 4c1a 27bd e2d9 04bd e703 393d 0f51 04bd
00000050: a987 4cbd ec17 91bb 05f3 44bd a693 22bd
00000060: 86ee 77bd 263b 73bd 8133 73bb 939d 06bd
00000070: 5c79 323d 83b1 653d 8d32 f9bc a2fe 71bd
00000080: 08f7 edbc 7027 a0bd f1ed f3bc 208b 533d
00000090: 222c 52bd 0aac e7bd 349d bc3c 49e9 87bc
000000a0: 337a 81bd 3797 693c 5675 5fbd 34d6 8f3d
000000b0: ea37 d8bc 9711 2f3d 43ad 5dbd 3b9c 5e3d
000000c0: 3df2 643d bb43 a23c 9943 cabb 41a2 e1ba
000000d0: 836a 2cbd 66d1 b03c 9601 45bd 0efd 0dbd
000000e0: 1cef 333c 1142 123d b0bf e8ba 2b74 903c
000000f0: a3ff 24bd 13ea 9f3b dbcf a1bc 4bea adbb
00000100: 2738 5c3d 3dff b43c 9b25 07bd 2a71 333d
00000110: 78fe 2dbd 01e0 dc3c 64be 70bc 9b70 cf39
00000120: 6666 de3c 6f3c ab3d f144 7dbc ff4e 17bc
00000130: fb15 18bd e910 5fba 749c 38bd f44c 0c3d
00000140: 62a3 cd3b 1407 50bd 7158 2e3d 2691 0bbd
00000150: 8633 803b 6e7e 353d 317c 3c3b df0d 72bd
00000160: 34ef 28bd a2f5 9bbd 9261 91bd 2418 e5bb
00000170: 70a2 423d d541 7bbd 01d3 9c3b 1fae 753b
00000180: ace5 66bd 68e5 343c 882b bb3b ae1a 04b9
00000190: dd57 393d f0fd 55bd 4ef6 bc3c 32dc 5fbd
000001a0: 1040 90bc 6169 1a3d 528c 4f3d 2305 5dbd
000001b0: b6ee 61bc f695 853d 4707 8abc cf55 5e3c
000001c0: 576c 6f3c 743f e7bc 4950 3d3d 094c 6fbd
000001d0: 42e2 85bd 7aa3 883d 8ac8 ebbc 518f cd3d
000001e0: dc72 bb3c 2df8 84bc 9619 3fbd 1bd0 37bc
000001f0: 21ee 9fbc d0f9 84bd 52d4 65bd bd97 a5bd
00000200: 2e5f 743c f58d 143b 1d24 77bd f0a7 e03c
00000210: f734 333d 9855 993c 0d5d e13c e7a9 0fbd
00000220: adac db3c fd8b 503d da2e cfbc fc38 b3bc
00000230: db8b e7bb dd9a 36bd f7a1 a8bc 00bd 6b3d
00000240: eab0 abbc 4a03 e5bc b55b 193c fbec d13c
00000250: 7152 b43c e8a9 d93c 11c8 d43c 0c67 c73c
00000260: d73e 1ebc 9fb6 f03b 3046 82bd c328 3a3d
00000270: 6442 79bd 7ab4 50bd 6ae1 183d 2e42 10bd
00000280: 47bc 06bd fb2a 46bd db23 503d 9d28 473d
00000290: 1939 86bd eb89 003d 9a8f 053d ac8a 64bd
000002a0: 0572 643c 60e2 4f3c 3b74 dbbc c389 91b9
000002b0: 05a4 6bbc 0aba cdbc 4957 08bd 9f08 1d3d
000002c0: 8800 5e3c 074e 8a3d 3306 633c d79c d7bc
000002d0: 12c3 76bd 5d58 463d e998 51bd e79b dbbc
000002e0: 2573 82bd a5e3 20bd 0dcf 0c3c 6586 da3c
000002f0: 198c 4a3d 876f 32bd 8401 053d 2ae8 84bd
00000300: 3fcc a93c a341 d53c 7837 13bd d229 c33b
00000310: c56c 41bd 5cf8 24bd f43e 0f3d efb6 113d
00000320: b4a9 7b3d 1e60 02bd da7c 793d 2b11 183d
00000330: 5b1a 543c cf17 853d ef8d 91bd 87df 82bd
00000340: f866 fdbc 1695 d2bc bb48 1fbd 04f4 83bd
00000350: 0fbe 55bc 86bd 283d 7b1b 6a3d 89a6 47bd
00000360: 4cb0 3cbc b964 82bd 1492 9e3c a195 1c3d
00000370: 4175 8dbc a681 683d 25f5 39bd 7d29 623d
00000380: 54d5 5dbc 2c23 743d 9ecd afbc c077 163d
00000390: 15d3 0cbd bdd7 7b3c 42bf 95bc b5bc 963c
000003a0: 8698 29bb d8de 313d 5290 4cbd 74ff 3bbc
000003b0: 0614 99bb ee3f 13bd 2480 c73b 479a 3cbd
000003c0: 11de 78bd 1e59 e7ba d8f7 e7bc

network.5.weight f4 [243]
5.863026 13.270496 9.566845 6.302404 6.5737324 5.840288 7.374388 7.8025546
5.7208543 7.049967 6.1958585 5.993602 8.153273 6.5839 5.9942045 7.135332
8.083709 5.8406954 10.225643 7.45572 9.751693 5.8378253 9.467707 9.169251
6.56182 10.187955 8.783616 5.8430495 7.1617184 9.330555 9.172648 7.7850037
5.92076 7.814771 7.0756273 6.8966894 9.691724 9.334031 6.608688 9.353215
6.8752756 7.964393 6.3600106 5.3470645 7.2159357 8.871103 5.4543715 8.043465
0.09573641 5.808239 6.4759555 6.0182724 7.427401 7.838997 7.832132 5.088912
8.315717 9.206724 8.560718 6.172136 5.6510897 6.3195553 7.22612 5.9432063
6.139575 6.3192625 9.153102 7.354264 7.092979 7.3394933 7.6747303 7.136424
6.1024747 6.5969157 5.728928 5.7598844 9.654642 7.044462 7.0691543 9.826374
7.3315344 7.215656 6.868285 7.5954213 7.4876337 7.859073 5.9158297 7.9703345
5.698049 7.738324 5.650769 8.613521 7.784551 8.706329 6.4386644 5.7845087
7.710235 6.640728 8.243624 7.7658987 9.251149 8.594535 7.1594396 10.03856
7.498821 7.0161266 7.50241 9.60915 5.8429003 5.990499 6.764139 5.683532
8.084391 7.240047 7.4800944 6.1164045 7.9231653 5.574621 6.7882123 9.24034
5.611367 8.823565 9.3610935 6.759574 7.1623135 5.7141128 5.38935 7.4244957
9.592231 7.5511184 5.7523108 5.6495504 6.9546347 8.236751 6.996422 6.7831554
5.683472 7.7596517 5.857306 8.826232 5.9899645 7.341848 8.104272 9.540156
5.742232 7.587552 5.447852 7.438689 8.168605 7.1593966 5.883139 6.1348987
7.5027266 6.1393185 7.5866017 10.464199 6.988374 6.209877 7.9370475 8.470409
6.6285167 8.317718 9.31393 9.6286745 7.4058714 5.603764 9.039045 8.347966
9.413863 9.299157 6.4548883 6.438616 7.4764204 6.244056 7.9289894 4.8707476
8.4684515 9.101948 6.963231 5.4064937 7.5335717 8.136787 6.7667 7.1935816
5.846576 7.6040483 9.272833 0.06796874 10.221329 6.213451 9.637361 6.564615
7.215748 7.981827 8.567601 6.4996047 5.6769876 0.12800488 7.8475523 5.799821
7.505866 9.818604 8.284488 7.927547 7.014214 5.511845 9.120339 7.3247147
8.751631 9.897407 6.3126245 6.4432325 6.7854686 10.0823965 8.6889515 7.9548087
5.915785 8.838255 8.668527 8.681441 7.774535 7.2225695 9.549164 5.3883142
7.306934 8.217518 6.2358937 7.443416 5.744304 7.775131 7.6797576 7.642292
5.9360204 7.1822405 7.664571 7.608096 7.9634004 5.7339315 7.655135 5.5413632
9.058214 7.1725307 7.2454123
00000000: e99d bb40 f453 5441 cc11 1941 4bad c940
00000010: 045c d240 a4e3 ba40 fdfa eb40 87ae f940
00000020: 3d11 b740 5499 e140 7944 c640 96cb bf40
00000030: ce73 0241 4faf d240 86d0 bf40 a454 e440
00000040: df56 0141 fae6 ba40 3c9c 2341 4295 ee40
00000050: ef06 1c41 77cf ba40 ba7b 1741 41b5 1241
00000060: 6efa d140 dd01 2341 b189 0c41 43fa ba40
00000070: cc2c e540 f449 1541 2bc3 1241 c01e f940
00000080: de76 bd40 9b12 fa40 8a6b e240 aeb1 dc40
00000090: 4d11 1b41 3158 1541 5f7a d340 c5a6 1541
000000a0: 4202 dc40 4fdc fe40 3585 cb40 271b ab40
000000b0: f2e8 e640 0af0 0d41 368a ae40 08b2 0041
000000c0: 7311 c43d 18dd b940 073b cf40 b095 c040
000000d0: 45ad ed40 10d9 fa40 d3a0 fa40 5ed8 a240
000000e0: 2d0d 0541 be4e 1341 b3f8 0841 2382 c540
000000f0: bad5 b440 cc39 ca40 603c e740 bf2e be40
00000100: 6677 c440 6637 ca40 1b73 1241 2156 eb40
00000110: aff9 e240 21dd ea40 6497 f540 965d e440
00000120: 7947 c340 ef19 d340 6153 b740 f950 b840
00000130: 6a79 1a41 3c6c e140 8336 e240 d438 1d41
00000140: ee9b ea40 a7e6 e640 fec8 db40 b10d f340
00000150: b29a ef40 877d fb40 7a4e bd40 fb0c ff40
00000160: 6b56 b640 5aa0 f740 1ad3 b440 fbd0 0941
00000170: 0b1b f940 204d 0b41 8a09 ce40 b21a b940
00000180: 3fba f640 d880 d440 e2e5 0341 3e82 f840
00000190: b504 1441 3783 0941 211a e540 f19d 2041
000001a0: 57f6 ef40 1c84 e040 be13 f040 14bf 1941
000001b0: 0af9 ba40 2bb2 bf40 d473 d840 7fdf b540
000001c0: aa59 0141 77ae e740 ef5c ef40 96b9 c340
000001d0: 928a fd40 4c63 b240 0939 d940 6fd8 1341
000001e0: 5290 b340 522d 0d41 0ac7 1541 6e4e d840
000001f0: ac31 e540 03da b640 8e75 ac40 7895 ed40
00000200: c779 1941 c3a2 f140 ee12 b840 1ec9 b440
00000210: 5e8c de40 bbc9 0341 b0e2 df40 9c0f d940
00000220: 01df b540 114f f840 0d6f bb40 3f38 0d41
00000230: caad bf40 6bf0 ea40 19ab 0141 7ba4 1841
00000240: 5dc0 b740 3acd f240 ce54 ae40 be09 ee40
00000250: 9bb2 0241 c719 e540 ad42 bc40 1751 c440
00000260: 5616 f040 4c75 c440 71c5 f240 5c6d 2741
00000270: c3a0 df40 50b7 c640 4bfc fd40 cc86 0741
00000280: cf1c d440 5f15 0541 db05 1541 0d0f 1a41
00000290: e6fc ec40 0952 b340 ee9f 1041 4591 0541
000002a0: 2f9f 1641 59c9 1441 728e ce40 2409 ce40
000002b0: d63e ef40 4fcf c740 48ba fd40 2add 9b40
000002c0: c77e 0741 94a1 1141 cad2 de40 ff01 ad40
000002d0: 0513 f140 4830 0241 ce88 d840 d231 e640
000002e0: 2717 bb40 5d54 f340 865d 1441 3233 8b3d
000002f0: 908a 2341 97d4 c640 a132 1a41 5311 d240
00000300: 68e7 e640 206b ff40 e514 0941 c3fc cf40
00000310: e2a9 b540 b613 033e 261f fb40 2298 b940
00000320: 0e30 f040 0119 1d41 438d 0441 77ae fd40
00000330: 7174 e040 0961 b040 e9ec 1141 1064 ea40
00000340: ae06 0c41 c75b 1e41 0501 ca40 f62e ce40
00000350: 8f22 d940 7f51 2141 f205 0b41 cb8d fe40
00000360: 1c4e bd40 7e69 0d41 49b2 0a41 2fe7 0a41
00000370: fec8 f840 4a1f e740 60c9 1841 126d ac40
00000380: 67d2 e940 f47a 0341 718c c740 7730 ee40
00000390: 57d1 b740 e0cd f840 93c0 f540 a88d f440
000003a0: e1f3 bd40 ead4 e540 2a44 f540 8675 f340
000003b0: 2dd4 fe40 5e7c b740 def6 f440 d952 b140
000003c0: 72ee 1041 5f85 e540 6bda e740
